outputs/router_rule/A2C_router/summer20251120-003927/models/policyA_critic.pth (torch, 274062 bytes, 5 tensors)

fc1.weight f4 [256, 6]
000000 04 e2 b9 be 98 16 ae be af 12 74 3e 78 a8 5f be
       -0.3630525 -0.34001613 0.23835252 -0.2184161
000010 40 cf c7 3e 6b 00 a8 be aa d2 b4 bd 37 b3 6b bd
       0.39025307 -0.3281282 -0.088292435 -0.05754396
000020 6b 1d ad 3e 40 e0 41 3e 34 22 89 3d 74 ae 36 be
       0.33811507 0.18933201 0.06695977 -0.17839986
000030 9e 07 51 3e 7d 3e 9f be c6 58 b7 3d 04 ea 82 3e
       0.20413062 -0.31102362 0.08952479 0.25569165
000040 22 ee e9 3d 57 ce 62 3e 06 29 c1 bd d4 dc a9 3e
       0.11422373 0.22149025 -0.09431653 0.3317629
000050 31 c3 82 3c b6 d7 46 3e d5 9b f9 3c 98 a9 5c 3d
       0.015962215 0.19418225 0.030469814 0.053872675
000060 81 04 9f be 7a 76 86 3e f4 9c c9 be 09 82 33 be
       -0.31058124 0.26262265 -0.39377558 -0.17530073
000070 c5 81 81 3d 49 a7 0c 3e 27 16 67 be 94 0a 1f be
       0.0632358 0.13735689 -0.22567044 -0.15531379
000080 79 2a 2c be af db cd be fe fc b7 be 1a 50 f4 3d
       -0.16813077 -0.40206668 -0.35935205 0.11929341
000090 db 36 af 3c c7 2b d4 bd 68 70 3d 3e b0 c8 0c 3e
       0.021388462 -0.10359912 0.18499911 0.13748431
0000a0 97 15 b5 be e2 cd 49 bd 98 92 0f 3d 7b 55 b5 bd
       -0.35368034 -0.04926861 0.035051912 -0.08854195
0000b0 3d 4f a4 3e 66 02 87 be ff 44 3f 3e db 41 5f 3e
       0.32091704 -0.26369017 0.18678664 0.21802466
0000c0 8c 8a a1 be 18 c9 ab be 52 6d 60 3e 00 09 4b be
       -0.31551015 -0.3355186 0.21916702 -0.19827652
0000d0 f8 e1 98 3e 48 ab d4 3c 40 f7 22 bd 61 18 ae 3e
       0.298599 0.02596058 -0.039786577 0.34002975
0000e0 3e a1 c5 bd a6 e8 01 3d 4d 10 8f be 88 fe c1 bc
       -0.09649895 0.03171601 -0.27942124 -0.02368094
0000f0 20 d2 bc 3e 8e 66 bd 3e 57 c0 35 be 50 11 32 be
       0.36879063 0.36992306 -0.17749153 -0.17389417
000100 3f 9d b9 3e 9c 27 b6 3e aa cf 8b bd ca a3 3e bd
       0.36252782 0.35577095 -0.06826718 -0.04654292
000110 84 d2 90 be 7d fe b6 be e1 a4 d3 3c 12 7e a2 be
       -0.2828561 -0.35741034 0.025835456 -0.3173681
000120 32 a9 31 3e a2 6e a3 3e bf a0 2a be 9a c6 82 be
       0.17349699 0.31920344 -0.16662882 -0.25542146
000130 8f 33 c3 be 22 0d 0c bd 63 5b 31 be 85 3f d1 3e
       -0.38125274 -0.034192212 -0.17320018 0.40868774
000140 6d 3d 4f 3e b9 81 a3 3e 35 41 b5 3e e0 ae dd 3c
       0.20238276 0.31934908 0.35401312 0.027060926
000150 a9 4d 75 be c7 b9 9c bd ab 01 aa be 65 09 67 be
       -0.23955406 -0.07652622 -0.33204398 -0.22562177
000160 8a 26 bc be aa 90 11 3e c9 3f a1 be c6 83 85 3b
       -0.36748153 0.14215341 -0.31493977 0.0040745465
000170 91 72 9a 3e e5 0b 63 bd 1b 97 9f 3e 91 97 87 3d
       0.30165532 -0.055431265 0.31169972 0.06620706
000180 37 2d e4 bd dc 8e ec 3d 76 01 bc 3e d8 ba 4b 3e
       -0.111414365 0.11550686 0.36719865 0.19895494
000190 20 32 b3 be f5 3b c7 bd 29 0e d2 bd 09 9e 42 be
       -0.3499918 -0.09728233 -0.10256607 -0.19005598
0001a0 1a 83 da bc b3 8b bf be 91 de 9d 3e d9 65 88 be
       -0.026673842 -0.3741127 0.30833867 -0.26640204
0001b0 54 b9 4a 3e 00 2a e4 3d 1f 8e f6 3d 7d 0c a2 be
       0.1979726 0.11140823 0.12038826 -0.31650153
0001c0 a3 92 93 be 40 e7 a6 be f6 63 6c 3e 62 29 8b 3e
       -0.28822812 -0.32598305 0.23085007 0.2718001
0001d0 5e e0 ae 3d 6d df 1a 3e d1 46 38 3e fa ab 15 3e
       0.085388884 0.15124293 0.17995764 0.14616385
0001e0 25 08 6c be 8e 6d d5 3d 6b 43 b7 bd 10 28 3f 3e
       -0.23049982 0.104212865 -0.08948406 0.18667626
0001f0 fe 1c 9c 3e f8 05 f0 3d 78 df c8 bd a2 59 9c 3e
       0.3049087 0.117198884 -0.09808248 0.30537134
000200 75 24 a4 3e c9 bb 43 bd 7a 7d a1 3e fe dc 7e be
       0.32059065 -0.047786508 0.31541044 -0.2488899
000210 38 ef 57 3e 65 64 03 bc 2c 43 cd bc 3c 9b ee bd
       0.21087348 -0.008019541 -0.025056444 -0.11650702
000220 ae 3f c7 3e 66 6f a5 bd f4 31 96 be 6a 33 32 be
       0.3891577 -0.08077888 -0.29334986 -0.17402425
000230 e9 74 1b be 86 c6 84 3e ab 9c af 3e bf ce ee 3d
       -0.15181316 0.2593271 0.34299216 0.116605274
000240 27 a7 64 bd 74 8b fb ba 8b 9d e1 bc 0c 26 cf be
       -0.05582347 -0.001919134 -0.027540943 -0.40458715
000250 09 16 03 be 2a a3 a2 3e 7e 5f 44 3c 9c 43 a4 be
       -0.12801374 0.3176511 0.011985658 -0.32082832
000260 4d 6e c0 be e4 5d 18 3c ce 6c 32 be b9 d2 5d be
       -0.37584153 0.009299729 -0.17424318 -0.21662416
000270 c9 3b e3 bd 7b c3 a0 3e ab 76 84 3e 81 bd 17 be
       -0.110953875 0.3139914 0.25871786 -0.14818384
000280 79 88 ae 3e 6f b4 a9 3e ae eb e6 3d 0f 5d 1a 3e
       0.34088495 0.33145472 0.11275421 0.15074562
000290 da ae 24 be 2f 0c 9f 3e 4c 25 b3 be b4 f8 aa be
       -0.16082326 0.31063983 -0.34989393 -0.3339287
0002a0 69 3c af be 1a 0d 72 be 9a 4b 9c ba bc 92 06 be
       -0.34225777 -0.2363781 -0.0011924386 -0.13141912
0002b0 c8 4b 86 be bc da 88 3e 8a 35 cf 3d f2 78 3c 3e
       -0.26229692 0.2672938 0.10117634 0.18405512
0002c0 eb f1 82 bc 0d a3 57 3d ac ef 48 3e 93 09 f6 bd
       -0.015984496 0.05264573 0.19622678 -0.12013545
0002d0 72 d4 fe bc 39 16 10 be 53 8e 7c be a8 b6 51 3c
       -0.031107161 -0.14070977 -0.24663667 0.012799896
0002e0 fb 50 56 3e 7d d7 23 be 64 58 3e 3e 0b 1c 5f 3e
       0.20929329 -0.16000171 0.18588406 0.21788041
0002f0 bc fc 0c be ed 1e a9 be 1c 7e 8c 3e 21 18 95 3e
       -0.13768286 -0.33031407 0.27439964 0.2911997
000300 99 33 50 be 96 c6 0a bd c0 34 86 3c 91 55 82 be
       -0.20332183 -0.033880793 0.016382575 -0.25455907
000310 67 e7 f5 bd 63 c1 3a be ec 76 cb 3e ca 33 a9 3e
       -0.12007027 -0.18237834 0.39739168 0.33047324
000320 2c 0f 65 bd 8b ee 19 3e e8 28 a8 bd 1e 17 6f 3e
       -0.055922672 0.15032403 -0.08210927 0.23348662
000330 c5 5a 53 3e 2c 45 52 bc bc 9a 94 3e 4f 3d 78 be
       0.20640095 -0.012833875 0.29024303 -0.24242137
000340 02 fb a0 3d db 5c 92 be e2 ec a1 be 0d db ea 3d
       0.07860376 -0.28586468 -0.3162604 0.11467562
000350 ed d8 51 3e 19 3e 8e 3e 09 1d 64 be 03 48 94 3c
       0.20492907 0.27781752 -0.22276701 0.018100744
000360 32 dc 2a be 65 c0 61 3e a6 3c 95 3e 7c 5e 1f 3e
       -0.1668556 0.22046049 0.29147834 0.15563387
000370 ab e8 43 be 5f af b5 3e bf 78 02 3e 48 52 de 3d
       -0.19131725 0.3548536 0.12741373 0.10855538
000380 cf 28 d7 3c 7c fa 72 3c 5f b9 b8 3e 99 cc 66 3e
       0.026264576 0.014830228 0.36078927 0.22538985
000390 ac f7 79 3e c9 db 8c bd a9 14 cd 3e 71 45 ae 3e
       0.24410886 -0.06877858 0.40054825 0.34037355
0003a0 fd d9 d3 bd dc 0b 11 be f8 6d a5 be e1 88 a8 3e
       -0.10344312 -0.1416468 -0.32310462 0.3291693
0003b0 aa d3 b6 bd 8d 1f 2d bb 4a b0 30 be 58 65 97 3e
       -0.089270905 -0.002641651 -0.17254749 0.29569507
0003c0 75 c1 65 bd ba de 8c be ec 47 e0 bd 9f ad 8c 3d
       -0.056092698 -0.27513677 -0.10951218 0.06869053
0003d0 fd ad 43 be b9 23 1f 3e e6 f9 b6 be a4 46 f3 3d
       -0.1910934 0.15540971 -0.35737532 0.11878708
0003e0 cb 88 71 be 66 b3 a5 3d 1d 6d 85 bd 9f 83 89 3e
       -0.23587339 0.08090858 -0.06514952 0.2685823
0003f0 ae dc bf be ae 4d e1 bd 82 31 41 be 1f 7d b6 be
       -0.37473053 -0.11001144 -0.18866542 -0.35642335

fc1.bias f4 [256]
000000 fe 84 3d 3d 74 c8 b1 be 37 96 43 3e c5 b8 a8 be
       0.04626941 -0.34723246 0.19100271 -0.32953468
000010 58 5d 58 bd 9f 8a 74 3e 59 85 51 3e 99 b8 dd bc
       -0.052823395 0.23881005 0.20461024 -0.027065562
000020 41 8e f5 3d 16 7e 8a be 36 16 97 be bb 02 89 bd
       0.119900234 -0.2704932 -0.29509133 -0.06689974
000030 7b b8 e3 bd 70 23 8c be ec df c3 be ff a6 85 be
       -0.11119171 -0.27370787 -0.38256776 -0.2610397
000040 ad e3 cb 3d 05 1a d4 bd 8f eb c2 be 9c f2 0e 3c
       0.09955535 -0.10356525 -0.38070342 0.008724835
000050 ef 47 10 be a7 47 b2 be f4 6e 92 3e bc 11 a5 be
       -0.1408994 -0.3482029 0.28600276 -0.32240093
000060 8a 2a 8e 3e 6d 62 43 bd 88 25 a3 be 84 aa 13 be
       0.2776683 -0.047701288 -0.31864572 -0.14420515
000070 8f 95 a5 3e a3 de 58 bd 27 87 8e 3e 9a cd 38 3e
       0.32340667 -0.052946698 0.27837488 0.18047181
000080 3f d6 83 3e 28 a2 62 3d f0 e3 aa 3d ea b1 61 3e
       0.25749394 0.055330426 0.08344257 0.22040525
000090 4b c1 7f be c6 82 c7 be 4f f6 ea 3d 1f cb 5a bc
       -0.24976079 -0.3896696 0.11472761 -0.013354092
0000a0 2f 1b 55 3e 00 84 a2 3e 3a 9b 3f 3e a9 0d 96 be
       0.20811151 0.31741333 0.18711558 -0.29307297
0000b0 d7 9f b7 be 75 ad 9b be 30 45 1c 3e e7 6d 61 be
       -0.35864136 -0.30405775 0.15260768 -0.2201458
0000c0 b8 d2 4e be b9 d4 db bc a2 99 ba 3d 93 15 9d be
       -0.2019757 -0.026834833 0.091113344 -0.30680522
0000d0 84 bd 1a bd d9 43 a0 3e 41 2c 01 3e 03 da d1 3d
       -0.037778392 0.31301764 0.12614538 0.102466606
0000e0 7c b7 b8 3e c0 9f 01 3e 6f d0 e8 3d 23 1f 1d 3e
       0.36077487 0.12658596 0.113678806 0.15343909
0000f0 a8 55 9a be 43 c3 2d 3e eb c8 fc 3d 6c b7 16 3d
       -0.30143476 0.16969018 0.123430096 0.03679602
000100 a8 43 ca bd 07 8f de 3c e0 c7 b5 3e 5c ae 13 bd
       -0.09876186 0.02716781 0.35504055 -0.036054954
000110 b4 d1 00 be 0d ad 81 3e 35 ad 92 3e 91 41 88 3e
       -0.12579995 0.2532734 0.2864777 0.26612523
000120 ea b8 bb 3e d2 25 c6 3d 98 c8 d0 be dc 41 95 3d
       0.36664516 0.096751824 -0.4077804 0.07287952
000130 55 6c 5e 3e ac de 52 3b 1f bc 20 bd 00 74 ce 3e
       0.21721013 0.003217618 -0.039241906 0.40322876
000140 cb 2d 94 be 63 fb bf 3e 53 af 94 be bb 31 98 3e
       -0.28941187 0.3749648 -0.29040012 0.2972544
000150 a8 32 be 3e 34 18 88 3e 73 63 52 3c 9a 79 b8 be
       0.37148023 0.26580966 0.012841093 -0.36030275
000160 c9 25 bf 3e 0d 06 85 be 8c d6 77 3e 0e d6 bd bd
       0.37333515 -0.2598118 0.24202937 -0.09269343
000170 52 1b 8d be 0b 25 86 be c2 ea cf be 93 99 d8 bd
       -0.27559906 -0.26200137 -0.40608793 -0.10576167
000180 04 f6 33 be 1e 1c 04 3e a3 7f 02 3e 69 21 85 be
       -0.17574316 0.12901351 0.12744002 -0.26002052
000190 0a eb 59 3e 43 1d 1b 3e 56 7e 51 3d 0d 28 b0 3e
       0.21281067 0.15147881 0.051145874 0.34405556
0001a0 d0 ce 38 be 64 8b bb be d0 5a 57 3e 44 e3 37 3d
       -0.18047643 -0.36629784 0.21030736 0.04489447
0001b0 4d 46 c4 be 28 f7 2d bd 1e c3 64 3d bf 09 e5 bd
       -0.38334885 -0.042472035 0.05585014 -0.111834995
0001c0 c7 d2 4f 3e ea 9c 0f be ea c2 08 3d e0 dc 68 3d
       0.20295249 -0.14024702 0.03338901 0.056851268
0001d0 a6 73 16 3e 18 e5 75 3e c5 8f b5 bd 41 0f 0b be
       0.14692554 0.24013174 -0.088653125 -0.13580038
0001e0 ec dc 34 be 33 de f2 3d c1 1f 12 3e ab 48 bd bc
       -0.176624 0.118587874 0.14269926 -0.02310594
0001f0 d2 ba 66 be fe d5 62 be 22 f9 6e be 16 43 9b 3c
       -0.22532204 -0.22151944 -0.23337224 0.018952888
000200 96 9f 85 3e 8a bc 0b be 82 62 cb be 76 a6 ab 3d
       0.26098317 -0.1364614 -0.39723593 0.08381359
000210 cd 81 9f 3e 88 cf 9d be 70 96 6f 3e c9 2d 8e 3b
       0.31153718 -0.30822396 0.23397231 0.004338954
000220 e0 44 fd 3d c3 d6 c3 3e b2 64 98 3e 30 e5 e7 bd
       0.123666525 0.38249788 0.29764324 -0.11323011
000230 f3 f5 ec bd f4 49 cf be 6d 19 c4 be 65 ac 97 bd
       -0.115703486 -0.4048611 -0.38300648 -0.074059285
000240 4b ae 77 be b5 0a b1 3c 0a f6 78 be 64 80 b6 3e
       -0.24187581 0.02161155 -0.24312606 0.3564483
000250 bd 71 3f be bf c1 a1 bd b1 ba 00 bd 16 20 00 be
       -0.18695731 -0.07898282 -0.031428043 -0.1251224
000260 c2 75 f5 3d 6d aa c3 3e d7 44 2e be b0 a8 c9 3e
       0.11985351 0.38215962 -0.17018448 0.3938651
000270 2a 2a 17 be 0e 67 99 3e 7e ca 44 be 20 93 71 3e
       -0.14762178 0.29961437 -0.1921787 0.2359128
000280 87 08 d1 3c 73 e2 bc 3e 5e 3a c7 3d 2a 31 88 be
       0.025516761 0.36891517 0.097279295 -0.2660001
000290 01 55 b4 3e 3c e6 31 be be 34 a9 be fc 09 7f 3e
       0.35221103 -0.17372984 -0.33048052 0.24906152
0002a0 10 4d 64 bc a0 6b 43 be f5 6d 77 be f1 fc 15 be
       -0.013934389 -0.19084024 -0.24163039 -0.1464727
0002b0 75 33 98 bc ca 80 6d 3e 9a a4 d0 3d 10 60 e3 3d
       -0.018579224 0.2319366 0.10187645 0.11102307
0002c0 79 a7 bb 3e 2b f3 e8 3d c2 6f 09 bd e2 94 8c be
       0.3665121 0.113745056 -0.033553846 -0.2745734
0002d0 87 4d 29 3d d5 9c ac bd 01 22 23 be 45 7c 2f 3e
       0.0413337 -0.08428351 -0.1593094 0.17137249
0002e0 a5 fb 80 bd ed d2 a0 bd 68 76 95 3e d7 1f 66 be
       -0.062979974 -0.07852731 0.291919 -0.22473083
0002f0 ca 3c f3 3d 9d 41 4f be 6b 3e 54 3e 9c a6 8c bd
       0.11876829 -0.20239873 0.20726936 -0.06867716
000300 ce 47 ae be 97 d6 11 be 3e 58 80 be 72 78 b2 3e
       -0.34039158 -0.14242016 -0.25067323 0.34857517
000310 ea bb 0a be 4d c8 89 3e c8 7f 9b be 4c d3 c3 3e
       -0.13548246 0.2691063 -0.30370927 0.38247144
000320 76 b7 99 be 48 6f c2 be 18 4c b6 be 45 82 ad 3e
       -0.30022782 -0.37975526 -0.3560493 0.3388845
000330 4c 96 0a 3e b5 91 87 be 8e 08 a4 3e f2 0a 4b be
       0.13533896 -0.26478353 0.32037777 -0.19828394
000340 ac 2d a4 3e e6 73 a8 3e 86 41 0e be c2 b5 00 3e
       0.32066095 0.32900923 -0.13892183 0.12569335
000350 0a f3 b7 be 3b 08 06 3b 0f 86 20 be 71 69 95 be
       -0.35927612 0.0020451683 -0.1567614 -0.29182008
000360 b8 4c 9f be e2 ab 93 be 6d 49 82 3d 89 4d b4 3e
       -0.3111322 -0.28842074 0.06361661 0.35215405
000370 a7 2f 9f be 29 7a b9 be a0 63 bf 3e 3f 95 10 3d
       -0.31091043 -0.36226013 0.37380695 0.035298582
000380 a6 dc 73 bd 58 4f 9e bd 24 19 ba be 95 e1 ba 3d
       -0.0595366 -0.07729977 -0.36347306 0.091250576
000390 8c 97 e0 bc b9 a0 a0 be 52 91 eb 3d 33 a9 9e be
       -0.027416013 -0.31372622 0.11502327 -0.30988464
0003a0 d0 6d 47 3e eb ab a2 be 8c 01 81 3e 89 70 c7 be
       0.19475484 -0.31771788 0.25196493 -0.38953045
0003b0 f7 c4 76 3e d4 d1 04 3e d4 b2 16 be db 5a c5 be
       0.24098574 0.12970668 -0.14716655 -0.3854588
0003c0 f3 00 a2 be a9 e4 ab 3e 64 71 c2 bd 7d 6c c3 be
       -0.3164135 0.3357289 -0.09494284 -0.38168707
0003d0 ff 7d 59 3e 8c aa ce 3e 33 3d 0b be 34 a8 d1 3d
       0.2123947 0.40364492 -0.13597564 0.1023716
0003e0 9b 90 50 3e 93 c9 ff 3d 9f 2e ae 3d 2e 2c 48 be
       0.20367663 0.12489619 0.08504986 -0.19548103
0003f0 6e 7a b0 be 40 b7 c5 3e 1d 04 c7 3c 65 9d bf be
       -0.34468406 0.3861637 0.024293954 -0.3742477

fc2.weight f4 [256, 256]
000000 e0 bf fe 3c 26 1d 7e 3c 2c f2 49 3d 11 36 bd bb
       0.031097353 0.015509879 0.04930322 -0.0057742675
000010 d0 0b 38 bc 44 ba a5 3c 2a a2 da 3b e0 80 70 bc
       -0.011233285 0.02023042 0.0066721635 -0.014679164
000020 80 ed 60 bb 16 2d 45 3d f2 c4 68 bd 18 bd 94 bc
       -0.0034321249 0.0481387 -0.056828447 -0.018156573
000030 d0 fe db bb ad 88 28 bc d0 25 c0 3c a4 57 64 3d
       -0.0067137256 -0.010286492 0.02345553 0.055747643
000040 15 cf c5 bc 7c 7f 49 bd b0 ad 33 3c e4 d3 90 3c
       -0.024146596 -0.049193844 0.010966703 0.017679162
000050 cf 2e 5a 3d de f9 4c bd 4c 01 5e bd d7 68 42 bd
       0.053267296 -0.05004298 -0.054200456 -0.047463264
000060 b4 69 df 3c 58 51 5b 3d a8 90 0f 3d ae f0 4b bd
       0.027272083 0.053544372 0.035050064 -0.049790077
000070 e4 03 cb bc 99 2c 62 3d 5d b6 07 3d 16 0c 63 3d
       -0.024782129 0.055218313 0.0331329 0.055431448
000080 a2 9e 16 bd f3 12 4b 3d f8 ec b2 3c 62 1b 28 3d
       -0.036772378 0.04957862 0.021841511 0.04104174
000090 05 32 56 3d 10 7e 66 bd 08 0a 95 bc d9 a4 1f bd
       0.052293796 -0.056272566 -0.01819326 -0.03897557
0000a0 37 1a f3 bc 86 ad 68 3d 0e 02 04 3d 84 48 09 bd
       -0.029675586 0.05680611 0.032228522 -0.033516422
0000b0 22 3d e5 3c 27 e3 08 bd 4f b0 5f bd 10 36 e8 bb
       0.027983252 -0.033419754 -0.0546115 -0.007086523
0000c0 30 ae e4 3c 7f 2f e7 3c 49 4e e9 bc a0 28 7f 3d
       0.02791509 0.02822089 -0.028479712 0.062294602
0000d0 61 0b 45 3d ae 68 05 3d 63 72 66 3d 69 78 0b bc
       0.048106555 0.032570533 0.05626143 -0.008512595
0000e0 de 8f 35 bd e0 9d 79 bc bd 3c f8 bb 02 01 15 3d
       -0.044326656 -0.015235394 -0.0075756 0.036377914
0000f0 0c bf 1f ba eb 61 14 3c 76 6d 92 bc 7c 38 64 bd
       -0.0006093837 0.009056549 -0.01787446 -0.05571793
000100 1e 81 17 bd 00 66 60 3d 27 2c d8 3c 8a a3 5c 3b
       -0.03698837 0.054784775 0.026388241 0.0033666813
000110 3a 53 29 3d df 02 20 3d 72 a9 37 3d de 7f c8 bb
       0.041339137 0.039065238 0.04483933 -0.0061187586
000120 6c 93 83 3c 84 c5 48 3d 7c 05 1b 3d d1 e1 c7 3c
       0.016061507 0.04901649 0.037847027 0.02439967
000130 ff c1 82 bc 04 f1 c6 3c ca 7b 17 3d 19 74 47 bd
       -0.015961645 0.024284847 0.03698329 -0.048694704
000140 f8 55 83 3c a8 4b e3 3c 07 68 7a 3d fe 4b 32 bd
       0.016032204 0.027746037 0.061134364 -0.043529503
000150 ee ce 32 3d 20 35 6b bc 6f df 13 bd 60 3f 29 3b
       0.043654375 -0.014355928 -0.036101755 0.0025825128
000160 9f bd 72 bd f9 67 5f bd 3a e1 47 bd 33 c6 1b 3d
       -0.059262868 -0.054542515 -0.048798777 0.038030814
000170 1c 84 5d bd 79 aa 50 bd 8c f3 98 bc 09 f7 3c bd
       -0.054081067 -0.050943825 -0.01867082 -0.04613403
000180 17 4f 45 bc 99 4e 4d bd b4 1c 76 3d a9 99 4b bc
       -0.012042782 -0.050123785 0.060085967 -0.012426772
000190 e3 85 54 bd cc ee 57 3d 9b da 74 bd 16 38 4a bd
       -0.051885497 0.05271797 -0.05977879 -0.049369894
0001a0 84 47 24 3d 2f 1d 6a 3d 0e ff 5e 3c 32 b4 46 3d
       0.040107265 0.057156738 0.013610614 0.04851169
0001b0 ae 8e b7 3c e8 cf 6f 3d a0 8d c9 bb 78 19 62 bc
       0.022406902 0.058547884 -0.006150916 -0.013800018
0001c0 f8 43 df bc 54 41 8a bc 52 e8 64 3d 5e 06 5c 3d
       -0.02725409 -0.016876854 0.05588562 0.05371701
0001d0 b5 6a 1a bd e8 0f 44 bd 1d b7 b1 bc 9e 32 92 3c
       -0.03769942 -0.047866732 -0.02169376 0.017846402
0001e0 48 26 3b bc 66 1a 7f 3c 18 ed dc bc cd 1b 60 bd
       -0.011422701 0.015570259 -0.026968524 -0.054714013
0001f0 88 55 29 bc ac 7b 75 bd 60 d4 a1 bc 52 c8 46 3d
       -0.010335334 -0.059932396 -0.019754589 0.048530884
000200 a0 84 f9 3b f0 6b 86 3c c0 99 73 3c 4a 84 a4 3c
       0.007614687 0.01640889 0.0148682 0.020082612
000210 bc 5f 62 3d 96 a2 77 bd f0 e3 48 bd d0 ea bb 3c
       0.05526708 -0.06045779 -0.049045503 0.022939116
000220 9b 89 1e bc 7e 5e 5a 3d 65 a4 d3 3c b5 9f da 3c
       -0.009676362 0.05331277 0.025835225 0.026687482
000230 fa 46 05 3d 2c 86 0a bd 06 d7 20 3d 00 92 06 3d
       0.03253839 -0.033819363 0.039267562 0.03285408
000240 6c b1 a9 3c 00 a4 61 bb bc a7 ad 3b 1f f7 48 bd
       0.020714484 -0.0034430027 0.0052995365 -0.049063798
000250 64 86 49 bd 36 5d a2 3c 2e 43 02 bc 9b 40 f0 3c
       -0.04920043 0.019819837 -0.007950587 0.029327681
000260 e0 28 78 bb 30 58 ac bb 32 8e 58 3d 04 7a 5a bd
       -0.003786616 -0.005259536 0.052869983 -0.05333902
000270 fc a7 fe 3c 78 84 59 3d 78 8b 36 3c e0 94 62 bd
       0.03108596 0.053104848 0.01114165 -0.05531776
000280 90 e2 a9 3a f0 86 c2 bc ea 28 9d bc 20 7c a1 bb
       0.0012961198 -0.023745984 -0.019184548 -0.004928127
000290 f6 1a 5d bd 2b ac 61 3d b5 40 31 bd ed 88 4e 3c
       -0.05398079 0.055095833 -0.0432746 0.012605888
0002a0 de 34 35 3d 16 80 17 3d 78 45 cc ba 28 28 67 3d
       0.04423987 0.036987387 -0.0015584668 0.05643478
0002b0 2e 2e e4 3c 58 17 5e 3d 7c 2b b7 bb 36 57 41 bb
       0.027854051 0.05422148 -0.0055899005 -0.0029501445
0002c0 34 cb 93 bc 66 d1 ed bc e0 e7 1f bb 12 91 05 3d
       -0.01804123 -0.029030513 -0.0024399683 0.032609053
0002d0 90 62 f6 3b c3 95 00 bd c0 14 f7 3b a8 8b a1 3c
       0.007519074 -0.031392824 0.0075403154 0.019719914
0002e0 ee b7 d2 bb 9b f7 5a bd 99 9a 17 3d 00 58 89 3c
       -0.0064306175 -0.05345879 0.03701267 0.016765594
0002f0 38 d7 09 3c 04 f2 68 3d 62 95 bb 3b 30 41 e2 bb
       0.008413129 0.05687143 0.005724595 -0.0069047436
000300 0e 53 2f bd 9c 43 cf bc 57 95 47 bd 88 9b 6d 3c
       -0.042803816 -0.025300793 -0.048726406 0.014502414
000310 49 7c 1b 3d 75 e5 53 bd f9 28 6f bc d0 2d 3e bd
       0.037960324 -0.0517325 -0.014597171 -0.04643041
000320 00 97 c9 bc 28 8a 65 bd c4 d2 42 bd 24 80 0c bd
       -0.024608135 -0.05603996 -0.047564283 -0.034301892
000330 68 a8 c7 3c 58 b5 3c bc 37 4a 82 3c 48 ad 5a bc
       0.024372295 -0.011517845 0.015904529 -0.0133469775
000340 a0 8a 5a 3d 89 02 e3 3b 50 62 4d 3c 20 3d 58 bc
       0.05335486 0.0069277924 0.012535647 -0.013198167
000350 be a3 39 bd 1b a0 ee bc e4 d0 72 3d bb 14 21 3d
       -0.045322172 -0.029129079 0.059281245 0.03932641
000360 8e a0 7b bd 47 3c 9b bc 22 55 4b bd 1d 02 41 3c
       -0.061432414 -0.01894964 -0.049641736 0.011780289
000370 32 1a 4e 3d 7e a4 ac bc 48 3f 27 bd 23 d7 cc 3c
       0.05031795 -0.02107453 -0.040831834 0.025004929
000380 7a 19 2a bd c2 d1 13 bd 68 75 01 3d 71 aa 6c bd
       -0.041528203 -0.036088713 0.031606108 -0.057779733
000390 98 96 39 3c 2c 4b f3 bc 3e 83 22 bd b0 c8 65 bc
       0.011327408 -0.02969893 -0.039675944 -0.014024898
0003a0 d4 51 73 bd 80 9c 3d bd d0 ca 6a bc 84 81 2e 3d
       -0.05940421 -0.04629183 -0.014330581 0.042603984
0003b0 31 98 ac bb f0 59 08 bc 84 3b 2d bd 62 1a 22 b9
       -0.005267166 -0.008322224 -0.042293087 -0.00015459352
0003c0 88 a4 84 bc d5 ef 3d 3b 8f f0 06 bd 34 6c b9 3c
       -0.016191736 0.0028982062 -0.03294426 0.022634603
0003d0 7f 00 80 3c 6e 37 32 bd eb b3 b9 3b 98 df 1f 3c
       0.015625237 -0.043509893 0.0056672 0.009757899
0003e0 7c fe 2f 3d b3 94 dd 3c 6a 7a cd 3c 34 16 b5 bc
       0.042967305 0.027048444 0.025082786 -0.022105314
0003f0 ca bc 79 bd c0 d3 b9 bc 8b 4d 95 bc 32 ed 58 3d
       -0.06097106 -0.022683978 -0.018225452 0.052960582

fc2.bias f4 [256]
000000 c5 2b 58 bd 21 df 52 bd d8 d0 2a 3c 40 d5 40 bd
       -0.052776117 -0.051482324 0.010425769 -0.04707837
000010 da c5 63 3d 05 2a 95 bc 68 a0 ff bc 48 60 7d bd
       0.055608608 -0.018208513 -0.031204417 -0.0618594
000020 e8 31 3a bd f0 ac 21 bd d1 e9 73 3d 20 dc 0b 3c
       -0.04545775 -0.039471567 0.059549157 0.008536369
000030 02 a0 5a bb 80 ac 72 bc d0 ce 5d 3c 79 18 7a 3c
       -0.0033359532 -0.014811635 0.0135380775 0.015264624
000040 42 cc 7c 3d a0 c5 0b 3b bc e4 3a bd 6e 7c 3a bd
       0.061718233 0.002132751 -0.045628294 -0.04552882
000050 8c 5e 2e bd 35 0f 3b 3d d7 b4 e3 bc 09 78 dc 3b
       -0.042570636 0.0456688 -0.027796192 0.0067281765
000060 a2 87 7f 3d 3c 40 69 bd 3e df 03 bd dc 35 20 bd
       0.06238521 -0.056946024 -0.032195322 -0.039113864
000070 1f 59 36 bd d4 bf 18 bd 7e 27 7e bd af f5 2f 3d
       -0.044518586 -0.037292317 -0.06204938 0.04295891
000080 10 f2 4e bd 89 28 f8 3c 32 c9 b8 3c 72 0a 37 bd
       -0.050523818 0.030292766 0.022556875 -0.044687696
000090 67 07 07 ba e4 3a 80 bc 4e 22 fa 3c 00 54 12 ba
       -0.00051509443 -0.015653081 0.030533936 -0.0005581975
0000a0 33 34 25 3d a3 46 a1 bc 09 5f 2b 3d a0 48 a2 3b
       0.040332984 -0.019687003 0.04183868 0.004952505
0000b0 65 7d da bc c0 e2 2e bb c1 03 79 3d a4 8d c9 3c
       -0.02667112 -0.0026685447 0.060794596 0.024603672
0000c0 9e 67 2b bd 47 ca b7 ba 3c d4 6b bd 40 1b 82 3c
       -0.041846864 -0.0014022075 -0.05757545 0.015882134
0000d0 60 8c 65 3d 90 32 6c bd e0 f5 13 bb 91 ed 17 bc
       0.056042075 -0.057665408 -0.0022576973 -0.009272949
0000e0 e0 45 13 3c 14 44 ed 3c 25 f8 91 bc d1 9b f8 bb
       0.0089888275 0.028963126 -0.01781852 -0.007586934
0000f0 cd 28 56 3c 5b a6 28 bd db a0 7a 3d ca 2e 18 bd
       0.013071251 -0.041174274 0.06118856 -0.037153997
000100 ad 42 d3 bc 6d dc 4e bd 90 79 cd bc c8 3c 5a bd
       -0.02578863 -0.050503183 -0.02508238 -0.05328062
000110 1e 68 29 3d 02 04 fd bc 25 7e 81 bd 3c a0 6f 3d
       0.04135906 -0.0308857 -0.06322888 0.05850242
000120 50 19 e8 3b 00 65 74 3d 0e 9c 63 bd d8 b6 22 3c
       0.0070830956 0.059666634 -0.055568747 0.009931289
000130 f8 6d f9 bc 82 c3 61 bd 0f 09 4d 3d 19 7d 6d bd
       -0.030447945 -0.05511809 0.050057467 -0.05798063
000140 e5 79 7a 3b 90 49 7d bd c4 1e bf b9 15 37 e1 3b
       0.0038219627 -0.061837733 -0.0003645328 0.0068730214
000150 4c 72 f1 bc 88 68 2f 3c 2e 17 6c bd d0 de 6b bc
       -0.029473446 0.010706075 -0.057639293 -0.014396384
000160 40 19 6d bd 82 f4 b6 3a af ba 7b bd f6 dd 62 bd
       -0.05788541 0.0013958367 -0.061457332 -0.05538746
000170 00 73 9a bb 87 d0 d6 bc 28 31 a6 bc e0 0d 36 3b
       -0.004713416 -0.02622248 -0.020287111 0.0027779266
000180 80 2c 6a 3c d8 65 b7 bc 3f cf 32 bd 28 e4 22 bc
       0.014292836 -0.02238743 -0.043654677 -0.009942092
000190 46 3a 5f bd 4e 78 6d 3d d8 cb 92 3c 39 96 7b 3c
       -0.054498933 0.05797606 0.017919466 0.01535564
0001a0 cf 43 5a bd 80 8c 29 3c 3c f9 14 39 36 35 2b 3d
       -0.053287324 0.010348439 0.00014207227 0.041798793
0001b0 10 0e 9c bb 98 68 1b bc 94 18 71 bd 76 01 69 bd
       -0.0047624186 -0.009485386 -0.05886133 -0.05688616
0001c0 fe 86 10 3d 2f 28 19 bd 23 7b 01 3d 9a 2b 05 bd
       0.03528499 -0.037391838 0.031611573 -0.032512285
0001d0 e4 f3 4a 3d 7e 31 12 bd 06 f6 48 3d 34 bc c3 3b
       0.049549 -0.03569173 0.04906275 0.0059733633
0001e0 ae 48 12 bd b2 2a ff 3c e4 a0 58 3d ad 3c b3 3c
       -0.035713844 0.031148288 0.052887812 0.021879518
0001f0 10 09 38 bd 00 cc 61 bc 19 f6 57 3d c0 59 04 bb
       -0.044930518 -0.013781548 0.05272493 -0.0020195097
000200 e6 78 05 3d 13 f1 f2 3c 5d cc 2a 3d 2c cb c8 3c
       0.032586 0.029655969 0.041698802 0.024510942
000210 37 fe 48 3c 31 48 f2 3c 6c df d6 3c 86 28 81 3d
       0.012267641 0.02957544 0.026229583 0.06306557
000220 4c c9 a2 3b 71 ad 54 bc fa 05 78 3c 90 b7 5a bd
       0.004967844 -0.012980805 0.015138144 -0.053397715
000230 73 4a 17 bd 45 c6 c6 3b 68 1d 08 bd f0 94 cc bc
       -0.036936235 0.006066116 -0.03323117 -0.024973363
000240 60 83 73 bc 9e d8 2b 3c a8 1b 91 bc 90 7e 66 bc
       -0.014862865 0.010488657 -0.017713383 -0.014068261
000250 ac 0c c6 bc ff 04 f0 bc 45 41 75 bc 9c 14 e9 bc
       -0.024175964 -0.029299257 -0.014969175 -0.02845221
000260 80 cb e5 3a 02 e9 a2 3c 7b 01 43 3c fb 3a 42 3c
       0.0017531961 0.019886497 0.011902208 0.011854882
000270 32 cc 1e bd 7b 03 3a 3c 03 14 95 bc f0 6d 94 3b
       -0.038768955 0.011353369 -0.018198019 0.004529707
000280 fa 23 56 3d e8 14 40 3d 88 74 1e 3c 20 19 8e bb
       0.052280404 0.046894938 0.009671338 -0.004336491
000290 76 21 47 bd ce d7 0f 3d 39 dd 70 3a 98 15 94 3c
       -0.048615895 0.035117917 0.0009188238 0.018076703
0002a0 00 c6 2c 3b c5 a5 57 bd 38 27 4a bd de ad 63 bd
       0.0026363134 -0.052648325 -0.04935381 -0.055585735
0002b0 2b 3f 05 3d 56 eb 46 bd 56 1b 51 3d 9c 48 18 bd
       0.032530945 -0.048564278 0.05105146 -0.03717862
0002c0 de dc 44 bd 86 2f 61 3d 2b df fd bb 78 92 c0 bc
       -0.048062198 0.054976963 -0.007747551 -0.023507342
0002d0 6c 50 bf bc 07 5a 87 3c 13 37 20 3d 8a a5 14 bd
       -0.023353778 0.01652242 0.039115023 -0.036290683
0002e0 a9 0f bd bc 2f bb 29 bd 92 ec 54 3d 93 de 75 3d
       -0.023078756 -0.041438278 0.051983424 0.060026716
0002f0 96 e3 59 bd 2c ca 3c bd 6f 6c 78 bd ba ba 88 3c
       -0.05319556 -0.046091244 -0.060650285 0.0166906
000300 94 43 10 3d 10 67 eb 3b 8e 70 63 3d 32 c0 04 bc
       0.035220698 0.007183917 0.055527262 -0.008102464
000310 54 73 07 3d 70 41 64 3d 6a 9b 61 bd c4 21 33 3d
       0.03306897 0.05572647 -0.055079855 0.043733373
000320 2e da b7 3c 90 fd 3b bd 2e fb 74 3d 35 ea 3b bd
       0.022442903 -0.045896113 0.059809856 -0.045877654
000330 28 48 c6 3c 6b e0 2c 3b bb 4b a1 3c 00 fa ed 3b
       0.024204329 0.002637888 0.019689431 0.0072624683
000340 60 8e 05 bb b8 aa be 3c 24 89 68 3d cc a0 17 3d
       -0.0020379052 0.023274764 0.056771412 0.037018582
000350 be c0 30 bd 3a fe 09 3c 6e ad 55 3d ec 33 00 3d
       -0.043152563 0.008422429 0.05216735 0.031299517
000360 2c fc 66 bd 80 da 32 bb 3c 29 10 3d 24 56 27 3d
       -0.056392834 -0.002729088 0.035195574 0.040853634
000370 66 dd 7a 3b 64 46 c8 3c e4 a8 2c bd 6d a7 47 3d
       0.0038278936 0.024447627 -0.042153254 0.048743654
000380 90 99 5a 3d a0 95 c7 bc 19 44 36 3c 21 a9 fb 3c
       0.053369105 -0.024363339 0.011124634 0.030720295
000390 e0 fb 20 bd ca 46 54 3c b2 39 48 3d 00 4e 8f 3b
       -0.039302707 0.012956331 0.048883148 0.004373312
0003a0 dd f4 4a 3d b9 2b e2 bc fa bd 41 3d c2 b8 0b bd
       0.049549926 -0.02760874 0.047300316 -0.034111746
0003b0 2f 9a 51 3d 1e 7a 7b bd f3 57 e4 3a 34 6a 30 bd
       0.05117243 -0.061395757 0.001742123 -0.043070033
0003c0 e8 10 d8 bc 8a 02 32 bd 70 e7 9d 3b fb f9 25 b6
       -0.026375249 -0.043459453 0.0048188493 -2.4732424e-06
0003d0 7c 39 3f 3d c9 df ce bb 01 4a 4e bd 12 de 27 3d
       0.04668568 -0.0063132984 -0.050363544 0.040983267
0003e0 82 b6 47 bd 1a 1b ca 3c 98 b5 14 3d fa 12 2b bd
       -0.048758037 0.024671126 0.036305994 -0.041766144
0003f0 90 7e be 3b f5 93 97 3c bc 5d 3a bd 76 a1 d2 3c
       0.0058134273 0.018503169 -0.04549955 0.025711756

fc3.weight f4 [1, 256]
000000 cc 2e 4b bd 2e 8a 2a 3c 48 60 33 3d 14 45 7e 3d
       -0.049605176 0.010408921 0.043792993 0.062077597
000010 7e 6f 41 bd 4d 58 f1 3b f9 5f d5 3c 22 43 55 3d
       -0.047225468 0.0073652626 0.02604674 0.052065976
000020 cd d4 0c bd 7e f3 ea 3c ed ed 2b 3d bd 39 29 3d
       -0.03438263 0.02868056 0.04197495 0.04131483
000030 78 87 81 bd 04 78 e1 3c 30 8e 31 bc 84 66 43 3d
       -0.06324667 0.027523048 -0.010837123 0.04770519
000040 42 54 46 bd 70 97 8b 3b 00 eb fe bc 24 63 65 bb
       -0.0484202 0.004259996 -0.031117916 -0.003500172
000050 22 b4 64 bd 93 e7 8d bc d4 47 ea bc 63 64 f5 3b
       -0.05583585 -0.017322337 -0.028598703 0.0074887737
000060 8c f0 cc 3c a8 31 a3 3c 6e 27 5b 3d 64 39 ce bc
       0.025017045 0.019921139 0.0535044 -0.02517385
000070 ed 6e 8d bc 54 84 9d bc 88 28 e1 bc c2 d8 20 3d
       -0.017264808 -0.019228138 -0.027485147 0.039269216
000080 b1 d7 db bc 89 08 bd 3c 8f f9 6d 3d dc 80 fa bc
       -0.026836248 0.023075359 0.058099326 -0.030579023
000090 10 9d a4 bc 40 0f 02 3c cb 08 25 bd 60 e4 56 bd
       -0.020094424 0.007938206 -0.04029159 -0.05246389
0000a0 06 52 b7 bb 2a c8 7c bd 48 5a 42 3d 82 e4 28 bd
       -0.0055944948 -0.06171433 0.04744938 -0.041233547
0000b0 e0 a5 5e bd e0 66 22 bd 79 eb 10 bc 60 e5 10 bc
       -0.05435741 -0.03964889 -0.008845204 -0.00884375
0000c0 fc f7 a7 bc fc 9e c0 3c 9e da e1 3c 48 2f 47 bc
       -0.02050399 0.02351331 0.027570065 -0.012157269
0000d0 56 2c 4f 3d f8 8d 78 3c 80 0e 3a 3b ab 14 39 3c
       0.05057939 0.015170567 0.002838999 0.0112964315
0000e0 f0 e1 03 3c e5 63 a2 bc 0c 5c 65 3d 91 4d 46 bd
       0.008049473 -0.019823024 0.055995986 -0.048413817
0000f0 33 07 e0 bc 1b 9f 7d 3b ee 87 31 3d b4 80 16 3d
       -0.027347183 0.003869957 0.043342523 0.036743835
000100 b8 cf 4f 3b 1d ec 11 3d 1c b7 8b 3c 38 63 4d 3c
       0.0031709503 0.035625566 0.017055087 0.012535863
000110 f0 b5 af 3c dd 9a 8b bc 89 b3 6b 3d cb 43 99 3c
       0.02144906 -0.017041618 0.057544265 0.018709084
000120 45 ef f7 bb fc 1e db 3c aa f3 61 bd c4 ef a2 bc
       -0.007566365 0.026748173 -0.055164017 -0.01988972
000130 8c 11 50 bd de f3 28 3d 62 e1 93 3c 5a db 33 bd
       -0.050797984 0.041248195 0.018051807 -0.04391036
000140 81 e5 4a 3d 66 f8 40 bd f4 6b 63 bc 01 f9 4b 3d
       0.04953528 -0.04711189 -0.0138807185 0.049798016
000150 b8 9b 55 3c f0 1b b5 3c c4 d5 d3 3c 48 42 20 3c
       0.0130376145 0.022108048 0.025858767 0.009781428
000160 1e 3c 5f bd 36 ab 7e bd fe e1 d8 3c 0f 36 5a bc
       -0.05450069 -0.062175 0.026474949 -0.013318553
000170 40 8e 11 3c 59 e6 7d bc 78 ac 5f 3c fc 0d d2 bc
       0.008884013 -0.015496814 0.01365196 -0.025641434
000180 88 15 e5 bc fb 4a 14 3d 62 2a 68 bd 04 46 52 bd
       -0.027964368 0.03620432 -0.056681044 -0.051336303
000190 48 28 91 3c f2 22 0d 3c 14 38 0f 3d e1 1a 7c 3d
       0.017719403 0.008614289 0.03496559 0.06154907
0001a0 6e 0f 35 bd 00 d1 4c bb ea f2 8f 3c 1c 1e 9d 3c
       -0.044204168 -0.0031252503 0.017571885 0.019179396
0001b0 dc fe 80 bc 0a 51 09 3d 78 3a c5 3c c9 ba 01 3d
       -0.015746526 0.03352455 0.024075732 0.031672273
0001c0 c4 2c 40 3d 09 d6 78 bd b6 8b 61 bd fa 8f ba bb
       0.04691769 -0.060750995 -0.05506488 -0.005693433
0001d0 20 af 69 bc 60 29 bb 3c 40 e5 32 3c 11 f5 1a 3d
       -0.014262944 0.022846878 0.010918915 0.03783137
0001e0 da cd 2b 3d 42 0a 95 bc 90 95 56 bc 3a 5c 01 bd
       0.041944362 -0.018193368 -0.013097182 -0.031582095
0001f0 2e 3d 0a bd 84 32 aa 3c 24 5c 87 bc 60 fe 69 3c
       -0.03374975 0.02077604 -0.016523428 0.014281839
000200 6c 41 02 3d ae df 58 bc 0e df 37 bd 0a 01 0f bd
       0.031800672 -0.013236923 -0.044890456 -0.0349131
000210 ee 4b 32 bd 81 a5 e9 3a fc 87 29 bd 35 15 65 bd
       -0.043529443 0.0017825813 -0.04138945 -0.055928428
000220 ce 47 a6 3c 6c ae 3b bd 8c a0 b8 bb 08 eb 55 bd
       0.020297911 -0.04582064 -0.005634373 -0.052226096
000230 5c 03 f2 bc f0 1e 00 bd 68 3e 6e 3d 92 c5 7e bd
       -0.029542617 -0.031279504 0.058164984 -0.062200136
000240 a0 1d 6a 3c dc cc 5e 3c 00 c4 20 3a d6 4a 74 3d
       0.01428929 0.013598647 0.0006132722 0.05964168
000250 6c 00 4f bd 4c aa 5d bc 10 0e dd bc b0 1f 84 3c
       -0.05053751 -0.0135293715 -0.026984245 0.016128391
000260 24 2f cf bc a4 64 55 bd 39 97 67 bd 10 38 ce bc
       -0.025291033 -0.05209793 -0.0565407 -0.025173217
000270 f8 41 79 bc 7e 73 61 bd 80 8d 1d bc 1e 28 56 3d
       -0.015213482 -0.055041783 -0.009616256 0.052284352
000280 8c 8e 69 bd 70 d1 f1 bb d2 f9 28 bd 5e d9 04 3d
       -0.05702071 -0.007379703 -0.041253872 0.03243386
000290 e0 8d 28 bd 2e 5d 21 bd 32 83 c9 3c bc 54 53 3d
       -0.041150928 -0.039395504 0.024598692 0.05159448
0002a0 78 a0 ba bc c7 c3 37 bd 80 94 77 ba c3 2a 57 3c
       -0.022781596 -0.044864442 -0.00094444305 0.013132754
0002b0 c1 36 ba 3b e0 f0 46 3d c6 af 57 bd 44 e5 a8 3c
       0.0056827967 0.04856956 -0.052657865 0.020617135
0002c0 68 13 93 3c 1e 5b 22 3d 77 a5 4f 3c 30 61 67 bd
       0.01795359 0.039637677 0.012673727 -0.05648917
0002d0 90 9e 5c bc 24 c8 31 3d 33 6e 64 3d 50 60 15 3d
       -0.013465539 0.04340376 0.055769157 0.036468804
0002e0 07 ca 5b bd 86 3b 1a bd c0 e2 0c 3d bc 34 98 3c
       -0.053659465 -0.037654422 0.034395933 0.018579833
0002f0 c3 ed 9b bc 04 e9 ec bc 78 a1 29 3d 33 94 54 3d
       -0.019034272 -0.028919704 0.041413754 0.051899146
000300 8c 3c a8 bc 26 d0 40 bd f4 71 96 bc 2f 1e c2 bc
       -0.020536683 -0.047073506 -0.018364884 -0.023696033
000310 79 78 43 3d 26 d7 5f bd 7d 43 e0 bb 00 94 13 bc
       0.047722314 -0.05464854 -0.0068439827 -0.009007454
000320 62 e0 30 bd 4c 34 f4 3c 51 f7 af bc ba df 27 bc
       -0.043182738 0.029810093 -0.021480234 -0.010246212
000330 00 74 27 bd 1c 4d 51 bc 89 24 6d 3d e0 aa c2 3c
       -0.04088211 -0.012774732 0.05789617 0.02376312
000340 80 39 18 bc 96 aa 4c bd 60 8c 49 3d 44 5b 0c bd
       -0.009291053 -0.04996737 0.049206138 -0.034266725
000350 a7 da b8 3b f9 30 76 3d 96 9c 76 bd 9a 8f 03 bd
       0.0056412998 0.060105298 -0.060207926 -0.03211937
000360 7b b3 8e bc 44 cc 67 bd 90 cd 87 3c ee a1 4e 3d
       -0.017419567 -0.056591287 0.016577512 0.050447397
000370 84 54 89 bc e2 f9 35 3d a2 97 ad bc df d0 3e bd
       -0.016763933 0.04442776 -0.021190468 -0.046585914
000380 74 7f 81 3c 56 fa 0d 3c 1c 19 0c 3c 19 a6 52 3d
       0.015807845 0.008665642 0.008550908 0.051427934
000390 32 ae 1f 3d ed c8 4a 3d 5b 56 52 bd 08 bb 69 bd
       0.038984485 0.049508024 -0.051351886 -0.057063133
0003a0 93 cc 01 bd fb 8f 46 3b 36 34 1d bd d8 fb ba bc
       -0.031689238 0.0030298221 -0.03837987 -0.022825167
0003b0 3a c1 53 bc 40 63 a7 bb e1 e8 b0 3c 5a af fa 3b
       -0.012924487 -0.005108267 0.02159542 0.007650298
0003c0 d5 e2 94 bc 28 9b 3f 3c 74 22 6f bd c0 ab 80 3c
       -0.018174568 0.011694707 -0.058382466 0.015706897
0003d0 50 52 be 3b 14 c7 20 3d 66 fa 7a 3c 72 f7 b4 3c
       0.0058081523 0.039252356 0.015318489 0.022090647
0003e0 96 d9 52 bd 42 a1 69 3d e4 57 2b bd c6 d7 06 bd
       -0.051477037 0.057038553 -0.041831866 -0.03292062
0003f0 d8 68 be 3c f6 51 ff 3b 60 53 7f 3c 96 9d ab bc
       0.023243353 0.007791753 0.015583843 -0.020949166
