outputs/router_rule/A2C_router/summer20251120-003927/models/policyB_actor.pth (torch, 277768 bytes, 8 tensors)

fc1.weight f4 [256, 6]
00000000: c091 aebe 03ad e73d ad6d 0a3e 32a2 b9bd
00000010: 4960 cebe dc19 603d efd7 143e 234d b43b
00000020: 43be af3e f660 393d ec24 ec3d 27ab c4be
00000030: 7f22 d0be 378e a13e 51cb 91be 20f4 f0bd
00000040: bfec 9f3e cffe ea3d 0ef4 13be c11a 3b3d
00000050: 65ad f93c 85b1 98be 5ff9 8fbc 8f95 60be
00000060: d9bb a3bd 0b43 b63e e781 9abe 526b 93be
00000070: f0f6 093e f3bb a43d 3026 92be a915 af3e
00000080: da87 d93d 9de2 ae3e db2d e5ba e6be 793d
00000090: dd96 cd3e 3fd2 f1bd ae9d e9bd 4b7b a93e
000000a0: 88d3 d73d 1df3 5c3e 3537 5e3d 2ddd 4abe
000000b0: 1669 56be 9364 cebe ea1d fc3c bd38 15be
000000c0: caf2 733e 1f2b 3f3e d4ee aa3e d7a1 5dbe
000000d0: 8582 aabc 10bc 8b3e 0dc5 61be 43a6 f63d
000000e0: 2377 a3bd 1cb7 58bd ff59 1f3e 8d69 79be
000000f0: 2798 3c3e 67cf 263e 8c1a 67be 8bd6 063e
00000100: 14db 373e d215 b73e 12ae a43d 4334 923e
00000110: 8c75 7ebe bb9e a03e 5cb8 843e 05cd 093d
00000120: 7f32 923e cf60 0c3e 7e17 0c3e 4c90 10be
00000130: 4b40 efbd 1c20 5c3e 607d 83be 8cbc 5b3e
00000140: c8f0 10be 1365 02be 7400 593e 08f3 3c3e
00000150: fe09 83bd bb2a 153e 0e5e 803e 4845 19be
00000160: acb4 81bc 7563 6a3e 713c 45be 6e5d 8cbe
00000170: 7cf2 3bbe 954d b23e ec56 783e 705a 1c3e
00000180: bd1e d43b 2308 dc3d de4f 8ebe 4c85 63be
00000190: 595c 86bc 4690 c8be 6fe6 d8be a37d 7ebe
000001a0: 8cb4 44bd d226 963d 0737 d4bd 9fdf d2be
000001b0: 81b1 c9be 98f9 abbe 6b33 30be 50f8 8bbe
000001c0: ab74 97bd deb0 10be 7c7c 66bd c5fb b33e
000001d0: 1503 8b3d 60cd 09be 612e b93d d518 f43c
000001e0: cdd0 6bbd af0c 083c 1351 40be 7d94 5abe
000001f0: 123d 17be d2c0 803d 90b1 28be 5471 33be
00000200: 91af 0bbe f715 7e3e 446d 4abe 84bd 4c3e
00000210: 6c27 6d3e bfd7 ecbc 9bd2 39bc 6ee6 063a
00000220: 44cf 313d f3bb 923e 03ea 45be a9cb b8bd
00000230: d98d 893e 6ef0 9cbd e366 acbe 2b85 2dbe
00000240: 9cea db3e 9bff 8b3e 7e9a 8a3b f3d3 6d3e
00000250: d709 8bbe bc10 873e c422 28be dc5f c9be
00000260: a2d2 35be 1d38 9cbe d8a7 033e deaa 9abe
00000270: cf3d 873e f48a ad3e eb85 8dbe f128 86be
00000280: 214d 8b3d 2652 c43d fedc febd 645c 5bbd
00000290: bc31 b0be e29b 65be 35fe 463e 25fd eb3d
000002a0: b49c 04bc a2e0 dd3d 4414 8dbe 524f 9ebe
000002b0: 0a1a 71be 9ada 8fbd 2e8a b43e 85a8 a43e
000002c0: 4787 af3c 0317 8cbe eaef 1ebe 4117 37be
000002d0: d411 923e c2eb 19bd 9a47 4fbe 7f3f 953a
000002e0: a01b 8a3e 93a9 103e e275 b1be f11f 7dbe
000002f0: 833b dfbe 9c33 be3e 4c0b 25be e9ce ba3e
00000300: 46e7 063e 5764 ccbe 31e8 133e 10d0 ca3e
00000310: 1b52 e8bd cd18 b6be 90b0 aebe b867 21bd
00000320: f614 7d3d 48d2 be3c 2bee 6dbe e139 343e
00000330: 299b f6bd 417f bb3e f641 a83e fa4c 6ebe
00000340: f634 08be 3d10 93be 95a2 c7bd 4041 84be
00000350: cadf 93be e281 4a3e 15e9 a83e 1b5c b4be
00000360: 1265 61be b763 f93d 13bf ae3e 9bad 2a3e
00000370: 54f5 9c3e 5028 b33c 79cc 47be cf5a 49be
00000380: 2fa4 8abe 508a adbe 31da 183e 2654 8abe
00000390: a4df d7be 1aa1 dd3d 1904 a63c 11ea 0d3c
000003a0: f061 a3bd b459 99bd 85ca 16be b456 5abd
000003b0: 7a9a 6b3e 6cfe 74be 3fa2 1e3d 646f 4dbe
000003c0: 349a 89be d71c ad3d 75d4 68be 15c7 cd3e
000003d0: 7087 adbe 5e12 c4be 0a02 adbe ec43 b0be
000003e0: 4f0b 8cbe e388 2e3e 3c61 063e e605 a0be
000003f0: f9e3 413e 397b 7d3e 07b0 c9be 5135 ae3e
-0.34095573 0.11312296 0.135184 -0.090641394 -0.40307835 0.05471216 0.14535497 0.0055023595
0.34324846 0.045258485 0.1153048 -0.3841183 -0.40651318 0.31553814 -0.2847543 -0.11765313
0.3123531 0.11474382 -0.14448568 0.04567981 0.030478189 -0.29822937 -0.017574964 -0.21932052
-0.079948135 0.35598025 -0.30177233 -0.28792816 0.13473105 0.08043661 -0.2854476 0.34196213
0.10621615 0.34157267 -0.001748498 0.06097307 0.40154162 -0.118076794 -0.11407028 0.33101878
0.10538393 0.21577115 0.05425187 -0.19810934 -0.20938525 -0.40311107 0.030775983 -0.14572425
0.23823085 0.18668793 0.33385336 -0.21643768 -0.02081419 0.27291918 -0.22047825 0.12043431
-0.07981708 -0.052909 0.15561675 -0.2435667 0.18417417 0.16290055 -0.2256872 0.13167779
0.17954665 0.35758835 0.08041014 0.28555498 -0.24849528 0.31371102 0.25921905 0.033642787
0.2855415 0.13708805 0.13680837 -0.14117545 -0.11682185 0.21496624 -0.2568159 0.21458644
-0.14154351 -0.12733869 0.21191579 0.18452084 -0.0639839 0.14567082 0.25071758 -0.14967835
-0.015833221 0.22889502 -0.19261338 -0.2741503 -0.18354219 0.34824815 0.24251908 0.15268874
0.006473391 0.107437395 -0.2779531 -0.22218817 -0.016401457 -0.39172572 -0.42363307 -0.24852614
-0.048023745 0.07331623 -0.10362058 -0.41186234 -0.39393237 -0.33588862 -0.17207114 -0.27337885
-0.073952995 -0.1412997 -0.05627106 0.35153022 0.06787697 -0.1345725 0.09042049 0.029796997
-0.057572175 0.008303805 -0.18780927 -0.21345706 -0.1476939 0.062867776 -0.16473985 -0.175237
-0.13641192 0.24813066 -0.19768244 0.1999417 0.2315957 -0.02891147 -0.011341716 0.0005146031
0.043410555 0.2865902 -0.1932755 -0.0902322 0.26866034 -0.07663046 -0.33672246 -0.16945331
0.4295243 0.2734345 0.0042298427 0.23225383 -0.27155945 0.26379955 -0.16419512 -0.39330947
-0.17756131 -0.3051156 0.12856996 -0.30208486 0.26414344 0.33895075 -0.27641234 -0.2620311
0.068018205 0.09585981 -0.12444495 -0.053554907 -0.34412944 -0.22422746 0.1943291 0.11522893
-0.008094002 0.10833861 -0.27554524 -0.30919892 -0.2354509 -0.07024117 0.35261673 0.3215982
0.02142681 -0.27361307 -0.15521207 -0.17879964 0.28529227 -0.03757835 -0.20242158 0.0011386721
0.269742 0.14127187 -0.3466025 -0.24719216 -0.4360009 0.3714875 -0.1611759 0.36485985
0.13174161 -0.39920303 0.14444043 0.39611864 -0.113437854 -0.35565796 -0.34119081 -0.039405555
0.061787568 0.02329363 -0.23235385 0.17600204 -0.12041313 0.36620525 0.32862824 -0.23271552
-0.13301453 -0.28723326 -0.09747807 -0.25831032 -0.28881675 0.19776109 0.32990327 -0.3522652
-0.22011212 0.12177222 0.34130153 0.16667788 0.3065592 0.021869808 -0.19511594 -0.19663547
-0.27078387 -0.33894587 0.14926983 -0.27017325 -0.42162812 0.10821743 0.020265626 0.008661763
-0.079776645 -0.07487813 -0.14725693 -0.053305343 0.23008147 -0.23925179 0.03872895 -0.20062023
-0.2687546 0.084527664 -0.22737296 0.4019095 -0.33892393 -0.38295263 -0.33790618 -0.3442682
-0.27352378 0.17044406 0.1312303 -0.312545 0.18934621 0.24754037 -0.3939211 0.34025052

fc1.bias f4 [256]
00000000: 3c70 b9bd 7cde 183e ad92 97bd ea73 a5bd
00000010: 54b3 103d aff6 1cbe 4824 40be 157a ac3e
00000020: c7bf 5ebe 7fd5 b23e 54a1 d7bd 4fdc bd3e
00000030: e79f bc3e 0d69 033e 1b34 ff3d 2050 17be
00000040: 4809 b03e f23e b4be 840f b83e 42dd 8d3c
00000050: 00c7 c7bd 91e6 44be 0d82 aebe d8d8 4dbe
00000060: e85e d33e 2202 bfbe 1d03 a4bc 0a2c 0e3e
00000070: 4531 92bd c869 263d 75ae 6e3e 367e b6bd
00000080: 2a81 393b 6dfc cfbd c956 413e 9a65 9f3d
00000090: 3475 253e c63b 1e3e 7dab cc3d 376f 07be
000000a0: 3a12 5cbe 6f7d 353d a12f f33d bc67 f0bd
000000b0: 44e6 a13e 5f28 153e 7e55 5e3e 6bfa 96be
000000c0: 1c80 92be e3da 533d 2521 db3d 88bd ac3d
000000d0: 3471 8fbe 67b8 233a cc2c 9b3e c12b bfbe
000000e0: b85d a43e acf1 563e 671e 9cbb 5945 b5be
000000f0: d0ee 1f3c fed9 69be 3219 973e f627 6a3e
00000100: 91d6 f63d 2b63 a1be 18eb d3be 7caf fabd
00000110: 4943 cabd 2e8c 683e 97aa f63d e662 9b3c
00000120: 0c01 24be 515d b9be 629c 81bb ff87 e93d
00000130: 4007 b0be b58b 38be 4e7f e33d d486 b3bd
00000140: 5660 b23e c66c 84be 1924 023d 9fd1 6ebe
00000150: 5571 6c3e 2826 df3e 8a35 1f3e 73d4 6abd
00000160: b277 a83e 8d16 aabe 1c66 cabe 988a ca3c
00000170: 3a72 9ebe f382 c8bd 83ee a23e 2b1d 803d
00000180: cc7c e53d ef83 cb3c d5d9 3d3e 8211 a8be
00000190: a174 933d 401e b13e 1015 643e 8e90 843e
000001a0: 1ce9 b93e 4d4d 1bbe 1397 9fbe bb19 c7be
000001b0: 7a2f 803e b769 88be f8a9 2a3d 18c1 ac3d
000001c0: b631 373e 0946 6fbd 8c98 fa3d 3cee b8bd
000001d0: b35a ecbd 5595 3ebc 1a8f fb3d 4b58 a63e
000001e0: 6eba 9b3e 15c1 e23d 5d3f 993e 909b 663e
000001f0: 7661 e73d 380a afbe 63a8 173c e2bd 1d3d
00000200: a8fd a1bd 0f4e 02be 743c 2ebe 710e aebe
00000210: 165b af3d 7379 a6bd aa31 aabe 13bd 2e3d
00000220: 0f23 90be 0e6f 97be 975b ab3e 3727 01bd
00000230: 1593 cebe 5d8c 3f3e 16b2 ab3e 5870 933c
00000240: f558 273d f373 873e 3b7d 343e 04e1 213e
00000250: a086 79be d339 01be 5e0f 393e 7bd4 723e
00000260: 158d 083e 6b46 babe d929 ee3d 37d3 1d3e
00000270: b993 24be b2b4 1cbe 794b 7c3e 2baf 7a3e
00000280: aa30 fd3d 96d1 9b3d 82d5 74be 2e5a cb3e
00000290: 03a9 743e 464f 813d 38d8 12be 8e8e b83e
000002a0: 4309 c93d 8373 13be 3760 dc3d a07a 7c3e
000002b0: 4874 57bd edba 07be 4457 083e c38f 2f3e
000002c0: 0d0d acbe 158a d43d d4ca 62bd 60b7 6ebe
000002d0: 7113 c73e 1420 bdbe 0db2 6b3e 35b6 913c
000002e0: ebe0 403e d652 983e b1c4 27bd adb5 a23e
000002f0: 8187 90be 4546 943b 328c b2bd dacd bbbe
00000300: ec64 8b3e a5bb f83c 854b b4be 0a8b 8e3e
00000310: 9292 adbe 7435 203e 6b3d 03be 735d cb3e
00000320: faea 11bd 9cfe b6bd b0fe f83d 0643 d0be
00000330: ec78 953e 78b5 11be b430 c23e 1706 b2be
00000340: c65e 4abe 76a2 f13d 7e39 0a3e 3dd2 493e
00000350: 5509 ccbe e164 a83c 9c6b 57bc 6482 4f3d
00000360: 18f4 b7be 2e91 f0bc d27c 7bbe 8973 4d3e
00000370: 6a05 1a3e f0ad 663e b399 c9be 4e5a a73e
00000380: 2c24 92be d0c9 4e3d 22c3 b83e 54e2 7d3e
00000390: 376c 353e 4a59 97be 522a aebe e490 b4be
000003a0: d245 86be 1035 70be 060a 1a3c cb1c bcbd
000003b0: 2913 5bbe 02e7 ad3e 569a 87be fe0d 04be
000003c0: 4dda 9d3d 19e8 6b3e 4f94 8d3d 1802 0dbe
000003d0: e7cf 3f3c 22dd dd3e 3f9d 6b3e 225e 8a3e
000003e0: 67f8 a63e fe10 653e 80b6 cfbd e7e1 03bd
000003f0: e2cb aabe 48d5 313e 9c54 2dbd f595 a23e
-0.0905461 0.14928621 -0.07401023 -0.080787495 0.03532727 -0.15328477 -0.1876384 0.3368689
-0.21752845 0.3492851 -0.10528818 0.37082145 0.36840746 0.12833042 0.1246111 -0.14776659
0.3438208 -0.35204273 0.35949337 0.017317418 -0.09754753 -0.19228579 -0.34083596 -0.2010225
0.41283345 -0.37306315 -0.020021016 0.13883987 -0.07138304 0.040628225 0.23308738 -0.089107916
0.0028305748 -0.10155568 0.18880762 0.07783051 0.1615799 0.1545249 0.09993646 -0.13226019
-0.21491328 0.044309076 0.11874319 -0.11738536 0.3162099 0.14566182 0.217123 -0.2948793
-0.28613365 0.05172242 0.10699681 0.08434588 -0.28016055 0.00062454346 0.30307615 -0.3733807
0.32102752 0.20990628 -0.0047643664 -0.3540447 0.009761527 -0.22837064 0.2951141 0.22866806
0.12052644 -0.31520972 -0.413903 -0.12240502 -0.09876115 0.22709724 0.12044256 0.018968057
-0.16016024 -0.36204007 -0.00395541 0.11402892 -0.3438053 -0.18022044 0.11108266 -0.08765951
0.34839123 -0.25864238 0.031772707 -0.23322152 0.23090108 0.43583798 0.15547767 -0.057331514
0.3290382 -0.3322033 -0.39531028 0.02472429 -0.30946523 -0.097906016 0.31822595 0.06255563
0.11205444 0.024843184 0.18540128 -0.32825857 0.071999796 0.3459339 0.2227366 0.25891536
0.3631066 -0.15166207 -0.31169948 -0.38886818 0.25036222 -0.26643154 0.041666 0.08435267
0.17890057 -0.0584164 0.12236127 -0.090298146 -0.11540737 -0.011632283 0.12283154 0.32489237
0.30415672 0.11071984 0.29931155 0.2252028 0.11297886 -0.34187484 0.009256455 0.038511164
-0.07909709 -0.1272509 -0.17015249 -0.33995393 0.08562295 -0.08128633 -0.33241016 0.042660784
-0.28151748 -0.29576916 0.33468315 -0.03153154 -0.4034659 0.18705888 0.33534306 0.017997906
0.04085632 0.2645565 0.17625897 0.15808493 -0.24367762 -0.12619714 0.18072268 0.23713867
0.13335069 -0.3638185 0.116290756 0.15412603 -0.16071977 -0.15303305 0.24638166 0.24480884
0.123627976 0.07608335 -0.23909572 0.3971724 0.23892598 0.06313948 -0.14340293 0.3604626
0.0981622 -0.14399533 0.10760539 0.24656153 -0.05260113 -0.132549 0.13314539 0.17144684
-0.33603707 0.103778996 -0.055369213 -0.2331214 0.3888202 -0.36938536 0.2301714 0.017787078
0.188358 0.297507 -0.040959064 0.31779233 -0.2822838 0.0045249783 -0.087181464 -0.3668049
0.27225435 0.030362913 -0.35213867 0.27840453 -0.33900887 0.15645391 -0.12816398 0.39719734
-0.03562448 -0.08935282 0.12157953 -0.40676135 0.2919382 -0.14229381 0.37927783 -0.3477027
-0.19762716 0.11798565 0.13498494 0.19709106 -0.3985087 0.020555915 -0.013148215 0.05066146
-0.35928416 -0.029366102 -0.24559334 0.20063604 0.15041128 0.2252729 -0.39375076 0.32686085
-0.28543222 0.050485432 0.36086375 0.24793369 0.17717062 -0.2956031 -0.34016663 -0.35266793
-0.26225144 -0.23457742 0.009401804 -0.09185179 -0.21394028 0.33965307 -0.26484936 -0.12895963
0.07707653 0.23037757 0.06913053 -0.1377033 0.011707283 0.43332773 0.23009203 0.27024943
0.3261139 0.22369763 -0.10142231 -0.03219786 -0.33358675 0.17366517 -0.042317018 0.31755033

fc2.weight f4 [256, 256]
00000000: dacd 4c3d 30b5 8c3c b089 9cbc 90a6 5fbd
00000010: ba55 33bd e916 bdbc 60bc 083d 1455 f1bc
00000020: 324c 27bd 74cd 5e3d 8c29 8a3c b709 143d
00000030: 7413 2b3d 6eee 62bd d49c 173d c548 36bd
00000040: 90dc e1bc 4d76 6f3d 12eb 3ebd 18f5 1f3c
00000050: b033 873b 09ee 0dbc cc2c 133d b027 f4bc
00000060: e817 423d 78cf 9c3c 14e1 0dbd 4a08 13bd
00000070: c65e 093d c06e 223d 5a3b f3ba 2808 6f3d
00000080: 5907 f9bc 825c 1c3c 227c 3bbd 2ce8 4d3c
00000090: 9297 2bbc 0453 a0bc e0cd 1f3d b0c0 473d
000000a0: dcb9 14bc 71db b5ba 359e 3abc 0c70 2fbd
000000b0: 9be3 2fbd d00f 8bbc 1442 3abd 1f7b 5abd
000000c0: 77d9 0c3c 6e0d 04bd 68ed 01bc ea00 12bd
000000d0: e81c 563d b4c0 593d 3f8e 3c3d f82a 12bc
000000e0: 80d2 2b3b 8ac2 08bd d940 013d ff3d 243d
000000f0: 9426 c13c 7201 153d 6e7c 7d3d c6b4 db3c
00000100: ed01 7bbc 5876 76bd 8ad6 b6bb e47a 063d
00000110: 6045 d23c a604 31bc db28 1f3d 9661 71bd
00000120: d0fa e03b 2490 2abd b27f 1dbd 641c 82bd
00000130: dceb 283d ce1a 353d 036d 453d 1c85 2b3c
00000140: e405 0dbd c4d1 77bd e2ca 51bc ea04 5a3d
00000150: 9e5e 63bd bb20 233d 85fe 45bd 1ab6 663d
00000160: dc1f 16bd 52bf 513c 9095 74bd 129c 30bc
00000170: ce0b 3e3d 9615 6cbd 3706 0a3c 9972 b0bc
00000180: 010f d3bc 5467 5f3d 888e a63c 62ca bdbb
00000190: bba8 b63c 1048 e53c 75f1 5dbc ff13 35bb
000001a0: 4c74 8d3c 40ce 0ebb f8cf 573d b2f4 7dbc
000001b0: 1a55 39bc 6172 eabc f00f a0bc b187 873d
000001c0: f80b 46bd b086 b2bc 004f ac3a d0e4 9b3b
000001d0: cdfb 14bc 35f1 40bc faa6 1a3d 5802 553c
000001e0: 60ae 87bb 6087 69bb c8dc 36bd 22a4 25bd
000001f0: d0b9 58bd 4c7d 71bd 14ec 46bc 0422 d13c
00000200: 9eb4 07bd 846a 84bc 1011 8fbc 2009 083d
00000210: 78f5 5f3d dc83 61bc 9007 dc3c c0b7 343c
00000220: 304c e5bc e4f4 283d d891 893c 3285 393d
00000230: b8ad 7b3c 502e 4cbd 0094 39bd 5110 74bd
00000240: 5609 5d3d 513d 1cbc 765c e33c 4672 513d
00000250: 24f1 84bc ec20 24bd 604f c03c 1650 0abd
00000260: d2c4 173d fa4c 5c3d f6a6 48bc 17f0 413c
00000270: 2804 223d 7bca 71bd 1059 fd3b 304c cc3c
00000280: 90f8 683c 7801 b2bc 4cb7 85bc de24 6d3d
00000290: b1d6 aa3c 845e f93c ab65 063c 01f9 02bc
000002a0: dc98 ac3c 3c94 e93c 20d9 95bc 8c9c 78bc
000002b0: 46b5 29bd 2d1e 3bbc fabe 19bd 38d4 4cbd
000002c0: e4ae 843c 9428 083d 96e9 1d3d 6366 d1ba
000002d0: 6840 1b3d 26fd 4e3d 9fb2 1b3d fdd6 00bd
000002e0: a222 453d 5c4b dfbb f627 723d 6450 483d
000002f0: 58a4 1ebc 219f 623d 640a 6ebd 8ccd 7fbd
00000300: cea1 04bd 6216 65bd 77e2 c9bc f823 a7bc
00000310: 6889 67bd 3e21 40bd 4844 a5bc 801f 6cbc
00000320: f877 463d 0040 41bd c624 c33c 0044 bc3c
00000330: aef8 7d3d d4f5 f33c 701a 4b3d 1482 bcbc
00000340: 14e4 523d 1aa0 ab3c ec55 d43c 07ba ad3b
00000350: 3b3f 1bbd 5058 263d 2410 44bd 303b 29bd
00000360: 8ca0 75bd e544 07bd 3052 4d3d fe21 7b3d
00000370: de80 acbc 8bd2 68bd 6083 eb3c cc68 0a3d
00000380: 2907 683d 7e3c 36bd bec2 78bd 980f 143a
00000390: e1f7 71b9 50df 7abd 5637 2ebd c50e 093d
000003a0: a0f3 573c 0022 b2bc 129f 0e3d 22c5 243d
000003b0: 1e46 6d3d 8ff1 b83c e0a6 78bb fc71 953d
000003c0: 438c 313d 946d 03bb 1446 d4bc 6871 31bd
000003d0: 102a fb3b eaa8 953c 2ea6 17bd 296d 73bd
000003e0: d630 173d 6a4b 7ebd 4a77 83bd 31eb 6f3d
000003f0: 00a4 d03a 9469 c53c 9239 49bd 1444 38bd
0.050001003 0.01717624 -0.019108623 -0.054602206 -0.043782927 -0.023082213 0.033382773 -0.029459514
-0.04084415 0.054395154 0.016865514 0.036142077 0.0417666 -0.055403166 0.037014797 -0.044502992
-0.027570993 0.05846243 -0.0466109 0.009763025 0.0041260347 -0.008662709 0.035931394 -0.02980408
0.04738608 0.019141898 -0.03463848 -0.035896577 0.03353765 0.0396564 -0.0018557117 0.058357388
-0.030399011 0.00954354 -0.04577268 0.012567561 -0.010473149 -0.019570835 0.039014697 0.048767745
-0.009077515 -0.0013874603 -0.011390259 -0.042831466 -0.04294167 -0.016975313 -0.045473173 -0.053340074
0.0085967695 -0.03223937 -0.007930137 -0.035645403 0.05227366 0.05316229 0.046034094 -0.008921377
0.0026217997 -0.033388652 0.031555984 0.040098187 0.023577966 0.03637833 0.061886244 0.026819598
-0.015320283 -0.060171455 -0.0055797743 0.03283204 0.025667846 -0.010804331 0.038857322 -0.058930956
0.0068658367 -0.04164137 -0.038451858 -0.06353071 0.041240558 0.044215016 0.048199665 0.0104687475
-0.034429446 -0.060502782 -0.012804719 0.053227343 -0.055510156 0.039826136 -0.048338432 0.05632601
-0.036651477 0.012801962 -0.059712946 -0.010779398 0.046397977 -0.057637773 0.008424333 -0.02153902
-0.02576399 0.0545419 0.020331636 -0.005791948 0.022297254 0.027988464 -0.013546337 -0.0027630327
0.017267369 -0.0021790415 0.05268857 -0.015500234 -0.011311794 -0.028618993 -0.01953885 0.06617678
-0.048351258 -0.02179274 0.0013146102 0.004757501 -0.009093237 -0.011776258 0.037756898 0.013001047
-0.00414066 -0.0035633668 -0.044644147 -0.040439732 -0.05291158 -0.058957383 -0.012141246 0.025528915
-0.033131234 -0.016164072 -0.01746419 0.033211827 0.054677457 -0.013764348 0.026859075 0.011030138
-0.02799043 0.04124917 0.016793177 0.04529304 0.015361242 -0.049848855 -0.04530716 -0.059585873
0.05396398 -0.009536103 0.02775405 0.05113437 -0.016228266 -0.04007046 0.023475349 -0.033767782
0.037052937 0.053784348 -0.012246838 0.011837027 0.039554745 -0.05903099 0.0077315643 0.024938673
0.014219418 -0.021729216 -0.016322754 0.057896487 0.020854326 0.030440576 0.0082029505 -0.0079939375
0.021068983 0.028513066 -0.01829201 -0.015174042 -0.04143264 -0.011420769 -0.037535645 -0.050007075
0.016196676 0.033241823 0.038552843 -0.0015975948 0.03790322 0.05053439 0.038012143 -0.03145503
0.04812873 -0.0068144035 0.05912014 0.04890479 -0.009682737 0.05532754 -0.058115378 -0.062451884
-0.03238087 -0.05592955 -0.02464412 -0.020402893 -0.056527525 -0.046906702 -0.02017416 -0.014411807
0.048454255 -0.047180176 0.023821246 0.022981644 0.062004738 0.029780306 0.04958576 -0.023011245
0.051487043 0.020950366 0.025919877 0.005301717 -0.0379021 0.040611565 -0.047866955 -0.04131621
-0.059967563 -0.033024687 0.05012721 0.061311714 -0.021057542 -0.056841414 0.028749168 0.03379135
0.056647453 -0.044491284 -0.060732596 0.00056480756 -0.00023075893 -0.061248124 -0.04253324 0.03346135
0.013180643 -0.021744728 0.03481967 0.040227063 0.057928197 0.022576122 -0.0037941262 0.072971314
0.043346655 -0.0020054327 -0.025912322 -0.043321043 0.0076649264 0.018269021 -0.037023716 -0.059430275
0.036911808 -0.06208364 -0.06419237 0.058573905 0.0015918016 0.024098195 -0.04912717 -0.0449868

fc2.bias f4 [256]
00000000: f2db 9cbd eafd 933c 9efd 45bd b19f e5bc
00000010: 6496 733d a54f 9c3c 1312 59bd 7280 7e3c
00000020: 15d2 17bc 1266 573d 3f9b 30bd 85f0 633c
00000030: 3dc8 5b3d 75b4 963c c32e 6c3c 2eb1 123d
00000040: 0540 9d3c 58f2 863d dc18 9abc 8ef8 553c
00000050: d46b 24bd 0052 7dba 9007 13bd 4021 b6bb
00000060: 587d 663c bbb6 3f3b 9bd3 203d a09a 71bd
00000070: a93c 443d a027 2e3d f8e6 5abd b16f 4c3d
00000080: 3061 3c3d 362b fd3c a53e 8abc a07d 6cbc
00000090: 220f c33b a258 13bd 224b 643d 7875 ce3c
000000a0: 1575 533d dc5a 8e3d 9845 51bc fa06 02bc
000000b0: 1bdc 5abb ec7e 57bd a7dd 473c 10f7 493d
000000c0: 0c19 e23c c24d b6bc 1a49 db3c 9724 1cba
000000d0: b074 89ba 0e7d 363d 08e8 33bd 66ae 5d3d
000000e0: e469 aebd ce3f 07bd 1c59 933c 1821 2dbc
000000f0: 5c2c cd3c 345b debc 94ac 81bd e6cb 0ebd
00000100: 88b2 dabc b33a f33c e1f4 1c3d 254c afbc
00000110: 6ee5 6f3d a1c2 f93a dde2 2cbd 286f fabc
00000120: 5012 0cbd 13a1 e83c 216b 993d d468 cf3c
00000130: b2ad 453d 3f0b 0c3c f088 43bc 485b d93c
00000140: 456c 32bc 0a8b fdbb 06f4 fc3c 7291 073d
00000150: e2d2 ae3b dc11 bcbc e4f9 f23c c076 c63c
00000160: 3ee9 4a3d 9e4a 3bbd 5e6c 39bd 0c2c 243c
00000170: 011e fdbc d81b 82bd 5cba 8f3c 10bf 8abc
00000180: 3cb4 f03c 3045 42bc 8c16 cbbc 9c2c 103d
00000190: ab21 473d f032 bebc c0ad bcbc b04b f43b
000001a0: 389e c7bc 2914 0a3d 8867 22bc 68c7 a73d
000001b0: 50c2 d1bc 28f2 6cbd 10f6 183d 324f a6bd
000001c0: b30d 7d3d ee93 633d 54be 15bd d2cf a3bd
000001d0: 4f5e 803d b54a b4bb a4b9 283a b9e2 01bd
000001e0: 36ca 263d 542e 8c3c b086 e2bb 7048 04bc
000001f0: 3a87 58bd c29f 693d 6cbb d2bc da80 fbbc
00000200: fccb 713d 0454 dc3b b6fd 5e3d 5092 57bc
00000210: 85e9 a73d cc6e a73c f774 803c 3de5 a0bc
00000220: 5bce d6bc 90df 1ebc b817 8a3c b864 25bd
00000230: 1a76 593d 8e34 a1bc b3b5 0f3c 97ce dd3a
00000240: b399 043d 69d8 0bbc 00a5 09bb c8a7 5ebd
00000250: 4b48 503d 7d83 c03b a3e3 62bd 8f6b 133d
00000260: e87b 523d 1532 cfbc 6852 16bd f82c 9ebc
00000270: b04d 0bbc ebef 583d babe 213d 255a 1fbc
00000280: be47 0bbc 06bc 253d 8014 623d d8db 363d
00000290: 6056 9cbb 5065 a4bb e303 69bc ec91 ba3c
000002a0: 9aa3 63bd d239 c0bd e86f 54bd edfe a7bc
000002b0: 0038 9839 1408 713d bfd2 b0bc 5902 89bc
000002c0: 8d14 8cbc 745e 7a3d 52dc 863d 5049 8b3c
000002d0: 8ab9 37bc 38e8 6e3c e94a 7d3d 5126 9dbd
000002e0: 21dd 9c3d 3022 a83c 1084 ec3c c047 053d
000002f0: 88a7 29bc c7f1 99bc 9b11 5a3d b3bc 84bc
00000300: fb3a b03d d838 5a3c cf4e 683d 629e 6ebd
00000310: d035 db3c 931e 693d 4298 7cbd dc4f ec3c
00000320: 04df db3c 0cef ff3c 5d1d db3a cc3d f8bc
00000330: 40d0 e33b 6f93 c93b 7e9f 113d b304 41bc
00000340: 60c0 a23d 7bc4 1f3d 4e3b 053d 8b68 8c3d
00000350: 940b b33a fa8c 433d 4a91 e8bc e56e c83c
00000360: 120e 8e3c 60ee a93d 0bfb 42bc 3f17 d63c
00000370: f686 4ebd 9127 d13c e606 ba3c dd67 12bd
00000380: cb0a 93bc 4d22 9d3c 20dc 0dbd 9d04 91bd
00000390: 18cb 2c3c d0d4 d0bb 90d4 843c 10f0 edbc
000003a0: 3294 63bd 667a 2a3d 4a4e 843d a3f0 d5bc
000003b0: 27bc 48bc a852 03bd c038 833c 4e3a 493d
000003c0: b420 aabc a513 913d 070d a9bc b1ff 473d
000003d0: 6868 bb3c e063 223d a176 74bc 3a3b 4dbd
000003e0: 8098 52bc 259e b63b 38b5 29bd 1648 5d3d
000003f0: 392a 783d bf94 2a3d efb9 413d 9278 2ebd
-0.07659139 0.018065412 -0.04833757 -0.028030248 0.059469596 0.019080946 -0.052995753 0.015533553
-0.009266396 0.052587576 -0.043116804 0.013912325 0.05365776 0.018396595 0.014415446 0.035813503
0.019195566 0.06589192 -0.018810682 0.013059748 -0.040141895 -0.0009663403 -0.035895884 -0.005558163
0.01406797 0.0029253203 0.039264303 -0.058985353 0.047909413 0.042518258 -0.053442925 0.049911205
0.045991123 0.030904394 -0.016875574 -0.014434248 0.0059527317 -0.0359732 0.055735715 0.025202498
0.05162533 0.06950924 -0.01277294 -0.007936234 -0.0033395353 -0.052611277 0.012198842 0.049307883
0.027599834 -0.022253875 0.026768256 -0.000595638 -0.0010487046 0.044552855 -0.043922454 0.054121397
-0.08516291 -0.033019833 0.017986827 -0.010566972 0.025045566 -0.027143098 -0.06331745 -0.03486242
-0.026696458 0.029691076 0.038319472 -0.021398613 0.05856841 0.0019055196 -0.04220854 -0.030570582
-0.03419715 0.028397119 0.07491136 0.02531854 0.048261352 0.008547603 -0.011934504 0.026532784
-0.010890071 -0.007737522 0.030878078 0.03309769 0.005335198 -0.022957735 0.029660173 0.024226546
0.049538843 -0.045725457 -0.045269363 0.010020267 -0.030898096 -0.06352967 0.017544918 -0.016936809
0.029382817 -0.011857316 -0.024791025 0.035198793 0.048616093 -0.023217648 -0.02303207 0.0074553117
-0.024367437 0.033710632 -0.009912379 0.081923306 -0.02560535 -0.057848126 0.03734404 -0.08120574
0.061780643 0.055561 -0.036558464 -0.07998623 0.06267988 -0.00550207 0.0006436354 -0.03171036
0.040720187 0.017111935 -0.0069130287 -0.008073911 -0.052863337 0.057037123 -0.025724135 -0.03070109
0.059032425 0.0067238826 0.054441176 -0.013157442 0.08198837 0.020438574 0.015680773 -0.01964056
-0.026221445 -0.009696856 0.016857013 -0.040379256 0.053091146 -0.01967838 0.008771348 0.001692253
0.03237314 -0.008535483 -0.0021002889 -0.054359227 0.050850194 0.0058750496 -0.055392873 0.035991248
0.051387697 -0.025292436 -0.036699682 -0.019308552 -0.008502409 0.05296318 0.03948853 -0.009726082
-0.008500991 0.040462516 0.05519533 0.044643253 -0.004771039 -0.00501696 -0.014222118 0.02277466
-0.055575944 -0.09386028 -0.051864535 -0.0205073 0.00029033422 0.058845595 -0.021584867 -0.016724752
-0.017099643 0.061125234 0.065849915 0.017002732 -0.01121367 0.014581732 0.061839018 -0.07673324
0.076593645 0.020524114 0.028871566 0.03253913 -0.010354884 -0.018792046 0.053239446 -0.01620326
0.08605 0.013319217 0.056715783 -0.058256514 0.026759058 0.056913923 -0.061668642 0.028846674
0.02683974 0.031241916 0.0016717125 -0.030302905 0.0069523156 0.0061516087 0.035552494 -0.011780906
0.07946849 0.039005738 0.03252726 0.068558775 0.0013660067 0.047741868 -0.028389592 0.024466941
0.017340694 0.082974195 -0.011900674 0.026134131 -0.050421678 0.025531562 0.022708368 -0.035743583
-0.017949482 0.019181395 -0.034633756 -0.07080958 0.010546468 -0.0063730255 0.016214639 -0.029045135
-0.055561252 0.041620634 0.06460245 -0.026115721 -0.01225189 -0.03206125 0.016018271 0.04912787
-0.020767547 0.07083825 -0.020636095 0.04882783 0.022876933 0.03964603 -0.014920861 -0.05010531
-0.012853742 0.0055730515 -0.04143259 0.054023825 0.06058714 0.04164576 0.04729646 -0.042595454

mean_layer.weight f4 [2, 256]
00000000: 323b 5b3d 1764 223d c2b2 2b3c 88c8 c03c
00000010: cb86 b7bc 6369 9e3c f86a cf3c 2466 5d3d
00000020: a2c0 2e3d 51f0 b6bc c229 bebc 89b9 e23c
00000030: 0fb5 653d cb29 02bd 722c 33bc 8519 013d
00000040: 6d86 f83c 4064 3fbc 7266 07bd e903 7dbd
00000050: 26ca 273d f832 8b3c 50bc aabb 9051 913c
00000060: 82c2 eebc 28db 453d 7456 80bd a0a1 033c
00000070: 9c23 3a3b 9c4e 95bc 82bf 77bd c344 0abd
00000080: bc2b f5bc 184b 283d 348e 813b dcd6 acbc
00000090: 9fdf e23c 2203 1f3d 9c48 9d3c ee71 1dbd
000000a0: eea3 55bd 5331 59bd 4c8c 03bd a866 1d3d
000000b0: 9058 c5bc 942f 46bd 678d 4dbd c011 973b
000000c0: 98d6 e63c 40fc d03c 9846 72bd e66d 6abd
000000d0: 1f21 223d 6c61 983d 92d1 5fbd 78b9 5f3d
000000e0: ff61 413d f722 9e3c 2a40 dfbc 0a35 1e3d
000000f0: b3a4 373d 1ede 4dbd 0aa2 9a3c ca20 03bd
00000100: 6afa 09bd 4b5d 8d3c f065 d73c 37fb aabc
00000110: c31d 70bd 23a8 653d b88b 093d 8003 403d
00000120: 2cba c03c 8645 48bd 6d69 ebbb e612 27bd
00000130: 3878 92bc df21 02bd 3ef4 033d c4c3 7a3d
00000140: 76b8 0f3d ba0f 5e3b 0747 70bd 4045 a2bc
00000150: 6c81 193d 6821 d5bc f872 b6bc 6228 2ebd
00000160: 48e3 69bc 106b 84bb e6ef 633d 9b24 5b3d
00000170: 14b2 ef3b aa29 893c a8dc 563c e344 51bd
00000180: 608e b7bc 108c 75bd c8bb 473d 2baf e53c
00000190: 2ebc f9bc b0d5 123c dc6b 6fbd 8c63 74bd
000001a0: 4d76 3abd 2a5a fa3b 1868 d2bc b4de 8dbc
000001b0: 1c9d 7e3d c6d3 d33b 1828 243c a261 623d
000001c0: c681 2f3d 7aac 6f3c 2031 8937 df23 2f3d
000001d0: 7c69 2dbd 0f38 1f3d e92a 6fbd 7ef8 613d
000001e0: 1a53 b0bc c008 453c 8e78 193d c09d 31bd
000001f0: c84e 4a3d 4e8a e1bc bad8 2a3d 9787 49bd
00000200: 714c 1f3c 8208 41bc 806c 3b3b b046 d73b
00000210: 612a 81bd d077 4fbd 87ee 89bc 28ec 2bbd
00000220: c6bb 193d 006a 33bc 2b01 383d e891 053d
00000230: 9087 54bc 92dd 84b9 b0a6 40bd 911b 74bd
00000240: c72a c53b b249 a7bd 5ac2 38bd 9a1f 243d
00000250: dd97 ea3c b7d1 e13c a20d c63b 35fa 2e3d
00000260: 8cd8 c9bc 83be 0e3d ec56 da3c f1da 1c3c
00000270: 506d d2bb e2a9 403a c028 75bd 6c2e 183d
00000280: a80e 7e3c a215 5cbd 904f 77bd 7a95 2abd
00000290: 9866 e9bc 8a51 7fbd ed15 8bbc 401d f2bb
000002a0: 0862 2e3d 8dbe 763d 1559 6d3c 9ec3 b2bc
000002b0: bcee 25bd 8821 5cbd 7085 8a3b 220d 77bd
000002c0: 2cab 433d 786b 22bd 7290 98bc 2054 0ebb
000002d0: d314 223d e425 b6bc a6c9 52bb 7018 5e3d
000002e0: 4acb 793d d061 23bd 80af 76bb 3251 2c3d
000002f0: e86e 77bc cf51 7c3d 1c1d 9a3a f218 373d
00000300: 400a d1bc b066 d3bb 688a e0bb ceba 34bd
00000310: 40f4 253d 0dbe 01bd da8a 2bbd 5013 71bd
00000320: 8e3a 053d 008a f8b9 903e a0bb 67a3 553c
00000330: 021c 683d 4781 f8bc 0093 763d 1dd1 2a3d
00000340: 53eb e4bb 88fc 553d 0721 603c 5766 a4bc
00000350: 3cea 643d 683f 3bbc b2b4 7ebd a68c 75bc
00000360: 1a6f 07bd 68c8 e3bc 85e3 9fbc 48dd 8e3d
00000370: 9a56 7f3d 1db6 62bd 95f9 7ebd 290f d33c
00000380: 0ad7 963c 92ab 72bd 4aa4 80bd b25c 583d
00000390: b042 51bd 98d2 653c 4cd7 96bc 844a afbc
000003a0: 3272 3c3d 94ed fc3c 05cc 98bc 6052 363d
000003b0: 11f1 0abd f022 bf3b dcf3 d8bc 6a4a 0dbd
000003c0: 520a b03c 595c 20bd 7056 0abd 7ff2 033d
000003d0: dde6 81bb 5d28 273d 5be9 2b3c 9888 693c
000003e0: 48d3 4ebc 3f12 de3c 4ecd 3abd 10f3 ef3c
000003f0: 551f fa3b ae24 7fbd a763 323d 542a 9c3c
0.05352325 0.039646234 0.010479631 0.02353312 -0.022403141 0.019337362 0.025319561 0.054052487
0.042664178 -0.022331389 -0.023213271 0.02767636 0.056080874 -0.031778138 -0.01093589 0.031518478
0.030337537 -0.011681616 -0.033056684 -0.061771307 0.04096427 0.016992077 -0.005210437 0.017739087
-0.029145483 0.048304707 -0.062664896 0.00803414 0.0028402572 -0.01822596 -0.06048537 -0.033756983
-0.02992808 0.04108724 0.0039537195 -0.021098547 0.027694521 0.038821347 0.019199662 -0.03843873
-0.05215829 -0.053025555 -0.03211622 0.03842798 -0.024090081 -0.048385218 -0.05018368 0.0046102703
0.028178498 0.025510907 -0.059149355 -0.057233714 0.039582368 0.07440457 -0.05464322 0.054620236
0.047212597 0.019303782 -0.027252275 0.0386248 0.044834804 -0.050260656 0.018876094 -0.032013692
-0.03368608 0.0172564 0.026293725 -0.020871742 -0.058622133 0.05606855 0.03358051 0.046878338
0.023526274 -0.048894428 -0.0071841986 -0.040789507 -0.01787959 -0.031770583 0.03221535 0.061221853
0.035088025 0.0033883885 -0.058661487 -0.019808412 0.037476942 -0.026016906 -0.022271618 -0.04251898
-0.0142753795 -0.004041083 0.055648707 0.053501707 0.0073149297 0.0167435 0.013114132 -0.051091086
-0.022406757 -0.059948027 0.048763067 0.028037628 -0.030485239 0.00896208 -0.058452472 -0.059665248
-0.045522977 0.007640143 -0.025684401 -0.017318107 0.06216155 0.0064644543 0.010019325 0.05526889
0.04284837 0.014628524 1.6354548e-05 0.04275882 -0.042336926 0.03887182 -0.05839053 0.05516862
-0.021524 0.012026012 0.037468486 -0.043363333 0.049391538 -0.02753177 0.041710593 -0.049201574
0.009722815 -0.011781814 0.0028598607 0.006569706 -0.06306911 -0.05065137 -0.016837372 -0.041973263
0.03753259 -0.010950565 0.04492299 0.03260985 -0.012971774 -0.00025342085 -0.047033966 -0.059596602
0.0060170623 -0.08168353 -0.045107223 0.0400692 0.028636867 0.02756582 0.0060441056 0.042719085
-0.02463939 0.034849655 0.026652776 0.009573684 -0.0064217225 0.0007349533 -0.059853315 0.037153646
0.015506424 -0.05373157 -0.06037861 -0.04164646 -0.028491303 -0.06233362 -0.016978228 -0.007388741
0.04257396 0.060240317 0.014486571 -0.021821793 -0.040510878 -0.053742915 0.004227333 -0.06031526
0.047770664 -0.03965327 -0.018623564 -0.0021717623 0.03957064 -0.022234865 -0.003216365 0.054222524
0.060984887 -0.039888203 -0.0037641227 0.04206962 -0.015102126 0.061601456 0.0011757943 0.044701524
-0.025517583 -0.0064514503 -0.006852437 -0.044123463 0.040516138 -0.031675387 -0.041880466 -0.05885631
0.032526545 -0.00047405064 -0.0048902705 0.013039446 0.056667335 -0.030335082 0.060198784 0.041703332
-0.0069860606 0.052242786 0.013679749 -0.02006833 0.055887446 -0.011428691 -0.062184043 -0.0149871465
-0.03306494 -0.027805522 -0.01951767 0.069758 0.06233845 -0.055349458 -0.06224974 0.025764065
0.018413085 -0.059245653 -0.06281336 0.052822776 -0.05108899 0.01402726 -0.018413208 -0.021397837
0.046007343 0.030875005 -0.018651972 0.044512153 -0.033921305 0.0058330223 -0.026483469 -0.034494795
0.021489296 -0.03915057 -0.03377384 0.032213684 -0.0039642886 0.040809978 0.010492648 0.014253758
-0.012623616 0.02710831 -0.04560595 0.029290706 0.0076331296 -0.06229084 0.043552067 0.019063152

mean_layer.bias f4 [2]
00000000: 5263 a53b c5c3 233d
0.0050472403 0.039981622

log_std_layer.weight f4 [2, 256]
00000000: fc1d c7bc 3211 243d 7c36 c6bc bca7 063d
00000010: acec fcbc 00d0 edb8 4052 c6ba 98aa 33bd
00000020: a231 1f3d 68e6 fd3c 28ec 03bc 7296 20bd
00000030: 943c c73c ac50 7dbd a8bd 06bd 16cc 63bd
00000040: daa3 163d aef7 5fbd a8c5 05bd e62d 253d
00000050: 0050 433d 2011 95bc 44be 013d dc42 873c
00000060: 80b9 40ba e8d7 febc 7ef2 4fbd 8ca4 5f3d
00000070: f4f5 6cbd f8bb 78bd 0cf8 62bd 64c3 1b3d
00000080: 0870 1ebc f811 753c 2043 8a3b ccaf ea3c
00000090: 4885 f7bc b2dd 05bd 7287 0abd 5462 1dbd
000000a0: 1682 6fbd 8835 a6bc a48a 303d 72b0 2d3d
000000b0: 94f8 debc d027 21bd c00f 1c3c c0a6 5fbd
000000c0: 6c97 a4bc c443 49bd e8fb 89bc e472 db3c
000000d0: c684 39bd 2206 183d a807 32bc e0e8 cb3c
000000e0: 488e 14bc 06c3 353d 6084 d53c 001a c4ba
000000f0: 863e 77bd e06b 463d 9a8d 273d 0092 133d
00000100: 708a 713c 463a 373d 3425 e23c b40d 50bd
00000110: 48d0 433c e047 953c d831 e9bc 6807 083d
00000120: c0bf 9c3a 3ccc c43c e2cb 2c3d 6c06 343d
00000130: fcff e8bc 425a 61bd f47b b1bc 2049 443c
00000140: 24ce a0bc da5e 14bd 22c3 143d e0cc b6bc
00000150: 0ce5 cebc bcb9 db3c 4ca2 93bc b6aa 0cbd
00000160: 2048 1dbd 9ad3 13bd 22b9 143d 0079 cf39
00000170: 981d 8d3c c6bf 18bd fc1e 523d 448f b0bc
00000180: 381d 6bbc a812 bd3c c6eb 0ebd 60b2 02bd
00000190: 2ae2 2cbd 9aef 1c3d 50e6 a9bb 300c 3f3d
000001a0: 7cc9 8a3c 12a6 3ebd 1a8e 27bd ec78 8b3c
000001b0: 9688 713d e06c 9d3b dc1a 5c3d 608f 1f3b
000001c0: 7605 7bbd 08fd ccbc b293 66bd 6856 7fbc
000001d0: 02fb 0e3d c44e 273d 78c3 8f3c a898 5fbd
000001e0: d849 66bc a010 4f3b e2e4 683d 10c4 9e3b
000001f0: f410 c53c 489e 683c 4e54 5dbd 3033 e33b
00000200: 3832 16bd f8da 273d 68cd f4bc ac1d 823c
00000210: 285c 423c a6e4 5c3d 5886 4fbd b8e1 6dbc
00000220: b8ce 023c 1cf1 123d 2a62 0dbd e48f f23c
00000230: 105a d73b ca8c 2f3d 2c33 913c 76f6 383d
00000240: 44c0 d3bc c65f 6abd e843 21bd ca8b 12bd
00000250: c02e b8bc 76bc 50bd 48f3 373c 7e40 1bbd
00000260: a099 0c3b 00f4 6239 70a0 f7bb a48d c2bc
00000270: 80a4 423d c245 123d 0c64 aabc 18de c33c
00000280: b8c3 5dbc 80e4 60ba 3c7d bd3c dc19 4ebd
00000290: cefe 06bd 5e0f 123d 9027 79bd d6cc 153d
000002a0: e002 b83b e848 5bbc 7006 ba3b b8f8 5bbc
000002b0: b67e 57bd 1452 b6bc e82a 473d 88b0 24bd
000002c0: 90b6 5bbd f04d 9cbb b6bd 1a3d 9ef5 6d3d
000002d0: 2a4a 2fbd 80c3 f63b e81e 5e3d 5827 fa3c
000002e0: 5483 42bd e2f3 6b3d 006c a039 f2b6 3abd
000002f0: 00d7 69bb 646e c83c 20b9 963c 10e9 183d
00000300: 34ec 41bd 5a96 1bbd f001 d1bc 70f8 583d
00000310: 3457 843c 5056 38bd 06c7 53bd 2223 233d
00000320: f26c 623d be2e 063d 1827 3bbd 5057 e2bc
00000330: d0ce c73b 246c 08bd 08c0 4ebd d4e3 7dbd
00000340: ca2a 753d c857 ddbc 6c6c babc 586e 103c
00000350: 1412 e2bc 20b7 453d c270 193d 50eb 5fbc
00000360: 8cb9 d93c e82e c63c 1285 77bd 78ca 6a3d
00000370: bc62 80bc 4292 6ebd c868 4cbc 4c66 85bc
00000380: 306f 1abd 722a 263d ceb2 58bd 8022 5fbc
00000390: f092 8a3b 88f5 05bc 16e8 543d c2b6 33bd
000003a0: 601c 9dbb 2adb 113d 3403 87bc 545e aa3c
000003b0: 5ca1 d63c b815 5b3d e0e4 383b 0060 58b7
000003c0: 243f f7bc 5838 b4bc f040 14bc b473 95bc
000003d0: a8de 78bc e8bb 43bd 78fc 0bbd ca7e 6c3d
000003e0: 5e91 21bd 003f 2f3b 2ce7 893c de4b 0b3d
000003f0: c6eb 77bd 803a 0abd 54ca a2bc bc27 383d
-0.02430629 0.04005546 -0.024195902 0.032874808 -0.030874573 -0.00011339784 -0.0015130714 -0.043863863
0.038865693 0.030993655 -0.0080519095 -0.039205976 0.024320878 -0.061844513 -0.032895714 -0.055614553
0.036777355 -0.054679565 -0.032659203 0.040326975 0.047683716 -0.018196642 0.031675592 0.016511373
-0.00073518604 -0.031108811 -0.050768368 0.054600284 -0.057851747 -0.060726136 -0.055412337 0.038028136
-0.009670265 0.014957897 0.0042194277 0.02864828 -0.03021492 -0.03268213 -0.033820577 -0.03842385
-0.05847367 -0.020289198 0.043100968 0.0424046 -0.02721814 -0.03934461 0.0095252395 -0.054602385
-0.020091735 -0.049136892 -0.016843751 0.026788183 -0.04529264 0.037115224 -0.010866083 0.024891317
-0.009067126 0.044375442 0.026064098 -0.0014961362 -0.06036236 0.04844272 0.040906526 0.03602791
0.014742479 0.04473331 0.02760563 -0.05079432 0.011951514 0.01822275 -0.02846615 0.03321019
0.0011959001 0.024023168 0.042186625 0.043951437 -0.028442375 -0.055017717 -0.02166555 0.011980325
-0.019629546 -0.03622327 0.036318906 -0.022314489 -0.025255702 0.026821963 -0.018021725 -0.03434249
-0.038398862 -0.03609047 0.03630937 0.0003957227 0.017226025 -0.037292264 0.05129908 -0.02155269
-0.014350228 0.023080185 -0.03489282 -0.031908393 -0.042207874 0.03831444 -0.005184926 0.046642482
0.016941778 -0.046545096 -0.040907003 0.017025433 0.05896815 0.0048042387 0.053736553 0.0024346933
-0.061284505 -0.025022998 -0.056293197 -0.015584566 0.03490735 0.0408466 0.017549261 -0.054588944
-0.014055692 0.0031595603 0.056858905 0.00484515 0.024055935 0.014197893 -0.054035477 0.0069335923
-0.036668986 0.04098031 -0.029883102 0.01588329 0.011862792 0.053928994 -0.05066523 -0.014519148
0.007983856 0.03587447 -0.034517445 0.029609628 0.0065720156 0.042858876 0.017724596 0.04515692
-0.025848515 -0.057220243 -0.0393714 -0.035777844 -0.02248323 -0.05096098 0.011227436 -0.0379033
0.0021453872 0.00021643937 -0.0075569674 -0.02374918 0.04752016 0.035711057 -0.02079966 0.023909613
-0.0135354325 -0.0008578971 0.023131005 -0.05031763 -0.032957844 0.035659187 -0.060828745 0.0365723
0.005615577 -0.013384081 0.005677037 -0.013425998 -0.052611075 -0.022255935 0.048624903 -0.040207416
-0.053640902 -0.004770033 0.03777858 0.058095567 -0.042795338 0.0075306296 0.054228693 0.030536339
-0.047488526 0.05760563 0.00030598044 -0.045584626 -0.0035681129 0.0244667 0.018398821 0.03733164
-0.0473444 -0.037985183 -0.02551362 0.052971303 0.016154863 -0.04500419 -0.051703475 0.039828427
0.05527968 0.03275942 -0.04569158 -0.027629524 0.006097652 -0.033306256 -0.050476104 -0.061984852
0.05985526 -0.027019396 -0.022756778 0.0088153705 -0.027596511 0.048270345 0.03746105 -0.013666943
0.026577733 0.024192289 -0.06042964 0.057321995 -0.01567208 -0.05824495 -0.012476154 -0.01628413
-0.037703693 0.040567823 -0.052904896 -0.013619065 0.004228942 -0.008176215 0.051979147 -0.043875463
-0.0047946423 0.0356094 -0.01648102 0.020796932 0.026199989 0.05348751 0.0028212592 -1.2896955e-05
-0.030181475 -0.021999523 -0.009048685 -0.018243648 -0.015189804 -0.047786623 -0.03417632 0.057738103
-0.039445274 0.0026740432 0.016833864 0.0340079 -0.060527585 -0.033747196 -0.019871868 0.04495977

log_std_layer.bias f4 [2]
00000000: 88c8 18bd 5416 a5bc
-0.037300617 -0.020152248
