outputs/router_rule/A2C_router/summer20251120-003927/models/policyA_actor.pth (torch, 279816 bytes, 8 tensors)

fc1.weight f4 [256, 6]
000000 66 ce 9f 3e 58 86 ad 3e 7f bc c3 bd 94 0b c0 3e
       0.31212157 0.3389156 -0.09557437 0.37508833
000010 c3 0d b7 bd 31 da a8 3d 26 87 4b be e6 82 75 3e
       -0.08938172 0.08244742 -0.19875774 0.23975715
000020 4b 43 b8 3e 63 58 99 be 9f ae b5 3e 85 7b 9c 3d
       0.3598884 -0.29950246 0.35484788 0.07640747
000030 9b 6d 9a 3e 09 77 62 3d b2 93 49 3e f5 18 6c bd
       0.30161747 0.055289302 0.19685248 -0.05764099
000040 0a 22 a1 3e f2 29 77 3d 22 29 43 be 5b 1e d5 3d
       0.31471282 0.060342737 -0.1905866 0.104061805
000050 f6 9b 40 be 17 1a 44 bd 00 cb 29 be ee a8 8a 3e
       -0.18809494 -0.047876444 -0.16581345 0.27082008
000060 23 ff a4 be 41 b9 40 be 67 17 ec bd 16 5c 7b be
       -0.32225904 -0.18820669 -0.11527901 -0.24546847
000070 78 d3 1d 3d a2 72 ce be 4c c5 bc 3e a6 97 b1 be
       0.03853175 -0.40321833 0.36869276 -0.3468601
000080 5f 56 a1 3e 35 01 8b 3d 5b cf 07 be bc 21 81 3e
       0.31511208 0.067873396 -0.13262694 0.2522105
000090 40 4e 82 3d 0f e2 a8 3e 81 cd 36 3d 30 d7 03 be
       0.06362581 0.3298497 0.044629578 -0.12875056
0000a0 f8 a4 e0 3d 29 bb e2 bd 1c f0 2f 3e d8 9e ba 3e
       0.10968965 -0.11070854 0.17181438 0.36449313
0000b0 d8 a7 71 3e 23 c2 36 be c6 52 71 3e 50 99 95 3d
       0.23599184 -0.17847495 0.23566732 0.07304633
0000c0 6d 4c 54 3e 23 cd 7e be ed e9 ce be 3e 84 21 be
       0.20732279 -0.24882941 -0.40412846 -0.15773103
0000d0 55 53 a0 be f9 82 ab 3e 23 d2 f0 3d 11 29 2d 3e
       -0.31313577 0.33498362 0.117588304 0.16910197
0000e0 39 36 04 3e dc b6 e8 bb 4f 95 a3 3e 87 83 94 be
       0.1291131 -0.0071018767 0.3194985 -0.29006597
0000f0 f1 92 d2 3c ac aa 8e be c8 e7 00 3e bd f7 0f be
       0.025704833 -0.27864587 0.12588418 -0.14059348
000100 9f 18 00 3e 58 31 ae bd b1 5c ad 3e de c6 77 be
       0.12509392 -0.08505505 0.3385978 -0.24196956
000110 6c 52 79 be 46 56 79 be 1d 01 bc 3e 7c 50 0b 3e
       -0.24347848 -0.24349317 0.367196 0.13604921
000120 f6 21 c9 3e 78 80 ac be 37 53 cf be 39 88 a3 be
       0.39283723 -0.33691764 -0.40493175 -0.31939867
000130 8a 9b 8c be 55 53 29 3e 39 b1 15 3e b3 ae ad 3e
       -0.27462417 0.16535695 0.14618386 0.33922347
000140 c3 e3 57 be 58 7e 8e be 64 ce 5d 3e e7 f9 28 be
       -0.21082978 -0.27830768 0.21660763 -0.1650158
000150 e4 b8 7d 3e c1 67 c6 bd 44 24 6f 3e 7f 67 a2 be
       0.24777561 -0.09687758 0.23353678 -0.31719586
000160 8a f7 52 be a9 e7 fe 3d 9b c1 b0 3d a6 08 d5 bd
       -0.20602241 0.124465294 0.08630677 -0.1040204
000170 da 40 79 3e 55 21 8e 3e 2c 8b 97 be b8 1c 5f be
       0.24341145 0.27759805 -0.29598367 -0.21788299
000180 00 65 bf 3e f9 0f 0d be 4a 34 14 be ea 3f ca be
       0.37381744 -0.13775624 -0.14473072 -0.39501888
000190 14 67 6f be e6 db d0 3d 8e b7 5c bd 1a ba 97 be
       -0.23379165 0.10198192 -0.05388599 -0.29634172
0001a0 4e e5 1c 3c a3 c7 8e be a4 55 b1 be d4 33 66 be
       0.009576155 -0.27886686 -0.3463565 -0.22480708
0001b0 88 f0 b6 be 7b 20 85 be 3d e8 d0 3e a5 c7 9d 3d
       -0.35730386 -0.26001343 0.40802184 0.07704095
0001c0 ac c1 00 3e 96 fc c2 be ea 47 89 be 2e 26 0b be
       0.1257388 -0.38083333 -0.2681268 -0.13588783
0001d0 a0 bd 82 3d 85 ec b7 be f7 1f 34 be 6b 45 7a be
       0.06383824 -0.35922638 -0.17590319 -0.24440543
0001e0 32 4a 94 3a 6e 8e 1b be 2d c0 e7 bc ea a3 8d be
       0.0011313616 -0.15191051 -0.028289879 -0.2766412
0001f0 f4 78 8f be 92 e3 73 be 9e 18 0f be 5c fa a4 be
       -0.28021967 -0.2381728 -0.13974234 -0.3222226
000200 75 42 af 3e 2e ef a5 bd c3 d7 b3 3e 77 41 02 3e
       0.3423039 -0.081022605 0.3512555 0.12720285
000210 0a 00 b1 be c0 a6 90 3e e9 0b e6 bd 7f 3f 20 be
       -0.34570342 0.2825222 -0.112327404 -0.15649222
000220 02 81 ad be 75 cd cf be 08 37 ef 3d a8 a3 b6 bd
       -0.33887488 -0.4058644 0.11680418 -0.08917934
000230 4d c1 22 3e a3 89 ab be 53 2f 9b 3e 28 6f 99 be
       0.15894051 -0.33503446 0.30309543 -0.29967618
000240 f3 5e 90 bd 9a c6 ae 3d ad bf 57 3e 5e b6 a8 3e
       -0.0704936 0.08533974 0.21069212 0.32951635
000250 9d 60 be 3e ea c5 a5 be c8 6a d2 3d 03 d0 33 be
       0.37183085 -0.3237756 0.10274273 -0.17559819
000260 ff 3e 37 bd a6 73 9c be f9 63 be 3e a2 69 99 be
       -0.044737812 -0.30556983 0.37185648 -0.29963404
000270 e4 6c 5f 3e 03 eb 12 3e bc d8 07 3e df 03 62 be
       0.21818882 0.14347462 0.13266271 -0.22071789
000280 ed fd bd 3e 4f bb b7 3d 28 1c 57 3d e0 33 b8 be
       0.37107792 0.08971273 0.052517086 -0.35977077
000290 b3 7d 2f 3e b9 dc 7a bd 64 84 3f be 2a 8a b3 3e
       0.17137794 -0.061245654 -0.18702847 0.35066348
0002a0 e4 67 ba 3d 8e 4b 67 be e9 96 53 be 7a b6 9f bc
       0.09101847 -0.22587416 -0.20663036 -0.019496191
0002b0 bd 6b 69 3e 61 a6 d5 bd d6 86 6e be ca 16 0f be
       0.22795005 -0.10432125 -0.23293623 -0.13973537
0002c0 28 1f 9c be 4e 28 15 3e 96 d3 a1 3e ab bf c4 be
       -0.3049252 0.14566156 0.3160674 -0.3842748
0002d0 dd 2e c2 3d 93 f5 57 3e ae 9b 97 3d 67 e0 14 be
       0.09481595 0.21089773 0.074027404 -0.14538728
0002e0 2b 32 5a 3e 56 b0 5b 3e a2 51 1c 3e 35 0e 93 bd
       0.213082 0.21453986 0.15265515 -0.07180444
0002f0 13 89 dd bd 28 9e 32 3d 14 d6 93 bd 01 4b f9 bd
       -0.108171605 0.04360786 -0.072185665 -0.12172509
000300 e9 9b 85 3e 67 a2 b3 3e ba 8a 25 bd d0 32 bb bd
       0.26095513 0.3508484 -0.040415503 -0.09140551
000310 44 35 c3 3b bb af c7 bc 8e 01 c9 3d 1e 4d ea 3d
       0.0059572775 -0.024375787 0.0981475 0.1144049
000320 c0 d8 bd be 5d 46 1a be 48 06 b0 3e 1d da 22 3e
       -0.3707943 -0.15065904 0.34379792 0.15903516
000330 42 57 a6 bc e1 0a 7c be 49 c3 7f be 6a 3c bb be
       -0.02030528 -0.24613525 -0.24976839 -0.3656953
000340 73 44 08 be 0c 2d 0d 3e 16 47 85 3e c7 02 41 3e
       -0.13307361 0.13786715 0.26030797 0.18848716
000350 c7 c3 b8 be b8 65 7b be 07 f3 83 bd cc 32 ca 3e
       -0.36086866 -0.24550521 -0.06442838 0.3949188
000360 e4 e4 71 3d 04 86 d8 bd be f3 2c 3e e2 39 1f be
       0.059056178 -0.105724365 0.16889855 -0.15549424
000370 9a 4a 87 be 36 90 98 3e 1d 16 3e be 32 bf a7 bd
       -0.26424104 0.29797524 -0.18563123 -0.081907645
000380 68 e6 cf be c0 ed 8b 3e e8 65 9e 3e d0 49 18 3e
       -0.40605474 0.27329826 0.30937123 0.14871907
000390 17 bf 91 be 69 42 ce be d6 ba a9 be 29 e7 9b 3e
       -0.28466102 -0.40285042 -0.33150357 0.304498
0003a0 6f c6 48 3e 97 ed af 3e 79 00 5b 3e c5 9b d3 3d
       0.19606946 0.34360954 0.21386899 0.10332445
0003b0 60 00 83 bb 9e f6 9e be d0 15 b3 be 6f 82 c3 be
       -0.0039978474 -0.3104753 -0.3497758 -0.3818545
0003c0 da 21 2b 3e 51 3f 4d be 0a 44 a8 bd 7c 96 70 be
       0.16712132 -0.20043685 -0.082161024 -0.23494905
0003d0 13 5b 98 bd 26 1e 93 be 39 94 88 be 3e 9a 0a 3e
       -0.07439246 -0.2873394 -0.26675585 0.13535401
0003e0 ea 9e f8 bd 3c 01 81 3e 6d 2e 06 be d8 5d 99 be
       -0.121396855 0.25196254 -0.13103648 -0.2995441
0003f0 ef 84 93 bd 98 a5 4a be a4 cb ff bd 36 fd c6 be
       -0.072030894 -0.19789732 -0.12490013 -0.3886506

fc1.bias f4 [256]
000000 bc 2b 74 3d 55 56 00 be 38 d2 57 be ea 6b 06 be
       0.05961202 -0.12532933 -0.21076286 -0.13127103
000010 c5 0d 15 be fb ec c7 3e d0 59 20 3e d2 b3 cd 3e
       -0.14556034 0.3904799 0.15659261 0.40176255
000020 bb 40 e5 3d 46 51 bd 3d 2c db 2b 3e 2c 80 8f 3d
       0.11193987 0.09244017 0.16782826 0.07006869
000030 0f 09 a4 be 90 36 77 be 3b 91 ca bd e8 4e cb 3b
       -0.3203816 -0.24141908 -0.09890982 0.0062044747
000040 ec 7b 1d 3e ce f7 20 3e 62 c9 a5 3e a6 34 aa 3d
       0.15379304 0.1571953 0.32380205 0.08310823
000050 26 ad 0e be df 30 9d be 3d 17 99 be f7 b6 79 be
       -0.13933238 -0.30701348 -0.29900542 -0.24386202
000060 17 08 fc 3d d6 db 61 3e 82 e0 b6 3e a1 3b 04 be
       0.123062305 0.22056517 0.3571816 -0.12913372
000070 28 e8 03 bd db 26 f8 bd 82 86 c3 ba fb 1f 06 3e
       -0.032203823 -0.12116786 -0.0014917406 0.13098137
000080 1f f6 12 bc b5 d3 9a 3c 2a d8 53 3d 26 b0 1b 3e
       -0.008969813 0.018899778 0.051719822 0.15203914
000090 ee ab fd bd 6b 35 79 be 6b 64 c5 3d fd fe 45 bd
       -0.123863086 -0.24336784 0.09638294 -0.04833888
0000a0 fb 62 3d be d6 7e 2f 3e 9d a4 72 3b 6c 3e 73 bd
       -0.1849479 0.17138228 0.0037024387 -0.059385702
0000b0 13 4d 4a be 6d ba 5b bd d4 bc b1 be f4 33 be 3d
       -0.19755964 -0.053644586 -0.34714377 0.09287253
0000c0 57 c0 c8 3b 8a af 7d 3e 89 f2 d7 3c c8 6b 05 3d
       0.0061264443 0.24773994 0.026360767 0.03257349
0000d0 4f e6 e3 3d b6 0d 9f 3e 0c 8d 45 be 65 93 79 3e
       0.11127912 0.31065148 -0.19292086 0.24372633
0000e0 e1 79 cc 3d 5e 71 8b be 75 a0 11 3e e5 a5 7a be
       0.09984184 -0.2723493 0.14221366 -0.24477346
0000f0 5a a9 03 be 6d 56 47 be 8f 33 8e be e3 9e a4 3e
       -0.12857571 -0.19466563 -0.2777371 0.3215247
000100 49 d4 ba be fa f5 50 3e 91 1f bc be d5 83 4b bd
       -0.36490086 0.20406333 -0.36742833 -0.04968627
000110 30 77 c7 3c 05 90 94 3e 0c 38 17 be 6a 83 f0 3d
       0.024348825 0.29016128 -0.14767474 0.11743815
000120 0e a7 81 3d 4d e7 75 3e 8c 60 c7 3c 77 77 1c 3e
       0.06330691 0.24014015 0.02433803 0.15279947
000130 b4 89 7c be a2 40 91 be be 38 ba 3e ea 4e 98 be
       -0.24661905 -0.28369623 0.36371416 -0.29747707
000140 91 32 8e bd 0c dc 49 bd 8b 5d cc 3e e1 b0 b4 bd
       -0.069432385 -0.04928212 0.39915118 -0.088227995
000150 56 21 9f be d4 f2 d3 bd 92 91 57 3e ea aa 25 3e
       -0.3108012 -0.1034905 0.21051624 0.1617848
000160 56 ec ac 3e 9f 4c ab bd c5 fc 44 3e fb b2 c4 be
       0.3377406 -0.08364224 0.19237049 -0.384178
000170 3c c2 21 3e 4a 25 40 3e 8e d6 86 3e 24 a8 6f be
       0.15796751 0.18764225 0.26335567 -0.23403984
000180 f8 37 df bd af 69 ca 3d b1 91 94 be 20 46 a6 be
       -0.10899347 0.09883439 -0.29017404 -0.32475376
000190 d6 16 c9 be 02 25 ba 3c 3f c4 81 3e 4a 9f d6 3d
       -0.39275235 0.022722725 0.25345036 0.10479601
0001a0 21 70 cc 3c 09 ba 11 3e db 59 83 be ad 4a 30 3d
       0.024955811 0.14231123 -0.25654492 0.043039966
0001b0 81 b4 cf bd 32 fe 4e be 4d 4a b4 3e 18 b6 a1 be
       -0.1014185 -0.20214155 0.35212937 -0.3158424
0001c0 8d 54 75 3d 13 a3 b7 be 53 ed 62 bc 1c d5 39 be
       0.059895087 -0.35866603 -0.013850528 -0.18147701
0001d0 de 87 09 3e b5 bf 6a be 37 d1 85 3e 88 9d a9 be
       0.13430735 -0.22924693 0.2613618 -0.33128
0001e0 7d 29 7b 3e 8e 03 9d be b6 d4 5f 3e ff 17 30 be
       0.24527545 -0.30666775 0.21858487 -0.17196654
0001f0 e8 4f 79 ba fc 96 98 bd c9 a0 87 3e ed 12 09 3e
       -0.0009510503 -0.07450673 0.26489857 0.13386126
000200 ec 39 b8 be 1a 04 1a 3d b9 29 90 be b8 4a 9c 3e
       -0.3598169 0.037601568 -0.28156832 0.30525756
000210 aa 5e 89 3d c9 e3 d6 bd b2 34 55 be 38 c4 10 3e
       0.06707509 -0.10492665 -0.20820883 0.14137352
000220 aa 4b 7a be 09 55 46 3e 15 1e 64 3e 92 4c 80 3e
       -0.24442926 0.19368376 0.222771 0.2505842
000230 45 6b da 3d ac 01 b7 be db 51 96 3e 11 b0 01 be
       0.10664991 -0.35743463 0.29359326 -0.1266482
000240 d8 50 f7 bd 28 62 33 bd f9 d2 98 3e ff c1 a0 3e
       -0.120759666 -0.04379478 0.2984846 0.31398007
000250 4e 1a 81 3d b8 78 47 3e d8 d7 c2 be ca ce 7c 3a
       0.06303845 0.19479644 -0.380553 0.0009643851
000260 5a eb b8 be b6 59 0e 3e de f3 94 be 5f fe 14 be
       -0.3611706 0.1390141 -0.29092306 -0.1455016
000270 1b 1d 92 3e 83 ba c7 3e 9e fc 7a be 2e 05 68 be
       0.2853783 0.39009485 -0.24510428 -0.22658226
000280 f1 17 4f 3d 10 56 24 3e 24 2d 88 bd 43 8d 02 be
       0.05055994 0.16048455 -0.06649235 -0.127492
000290 e8 42 89 be 2c 74 32 3e fb ca cc 3e 12 5e 4a be
       -0.26808858 0.17427129 0.39998612 -0.19762447
0002a0 60 2d 45 3e 78 3d 4c 3e 1d 03 a8 3e 78 62 3e bd
       0.1925559 0.19945323 0.32814875 -0.046480626
0002b0 76 c7 53 3c ed 88 99 3e 9f 17 84 3e 22 74 ce 3e
       0.012925973 0.2998728 0.2579927 0.40322977
0002c0 5e 99 ef bd de 7b 25 3e f5 eb 91 3e 97 da 8d be
       -0.11699174 0.16160533 0.28500333 -0.27705833
0002d0 df 18 a6 3d f7 13 bb bd b7 54 86 3e f8 af 3b be
       0.081102125 -0.09134667 0.26236507 -0.18328846
0002e0 8a 1e eb 3c b4 30 7a 3e 92 74 bf be c1 7d b0 be
       0.028701086 0.24432641 -0.37393624 -0.34470943
0002f0 64 2f 56 be 6d 09 86 3e e4 27 8c 3e eb b8 8e be
       -0.20916516 0.26179066 0.27374184 -0.27875456
000300 a9 91 9f 3d 37 72 5d be fe f7 41 be 23 3b b4 3e
       0.07791454 -0.21625601 -0.18942258 0.35201368
000310 07 fd 49 3e 33 a8 e4 bd bc df 75 3d ad ff a1 3d
       0.19725429 -0.11164894 0.060027823 0.079100944
000320 cf b5 c3 3d 3b 28 0f be fa 3f 76 be bd 6b 8a 3e
       0.095561616 -0.1398019 -0.24047843 0.27035323
000330 56 f8 60 3d ae 0a 2f 3e 0a 42 1e be 98 6b 4a 3e
       0.05492433 0.17093918 -0.1545488 0.19767606
000340 af 1e 98 3e 6f 2d 7e 3e 7c 54 e3 3d 7f a7 cd 3e
       0.2971091 0.24822019 0.111000985 0.40166852
000350 19 6d 58 ba 6c 00 b2 3d 60 99 c6 3e 22 26 cb 3e
       -0.0008256003 0.08691487 0.3878889 0.3967753
000360 75 93 30 be 28 41 bc 3e 33 37 1a 3e e7 e7 3a bd
       -0.1724375 0.3676846 0.1506012 -0.045631316
000370 39 79 b6 3e de 7d 58 be c7 d8 87 3e 58 21 cf 3e
       0.3563936 -0.21141765 0.26532575 0.40455127
000380 ab 32 90 be 30 c1 76 be bd 1f cf be 18 77 96 bd
       -0.28163657 -0.24097133 -0.40453902 -0.07346934
000390 a9 de bd be da 14 0c be 6b d5 fd 3d f9 c0 93 3e
       -0.3708394 -0.13679829 0.12394222 0.28858164
0003a0 60 ef 68 3e ac 0c 68 3e a9 6e 2d 3e a3 a4 81 be
       0.22747564 0.22661084 0.16936745 -0.2532092
0003b0 5b ff a5 be f7 a2 8a 3c 5b 73 c6 3e 4b c2 bb 3c
       -0.32421383 0.01692341 0.38759884 0.022919795
0003c0 0c d3 0f bd 2f df 8d be 89 48 4f be 9a 29 a1 be
       -0.03511338 -0.27709338 -0.20242514 -0.31477052
0003d0 b4 5b a7 3e 4d 16 88 bd 21 a7 b8 be 11 62 33 3d
       0.3268715 -0.066448785 -0.3606501 0.043794695
0003e0 e1 b1 f2 3c 69 52 4e bd 3e a5 15 3e 9a e2 60 3e
       0.029625835 -0.05037156 0.14613816 0.21961442
0003f0 07 9a c4 be 41 2a a0 be 1d 1d a0 bc 11 cb c1 be
       -0.38398764 -0.31282237 -0.019545132 -0.3785024

fc2.weight f4 [256, 256]
000000 44 8a 68 bd 6c 06 62 3d 10 c5 9b bb bc 20 fd bc
       -0.056772485 0.055181906 -0.0047537163 -0.030899398
000010 e8 9f af bc 6e dd 47 bd 0c c6 47 3d 00 0b 5e bc
       -0.021438554 -0.048795156 0.048772857 -0.013552427
000020 d4 ee 0f bd 58 27 42 bd 24 a1 15 3d 88 8c 0d bc
       -0.035139874 -0.047400802 0.03653063 -0.008639462
000030 40 28 d7 bb b8 71 85 bc 74 27 f7 bc e0 28 36 3c
       -0.0065660775 -0.016289577 -0.03017018 0.011118144
000040 76 f5 44 3d 5e 5f 14 bd 20 40 44 3b 00 b1 42 bd
       0.048085652 -0.03622376 0.0029945448 -0.04753208
000050 48 13 f0 bc 88 b5 60 3d 80 c9 2b 3a 14 9c 76 3d
       -0.029306069 0.05486062 0.0006553158 0.06020744
000060 b8 68 33 bc 04 88 0b bd fe f4 18 bd 84 e5 62 3d
       -0.01095026 -0.03406526 -0.037343018 0.055394664
000070 54 dc 44 bd ec 58 06 3d 58 8c 7e 3c 4c 18 97 3c
       -0.048061684 0.032799646 0.01553639 0.018444203
000080 08 72 10 3d 70 f3 85 bc 4a 67 1e 3d 02 f6 4b bd
       0.035265 -0.016351432 0.038672723 -0.04979516
000090 8c 24 b4 bc 10 67 3b 3d 84 f3 97 3c 60 5e 08 bc
       -0.021990083 0.045752585 0.018548734 -0.008323282
0000a0 a8 22 6f bc 3c 51 1c bd e6 ab 1b 3d e0 40 02 bb
       -0.014595665 -0.03816341 0.038005732 -0.0019875094
0000b0 60 95 0a bb 58 2b 72 3c 2e ea 3c 3d 60 9b 02 bd
       -0.0021146163 0.014780842 0.04612177 -0.03188646
0000c0 dc 54 b0 bc 3a 79 2d 3d ee 94 10 3d 18 df fb bc
       -0.02152484 0.04235194 0.03529828 -0.030746028
0000d0 26 40 7d bd b0 f6 3d 3c fe a0 06 3d f8 96 74 3c
       -0.061828755 0.011594459 0.032868378 0.014928572
0000e0 a0 95 35 3d 1e 21 4b bd e4 18 01 3d 60 26 1f bd
       0.044332147 -0.04959213 0.03151788 -0.038854957
0000f0 1a 14 10 3d 10 64 3e 3d 9c 28 a2 3c 82 1f 4f 3d
       0.03517542 0.046482146 0.019794755 0.050567158
000100 28 be 28 bd d0 f5 64 bd 34 25 76 bd 90 b9 20 3d
       -0.041196972 -0.055898488 -0.060094073 0.039239466
000110 d4 5b b3 3c d6 75 3b bd a8 f3 f7 3c da 93 69 3d
       0.021894373 -0.045766674 0.030267552 0.057025768
000120 fa 6f 7c bd 32 b5 39 3d c8 0d 1d 3c c0 81 be 3b
       -0.061630227 0.045338817 0.009585805 0.0058138072
000130 d8 58 66 3d c2 d4 67 3d 58 bb d7 3c 48 46 4a 3d
       0.05623707 0.056599386 0.02633445 0.04938343
000140 28 01 d5 3c 28 da 26 3c de 06 61 bd f8 43 3f 3c
       0.026001528 0.010183848 -0.05493819 0.01167392
000150 58 21 36 bd a4 a0 9d 3c 18 ab 34 3c 00 0a b8 3a
       -0.044465393 0.019241638 0.01102712 0.0014041066
000160 b6 08 2f bd be 2f 1b bd 20 38 3d 3d 90 5a f9 3c
       -0.042732917 -0.037887327 0.046196103 0.030438691
000170 30 f9 06 3d 6c 90 98 bc 38 54 30 bc d4 36 83 bc
       0.032952487 -0.018623553 -0.010762267 -0.016017355
000180 ac 0c 30 3d 30 06 dd bc d2 3e 21 3d aa 82 30 3d
       0.042980835 -0.02698049 0.03936655 0.04309336
000190 58 20 6a bd 00 1a c8 39 40 06 43 bc c4 85 0d bd
       -0.05715975 0.00038166344 -0.011903346 -0.034551397
0001a0 14 0a dd 3c 60 d2 f8 bb 4e 21 60 3d 3e 3b 20 bd
       0.026982345 -0.007593438 0.05471926 -0.039118998
0001b0 2c e4 ed 3c 28 92 5a bd 10 50 00 bd 40 b3 8b 3b
       0.029039465 -0.05336204 -0.031326354 0.0042633116
0001c0 8c 43 4a 3d 12 d7 06 3d a8 32 52 bd 00 d9 e2 3b
       0.049380824 0.03291995 -0.05131784 0.006922841
0001d0 ce e8 16 bd 80 7a 31 3b 4a 44 55 bd 0c 35 96 bc
       -0.036843114 0.0027081072 -0.05206708 -0.018335842
0001e0 f2 94 2f 3d a6 e3 6a bd 82 13 74 bd 08 84 3a 3c
       0.042866655 -0.05734601 -0.059588917 0.011384018
0001f0 d8 5f 0c 3c 58 46 3b bc d4 8a 5f 3d 80 22 1a bd
       0.008567773 -0.0114303455 0.054575756 -0.037630558
000200 9c 69 1b bd 98 5a 3f bd e8 96 3e bc 38 aa 82 bc
       -0.037942514 -0.046717256 -0.011632659 -0.015950307
000210 32 66 1e 3d 80 fc 65 bb 50 82 a3 3c d8 c3 d4 bc
       0.03867168 -0.0035093129 0.019959599 -0.025972292
000220 4e aa 4f 3d 14 d0 57 3d 02 44 65 bd 74 95 83 bc
       0.050699525 0.052688673 -0.05597306 -0.016062476
000230 20 37 59 bd e8 82 d9 3c b4 a9 5f bd 64 14 f2 bc
       -0.053031087 0.026551679 -0.0546052 -0.029550739
000240 c4 c9 7f 3d 96 75 74 bd c2 e0 3c 3d 60 03 ad 3b
       0.062448278 -0.05968245 0.046112783 0.0052799433
000250 dc b4 4c 3d d2 ea 01 bd ea 25 28 3d 50 19 f7 3b
       0.04997717 -0.031718083 0.041051783 0.0075408593
000260 40 84 9d 3b 6e ba 2e 3d c0 55 73 bd 0e 32 4e bd
       0.004807025 0.042658262 -0.05940795 -0.050340705
000270 46 3c 77 3d 24 ba 19 bd da 86 38 bd c0 45 48 bb
       0.060360216 -0.037531033 -0.04505048 -0.0030559152
000280 78 e4 a3 bc 68 18 0c bc 2c 84 2b bd 40 bd b8 3c
       -0.020006403 -0.008550741 -0.041874096 0.022551179
000290 86 48 5c bd a0 df a5 3b d8 62 15 3d 50 bf 44 3c
       -0.0537801 0.0050620586 0.036471218 0.012008503
0002a0 08 0f 08 3c 40 c6 15 3c 9c fd 95 bc f8 11 43 bc
       0.008304365 0.009141505 -0.018309407 -0.01190614
0002b0 30 e8 d7 bc 70 ef 2c bd 70 8a 07 bd 4e 12 7d 3d
       -0.026355833 -0.042220533 -0.03309101 0.061785035
0002c0 80 5f 2b bc 00 5a b3 3c b0 09 31 3d 40 fc 9f bb
       -0.010459781 0.021893501 0.04322213 -0.0048823655
0002d0 ac b8 09 bd 32 73 2d bd 5c 9f bc bc 60 c0 b6 3c
       -0.033623382 -0.042346187 -0.023025207 0.022308528
0002e0 b4 97 57 bd e0 0d fa bb 08 c2 c2 3c e2 db 50 3d
       -0.05263491 -0.0076310486 0.023774162 0.050990947
0002f0 90 13 9a 3c 58 83 4a 3c 56 41 2f 3d c8 96 ec 3c
       0.018808156 0.012360416 0.04278692 0.028880492
000300 74 37 ad 3c 6c be 9e bc 3e 49 4d bd a8 2f 5d bc
       0.021144606 -0.01937791 -0.050118677 -0.013500132
000310 70 b7 39 bc 40 66 96 3b 50 3d e1 bb e8 fe ce 3c
       -0.011335239 0.004589826 -0.006873764 0.025268033
000320 f4 1f 2a 3d 40 93 cf bc 88 e8 72 bd e0 57 03 bd
       0.04153438 -0.025338769 -0.05930379 -0.032066226
000330 dc fa f4 bc 70 1c 11 3d 94 21 25 bd 00 a1 c0 bb
       -0.029904775 0.03542751 -0.040315226 -0.0058785677
000340 90 06 59 bc ea 5f 1b bd f4 14 e8 3c c4 46 d5 bc
       -0.0132461935 -0.037933268 0.028330304 -0.02603472
000350 20 e5 53 bb 5c fd 33 bd 90 8f ce bb f0 7e 11 3c
       -0.0032332614 -0.043942794 -0.006303735 0.008880362
000360 80 ad 26 bb c0 4e bf bc 58 1b 98 3c 70 a8 84 bc
       -0.0025433004 -0.02335298 0.018567726 -0.016193599
000370 16 ed 0d bd 62 c8 3c bd d8 e9 58 bc 72 d6 71 bd
       -0.03464993 -0.046089537 -0.013239346 -0.0590424
000380 30 7c 54 3d bc 98 f4 bc a0 2e d4 bc b0 50 bd 3b
       0.051876247 -0.029857986 -0.025901139 0.005777441
000390 38 ba 84 3c 60 1c c1 bb 32 9f 2f 3d 30 3c 15 bd
       0.016202077 -0.005893275 0.04287643 -0.036434352
0003a0 b0 7d b7 3c 00 ce 13 b9 a4 3f 50 bd 84 4b c6 bc
       0.0223988 -0.00014095753 -0.050841942 -0.02420593
0003b0 24 4c 82 3c 78 a0 43 3c 8c 25 3a 3d 20 43 2b 3d
       0.015905447 0.011940114 0.045445964 0.041812062
0003c0 d4 a0 0b bd 9c a3 da bc 60 21 59 bc 56 67 37 bd
       -0.034088925 -0.026689343 -0.013252586 -0.044776283
0003d0 1c 3c 8a bc f4 7c 51 bd 34 bc c2 3c 9c 22 35 3d
       -0.016874366 -0.051144555 0.023771383 0.04422246
0003e0 40 27 a2 3b f4 43 37 bd f0 de 41 bd 38 52 c7 bc
       0.0049485266 -0.04474254 -0.04733175 -0.024331197
0003f0 bc ea 94 3c c0 d1 c7 3a 88 2f 3a 3c 74 46 71 3d
       0.018178336 0.0015245005 0.011363871 0.05890508

fc2.bias f4 [256]
000000 6e d2 47 bd 40 d8 a3 3b 90 fd dc bc 18 23 45 3c
       -0.048784666 0.0050001442 -0.026976377 0.012032293
000010 b4 12 53 bd e4 59 fc 3c 64 cd 3b 3d 74 6e 5a 3d
       -0.05153151 0.030804582 0.045850173 0.053327993
000020 d3 53 44 bc 7e ac 37 bd 39 53 0d 3d e5 63 10 3d
       -0.011982876 -0.044842236 0.034503195 0.035251517
000030 e6 b1 e6 bc 2c fe 07 3d 93 9c 43 3c 76 6b a3 bc
       -0.028161 0.03320138 0.011939186 -0.019948702
000040 04 9d 18 3d e8 a7 ff 3c aa e0 83 3c dd 11 13 bd
       0.037259117 0.031207994 0.01609834 -0.035905708
000050 28 4a 10 bc a0 57 5e 3d 00 7a 20 b9 d8 29 78 bd
       -0.008806743 0.054282784 -0.00015304238 -0.06058678
000060 49 89 f9 3a 2a ea be bc 35 c8 b1 3c da 73 0a bd
       0.0019038107 -0.023305018 0.021701911 -0.03380189
000070 1c 1f 67 bc e3 69 4d bd 46 a9 69 bd ee 80 1e bd
       -0.014106538 -0.05014981 -0.057046197 -0.038697176
000080 d4 dc 19 bd b8 0a 68 3c 9e 56 d5 3c 10 0c 1e 3d
       -0.037564114 0.014162712 0.026042279 0.038585722
000090 c8 06 ff bc 92 9a 19 bd 44 dd a5 3c b4 05 fd bc
       -0.031131163 -0.037500925 0.02024711 -0.030886509
0000a0 80 4a 25 bd fb 70 38 3c aa 45 ff 3c 3c 34 98 3b
       -0.04035425 0.011257405 0.031161148 0.0046448987
0000b0 82 15 5d bd 78 44 9e 3c 2a 0a e7 3c 62 f5 e2 bb
       -0.05397559 0.019319758 0.028203089 -0.0069262246
0000c0 98 5a 06 bd d0 9b 20 3c a8 94 49 3c f4 56 f3 bc
       -0.03280124 0.009802774 0.012303509 -0.029704548
0000d0 87 e4 b2 bc c5 88 f8 bc 54 1c 80 bc 72 f0 c7 3c
       -0.021837486 -0.030338654 -0.015638508 0.024406645
0000e0 e0 70 d2 bc 1a d1 a5 3b f9 90 05 bd 40 79 93 bc
       -0.025688589 0.0050603272 -0.03260896 -0.018002152
0000f0 e0 0e e8 3b f8 9c ed 3c 78 a6 2c 3d 63 b9 55 bd
       0.0070818514 0.029005513 0.042150944 -0.05217875
000100 a0 f2 32 bb c4 ed 77 bc 40 08 2e 3d ac 7f d2 bc
       -0.002730526 -0.015132371 0.042488337 -0.025695644
000110 24 ec 8f bc b4 59 26 bd f8 d9 fa 3c 1c 89 8a bc
       -0.017568655 -0.04061289 0.030621514 -0.016911082
000120 01 e0 44 3b 74 b0 be bc a9 9d 1d bd db b6 59 bd
       0.0030040743 -0.023277499 -0.038480435 -0.0531529
000130 30 13 25 bb a7 19 89 3b 1d ca 5e 3b 35 20 61 3d
       -0.0025188439 0.004183966 0.003399498 0.054962356
000140 d6 9d 36 bd 70 a4 e6 bb cf d0 aa 3b f0 83 3b 3d
       -0.044584118 -0.0070386454 0.00521288 0.045780122
000150 10 c1 1b 3d b8 a7 1e 3d 09 fc 5a bd 38 cb a3 3c
       0.038025916 0.038734168 -0.053463016 0.019994363
000160 ba ce 56 bd eb c4 9a 3c 89 df 55 bd 64 6e 5b 3d
       -0.052443244 0.018892726 -0.052215133 0.053572074
000170 39 69 7d 3d 30 96 40 3c a0 1f ec 3b a6 1a 57 bd
       0.061867926 0.0117545575 0.0072059184 -0.05251565
000180 7e f4 ac bc 15 41 9d ba f9 d3 f0 bb b0 80 76 bd
       -0.021112677 -0.0011997545 -0.007349488 -0.06018132
000190 52 33 1c bd a2 fc fa bc 1a e1 03 3d c0 48 53 3c
       -0.03813488 -0.030638043 0.032197095 0.012895763
0001a0 3e 62 05 bd 9c f9 02 3d aa f2 4b bd 69 22 5a 3c
       -0.032564394 0.031976327 -0.04979197 0.013313868
0001b0 18 93 2d 3d fb 0e 28 bc 49 3f c3 3b d4 d1 aa bc
       0.042376608 -0.010257478 0.005958472 -0.020852007
0001c0 26 bd 3e bc 13 33 0a bd 78 e1 45 3c 80 d5 cf bc
       -0.011641776 -0.033740114 0.012077682 -0.02537036
0001d0 3a 5d 8e bc 80 74 51 bd a2 69 e4 3c fb 36 64 bd
       -0.017378438 -0.051136494 0.0278824 -0.055716496
0001e0 f7 f7 04 bd 67 2d dc 3c a0 d6 6c 3d e1 96 47 bd
       -0.03246304 0.026877118 0.05782187 -0.048727874
0001f0 d6 ff 7e bd ff d9 eb 3c c8 ac be bc 40 d8 dc 3c
       -0.062255703 0.028790472 -0.023275748 0.026958585
000200 28 d1 78 3d ec 1d 35 3d b1 b2 e4 3b 06 38 d6 bc
       0.060746342 0.04421799 0.0069793095 -0.026149761
000210 78 68 a6 bc 40 58 73 3b b6 07 85 3c 26 0f 30 3d
       -0.020313486 0.0037131459 0.016239028 0.042983197
000220 77 5e 3b 3d cc ce 22 3c 8c 8d 92 bc 00 41 7c 3d
       0.045744386 0.0099369995 -0.01788976 0.061585426
000230 84 7d 1d bd 61 04 4a bd c0 bd e9 3a ba ea fe 3c
       -0.03844978 -0.049320582 0.0017833039 0.031117786
000240 06 9c 1d 3c 09 90 46 bc b7 2a 18 3d 73 3b 44 bd
       0.009619718 -0.012119302 0.03715011 -0.047908258
000250 09 de 8a 3b 79 aa 28 3d fd a5 3c bc a9 68 71 3d
       0.0042378944 0.0411782 -0.011514184 0.058937702
000260 90 b3 f6 bc ff c9 26 bd 92 aa 64 3d 08 ea 33 3c
       -0.030114919 -0.040719982 0.05582673 0.01098109
000270 ac cc 50 bd 7d 2b c1 bc 6c 5f d3 3c 5e c9 a1 bc
       -0.05097644 -0.023580307 0.025802337 -0.01974934
000280 c6 7d 5d 3d f0 df 76 bd 26 69 fb 3c 8c c8 c0 bc
       0.054075025 -0.060272157 0.030689787 -0.023533128
000290 59 19 78 bd 04 f4 2f bd 43 35 23 3d 42 c5 96 bc
       -0.06057105 -0.04295732 0.039845716 -0.018404607
0002a0 61 0a 5f bd cc 2a 78 3d 61 2e a5 3c b6 cf 45 3d
       -0.054453257 0.06058769 0.020163717 0.04829379
0002b0 5e 6b 2e bd be d8 17 bd df 82 48 3d b8 56 56 3d
       -0.042582862 -0.037071936 0.048952933 0.052328795
0002c0 a8 c5 b3 ba 54 19 15 bd 84 ec f1 3c 00 3a 51 b9
       -0.0013715522 -0.036401108 0.029531725 -0.000199534
0002d0 90 3b 15 3d 27 65 77 bd 0e 1a 0a bd e2 47 5e 3d
       0.036433756 -0.0603992 -0.033716254 0.05426777
0002e0 30 9a bb bb 5e 58 68 3d 15 ac a9 3b c6 74 02 3d
       -0.0057251677 0.0567249 0.0051779845 0.031849645
0002f0 b8 19 f1 3c 40 9a ab 3b 2a 77 4a 3d fb fa 06 3b
       0.029431209 0.005236894 0.04943005 0.0020596373
000300 66 56 35 3d 7a 1c eb bc b7 89 32 3d 83 60 0b bd
       0.04427185 -0.028700102 0.043588366 -0.034027588
000310 e9 84 a2 bc 40 5c 2f bb a4 37 8b bc b4 e7 f9 3c
       -0.019838767 -0.0026757866 -0.016994305 0.030505992
000320 0d 53 5c bd 2d 72 6d 3b 34 64 e4 3c cb ab 29 3d
       -0.05379014 0.0036231384 0.027879812 0.0414236
000330 e8 92 8e 3c 45 79 46 bd 1c a9 b1 3c 1c 62 5f 3c
       0.017404035 -0.048455495 0.021687083 0.013634231
000340 4e 40 c3 b9 4f bb 29 bd 82 6b 06 bd a9 68 af bc
       -0.0003724121 -0.041438397 -0.03281737 -0.02141221
000350 08 f6 b4 bc 18 a5 40 bd 7d 49 47 bd 00 de e5 3c
       -0.022089973 -0.047032446 -0.04865407 0.02805996
000360 31 f3 4c 3c 1d 9d 03 3d 9d ed 04 bd aa 77 04 3d
       0.012509153 0.032132257 -0.03245317 0.032340683
000370 69 54 b2 3c f8 a3 23 bd 55 38 9c b9 14 7c f1 bc
       0.021768766 -0.039951295 -0.0002979661 -0.02947811
000380 39 d8 bf 3a d7 e4 09 3d 88 3d 08 bd 32 5b 30 3d
       0.0014636583 0.033665504 -0.033261806 0.04305572
000390 80 2e 03 ba 26 f8 0a bb ec 7c a3 3b 35 11 58 bb
       -0.00050041825 -0.0021205037 0.004989257 -0.003296924
0003a0 4f a8 2f bc 08 5c 2b 3c c8 f7 67 bd b0 87 4f bd
       -0.01072128 0.010458954 -0.056632787 -0.05066651
0003b0 c0 21 8f 3b 54 c8 9a bc fe 1d a2 3c 1d 22 c6 3b
       0.004368037 -0.018894352 0.019789692 0.006046547
0003c0 a9 ca 0e 3d 6f 9f 66 3d b7 dc 05 bd 30 09 7d 3a
       0.03486124 0.05630439 -0.032681193 0.0009652553
0003d0 0c 7f 02 3d 68 e1 71 bd a0 8f 9c 3c ac 2d ea 3c
       0.031859443 -0.059052855 0.019111454 0.028586231
0003e0 00 d1 95 ba b2 22 31 bd ba 70 55 3d 3f 9e 64 bc
       -0.0011430085 -0.04324598 0.052109458 -0.013953744
0003f0 9f df 49 3d 45 df 0d bd 20 cf f7 bc 44 01 39 3d
       0.049285527 -0.034636755 -0.030250132 0.045167223

mean_layer.weight f4 [3, 256]
000000 00 cb c3 bc 72 94 34 3d 60 c0 a1 3c a2 51 1f bd
       -0.023900509 0.04408688 0.019745052 -0.03889621
000010 31 53 68 3d 30 82 93 bb 6e 87 77 bb e0 d3 1c 3d
       0.056719963 -0.0045016035 -0.0037769931 0.038287997
000020 24 5a 63 3d 3f c1 7c bd 87 18 b9 b9 a1 27 84 3a
       0.055505887 -0.06170773 -0.00035304224 0.0010082611
000030 ab 3d 5c bd 2c 1b 80 bd 97 40 b6 b9 6d 33 4e bd
       -0.05376975 -0.062551826 -0.00034761868 -0.050342012
000040 c0 ed ef 3b e2 b3 35 bd b8 5a f7 bc 53 6f 20 3d
       0.007322043 -0.044361003 -0.030194625 0.039168667
000050 c8 a4 66 3d be 94 3c bd b8 17 47 3d 4c ae 51 bd
       0.05630949 -0.04604029 0.048606604 -0.051191613
000060 ef a8 1b bc 68 71 1e bc 8d 54 6c bd 8c ba 8f bc
       -0.009500726 -0.009670593 -0.05769782 -0.017545007
000070 49 b2 ae bc 98 35 ae bc 40 34 4c bc 80 26 8d ba
       -0.021325247 -0.02126579 -0.012463629 -0.001076892
000080 fc de d8 bc 50 dc 0f bc e7 0c e9 3a cc 00 f4 bc
       -0.026473515 -0.008780554 0.0017780334 -0.029785536
000090 e4 9f ea bc 6c 76 9f 3c c4 ed 0d 3d 68 c0 a3 3c
       -0.028640695 0.019465648 0.03465058 0.019989207
0000a0 f8 76 45 bc 7c aa 82 bd 89 0c ec 3b 41 70 ec ba
       -0.01205229 -0.063801736 0.0072036427 -0.0018038825
0000b0 5c 6c 1f bd d2 8d 3b 3d cf ad 35 bd b5 fc 61 3d
       -0.0389217 0.045789547 -0.04435521 0.05517264
0000c0 8e 3c 03 3b 60 f3 c2 bb 10 46 4a 3d 7d b0 6d 3d
       0.0020025107 -0.0059494227 0.049383223 0.05802964
0000d0 22 db 90 3d a4 f3 d7 3c ec a1 ec bc 5e e4 47 3d
       0.07073046 0.026361294 -0.028885804 0.048801772
0000e0 78 5e a9 3c 3c 0f 92 3c 4f 74 52 bd 6b 06 34 3b
       0.020674929 0.01782953 -0.05138045 0.0027469646
0000f0 10 6d 1f bc 02 05 2c 3d cc 18 49 3d a7 54 33 bd
       -0.009730592 0.041996963 0.049095914 -0.043781903
000100 ca bb 73 3d 3d 0e 1d bc ba e1 57 bd f0 eb 0a bc
       0.05950526 -0.009585914 -0.052705504 -0.008479103
000110 e7 73 be bc 48 af 87 bc 00 e9 80 ba 40 16 2e 3d
       -0.023248626 -0.016563073 -0.0009835064 0.042501688
000120 6c 50 6b bb c8 dd e6 bc 72 22 60 3d 8d 64 d8 bc
       -0.003590609 -0.028181925 0.05472035 -0.026415134
000130 2f 51 ad bd e5 a2 ee 3c 6a 01 6e 3d 3c e1 64 3d
       -0.0846275 0.029130409 0.058106817 0.055878863
000140 ec 5f 1f bd d8 a2 a4 bc c6 4e 16 bd a8 77 73 3c
       -0.038909838 -0.020097181 -0.036696218 0.014860071
000150 60 ec 92 3b 04 fc 24 bd 4b 42 6a 3d 9d 01 73 3d
       0.0044837445 -0.040279403 0.05719213 0.05932771
000160 20 77 15 bb c8 7f b5 bc 24 f2 ae bc ac 89 4c bd
       -0.00228066 -0.022155657 -0.021355696 -0.04993598
000170 20 9c 9a 3c c0 7b 5d 3c 56 f6 46 bd e0 e8 fa bc
       0.018873274 0.013518274 -0.048574768 -0.030628622
000180 ab 40 b7 3c 2f 59 05 bd 4a fc c7 3c 28 be ea 3b
       0.022369703 -0.032555755 0.024412293 0.0071637817
000190 18 50 3b bc cf c8 7b 3d 84 ba 70 3d c4 d2 c9 3c
       -0.01143267 0.061470803 0.058771625 0.024636634
0001a0 5c 53 89 bc 32 5f 10 bd ec b8 00 3d b0 b4 03 3d
       -0.016763382 -0.035247035 0.031426355 0.03215474
0001b0 14 e9 8b 3c e0 88 66 bd 41 11 fb bc 7e fb 09 bd
       0.017078914 -0.056282878 -0.030647876 -0.033687107
0001c0 05 79 57 3d 5a 2a 80 bc d0 e1 c1 3c 50 5b 74 3d
       0.052605648 -0.015645195 0.023667246 0.059657395
0001d0 a7 e0 fb 3b 1f a5 13 bb 21 22 49 bd 51 ea a9 bd
       0.0076866928 -0.002252884 -0.049104813 -0.082966454
0001e0 7e fb 5a bd 5d b7 65 bd ea 96 35 3d 85 c9 8a 3c
       -0.053462498 -0.056083072 0.044333376 0.016941795
0001f0 68 b8 71 39 46 81 41 3d 5c 7c 1b bd 92 a0 6e 3d
       0.00023052248 0.047242425 -0.037960395 0.0582586
000200 0d ae 34 3d f4 5c 80 3c 31 20 55 bd c0 42 3d bd
       0.0441113 0.015669324 -0.052032653 -0.046206236
000210 f8 19 b0 bc b6 76 34 bd d5 a1 27 3d 20 87 1e 3b
       -0.021496758 -0.044058524 0.04092582 0.0024189427
000220 3b bb a7 bc ab 9d 4b bd 60 61 19 3c d5 20 4c 3d
       -0.02047502 -0.04971091 0.009361595 0.049836
000230 59 e6 a4 3c 03 f9 4b bd 04 59 91 3c 20 3f 30 3d
       0.02012937 -0.049798023 0.017742641 0.04302895
000240 35 19 6b 3d 8c b1 96 3c b9 33 6d 3d 66 c6 e2 bc
       0.057397086 0.018395208 0.057910655 -0.027682494
000250 af d2 5c 3d 99 f4 0c bd b5 eb 9b 3c 84 b8 57 bd
       0.05391186 -0.034412954 0.019033292 -0.052666202
000260 9b 5e 35 3d cf 80 cf 3c cf ba 0f bd 80 96 78 3a
       0.044279676 0.025329975 -0.035090264 0.00094828755
000270 a6 94 3a bd 6f f1 97 3d 2c 87 1a bd ee f2 e6 bc
       -0.04555192 0.07419097 -0.037726566 -0.02819201
000280 78 d0 3b 3c 24 42 24 bd 8e b4 9d bc 0a 6f 74 3d
       0.011463277 -0.04010214 -0.019251134 0.059676208
000290 df 4e 4f bd 37 b1 41 bc 0a 89 ad 3c bc ee e9 bb
       -0.050612327 -0.0118220365 0.02118351 -0.007139055
0002a0 1d 9b 3f 3c 36 b7 3a 3d a6 ea 48 bd ba 52 3b bd
       0.011694697 0.04558488 -0.049051903 -0.04573319
0002b0 16 cc 1a 3d 88 d1 45 3c c9 81 59 3d 7f 18 f7 3a
       0.037792288 0.012073882 0.05310229 0.0018851905
0002c0 ff 0f 33 bd 74 48 bc bc 86 76 7f bd 40 b6 c9 ba
       -0.043716427 -0.022983767 -0.062368892 -0.0015389398
0002d0 b8 50 4f 3d 05 73 f1 3c b8 46 28 3d 18 e1 62 bc
       0.05061409 0.02947379 0.041083068 -0.013847612
0002e0 8c c7 9e 3c 54 d2 9d bc a6 bb ee bc 50 05 b4 3c
       0.01938226 -0.019265331 -0.029142212 0.02197519
0002f0 1d 5f 42 3d 6a 2d 8c 3b b1 76 2e bd b6 4d 16 bd
       0.04745399 0.0042778747 -0.04259366 -0.036695205
000300 90 da 0f bc da 9b 1a bd 80 4d 42 3d 99 5f 66 3d
       -0.008780137 -0.037746288 0.04743719 0.056243513
000310 a8 48 27 3d 80 01 88 ba 7c be 86 bc 34 87 0a bd
       0.040840775 -0.0010376424 -0.016448252 -0.033820346
000320 cf 06 91 bc 94 9b e7 3b bd f9 89 bc c0 21 ed 3c
       -0.017703442 0.007068107 -0.016842717 0.028946757
000330 f1 8d 7c 3c 45 0b 6b 3c 48 67 b7 3c 08 20 18 3d
       0.015414701 0.014345949 0.022388116 0.037139922
000340 ce 50 c2 3c a7 a8 22 3d 72 2f 7d 3d b0 d5 11 3d
       0.023720171 0.03971162 0.061812826 0.03560418
000350 8c a4 9f bc c8 32 d2 3c f5 70 13 bd 08 08 40 3c
       -0.019487642 0.02565898 -0.035996396 0.011720665
000360 87 79 a1 bd f7 7d cd 3c 06 24 7f bd 32 18 13 bd
       -0.078845076 0.025084479 -0.062290214 -0.035911746
000370 b5 0d 2e 3d 52 58 30 3d e8 51 67 bd 30 0a c6 bc
       0.04249354 0.04305298 -0.056474596 -0.02417478
000380 12 85 32 3d 86 73 00 bd 80 5e fd 3a fe 06 21 bd
       0.043583937 -0.03136017 0.0019330531 -0.03931331
000390 26 b7 72 3d 08 9c 35 bc b6 55 35 3b e8 1d f7 bc
       0.059256695 -0.011084564 0.0027669496 -0.030165628
0003a0 5e 10 00 bd 10 c1 04 3c 0e 85 48 3d 1c 98 33 bd
       -0.03126561 0.00810267 0.048955016 -0.043846235
0003b0 d4 e6 91 bc c0 43 84 ba 04 0c 91 3d 2e 03 2b bd
       -0.017810263 -0.0010090992 0.0708237 -0.04175108
0003c0 97 3c 30 bd e0 c9 2d 3d e8 88 23 3c 15 1e 3f ba
       -0.043026533 0.04242885 0.009981371 -0.00072905543
0003d0 0c 0f 53 bd 7c 2a 42 bd 40 19 dd 3a a0 71 f7 3b
       -0.05152802 -0.047403798 0.0016868487 0.007551387
0003e0 60 37 a5 3b 06 d0 b6 bc 40 96 54 bc 9a 4e 3d 3d
       0.0050420016 -0.02231599 -0.0129752755 0.04621754
0003f0 95 cb 46 3c e2 6c 49 3c ae 3c 99 bd 79 86 40 3c
       0.012133499 0.012294026 -0.07482277 0.011750811

mean_layer.bias f4 [3]
000000 d6 db f7 bb 58 92 01 bd 68 ed f2 3b
       -0.0075640483 -0.031633705 0.007413555

log_std_layer.weight f4 [3, 256]
000000 9c 59 04 bd 90 a7 94 bb 00 40 9a 3a 12 36 17 bd
       -0.03231202 -0.0045365766 0.0011768341 -0.0369168
000010 0e 0a 05 3d a4 73 40 3d a0 26 38 3d 00 d3 7f bb
       0.032480292 0.046985283 0.04495871 -0.0039035678
000020 34 20 cc bc 6c 8f 4a 3d 22 29 3c bd e0 c9 c7 bc
       -0.0249177 0.049453184 -0.045937665 -0.024388254
000030 38 dd f6 bc e2 10 77 bd 98 d8 23 bd f2 ab 06 3d
       -0.030134782 -0.060318835 -0.04000148 0.032878824
000040 d0 39 3c 3c 60 b9 54 3c e4 d3 55 3d b8 aa 43 bd
       0.011488393 0.01298365 0.052204028 -0.047770232
000050 4c 23 69 bd 7e 61 1d bd 08 8a 57 bc 40 b7 d3 ba
       -0.056918427 -0.038423054 -0.013155468 -0.0016152635
000060 60 49 7e 3b 9e f9 5b bd 3c ef 33 bd 88 86 c2 bc
       0.003880106 -0.05370485 -0.043929324 -0.02374579
000070 68 c1 52 3d e0 6e a9 3c 24 fb 48 3d 64 7a ee 3c
       0.051453978 0.020682752 0.04906763 0.029111095
000080 ea a2 7b 3d c6 fe 2c 3d 86 ae 1e 3d de a4 3e 3d
       0.061434664 0.04223516 0.038740657 0.04654395
000090 a8 7a e1 3c 08 0e 10 bd 08 a2 91 bc bc 26 74 3d
       0.027524307 -0.03516963 -0.017777458 0.059607252
0000a0 0e 4f 06 bd 1c f9 86 bc 98 bd 41 3d 30 5c 99 bc
       -0.032790236 -0.016476206 0.04729995 -0.018720716
0000b0 fc cc 31 3d d4 bb 53 3d 34 39 2e bd 74 d6 40 3d
       0.04340838 0.0516928 -0.042535022 0.04707952
0000c0 68 e1 37 3c e8 b1 76 bc 4e 72 26 3d ac db a3 3c
       0.011223175 -0.015057065 0.040636353 0.020002209
0000d0 30 32 b1 3c 10 33 1e bd a0 1d ec 3c 00 c1 3f 3b
       0.021630377 -0.038622916 0.02882272 0.0029259324
0000e0 08 22 64 3c 20 1e be 3b 30 fb b7 bc d4 28 a1 bc
       0.013924129 0.005801931 -0.022458643 -0.019672789
0000f0 80 ed 2c bc fa 21 3b bd e8 0f ef 3c fa fe 4e 3d
       -0.010554671 -0.0456867 0.02918239 0.050536133
000100 e6 dc 0d bd 00 50 c7 38 30 1b 53 bd 38 cc 0f 3c
       -0.034634493 9.5039606e-05 -0.0515396 0.008776717
000110 80 c1 b8 3c e8 65 3e 3c 58 37 1d 3d 4a 89 4b bd
       0.022553205 0.011620976 0.038382858 -0.049691476
000120 08 43 c5 3c 0c 91 f8 bc 9a 0a 79 3d 5c ff 6f bd
       0.024079815 -0.030342601 0.060801126 -0.05859314
000130 60 f0 ed bb 14 91 ac 3c 46 2a 03 3d a6 92 59 3d
       -0.007261321 0.021065272 0.032022737 0.05311837
000140 00 75 05 bd 14 15 a5 bc 92 cb 61 3d e8 86 35 bd
       -0.032582283 -0.020151652 0.05512578 -0.04431811
000150 60 91 1d 3b 00 b6 db b9 74 3e e8 bc 80 74 34 3c
       0.002404295 -0.00041906536 -0.028350092 0.011014104
000160 90 5a 5f bc 68 5e 21 3d 48 3a 50 bd 7c fd 7d bd
       -0.013632432 0.039396673 -0.05083683 -0.06200932
000170 70 f7 90 3c 20 01 71 3b 18 e8 6a bd a6 07 2c bd
       0.017696112 0.0036774352 -0.057350248 -0.04199948
000180 b8 02 e5 bc d0 39 c5 3c f4 a7 85 bc 90 e5 65 bd
       -0.027955398 0.024075419 -0.016315438 -0.05612713
000190 68 27 11 3c 50 32 e6 3b ea 18 30 bd 3c f8 0d 3d
       0.008859493 0.0070250407 -0.04299251 0.034660563
0001a0 fa cb 2d 3d 70 80 e5 bb 04 42 8b 3c 20 22 28 bd
       0.042430855 -0.0070038363 0.016999252 -0.04104817
0001b0 00 1b 1f 3d 80 72 20 3c 30 18 4d 3d 08 ba 76 3d
       0.03884411 0.009792924 0.050071895 0.060236007
0001c0 a2 93 03 bd 34 76 d4 3c 98 91 48 3c dc 6a d6 bc
       -0.032123215 0.02593527 0.0122417435 -0.026174001
0001d0 d8 7e 3c bd 30 eb 1e 3d 3c d3 1b bd 84 f4 36 3d
       -0.046019405 0.03879851 -0.038043246 0.044666782
0001e0 f6 b7 72 3d 78 09 02 bc 12 32 5b bd 14 4f 36 bd
       0.05925747 -0.007936828 -0.053514548 -0.04450901
0001f0 78 52 71 bc e8 b8 76 bc 34 7b 71 bd 80 9c f5 3c
       -0.014729135 -0.0150587335 -0.058955386 0.029981852
000200 20 e2 0b bb 40 0e bf 3c 64 0c a0 bc 76 e8 10 bd
       -0.0021344498 0.023322225 -0.019537158 -0.035377942
000210 42 2a 66 3d c8 a4 6b 3c 48 75 79 3c 3c 81 32 3d
       0.056192644 0.014382549 0.015225716 0.04358028
000220 c0 f9 ec 3c 90 91 43 3c 94 38 f0 bc 8c 08 a0 3c
       0.028927684 0.01193656 -0.029323854 0.019535325
000230 18 a8 3d 3d a8 16 56 3d 00 0c 44 b9 4e 6e 6e bd
       0.046302885 0.0522677 -0.00018696487 -0.058210663
000240 1c ba 13 bd bc 85 0e 3d 9e 9d 69 3d bc f7 1e 3d
       -0.03606616 0.034795508 0.05703508 0.038810477
000250 18 56 10 3d ba 21 74 3d 84 5b 90 bc 08 0f 37 3d
       0.035238355 0.059602477 -0.017621763 0.04469207
000260 a8 ef 0f bc cc cb 3a 3d e8 aa ec 3c 80 d5 80 bb
       -0.008785166 0.045604512 0.028890088 -0.003931701
000270 c0 8d f2 bb 0c e5 e4 3c b8 ec 6e bc 20 6a 38 bb
       -0.007402152 0.02794125 -0.014582805 -0.0028139427
000280 a8 fe b4 3c 90 f2 fc bc c0 3e 51 bc 6e 7e 09 3d
       0.022094086 -0.030877382 -0.012771308 0.03356784
000290 20 ea 6a 3c f0 ad 3c 3d 28 d4 94 3c ba bd 02 3d
       0.014338046 0.046064317 0.01816757 0.03191922
0002a0 00 31 1e 3b 40 2e 91 bc 94 eb 90 bc 2a 6e 06 3d
       0.0024138093 -0.017722249 -0.017690457 0.032819904
0002b0 a0 8c b5 3b 60 a5 7c bc f6 69 4e bd 9c c3 fc bc
       0.0055404454 -0.015420288 -0.05039402 -0.030854993
0002c0 1e 79 38 3d 20 cf a2 3b 34 6c ff 3c bc bf 4e bd
       0.04503738 0.004968539 0.031179525 -0.05047582
0002d0 52 7e 6c 3d d0 20 a9 3c ec 73 4e 3d 74 6a 8c bc
       0.057737656 0.020645529 0.05040352 -0.017140605
0002e0 2a e1 46 3d 98 7c 32 bd 08 8e 39 3c 60 50 1c 3c
       0.048554577 -0.043575853 0.011325367 0.009540647
0002f0 d8 bb e8 bc 50 07 ad bb 80 d9 b0 3c ac 1e ea bc
       -0.028409883 -0.0052804127 0.021588087 -0.028579079
000300 40 13 dc 3b 20 c4 86 3c 2a 7c 63 bd e8 26 ba bc
       0.006716162 0.016450942 -0.055538334 -0.02272363
000310 20 e8 25 3d 88 d6 34 bd 40 82 d0 3a 4a e9 35 3d
       0.040504575 -0.044149905 0.0015907958 0.044411935
000320 18 e2 8b bc 4c 6c 26 3d c8 df ff 3c 4c d2 ff bc
       -0.017075583 0.040630624 0.031234637 -0.031228207
000330 b0 ca 5b 3d b4 19 4a 3d ba 50 49 3d 74 32 89 3c
       0.053660095 0.04934092 0.049149252 0.01674769
000340 d4 ee 26 3d 7c 3f dc bc 00 9c 0a bb 3e f3 41 3d
       0.040755108 -0.02688574 -0.0021150112 0.047351114
000350 0e 64 5b bd 48 af 2c 3c 16 14 62 3d 00 3a 90 3a
       -0.053562216 0.010539837 0.055194937 0.0011003613
000360 a8 66 e1 bc 0e 10 3c bd 48 6b 01 bd b0 3c 71 bc
       -0.02751477 -0.04591375 -0.031596452 -0.014723942
000370 00 4c c8 3b 4c 37 d0 3c ee fb 12 bd 08 1b 5a bd
       0.0061125755 0.025416993 -0.03588479 -0.053248435
000380 e0 4e 8d bb 18 d0 9a bc a8 0b da bc 02 a7 2f bd
       -0.004312381 -0.018898055 -0.026616886 -0.04288388
000390 80 2a 28 3b 00 5c 55 3a a8 bd 82 3c 00 b1 17 3a
       0.0025660098 0.0008139014 0.015959576 0.0005786568
0003a0 18 7f f7 bc 44 00 f5 bc e0 fb 3e 3b 2c cd 91 bc
       -0.03021197 -0.029907353 0.0029141828 -0.017798029
0003b0 b8 6d 2d bc fc a7 8c bc 38 fc 90 bc c6 01 67 3d
       -0.010585241 -0.017169945 -0.017698392 0.056398176
0003c0 78 d1 10 3c 0a 64 43 3d 54 94 11 3d 20 e9 4a 3d
       0.008839004 0.047702827 0.035541847 0.04953873
0003d0 10 fc 06 bc 64 dd 55 bd 16 da 0e bd d0 05 e4 bb
       -0.008238807 -0.052213088 -0.03487595 -0.0069587007
0003e0 b8 2c 79 3c 40 bc 7b bc 32 12 6b bd 12 21 0d bd
       0.015208416 -0.0153647065 -0.0573904 -0.034455366
0003f0 78 15 53 3d c8 75 16 bd 1e 0e 28 bd 9a d0 2d 3d
       0.051534146 -0.03673342 -0.04102909 0.042435266

log_std_layer.bias f4 [3]
000000 c2 0b 5c bd c0 ab 5b bd b0 1f 2d bd
       -0.05372215 -0.05363059 -0.042266548
