outputs/router_rule/A2C_router/summer20251120-003927/models/policyB_critic.pth (torch, 274062 bytes, 5 tensors)

fc1.weight f4 [256, 6]
000000 63 42 61 be 3f e9 3d 3e d0 52 3a bd 0e 64 3d be
       -0.21997981 0.18546008 -0.045489132 -0.18495199
000010 5a e3 73 be 9b c1 a7 be 22 6b cd 3e f7 18 6c 3d
       -0.23817196 -0.32764897 0.40120798 0.057640996
000020 8a e7 92 be dd 5d 32 3d 40 d1 50 3d c6 23 89 be
       -0.28692275 0.043546546 0.050980806 -0.26785105
000030 80 e8 91 3e 9e b7 c9 3e 4a db 64 ba 78 83 d0 3d
       0.28497696 0.393979 -0.00087301864 0.10181326
000040 78 f2 4c 3e 77 c3 30 be 1c 08 ba 3e c7 28 be bd
       0.2001437 -0.17262064 0.36334312 -0.092851214
000050 d1 67 46 be da b4 b8 bc 6b 81 87 3e b9 99 0c 3d
       -0.1937554 -0.022547174 0.26465926 0.03432629
000060 ff b1 52 3e ea 12 80 be b3 71 ac be 7f d9 b1 be
       0.20575713 -0.2501443 -0.33680496 -0.3473625
000070 1a 1d df bd 41 f0 40 3e 61 8a 9f 3d 47 9f 9f 3e
       -0.108942226 0.1884165 0.077900656 0.31176206
000080 26 08 1c bd 4e 56 34 3d 1f 32 c6 3d 82 c2 87 be
       -0.03809371 0.04402762 0.096775286 -0.26515585
000090 38 1e fc bd 67 95 81 be 5b 8d 36 be 25 23 73 be
       -0.12310451 -0.25309297 -0.1782736 -0.23743875
0000a0 00 1b b9 3e c0 f1 5a be a5 cd 55 bd 51 06 cb be
       0.36153412 -0.21381283 -0.05219807 -0.39653257
0000b0 40 6e 33 be 71 39 96 be 04 ee 42 3e b9 50 3a be
       -0.17522526 -0.293407 0.19036108 -0.18194856
0000c0 7f 1e 3e bd 97 d2 b3 3e 5e 54 0e be 7c c5 8b bd
       -0.046415802 0.35121605 -0.13899371 -0.068247765
0000d0 70 4f 9b be d2 03 74 3e 96 ff 7c bc 56 34 a7 be
       -0.30334044 0.23829582 -0.015441796 -0.32657117
0000e0 17 da 7d 3d e0 b6 de 3c 0d 4b aa 3e 7b e8 a9 be
       0.061975565 0.027186811 0.33260384 -0.3318518
0000f0 39 12 29 3e 19 1d b2 bd 47 8c 8e be fb 86 aa 3d
       0.16510858 -0.08696956 -0.27841398 0.08326527
000100 72 79 94 3d 11 28 ca 3d 4c a6 7d 3d f2 49 25 be
       0.07249726 0.09870923 0.06192617 -0.16141489
000110 1a 6d 8d be 6e b4 16 3d b3 36 ed 3d a0 b3 44 3e
       -0.276223 0.036793165 0.11582699 0.19209146
000120 2c c2 17 be d9 0a a8 3e e2 05 44 3c d3 be 9b be
       -0.14820164 0.32820776 0.011964293 -0.30419025
000130 30 69 24 be 6b eb 32 be 0d f2 0a 3e 05 f6 ee 3d
       -0.16055751 -0.17472617 0.13568898 0.11668018
000140 f1 c3 f4 bd f8 33 b7 be 71 0e 92 3d db a8 b2 be
       -0.11951435 -0.35781837 0.07131661 -0.34894451
000150 57 2c b4 3e a4 38 5d 3d dc 62 f4 3d c7 59 35 3d
       0.3519008 0.054009095 0.119329184 0.04427507
000160 83 31 04 3e 1d ae a6 3d 03 c2 68 bd 7b 43 8b bd
       0.12909512 0.08138678 -0.05682565 -0.0679998
000170 23 f4 b5 3e 16 2a c2 3c 92 7e 38 be bd 8f a6 3e
       0.35537824 0.023701709 -0.18017033 0.3253154
000180 16 2f 61 be f3 b4 84 3e 53 ad 4e 3e 1c d3 cd be
       -0.21990618 0.25919303 0.20183305 -0.40200126
000190 ef b3 bb be e3 b2 ca 3e 98 f9 8d be 00 f5 2a 3d
       -0.36660716 0.39589605 -0.27729487 0.041737556
0001a0 f5 93 21 be ad b4 ad 3e 53 c5 cb 3e 66 7c e1 bd
       -0.15779097 0.33926907 0.39798984 -0.11010055
0001b0 5e 9e 39 be 7a 69 02 be 1a f0 80 be a1 85 8a be
       -0.18126819 -0.12735549 -0.25183183 -0.27055076
0001c0 14 7b 3e 3e 55 cd 88 3e 16 7f c6 be af b4 c6 bd
       0.18601638 0.26719156 -0.38768834 -0.097024314
0001d0 b3 b0 62 3e 73 78 9f be 10 3b 5d 3d b4 0b 83 bd
       0.22137718 -0.31146583 0.054011405 -0.063987166
0001e0 d0 1d 8e 3d 04 f5 0e be 2b 04 4c be af f2 5d 3e
       0.0693928 -0.13960654 -0.19923465 0.21674608
0001f0 3c b2 ee 3d 3e 2d ba 3e b3 26 bc 3e 23 ec 9a be
       0.11655089 0.36362642 0.36748275 -0.30258283
000200 bd 90 a1 3e 2a 22 bc be d1 6a 4f be 2e ef 2a 3e
       0.3155574 -0.36744815 -0.20255591 0.16692802
000210 3c 5b b8 3e fd df b7 3e 96 91 c6 3e 08 68 2b bb
       0.36007106 0.35913077 0.38782948 -0.0026154537
000220 47 d4 05 3d 51 04 2c 3e e5 97 b9 be 35 b4 d6 bd
       0.032673147 0.16798522 -0.362487 -0.104835905
000230 e0 c5 3a be a7 e1 66 3e f3 70 91 3d ef b7 60 3c
       -0.18239546 0.22547017 0.071016215 0.013715728
000240 42 cc b3 3e d9 cf dd 3d a9 bf fe 3d f2 6e cc 3e
       0.35116774 0.108306594 0.124389 0.39928395
000250 ce 9b 12 3e 23 43 9c 3e 0f f1 c1 be bc 5c ae bd
       0.14317247 0.3051997 -0.37879226 -0.085137814
000260 80 c0 c8 3b d3 60 9c 3e 6a 36 85 3e 72 86 e8 bc
       0.0061264634 0.3054262 0.26018077 -0.028384421
000270 e5 f1 0b 3e 94 93 27 3e ff 26 c6 3e 1d ad a6 3e
       0.13666494 0.1636489 0.38701627 0.3255395
000280 94 52 a9 3e f8 e4 53 3e d5 cb 8d bd 99 60 ac be
       0.33070815 0.20692813 -0.069236435 -0.33667448
000290 d4 17 8f 3e 51 2a 44 bd a1 98 26 3e 6e 15 8a bd
       0.27947867 -0.04789192 0.16269161 -0.06742369
0002a0 37 9f d2 3d 92 6a a3 be de 42 30 3e 48 32 cc be
       0.10284274 -0.31917244 0.17213008 -0.39882112
0002b0 31 75 db bc b3 de 09 bd 44 12 a6 3d 13 a4 01 be
       -0.02678928 -0.03365965 0.08108953 -0.12660246
0002c0 74 ef 8e be 20 45 3e be 8e 09 94 3e d8 50 b0 be
       -0.27917063 -0.18581057 0.2891354 -0.3443668
0002d0 b3 04 72 be 02 36 6a be c1 71 93 bd 48 9f 0a 3e
       -0.23634605 -0.22872165 -0.07199431 0.13537323
0002e0 ea f5 14 be e6 45 7b 3c 7c 3a 82 be b3 2d bd bd
       -0.14546934 0.015336489 -0.25435245 -0.09237232
0002f0 c8 e0 88 bb 21 f0 c6 3e ac 5f 86 3e f0 45 72 be
       -0.0041771866 0.3885508 0.26244867 -0.23659492
000300 b7 3c 8a 3d ff f0 7e be 24 b9 96 3e c8 f5 d9 3c
       0.06749862 -0.2489662 0.29438126 0.026606455
000310 7c 2a 6b bd 33 40 a0 be 7a bf 4b be ba 24 58 be
       -0.057413563 -0.3129898 -0.19897261 -0.2110776
000320 e9 ea 70 be 0d c0 70 3d 65 a8 99 be ce 11 62 be
       -0.23527111 0.058776904 -0.30011287 -0.22077104
000330 b5 32 a5 bd 62 af b8 be 1e 45 12 be 57 da f0 3c
       -0.08066312 -0.36071306 -0.14284179 0.029400988
000340 d6 8e df 3d 0a bb ac 3e 5d c7 a7 be f7 a3 f6 bd
       0.10915916 0.3373645 -0.3276929 -0.120429926
000350 34 b1 c1 bd 82 ec c0 be 93 29 c8 3e a2 d5 b7 be
       -0.09457627 -0.3768044 0.3909422 -0.35905176
000360 e8 2d 90 3e 8b aa c4 be d2 fb 28 be 25 4c 3d 3d
       0.28160024 -0.38411364 -0.16502312 0.046215195
000370 bf d2 80 be b9 01 63 3e f1 da a6 bd 29 41 b0 be
       -0.25160787 0.22168626 -0.081472285 -0.34424713
000380 44 d5 83 3e 3b b6 9f 3e 2a b0 98 3e 2a 23 1f 3e
       0.25748646 0.31193718 0.29821903 0.15540758
000390 c5 14 19 3e 5c ab 2b bd 81 17 77 be 2c 9b 6f 3e
       0.14949329 -0.041911468 -0.2413006 0.23399037
0003a0 3f ea 4e 3e df 1e b7 be c2 78 3d 3e 6e dd 06 3e
       0.20206545 -0.3576574 0.18503097 0.13170406
0003b0 d9 cb 95 3e 54 69 8b be 61 69 05 be be 10 c7 be
       0.29257086 -0.27228796 -0.1302848 -0.3887996
0003c0 ec 83 78 3e 44 45 b1 be fd 93 5c bd e6 b4 b9 bd
       0.24269074 -0.34623158 -0.05385207 -0.09067707
0003d0 c0 e0 3c be 7c b1 d0 3e 30 3c 73 be c9 99 e3 bd
       -0.1844511 0.4076041 -0.23753428 -0.111133166
0003e0 10 46 a5 3e 68 0c ce 3e 9b 93 58 3e 93 26 58 3e
       0.32280016 0.4024384 0.21150057 0.21108465
0003f0 aa a4 b6 bd c5 96 85 3d a2 07 75 3e be 29 bc 3d
       -0.08918126 0.06522898 0.23928693 0.09187649

fc1.bias f4 [256]
000000 5f e5 56 be b4 12 76 3e f9 26 9d bc 42 20 a7 3e
       -0.20985936 0.24030572 -0.019183623 0.32641798
000010 d9 dd e8 3d 1a 23 4f be d5 3d ab 3e 09 ba ec bd
       0.11370439 -0.20228234 0.33445612 -0.11558921
000020 5f ee 99 3e e5 99 7d 3e e1 f0 9f 3d 1d 5e c1 be
       0.30064675 0.24765737 0.07809616 -0.37767115
000030 d1 7f aa bd f6 f2 ad bd fb 53 23 be 7c 19 0a be
       -0.0832516 -0.08493607 -0.15950005 -0.13486284
000040 c3 05 8d 3e 75 e4 3e 3e 73 3c 95 be 5b c6 8a 3d
       0.27543458 0.18641837 -0.29147682 0.067761146
000050 17 ea e8 3c 38 3d 94 3e ae 56 1e 3e 25 9e f0 3d
       0.028431935 0.28952956 0.15462753 0.11748914
000060 f5 c9 62 3e 0f 92 c1 be 9c d1 97 3d ac 90 e5 bc
       0.22147353 -0.37806746 0.07413027 -0.028023086
000070 ac ed 98 3e ef 71 50 be ba 7f 83 3e 21 1a 80 3e
       0.2986883 -0.20355962 0.25683385 0.25019935
000080 4f 66 09 be aa a1 55 3e 79 28 12 3e 78 b0 5a bd
       -0.13417934 0.20862451 0.14273252 -0.05339095
000090 6f 20 8e 3d fd e6 05 be ab 1d 25 be 49 bd 05 be
       0.0693978 -0.13076396 -0.16124599 -0.13060488
0000a0 17 46 20 be 0b ab 98 3b 7f b6 cc 3e 3d 45 61 bc
       -0.15651737 0.004659062 0.39982983 -0.013749418
0000b0 e3 6e 46 3e 92 f3 ba 3e fd f9 57 bd 4e 74 3b 3e
       0.19378237 0.36513954 -0.05272864 0.18306085
0000c0 79 a3 85 bd b4 47 47 3e 59 6a 70 be cf 6e 82 3d
       -0.065253206 0.19460946 -0.23478068 0.06368791
0000d0 96 69 b8 3e 6e 50 eb 3d 24 bc 7a 3e 7c 63 c5 be
       0.36018056 0.1148995 0.24485832 -0.38552463
0000e0 40 11 3d 3e 66 06 e6 3d dd cb 39 be c1 27 91 3c
       0.18463612 0.11231689 -0.18144174 0.017719151
0000f0 29 f5 17 3e 44 d9 0f be c7 95 91 3d 74 9f 95 bd
       0.14839615 -0.14047724 0.07108646 -0.07305804
000100 1d 0b bd 3d 9d 92 2e bd 0d a9 9a 3e c8 16 8d be
       0.09230635 -0.04262029 0.302071 -0.27556443
000110 b0 47 91 bd 1b b1 37 be f3 ed 34 be 09 9e fa 3d
       -0.070937514 -0.17938654 -0.17668895 0.12237174
000120 8e f4 96 3d d6 d6 5f be 69 e2 21 be eb 42 8a be
       0.07370864 -0.21859297 -0.15809025 -0.2700418
000130 71 9c 87 be f8 0f a5 3e fc ef a0 be 8c 73 84 bd
       -0.26486543 0.32238746 -0.31433094 -0.06467351
000140 09 ea 87 be 2f 23 1a be 8f f3 f2 3d 94 89 6b be
       -0.26545742 -0.15052484 0.11862861 -0.230017
000150 f2 2b 22 bd c7 58 b2 be 0d e0 9a 3e 92 b6 5e be
       -0.03959269 -0.34833357 0.30249062 -0.21749333
000160 ae 33 e6 3b 47 7e 22 be 67 8b 67 bc 09 eb 5b 3e
       0.0070252037 -0.15868483 -0.014132357 0.21476378
000170 d4 cc b0 be 6c 59 8c 3c 3d cc 8c be 72 9f c0 3e
       -0.3453127 0.017132483 -0.2749957 0.37621647
000180 d3 c1 81 3e 79 7b aa 3e 15 32 46 3e 68 0b 49 3d
       0.2534319 0.33297327 0.19355042 0.049083143
000190 af 21 a3 bd 50 54 f4 bd 34 43 7f 3d 87 92 bf 3e
       -0.07965409 -0.11930144 0.06231995 0.3741648
0001a0 39 68 4b be f9 78 27 3e bf 81 c9 3c 28 3b cc 3d
       -0.19863977 0.16354741 0.024598 0.09972221
0001b0 a9 aa c1 be d7 0b c9 be c7 aa 79 bd f3 5e 1d be
       -0.37825516 -0.39266846 -0.06095388 -0.15368252
0001c0 1a 0c eb 3d 78 e5 cd be 19 06 f6 3d 9f 47 52 3e
       0.114769176 -0.40214133 0.12012882 0.20535134
0001d0 2a 47 bf bd 81 c4 6a be c8 48 ca 3e b4 5e 8a 3e
       -0.09339745 -0.22926523 0.39508653 0.27025378
0001e0 8f 35 b3 be ad 50 4a bd 62 f2 19 bd 46 19 ae 3e
       -0.350018 -0.049393345 -0.03758467 0.34003657
0001f0 85 a7 5f 3d 1d 80 81 bd 0d 24 9a 3e 7f 0e d5 bd
       0.05460312 -0.06323264 0.3010563 -0.104031555
000200 0f 6f af 3e 72 77 fd 3d 5c 6c 2f be 58 e2 14 3e
       0.34264418 0.12376298 -0.1713118 0.14539468
000210 2b 63 98 be d3 f1 a8 3a de 54 9c 3e 59 66 b5 bd
       -0.2976316 0.0012889452 0.305335 -0.08857412
000220 79 79 9f be 88 f9 8e bd 4e ab 5d be 56 84 8e 3b
       -0.31147364 -0.06981188 -0.21647379 0.0043492718
000230 ba 42 ae 3e d8 df 13 3d 8c d0 33 bd 72 6e 6d bd
       0.34035283 0.036102146 -0.043900058 -0.057966657
000240 a5 06 e5 bd 35 76 85 bd d7 3a 92 3d cd 1a 41 be
       -0.11182908 -0.06516687 0.07140129 -0.1885788
000250 8f e0 8b 3e f6 7b cf 3b 9e 2e 86 be 69 0f be 3e
       0.27319762 0.006331916 -0.2620744 0.37121132
000260 ff 6a b8 be ff dc 3e bd ce 93 27 3e c5 79 33 be
       -0.36019132 -0.046597477 0.16364977 -0.1752692
000270 ec 8f 98 3c 6c fb 63 3c 0d 79 dd 3d 92 0d 84 3e
       0.018623315 0.013914924 0.10814104 0.25791603
000280 65 53 34 be ea 33 0c be 80 3b 56 be ca 03 5f 3e
       -0.17609937 -0.13691679 -0.20921135 0.21778789
000290 f2 5d 45 3e b2 1d 18 be 45 8f a2 be 7c 6c 15 be
       0.19274119 -0.14855078 -0.3174993 -0.14592165
0002a0 0a 37 36 3e 61 0f 6e be 61 20 3d be ab a1 bf 3d
       0.17794433 -0.23248054 -0.18469383 0.093570076
0002b0 de f7 f3 bc 96 89 9d 3d ca 68 be be 3b 98 4a be
       -0.029781278 0.07692258 -0.37189323 -0.19784634
0002c0 be 17 f2 bd 74 12 2c bd c5 3c d8 bd d6 4b 1a be
       -0.11820935 -0.042009786 -0.10558466 -0.15067992
0002d0 cb d6 bc 3e 18 7f 38 be 38 c6 8d bd b4 22 ad 3d
       0.36882624 -0.18017232 -0.06922573 0.08453885
0002e0 04 21 97 3c 6e a4 8b 3e 74 42 b9 be 74 f6 b9 3e
       0.01844836 0.27273887 -0.36183512 0.3632084
0002f0 85 09 9a 3a b2 99 02 be d1 d0 83 3d 0c a7 d0 3e
       0.0011752105 -0.12753943 0.06436313 0.40752447
000300 5f 9b 90 be 9b ba 47 bd 50 70 5e bd b0 db b6 3e
       -0.2824354 -0.048761945 -0.05430633 0.35714483
000310 99 4d a9 be 6f 78 ad 3c 26 74 ec bd 91 ed 51 be
       -0.33067015 0.021175591 -0.11545591 -0.2050078
000320 d8 e9 1f be 28 d0 63 be 7c 8f b2 be 40 bc 44 be
       -0.15616548 -0.22247374 -0.34875095 -0.19212437
000330 a3 c1 c9 3e d5 24 c3 be bd f8 c4 be 52 18 b0 be
       0.39405546 -0.38114038 -0.38471022 -0.34393555
000340 bf 14 68 3e cf 14 40 3e 23 92 83 3e 40 f2 87 bd
       0.22664164 0.18757938 0.2569743 -0.066380024
000350 ab 4e 62 3e fb 37 b0 bd f2 9a 91 bd 00 96 39 be
       0.22100322 -0.086044274 -0.071096316 -0.18123627
000360 c5 09 53 3e 16 44 02 be 1f eb ab be 79 a1 02 be
       0.20609196 -0.12721285 -0.3357782 -0.1275691
000370 22 b3 61 be fd ed 15 be 88 72 85 be 19 36 15 bc
       -0.2204099 -0.14641567 -0.26063943 -0.009107136
000380 d0 04 c2 3e 65 03 8d bd 70 7b 1e be e4 31 9a 3e
       0.37894297 -0.06885413 -0.15476775 0.3011619
000390 20 c4 68 be 19 3e 86 be 85 d9 b0 3e 53 8e be 3c
       -0.22731066 -0.26219252 0.34540954 0.023261225
0003a0 64 e8 8c 3d 94 f8 b2 3e 93 74 68 bd fa a7 a2 3e
       0.068802625 0.34955275 -0.0567518 0.3176878
0003b0 88 6e 93 3e e6 74 09 be c2 e8 b7 3e 47 c6 66 be
       0.28795266 -0.134235 0.35919768 -0.22536574
0003c0 2f fa 91 3d d1 a7 24 be 3b 26 37 bd 50 62 3a be
       0.07127797 -0.16079642 -0.044714194 -0.18201566
0003d0 c5 4e b5 3e b4 ab aa 3e ca 4d 8c 3d c1 9f cd 3e
       0.3541166 0.33334124 0.068507746 0.40160945
0003e0 ad 2d ba 3e 28 ac cc be 8c 59 fc 3d 1e c4 03 be
       0.36362973 -0.39975095 0.12321767 -0.12867782
0003f0 62 6d 41 be 41 ba 77 3e b2 30 84 3d 22 f8 84 be
       -0.18889382 0.24192144 0.064546004 -0.2597056

fc2.weight f4 [256, 256]
000000 ae 93 7b bd c8 ed 5f bd 58 a9 39 3d 78 e4 d5 3c
       -0.061420135 -0.054670125 0.045327514 0.026109919
000010 a0 fa 3c bb ea 0c 09 bd 70 c7 9e bc 78 a7 4b 3d
       -0.0028835908 -0.03345958 -0.019382209 0.049720258
000020 e4 fe d4 bc 04 23 ed bc 48 18 3a bc f6 78 20 3d
       -0.026000448 -0.02894736 -0.011358328 0.039177857
000030 60 fd 56 3b b0 26 2e 3c 24 ab 21 bd a4 bd 63 3d
       0.0032804832 0.010629341 -0.039469853 0.055600777
000040 c6 71 48 3d 2e 7d 30 3d e2 c8 48 3d a4 97 09 3d
       0.048936628 0.04308813 0.0490197 0.03359188
000050 a4 cc 1f bd ea 30 49 3d be 4b 61 bd 04 72 63 bd
       -0.03901352 0.049118914 -0.055003874 -0.055528656
000060 3c 6f 71 bd b0 38 46 bc 18 b9 74 3d 2c cd 00 bd
       -0.058943972 -0.012098476 0.05974683 -0.031445667
000070 f0 f9 03 3c 64 1d 30 bd 00 a3 b3 b9 b0 88 29 bd
       0.008055195 -0.04299678 -0.00034262985 -0.04139012
000080 08 db c5 3c 30 7b 54 3c 34 3c 0a 3d c8 50 6d 3c
       0.024152294 0.012968823 0.03374882 0.014484592
000090 f4 3e 26 3d a4 12 40 bd ca 2b 69 bd e0 47 4e 3b
       0.04058738 -0.046892777 -0.056926526 0.0031475946
0000a0 56 ae 23 bd 3c e6 df bc 3e 42 38 bd 7c 9f c8 bc
       -0.03996118 -0.027331464 -0.04498505 -0.02449011
0000b0 6e 77 52 bd ca 46 01 bd de 86 20 3d 7e 0a 6f bd
       -0.05138343 -0.03156165 0.03919112 -0.058359616
0000c0 06 33 37 bd ce b1 4a 3d c2 0f 4f bd 04 a9 c2 bc
       -0.044726394 0.049485974 -0.050552137 -0.023762234
0000d0 0e 8e 1c 3d 70 7e ba bb 68 db 58 bc 18 f2 5e bc
       0.03822141 -0.005691342 -0.013235904 -0.013607524
0000e0 1c 99 62 bd b2 d4 23 bd d0 4d 43 3d b8 d9 e7 bc
       -0.055321798 -0.039997764 0.04768163 -0.028302059
0000f0 62 27 2d bd 36 64 4c bd da ea 4f bd 10 7d 1f 3c
       -0.042273887 -0.049900256 -0.05076108 0.009734407
000100 0e 89 49 bd 28 b6 78 bc c2 1e 29 bd 20 68 22 bb
       -0.04920297 -0.015180148 -0.0412891 -0.0024781302
000110 0a 2f 4b bd 60 e9 e9 bc 70 a4 5e bd fe 5d 07 3d
       -0.049605407 -0.028553665 -0.05435604 0.033048622
000120 e6 7b 37 bd 5a ac 13 3d 44 9a 45 bd ac 7c 5a bd
       -0.044795893 0.03605304 -0.048242822 -0.053341553
000130 92 aa 31 3d 90 df 6c 3d cc 2f 46 bd b4 08 7e 3d
       0.04337556 0.057830393 -0.048385426 0.06202002
000140 58 3f 18 3d 68 f2 07 3d ec 38 05 3d 1c 8c b8 bc
       0.037169784 0.03319016 0.032524988 -0.022527747
000150 88 45 5e 3d c4 b5 32 bd 5e fa 30 bd f0 3d 85 bb
       0.05426553 -0.043630376 -0.04320752 -0.0040662214
000160 2c 65 bb bc 96 90 79 3d 04 c2 45 bd ae be 4f 3d
       -0.022875391 0.060928904 -0.04828073 0.050718956
000170 38 45 0a 3c 0c 11 33 bd f2 d9 5b bd 38 fc 25 3d
       0.008439355 -0.04371743 -0.053674646 0.040523738
000180 00 b2 62 bb 5e 1c 5c bd ce d7 30 bd 98 42 e7 bc
       -0.003459096 -0.05373799 -0.043174557 -0.028229997
000190 8c 0d 28 bd 30 f2 d9 3c e8 4d 5c 3d 64 bc 7e bd
       -0.041028544 0.026604742 0.053785235 -0.062191382
0001a0 dc f5 a4 bc 96 cf 29 3d ca 3b 4f 3d f0 4b 0b bd
       -0.020136766 0.041457735 0.05059413 -0.034007967
0001b0 a0 b2 5c 3d 7c 9a d1 bc 14 5b 50 3d aa a5 18 3d
       0.053881288 -0.02558636 0.05086811 0.037267365
0001c0 e4 c5 ab 3c 4e a6 62 bd c0 f3 76 bc f6 4d 30 bd
       0.020968385 -0.05533438 -0.015072763 -0.0430431
0001d0 e4 c1 bb 3c 74 dc b1 3c fe 0b 60 bd 24 6d 4a 3d
       0.022919603 0.021711566 -0.054698937 0.04942049
0001e0 98 eb 2e 3c 1c 23 12 3d 72 c8 73 bd 20 1f 8c bc
       0.010676287 0.035678014 -0.05951733 -0.017104685
0001f0 76 31 1c 3d f4 20 f1 3c 04 6b 0c 3d b8 a8 1b 3d
       0.038133107 0.029434659 0.034281746 0.0380027
000200 a0 25 01 3b da b5 23 3d a8 85 13 3c ee e1 51 bd
       0.0019706264 0.03996835 0.009004034 -0.051240854
000210 66 57 4f 3d a0 6a 9a bb 68 5e d8 bc 4e d6 30 bd
       0.05062046 -0.0047124177 -0.026412204 -0.043173127
000220 c4 4d f9 3c 80 b6 be 3b 30 fc 17 3c b0 47 e8 3b
       0.03043259 0.0058200955 0.009276435 0.007088624
000230 d8 53 4f bc 48 61 08 bd 90 8a 7e bd 3c 84 c9 bc
       -0.012654267 -0.0332959 -0.062143862 -0.024599187
000240 58 39 b4 3c d4 1b 9a bc b4 9e e3 bc c0 12 72 bc
       0.022 -0.018812098 -0.027785636 -0.014774978
000250 c0 2b fc bb 60 5d 41 bd 80 38 4c bb 30 36 7f 3d
       -0.007695645 -0.04720819 -0.0031161606 0.062307537
000260 fe cb 65 3d 0c d0 e7 3c 5e 6e 56 bd c8 93 37 bd
       0.056102745 0.028297447 -0.052351348 -0.04481867
000270 14 b4 0a bd 7c 2a 12 3d d0 4d 99 bb 50 5b 85 bc
       -0.033863142 0.035685048 -0.0046784654 -0.016278893
000280 70 78 f0 bc 10 6a a3 3c e6 b9 13 bd 00 bd 31 bd
       -0.029354304 0.019948035 -0.03606596 -0.043393135
000290 c4 81 e8 bc 14 66 bc 3c 04 de a7 bc 92 fc 3b bd
       -0.02838219 0.022997893 -0.020491607 -0.045895167
0002a0 c0 a5 96 3a 9e 3e 55 3d 5c 44 b3 3c 18 f8 1d 3d
       0.0011493489 0.05206167 0.021883182 0.03856668
0002b0 0c af b6 bc 9e 70 00 3d 42 01 2a 3d 90 17 98 bc
       -0.022300266 0.0313574 0.041505106 -0.018565923
0002c0 d0 e2 02 3d 18 d2 33 3d 00 6f 32 bb 8c ef e1 3c
       0.031954587 0.043901533 -0.0027226806 0.027580045
0002d0 20 7b 04 3b 50 3d 3f bd 08 80 d5 3c 8c d3 62 bd
       0.002021499 -0.04668933 0.026062027 -0.055377528
0002e0 06 44 2d 3d 58 77 2c 3d c4 a9 e0 3c 50 91 3c bc
       0.0423012 0.042106003 0.0274247 -0.011509255
0002f0 8e 06 4d 3d 6c 1d 90 bc bc b8 f5 3c d4 61 8d bc
       0.05005508 -0.017592154 0.029995315 -0.017258562
000300 50 4b 82 bc 58 32 0f 3c fc 4d c3 3c 28 33 0a 3d
       -0.015905052 0.00874003 0.023840897 0.033740193
000310 c8 ec 2b 3d 90 ee 4c 3c 96 e7 36 3d 18 89 01 bd
       0.04197386 0.01250805 0.04465445 -0.031624883
000320 86 ae 7d bd 8e d1 26 bd 8e e6 08 bd 96 69 76 3d
       -0.061934017 -0.04072719 -0.033423 0.06015929
000330 80 f2 94 bc 3a eb 5d 3d d8 90 96 bc f8 a9 b7 3c
       -0.01818204 0.054179408 -0.018379614 0.022419915
000340 18 bc 1a bc b8 c9 85 bc 52 88 71 3d 9c d9 63 bd
       -0.009444259 -0.016331539 0.058967896 -0.05562745
000350 b6 f1 61 3d 20 79 94 bb 20 b2 6a bd 16 8c 66 bd
       0.055162154 -0.004531041 -0.05729878 -0.05628594
000360 14 40 a5 bc b2 71 64 3d 8c b7 17 bd a8 3d b0 bc
       -0.020172156 0.05577249 -0.03704028 -0.021513775
000370 56 d8 55 3d 40 43 54 3c 36 da 08 bd 90 dd e3 3c
       0.052208267 0.012955487 -0.033411227 0.02781561
000380 f8 65 c6 bc 94 60 7d 3d 68 3f 49 3d 5c 36 5f 3d
       -0.024218544 0.061859682 0.049132735 0.0544952
000390 c8 80 45 bc 58 d1 d8 bc 4a 6d 67 bd aa 98 50 3d
       -0.01205463 -0.02646701 -0.05650071 0.05092684
0003a0 e4 11 3d bd 86 13 5f bd b0 7b 00 3c be 49 60 bd
       -0.04615964 -0.05446198 0.007841989 -0.054757826
0003b0 04 b0 c8 bc c2 d6 45 bd 7e c9 64 3d 04 96 3f 3d
       -0.024497993 -0.048300512 0.05585622 0.046773925
0003c0 6e da 4b bd ee 75 64 3d 04 ad f8 3c 56 f6 15 bd
       -0.049768858 0.05577653 0.030355938 -0.036611877
0003d0 30 dc b0 3b f0 97 88 3b b4 83 97 3c 48 43 14 bc
       0.005397342 0.004168503 0.018495418 -0.009049244
0003e0 20 b8 59 bc c6 e4 62 bd 54 84 3e 3d 00 39 ed 3c
       -0.013288528 -0.055393957 0.046512917 0.028957844
0003f0 48 21 ee 3c 6c c0 e5 3c 68 e2 41 bc c4 0b eb bc
       0.029068604 0.028045855 -0.011833765 -0.028692134

fc2.bias f4 [256]
000000 64 ae b2 bc ea 48 ab 3c d4 05 46 3d 62 5d 2c bd
       -0.021811672 0.020908792 0.048345402 -0.042081244
000010 90 32 8c 3c 74 48 b8 3c 8b d3 b1 bc 50 d2 45 bc
       0.017113954 0.022495486 -0.021707317 -0.012074068
000020 70 ea 51 bc aa 45 06 3d 50 77 3e 3c 5b 78 c2 bc
       -0.012812242 0.03278128 0.011625126 -0.02373903
000030 d8 28 7c bd 40 73 d0 bb 60 2a 3d bc 70 ed 21 3d
       -0.06156239 -0.006361395 -0.0115457475 0.03953308
000040 d0 92 b5 3b 80 f0 a5 ba 3c 4c 14 bd dc ca 1d 3d
       0.005541183 -0.0012660176 -0.036205515 0.03852354
000050 1a 0c fb bb 41 65 0c bd a0 0d 6e bd 12 13 00 bd
       -0.0076613547 -0.03427625 -0.058118463 -0.031268187
000060 78 e3 0a bc 3d e6 56 3d 3c 40 bc 3c 10 0f 45 3d
       -0.008477084 0.052465666 0.022979848 0.048110068
000070 70 81 e3 3c 00 c9 81 bc 42 bd 58 3d 90 91 f0 bc
       0.027771682 -0.015842915 0.052914865 -0.029366285
000080 ce bc 6f 3c 4d 69 46 bd 5e ed 47 3d 8f 73 58 bd
       0.014632417 -0.048440266 0.048810355 -0.05284458
000090 a2 c6 17 3d 98 41 4a bd c6 21 98 bc c5 cb 2d 39
       0.037054665 -0.04937896 -0.018570792 0.00016574476
0000a0 53 b7 47 3d 90 73 75 bd 46 e9 77 3d f8 5a 23 bd
       0.048758816 -0.059924662 0.0605252 -0.039881676
0000b0 c4 62 1d bd a4 bc 53 3d d6 c5 72 bd 05 dc 06 3c
       -0.03842427 0.051693574 -0.059270702 0.008231168
0000c0 3a 37 75 bd 3a 5a 1f 3d 95 20 a2 3c a0 5c ed bc
       -0.05986712 0.038904406 0.019790927 -0.028974831
0000d0 5f 2d 21 3d 0c 41 b1 3c 58 04 32 bc 22 5b 1f 3d
       0.03934991 0.021637462 -0.010865293 0.03890527
0000e0 7a 4a 7b 3d e3 00 95 3c 73 de 66 bc a1 51 cb bc
       0.061350323 0.0181889 -0.014091122 -0.024819197
0000f0 3f 25 57 3d 90 88 b2 bc 88 72 73 3d 1e 77 2b 3d
       0.052525755 -0.021793634 0.059435397 0.041861646
000100 83 a7 da 3c 67 ec 20 bc 21 dc 22 bc 0c 71 1b 3d
       0.026691204 -0.009821988 -0.009940178 0.037949607
000110 a0 bc 11 bd 84 db ab 3c a7 73 1d bd 6c 16 91 bc
       -0.035580277 0.020978697 -0.038440373 -0.017710887
000120 b8 db 55 3c e0 8e 15 3c 58 cf e7 3c a3 2c 45 bd
       0.013052873 0.009128302 0.028297111 -0.048138272
000130 9c e6 2a bd 14 5e 3c 3d 00 ac 9b 38 6e b4 3b 3d
       -0.041723832 0.045988157 7.4230134e-05 0.045826368
000140 8e 53 28 bd 98 9b 77 3c 4b 15 f4 bc 8e c7 b4 bc
       -0.04109531 0.01511278 -0.02979531 -0.022067811
000150 27 5c fe bc 00 d4 44 3b b1 65 f9 3c 79 cf 9f bc
       -0.031049801 0.0030033588 0.030443998 -0.01950811
000160 20 e9 cc bb 98 14 22 3d 5e f0 71 3c c0 99 a9 bb
       -0.0062533766 0.03957042 0.014766781 -0.005175799
000170 00 d4 1a 3d a8 26 78 3d d9 00 5c 3b 1c 7a 61 bd
       0.037799835 0.06058374 0.0033569841 -0.055048093
000180 c0 2e 31 3d 48 3d ff 3c ce 1e bb bc b3 90 19 bd
       0.043257475 0.03115715 -0.022841837 -0.03749151
000190 1d 61 34 bd 48 73 89 bc 90 66 31 bd 83 08 2c bd
       -0.044037927 -0.016778603 -0.0433107 -0.042000305
0001a0 7b 9a 62 bd 28 ad 12 3d 0a 3e 9e bb 9d e5 d2 3c
       -0.055323105 0.035809666 -0.004829173 0.025744254
0001b0 44 7e 4d 3d 18 0d 14 3c e8 50 a4 bc a3 25 e7 3c
       0.050169244 0.009036325 -0.02005811 0.028216189
0001c0 e2 94 e8 bc 98 00 6b bd 96 83 2a 3d ba 8d 27 bd
       -0.028391305 -0.057373613 0.041629396 -0.040906645
0001d0 00 41 be bb fb d2 c6 bc 7e 09 9a bc 36 1c 53 3c
       -0.0058060884 -0.024270525 -0.018803354 0.012885144
0001e0 43 0c 12 3d e2 ad 08 bd 60 02 e0 bb 1a f1 07 3d
       0.035656225 -0.033368953 -0.0068362206 0.033188917
0001f0 6c 3b 0a bd 9c 14 b7 bc 80 af 18 bd ca a4 22 bd
       -0.033748075 -0.022348695 -0.037276745 -0.039707936
000200 da ef 7d bd 23 ef 7c 3d 09 4a 92 3b 00 7a 3e 3c
       -0.06199632 0.061751496 0.004464392 0.011625767
000210 89 c5 de 3c bc b9 3d 3d 8a fa 3a bb 51 f8 b6 bc
       0.027193801 0.04631971 -0.002853068 -0.022335203
000220 45 2e ee bc 00 cf 69 bd 40 6a ae 3c 8e d5 e3 3c
       -0.029074797 -0.057082176 0.021290898 0.027811792
000230 58 f7 55 3d 6e 59 46 3d 8d fe 39 bd 6c 39 2c bd
       0.05223784 0.04842513 -0.045408774 -0.04204695
000240 60 9a 54 3c fd 02 67 bd 30 d4 cd bb 58 15 d4 bc
       0.012976259 -0.056399334 -0.0062813982 -0.025889084
000250 88 a0 47 3d 76 5b 69 3d 94 64 67 bd 24 bd 13 3d
       0.04873708 0.05697199 -0.056492403 0.03606905
000260 8a 23 63 3d 5e fa 67 bd bc 92 56 bc d4 d9 bf bc
       0.055453815 -0.056635253 -0.013096508 -0.023419298
000270 a9 ba b8 b8 b1 9f 78 3d f8 f0 72 bd b8 7a 7b 3d
       -8.808572e-05 0.06069917 -0.059311837 0.06139633
000280 56 a7 26 3d 20 3f 52 3d d8 7d b1 3c 38 7e 35 bd
       0.040686928 0.051329732 0.021666452 -0.044309825
000290 31 7c 74 3c a7 d3 54 bc d2 f2 22 3d d4 ff 01 3d
       0.014922188 -0.012989915 0.039782353 0.031738117
0002a0 fa c8 d4 3c 98 8c f5 3c e0 33 a1 3c e6 c3 b7 3c
       0.02597474 0.029974267 0.019678056 0.022432279
0002b0 29 b5 26 3d 16 ad d7 bc 50 83 f3 3b a0 06 2b 3d
       0.04070011 -0.026327651 0.007431425 0.041754365
0002c0 46 95 5d 3d c5 8a b6 bb 00 8f 9a 3b 78 99 a8 3c
       0.054097436 -0.005570742 0.004716754 0.020580992
0002d0 c4 9e 2a bd 64 a3 8c bc 40 d5 32 bd 21 94 5b 3d
       -0.041655317 -0.017167754 -0.043660402 0.053608064
0002e0 8c 02 df bc 9c b8 4d 3d 70 e1 63 3d 5e a9 2e 3d
       -0.027222894 0.050224885 0.055634916 0.04264199
0002f0 c9 50 f6 3b 0a 1d 2d bd 68 3b 34 bc 4e 3f 4f 3c
       0.0075169546 -0.042264022 -0.011000492 0.01264937
000300 2e bd 01 bd c1 e0 98 bc 92 d4 a2 bc 48 38 26 3d
       -0.031674556 -0.018661859 -0.019876752 0.040581018
000310 36 6c 3f bd 28 7d c8 bc 59 55 ac 3c f5 a0 70 3d
       -0.046734057 -0.024473742 0.02103679 0.05874725
000320 8c 42 a6 bc 4c 4b 43 bd 76 a1 65 bd 9d d6 21 bd
       -0.020295404 -0.04767923 -0.056062184 -0.03951131
000330 d8 5c e3 bc f0 fa 01 bd 1b 3a d3 b8 92 9c 38 3d
       -0.027754232 -0.031733453 -0.00010072087 0.045071192
000340 30 c6 80 3c d0 97 1c bb a6 db 66 bd a6 53 3c bd
       0.015719503 -0.0023894198 -0.056361817 -0.04597821
000350 08 b0 e0 bc a0 54 20 3b 7c b6 de bc 15 71 42 3d
       -0.027427688 0.0024464503 -0.027186625 0.047471125
000360 5e a5 40 bd c0 91 0f bb a3 04 18 3c 4b 3c 0e 3d
       -0.047032706 -0.0021906942 0.009278449 0.03472547
000370 a4 cb 5e bc 00 9b 5b 3d 9f ab e1 bc 50 37 19 bc
       -0.013598356 0.053614616 -0.027547656 -0.009351566
000380 9a 7f 98 bc c0 70 fa 3c d8 1b 5b 3d 62 6a 14 3d
       -0.018615533 0.030571342 0.05349335 0.036234267
000390 58 2c 04 3c 38 2f 0f 3d 70 97 46 bd 4c ba 0d bd
       0.008067213 0.03495714 -0.048484266 -0.034601495
0003a0 41 90 8a bc a7 18 63 bc 84 5a a6 bc a4 a8 c0 3c
       -0.016914489 -0.013860858 -0.020306833 0.023517914
0003b0 e2 ed 5c bd 19 f6 a4 bc cb 6c 0c bc 68 cd 04 3c
       -0.0539378 -0.02013688 -0.00857086 0.008105613
0003c0 e0 cc bd bb bb c7 60 3d e6 56 44 bc ff 33 3e 3d
       -0.0057922453 0.054877978 -0.011983609 0.046436306
0003d0 e4 8a 8e 3c 2d 01 9c 3c 83 7a 31 bc 9f 73 60 bb
       0.017400213 0.01904353 -0.010832432 -0.0034248603
0003e0 1a ec 1d bd 40 d2 3c bc a6 05 5d bd e0 bc 25 3b
       -0.038555242 -0.011524737 -0.053960465 0.002528958
0003f0 ce 87 4a 3d 3e 9b 13 3d 3b 21 9a bc 88 44 b7 3c
       0.04944592 0.036036722 -0.018814674 0.022371545

fc3.weight f4 [1, 256]
000000 b2 be 79 3d 9d b7 e4 3c f2 16 28 3d 70 bd ce bc
       0.060972877 0.027919585 0.041037507 -0.025236815
000010 08 59 0e bd 36 a6 94 bc 31 64 79 3d a6 7a 23 3d
       -0.034752876 -0.018145662 0.060886566 0.03991189
000020 74 92 a1 3c d0 83 cb bc 70 b3 2c bd 62 ae de 3c
       0.019723155 -0.024843127 -0.042163312 0.027182762
000030 ba c6 24 3d 1c 0f b2 bc 52 e9 0c bd e8 c1 bd 3c
       0.040228583 -0.02173572 -0.0344022 0.02316375
000040 a0 a8 08 bc cc 68 9b bc 50 63 3a bc 7e 57 20 bd
       -0.008340985 -0.01897087 -0.011376217 -0.03914594
000050 60 33 22 3d 43 1e ef 3c cc 41 38 bc e8 48 dd 3c
       0.039599776 0.029189235 -0.011246156 0.027012303
000060 68 b2 6a 3c 10 62 23 bc d6 48 61 3d 08 b3 b1 ba
       0.014324762 -0.00997211 0.055001102 -0.0013557384
000070 82 54 71 bd 7c a6 db 3c 78 b9 39 bc d4 4c 65 3d
       -0.058918484 0.026812784 -0.011335723 0.055981472
000080 83 bb 14 3d 6c ae 39 bd ea 0d 75 3d 01 65 d0 bc
       0.036311638 -0.045332357 0.059827723 -0.025438787
000090 c8 87 2c 3c c4 4b 9d 3c e9 20 ce bc 38 50 5e 3d
       0.01053042 0.019201167 -0.025162177 0.05427572
0000a0 1d a8 69 bc de 08 8e 3a af 39 21 bd f2 6d 20 bd
       -0.014261273 0.0010836383 -0.039361652 -0.039167352
0000b0 00 7c ab bb 00 fa b7 39 10 29 63 3d 8b e5 00 bd
       -0.005233288 0.00035090744 0.055459082 -0.03146891
0000c0 06 34 d3 bc ca cd 25 bd 1e 86 22 bd 80 7b fa 3a
       -0.025781643 -0.04047946 -0.039678685 0.0019110292
0000d0 2b dd 3e bd 33 ee 2f bd 88 9e c5 3c 1c de 36 3d
       -0.04659764 -0.042951774 0.024123445 0.044645414
0000e0 70 7f e9 bb ac c2 48 3d 4d 4d 3c 3d 97 79 10 bb
       -0.0071257874 0.04901378 0.045972157 -0.002204513
0000f0 d6 cd 46 bd 80 da 74 3d 98 d1 62 bd 3e fb 7b bd
       -0.048536144 0.05977869 -0.055375665 -0.0615189
000100 07 85 31 3d 7a f4 4a 3d bc b5 26 bd 00 52 0e 39
       0.043339755 0.049549557 -0.04070066 0.00013572723
000110 f2 f7 2f 3d 12 9a 27 3d c0 77 05 bd 9a e0 22 bd
       0.04296107 0.040918417 -0.032584906 -0.039764978
000120 d4 cd 50 bd 5c 55 df 3c 98 78 18 3c 6d de b7 3c
       -0.050977543 0.027262382 0.009306096 0.022444928
000130 10 6d a0 3b 94 40 f2 3c 00 6f 6f bd 90 1c 67 3c
       0.0048958138 0.029571809 -0.058455467 0.014105931
000140 3a 0e 4b bd b0 97 ba 3b dd 89 61 bc b5 e7 69 3d
       -0.049574114 0.005694352 -0.013765779 0.05710574
000150 43 b3 64 bc a0 fe 6e bc 2a a5 05 3c e6 de 4e 3d
       -0.013958755 -0.0145870745 0.008157054 0.05050554
000160 00 eb fc 3c 76 d7 72 3d 1c ac 5d 3d b5 42 a5 ba
       0.030873775 0.05928751 0.054119214 -0.0012608381
000170 d0 d2 b9 3c 00 41 48 3c 77 02 6f bd 74 3c df 3c
       0.022683531 0.012222528 -0.05835196 0.027250506
000180 34 04 76 bd 98 03 09 bc 82 61 2c bd c8 bb 4a bd
       -0.060062602 -0.008362673 -0.04208518 -0.04949549
000190 b0 c2 c3 3c e8 04 ae bc 28 f7 66 3d 9c 15 19 bd
       0.023896545 -0.021242574 0.05638805 -0.037374124
0001a0 bd 69 68 bd 98 93 78 bd 9a c7 7a bd 03 74 ec bb
       -0.056741465 -0.06068763 -0.06122551 -0.007215978
0001b0 0e a1 14 3d c1 f1 17 bc f0 38 fc 3b 99 1a fd ba
       0.036286406 -0.009273947 0.007697217 -0.0019310295
0001c0 d1 3b 63 bd 24 fb 9b bc 0e 97 ea bc b0 d2 c9 3b
       -0.055476967 -0.019040652 -0.028636482 0.006159149
0001d0 b8 83 d7 bc b6 1b 4d bd fd 37 59 bd ba 8a 80 bd
       -0.026307926 -0.050075255 -0.05303191 -0.0627646
0001e0 25 76 29 3d ea 90 01 bd 38 a5 9d 3c 5c e9 02 3d
       0.041372437 -0.03163234 0.019243822 0.03196083
0001f0 8c fa 69 bd 08 05 6a 3c c0 97 8e 3a 8e 15 75 3d
       -0.057123706 0.014283426 0.0010878965 0.05983501
000200 92 58 14 3d 5b 26 be 3c 4e 21 8c 3a 90 60 3c bd
       0.03621728 0.023211649 0.0010691078 -0.045990527
000210 dc 25 5d 3c f0 72 d8 3c 9b e2 cc bc 86 79 2b bd
       0.013497796 0.026421994 -0.025010398 -0.04186394
000220 b4 4f 22 bd 58 69 7c 3d 74 96 26 bd d3 9e fd 3c
       -0.039626792 0.0616239 -0.040670827 0.030959522
000230 b0 9b fe 3b 38 36 25 bc de 57 25 3d 10 7f c5 3b
       0.0077700242 -0.010083728 0.040367 0.00602711
000240 88 3c 63 3c 9c a1 03 bd d0 ff a1 3b ca f8 46 3d
       0.013869412 -0.032136545 0.0049438253 0.048577107
000250 16 c9 48 3d 00 68 23 3d 34 2c 5e bd f0 6c 1e bd
       0.049019895 0.039894104 -0.054241374 -0.03867811
000260 99 96 4b bd 8c 4d 51 3d fc da e1 bc d8 cb ab 3c
       -0.049704168 0.051099345 -0.02757024 0.020971224
000270 2b d4 15 3d 1b 0e d2 3b 5f c2 38 3d 9c 92 99 3c
       0.036579292 0.006410373 0.04510724 0.018746667
000280 3a 5e 23 3d 88 5f f7 3b d6 da 7d bd 14 cf a8 bc
       0.039884783 0.00754923 -0.061976276 -0.020606555
000290 4b 4b 7c 3c 05 96 b9 3b d6 57 15 3d 28 9d 4a bc
       0.015398811 0.0056636357 0.03646072 -0.0123665705
0002a0 d2 3b 39 bd a0 af 3b 3b 80 9c c3 3a fe b8 01 bd
       -0.045223065 0.0028638616 0.001492396 -0.031670563
0002b0 61 85 1b 3d cd 84 08 3d 54 11 f6 3c 48 cc 36 bc
       0.037968997 0.033329774 0.03003756 -0.011157103
0002c0 b0 72 af 3b 72 c6 6b 3d 2c c1 2e 3d 12 bc 72 3d
       0.005354248 0.0575623 0.04266469 0.05926139
0002d0 f4 23 7e 3d 0c a1 77 3d 9c 19 8d 3c 93 9f e5 3c
       0.062046006 0.06045632 0.017224126 0.028030192
0002e0 ba c7 4e 3d 37 07 62 3d 64 82 3e 3d dc 1d 00 bd
       0.050483443 0.05518266 0.04651107 -0.031278476
0002f0 7b 83 27 bd 93 12 48 3c c6 2d 69 3d e5 94 a1 bb
       -0.040896874 0.01221146 0.05692842 -0.0049310797
000300 68 26 ff bc 91 43 4c 3d 29 38 71 bb 82 ec 7b 3d
       -0.031146243 0.049869124 -0.0036807156 0.06150485
000310 dc b6 dd bb e0 4c 78 3b f8 dd 18 3d 28 a1 ab 3c
       -0.0067661833 0.0037887618 0.03732106 0.020950869
000320 c0 ac 0b 3c 44 43 5f 3d 1c 06 9e 3c 24 72 40 3d
       0.0085250735 0.05450751 0.019290023 0.046983853
000330 3a 8a 15 bd c8 3f 69 bd 8a e3 81 bd 76 8c 08 3d
       -0.036508776 -0.056945592 -0.06342228 0.03333708
000340 6c 49 ce bc 89 a1 ec bc 0c 58 14 3d b6 92 7a 3d
       -0.025181495 -0.02888562 0.03621678 0.06117507
000350 50 7a 49 3d d4 a1 9f bc 00 e7 0c ba b2 8a db 3c
       0.049188912 -0.019486345 -0.0005374998 0.026799534
000360 ee 47 41 3d fe f2 68 bd fa a9 4f 3c 45 62 bb 3b
       0.047187738 -0.05687236 0.012674803 0.0057185018
000370 49 00 5a 3c c8 f3 69 3c bf ff 4f 3d 9e 9a 6b bd
       0.013305732 0.014279313 0.050781008 -0.0575205
000380 38 b8 5a bc 80 c2 fb 3a 20 45 4f 3b 7e 03 42 bd
       -0.013349585 0.0019207746 0.0031626895 -0.04736661
000390 40 72 1f 3d 06 14 4c bd 04 0f 11 bd 80 6e 2b 3c
       0.038927317 -0.049823783 -0.03541471 0.010463357
0003a0 df 11 01 3d 65 8d 35 3d 00 fa 6b ba 6c 63 bc 3c
       0.031511184 0.044324297 -0.00090017915 0.022996627
0003b0 58 bc a8 bc 22 ec 09 3d f9 eb 2e bc 50 f4 59 bc
       -0.020597622 0.03367246 -0.010676377 -0.013302878
0003c0 88 0d 0a 3c 22 92 41 bc 7b c5 37 bd 91 8c a3 3c
       0.008426078 -0.011814626 -0.044866066 0.019964488
0003d0 80 7c e5 3b d5 bc b5 bc fa c9 2c 3d f6 f9 17 3c
       0.007003367 -0.022184769 0.042184807 0.009275904
0003e0 10 58 6f 3d 22 dc 71 bd 46 56 6b 3d 80 ef d7 3a
       0.058433592 -0.059047826 0.057455324 0.0016474575
0003f0 43 7b b6 bc b2 b6 12 bd 04 fd 14 bb 73 e0 cb bc
       -0.022275573 -0.035818763 -0.0022733817 -0.0248873
