outputs/router_rule/A2C_router/summer20251110-070826/models/policyA_critic.pth (torch, 274062 bytes, 5 tensors)

fc1.weight f4 [256, 6]
0	0xbeb9e204	-0.3630525
1	0xbeae1698	-0.34001613
2	0x3e7412af	0.23835252
3	0xbe5fa878	-0.2184161
4	0x3ec7cf40	0.39025307
5	0xbea8006b	-0.3281282
6	0xbdb4d2aa	-0.088292435
7	0xbd62e472	-0.055393644
8	0x3eac7082	0.33679587
9	0x3e416b8f	0.18888687
10	0x3d8dc073	0.069214724
11	0xbe368bb9	-0.17826737
12	0x3e51079e	0.20413062
13	0xbea009e3	-0.31257543
14	0x3db7fc9a	0.08983727
15	0x3e82eb7a	0.2557028
16	0x3de8a80e	0.11360179
17	0x3e632f54	0.22186023
18	0xbdc12906	-0.09431653
19	0x3eaa7b6d	0.3329729
20	0x3c7ed977	0.015554777
21	0x3e46ac50	0.1940167
22	0x3cfe6996	0.031056207
23	0x3d5b8410	0.05359274
24	0xbe9f0481	-0.31058124
25	0x3e86767a	0.26262265
26	0xbec99cf4	-0.39377558
27	0xbe338209	-0.17530073
28	0x3d8181c5	0.0632358
29	0x3e0ca749	0.13735689
30	0xbe671627	-0.22567044
31	0xbe1f0a94	-0.15531379
32	0xbe2c2a79	-0.16813077
33	0xbecddbaf	-0.40206668
34	0xbeb7fcfe	-0.35935205
35	0x3df4501a	0.11929341
36	0x3caf36db	0.021388462
37	0xbdd74d2d	-0.10512767
38	0x3e3df4fe	0.18550488
39	0x3e0ccf72	0.13751009
40	0xbeb56044	-0.35425007
41	0xbd48216f	-0.04886001
42	0x3d0f9298	0.035051912
43	0xbdb5557b	-0.08854195
44	0x3ea44f3d	0.32091704
45	0xbe870266	-0.26369017
46	0x3e3f44ff	0.18678664
47	0x3e5f41db	0.21802466
48	0xbea18a8c	-0.31551015
49	0xbeabc918	-0.3355186
50	0x3e606d52	0.21916702
51	0xbe4b0900	-0.19827652
52	0x3e98e1f8	0.298599
53	0x3cd4ab48	0.02596058
54	0xbd22f740	-0.039786577
55	0x3eae8a93	0.340901
56	0xbdcbcba2	-0.09950949
57	0x3d027637	0.03185102
58	0xbe8dc5d8	-0.27690005
59	0xbcc8fedc	-0.024535589
60	0x3ebcd220	0.36879063
61	0x3ebd668e	0.36992306
62	0xbe35c057	-0.17749153
63	0xbe321150	-0.17389417
64	0x3eb99d3f	0.36252782
65	0x3eb6279c	0.35577095
66	0xbd8bcfaa	-0.06826718
67	0xbd3ea3ca	-0.04654292
68	0xbe90d284	-0.2828561
69	0xbeb6fe7d	-0.35741034
70	0x3cd3a4e1	0.025835456
71	0xbea27e12	-0.3173681
72	0x3e31a932	0.17349699
73	0x3ea36ea2	0.31920344
74	0xbe2aa0bf	-0.16662882
75	0xbe82c69a	-0.25542146
76	0xbec3338f	-0.38125274
77	0xbd0c0d22	-0.034192212
78	0xbe315b63	-0.17320018
79	0x3ed15e45	0.40892234
80	0x3e4f7171	0.20258118
81	0x3ea3b995	0.31977525
82	0x3eb624db	0.35574993
83	0x3cddeb49	0.027089732
84	0xbe754da9	-0.23955406
85	0xbd9cb9c7	-0.07652622
86	0xbeaa01ab	-0.33204398
87	0xbe670965	-0.22562177
88	0xbebc268a	-0.36748153
89	0x3e1190aa	0.14215341
90	0xbea13fc9	-0.31493977
91	0x3b8583c6	0.0040745465
92	0x3e9a7291	0.30165532
93	0xbd630be5	-0.055431265
94	0x3e9f971b	0.31169972
95	0x3d879791	0.06620706
96	0xbde42d37	-0.111414365
97	0x3debf6de	0.115216956
98	0x3ebc39dd	0.36762896
99	0x3e4af3da	0.19819584
100	0xbeb36afa	-0.35042554
101	0xbdc7f3ce	-0.09763299
102	0xbdd20e29	-0.10256607
103	0xbe429e09	-0.19005598
104	0xbcda831a	-0.026673842
105	0xbebf8bb3	-0.3741127
106	0x3e9dde91	0.30833867
107	0xbe8865d9	-0.26640204
108	0x3e4ab954	0.1979726
109	0x3de42a00	0.11140823
110	0x3df68e1f	0.12038826
111	0xbea20c7d	-0.31650153
112	0xbe9392a3	-0.28822812
113	0xbea6e740	-0.32598305
114	0x3e6c63f6	0.23085007
115	0x3e8c0282	0.27345663
116	0x3dadadea	0.08480437
117	0x3e1ae9df	0.15128277
118	0x3e387c96	0.18016276
119	0x3e153b26	0.14573345
120	0xbe6c0825	-0.23049982
121	0x3dd2ee6a	0.1029938
122	0xbdb71a11	-0.08940519
123	0x3e3f0ffa	0.18658438
124	0x3e9c1110	0.30481768
125	0x3df0cbc1	0.11757613
126	0xbdc8df78	-0.09808248
127	0x3e9c59a2	0.30537134
128	0x3ea42475	0.32059065
129	0xbd43bbc9	-0.047786508
130	0x3ea17d7a	0.31541044
131	0xbe7edcfe	-0.2488899
132	0x3e57ef38	0.21087348
133	0xbc036465	-0.008019541
134	0xbccd432c	-0.025056444
135	0xbdee9b3c	-0.11650702
136	0x3ec73fae	0.3891577
137	0xbda56f66	-0.08077888
138	0xbe9631f4	-0.29334986
139	0xbe30b216	-0.17255434
140	0xbe1baffd	-0.15203853
141	0x3e84cad3	0.25935993
142	0x3eafef0f	0.34362075
143	0x3dee88a2	0.116471544
144	0xbd64a727	-0.05582347
145	0xbafb8b74	-0.001919134
146	0xbce19d8b	-0.027540943
147	0xbecf260c	-0.40458715
148	0xbe031609	-0.12801374
149	0x3ea2a32a	0.3176511
150	0x3c445f7e	0.011985658
151	0xbea48e02	-0.32139593
152	0xbec0aefc	-0.37633502
153	0x3c102be4	0.008799527
154	0xbe31d26e	-0.17365429
155	0xbe5e57c1	-0.21713163
156	0xbde33bc9	-0.110953875
157	0x3ea0c37b	0.3139914
158	0x3e8476ab	0.25871786
159	0xbe17bd81	-0.14818384
160	0x3eae8879	0.34088495
161	0x3ea9b46f	0.33145472
162	0x3de6ebae	0.11275421
163	0x3e18db92	0.1492751
164	0xbe243e59	-0.16039409
165	0x3e9f1281	0.31068805
166	0xbeb370e6	-0.35047072
167	0xbeaacbf0	-0.33358717
168	0xbeaf3c69	-0.34225777
169	0xbe720d1a	-0.2363781
170	0xba9c4b9a	-0.0011924386
171	0xbe0692bc	-0.13141912
172	0xbe864bc8	-0.26229692
173	0x3e88dabc	0.2672938
174	0x3dcf358a	0.10117634
175	0x3e3b13ef	0.18269323
176	0xbc809779	-0.015697228
177	0x3d582a07	0.052774455
178	0x3e4863c1	0.19569303
179	0xbdf5673a	-0.119825795
180	0xbcfed472	-0.031107161
181	0xbe0f94e5	-0.14021643
182	0xbe7db410	-0.2477572
183	0x3c6998f6	0.01425766
184	0x3e59c65e	0.21267077
185	0xbe2312bd	-0.15925117
186	0x3e3e5864	0.18588406
187	0x3e5f1c0b	0.21788041
188	0xbe0cfcbc	-0.13768286
189	0xbea91eed	-0.33031407
190	0x3e8c7e1c	0.27439964
191	0x3e951821	0.2911997
192	0xbe503399	-0.20332183
193	0xbd0ac696	-0.033880793
194	0x3c8634c0	0.016382575
195	0xbe825591	-0.25455907
196	0xbdf5e767	-0.12007027
197	0xbe3ac163	-0.18237834
198	0x3ecb76ec	0.39739168
199	0x3ea85732	0.32879025
200	0xbd63f0aa	-0.055649437
201	0x3e1a09a0	0.15042734
202	0xbdab265c	-0.08356926
203	0x3e6ee545	0.23329647
204	0x3e535ac5	0.20640095
205	0xbc52452c	-0.012833875
206	0x3e949abc	0.29024303
207	0xbe783d4f	-0.24242137
208	0x3da0fb02	0.07860376
209	0xbe925cdb	-0.28586468
210	0xbea1ece2	-0.3162604
211	0x3dedd302	0.11612512
212	0x3e516cae	0.20451614
213	0x3e8e39c5	0.2777845
214	0xbe639989	-0.22226538
215	0x3c9263f4	0.017869927
216	0xbe2adc32	-0.1668556
217	0x3e636cc2	0.22209457
218	0x3e9505a6	0.29105872
219	0x3e1f39dc	0.15549415
220	0xbe43439d	-0.19068761
221	0x3eb58d7f	0.35459515
222	0x3e0278bf	0.12741373
223	0x3dddd639	0.10831875
224	0x3cd30843	0.025760775
225	0x3c740383	0.014893415
226	0x3eb8cbac	0.3609289
227	0x3e66d3d3	0.22541742
228	0x3e79f7ac	0.24410886
229	0xbd8a172a	-0.067426994
230	0x3eccf394	0.40029585
231	0x3eae3437	0.34024212
232	0xbdd34a43	-0.10316899
233	0xbe1169bd	-0.14200492
234	0xbea56df8	-0.32310462
235	0x3ea7f3f7	0.32803318
236	0xbdb6c475	-0.0892419
237	0xbb61d4cb	-0.003445911
238	0xbe302051	-0.17199828
239	0x3e978329	0.29592255
240	0xbd65c175	-0.056092698
241	0xbe8db93a	-0.2768038
242	0xbddf3a87	-0.10899835
243	0x3d8d06c8	0.06886059
244	0xbe44f063	-0.19232325
245	0x3e1f3b77	0.15550028
246	0xbeb6f9e6	-0.35737532
247	0x3df7c2e2	0.12097718
248	0xbe723dac	-0.23656338
249	0x3da5483d	0.08070419
250	0xbd83be28	-0.06432754
251	0x3e895fee	0.26831
252	0xbebfdcae	-0.37473053
253	0xbde14dae	-0.11001144
254	0xbe413182	-0.18866542
255	0xbeb67d1f	-0.35642335

fc1.bias f4 [256]
0	0x3d3d84fe	0.04626941
1	0xbeb0f3df	-0.3456106
2	0x3e41e378	0.18934429
3	0xbea7ec93	-0.3279768
4	0xbd585d58	-0.052823395
5	0x3e748a9f	0.23881005
6	0x3e4fe7cd	0.20303269
7	0xbcddb899	-0.027065562
8	0x3df58e41	0.119900234
9	0xbe89c124	-0.26905167
10	0xbe971636	-0.29509133
11	0xbd8902bb	-0.06689974
12	0xbde3b87b	-0.11119171
13	0xbe8b277d	-0.27178565
14	0xbec3dfec	-0.38256776
15	0xbe85a6ff	-0.2610397
16	0x3dc8de18	0.09807986
17	0xbdd41a05	-0.10356525
18	0xbec2eb8f	-0.38070342
19	0x3c23533e	0.009968577
20	0xbe11785e	-0.14206073
21	0xbeb247a7	-0.3482029
22	0x3e926ef4	0.28600276
23	0xbea45066	-0.3209259
24	0x3e8e2a8a	0.2776683
25	0xbd456eed	-0.04820149
26	0xbea32588	-0.31864572
27	0xbe153f4d	-0.14574929
28	0x3ea5958f	0.32340667
29	0xbd5ee07f	-0.054413315
30	0x3e8fb857	0.28070328
31	0x3e38cd9a	0.18047181
32	0x3e83d63f	0.25749394
33	0x3d5b773f	0.05358052
34	0x3daae3f0	0.08344257
35	0x3e63427f	0.22193335
36	0xbe7e107d	-0.24810977
37	0xbec7ab11	-0.389977
38	0x3deddd60	0.116144896
39	0xbc6377ba	-0.0138835255
40	0x3e531808	0.20614636
41	0x3ea369e4	0.31916726
42	0x3e3f9b3a	0.18711558
43	0xbe960da9	-0.29307297
44	0xbeb79050	-0.3585229
45	0xbe9b04af	-0.3027701
46	0x3e1d94c3	0.1538878
47	0xbe616de7	-0.2201458
48	0xbe4ed2b8	-0.2019757
49	0xbce7f380	-0.028314352
50	0x3dbd5d78	0.092463434
51	0xbe9d1593	-0.30680522
52	0xbd159b59	-0.036525104
53	0x3ea104be	0.3144893
54	0x3e025ddb	0.12731116
55	0x3dd655f0	0.1046561
56	0x3eb8b77c	0.36077487
57	0x3e019fc0	0.12658596
58	0x3de550c0	0.111970425
59	0x3e1d1f23	0.15343909
60	0xbe99aa87	-0.30012915
61	0x3e2f1647	0.17098342
62	0x3dffcb23	0.12489917
63	0x3d1d5f51	0.03842098
64	0xbdcd79cc	-0.100329965
65	0x3ce17945	0.027523646
66	0x3eb509b8	0.35358977
67	0xbd0f0a9e	-0.034922235
68	0xbdff0160	-0.12451434
69	0x3e80c3c0	0.25149345
70	0x3e92ad35	0.2864777
71	0x3e893a62	0.26802355
72	0x3eba8f58	0.36437488
73	0x3dc625d2	0.096751824
74	0xbed0c898	-0.4077804
75	0x3d91e11d	0.07123015
76	0x3e605faf	0.219115
77	0x3b52deac	0.003217618
78	0xbd1b9c20	-0.03799069
79	0x3ecdb9bf	0.40180776
80	0xbe94d6f7	-0.29070255
81	0x3ebffb63	0.3749648
82	0xbe95c913	-0.2925497
83	0x3e9831bb	0.2972544
84	0x3ebf038d	0.37307397
85	0x3e881834	0.26580966
86	0x3c330641	0.010926784
87	0xbeb8799a	-0.36030275
88	0x3ebe0c6c	0.37118852
89	0xbe85c767	-0.26128694
90	0x3e77d68c	0.24202937
91	0xbdbfc702	-0.093641296
92	0xbe8d0557	-0.27543136
93	0xbe86c6be	-0.26323503
94	0xbecfeac2	-0.40608793
95	0xbdd59f25	-0.10430745
96	0xbe357157	-0.17719017
97	0x3e05d250	0.13068509
98	0x3e027fa3	0.12744002
99	0xbe85c021	-0.26123145
100	0x3e56725d	0.20942064
101	0x3e18f054	0.14935428
102	0x3d499729	0.049216423
103	0x3eb0280d	0.34405556
104	0xbe38ced0	-0.18047643
105	0xbebb7803	-0.36615
106	0x3e55daa8	0.20884192
107	0x3d37e344	0.04489447
108	0xbec350ed	-0.3814768
109	0xbd30f882	-0.043205746
110	0x3d64c31e	0.05585014
111	0xbde509bf	-0.111834995
112	0x3e4fd2c7	0.20295249
113	0xbe103d40	-0.14085865
114	0x3d08c2ea	0.03338901
115	0x3d68dce0	0.056851268
116	0x3e17a937	0.14810644
117	0x3e75e518	0.24013174
118	0xbdb7833a	-0.08960576
119	0xbe09a164	-0.13440472
120	0xbe34dcec	-0.176624
121	0x3df5e60d	0.12006769
122	0x3e121fc1	0.14269926
123	0xbcb5ae32	-0.02217779
124	0xbe66bad2	-0.22532204
125	0xbe62d5fe	-0.22151944
126	0xbe6ef922	-0.23337224
127	0x3c91b093	0.017784392
128	0x3e859f96	0.26098317
129	0xbe0bbc8a	-0.1364614
130	0xbecb6282	-0.39723593
131	0x3dad7c80	0.08471012
132	0x3e9f81cd	0.31153718
133	0xbe9dcf88	-0.30822396
134	0x3e70e9ad	0.2352664
135	0x3b8e2dc9	0.004338954
136	0x3dff4aba	0.12465425
137	0x3ec558f3	0.38544425
138	0x3e993164	0.29920495
139	0xbdea7a47	-0.11449104
140	0xbdecf5f3	-0.115703486
141	0xbecf49f4	-0.4048611
142	0xbec35d31	-0.38157037
143	0xbd97ac65	-0.074059285
144	0xbe77ae4b	-0.24187581
145	0x3cb10ab5	0.02161155
146	0xbe764f28	-0.24053633
147	0x3eb5c0df	0.3549871
148	0xbe3f71bd	-0.18695731
149	0xbda028b7	-0.07820266
150	0xbcf20008	-0.02954103
151	0xbe0189d2	-0.1265023
152	0x3df575c2	0.11985351
153	0x3ec3aa6d	0.38215962
154	0xbe2e44d7	-0.17018448
155	0x3ec9a8b0	0.3938651
156	0xbe172a2a	-0.14762178
157	0x3e99670e	0.29961437
158	0xbe44ca7e	-0.1921787
159	0x3e719320	0.2359128
160	0x3cc30a4a	0.023808617
161	0x3ebce273	0.36891517
162	0x3dc3bdfa	0.095577195
163	0xbe88312a	-0.2660001
164	0x3eb45501	0.35221103
165	0xbe336ace	-0.17521212
166	0xbea9d295	-0.33168474
167	0x3e7ee3a8	0.24891531
168	0xbc3fb68b	-0.0117012365
169	0xbe41303b	-0.18866055
170	0xbe75f56d	-0.24019404
171	0xbe15fcf1	-0.1464727
172	0xbc90e4bf	-0.0176872
173	0x3e6d80ca	0.2319366
174	0x3dcc5822	0.099777475
175	0x3de5c488	0.11219126
176	0x3ebba779	0.3665121
177	0x3deb24e4	0.11481646
178	0xbd096fc2	-0.033553846
179	0xbe8d1b5b	-0.27559933
180	0x3d294d87	0.0413337
181	0xbdadb572	-0.084818736
182	0xbe232201	-0.1593094
183	0x3e2f7c45	0.17137249
184	0xbd86f132	-0.06588973
185	0xbd9cf1dd	-0.07663319
186	0x3e961905	0.29315963
187	0xbe661fd7	-0.22473083
188	0x3df33cca	0.11876829
189	0xbe506bfa	-0.2035369
190	0x3e50f175	0.20404609
191	0xbd8ca69c	-0.06867716
192	0xbeae47ce	-0.34039158
193	0xbe11d697	-0.14242016
194	0xbe7f3ddb	-0.2492594
195	0x3eb27872	0.34857517
196	0xbe09d1a5	-0.1345888
197	0x3e88d07e	0.26721567
198	0xbe9acaa4	-0.30232728
199	0x3ec3d34c	0.38247144
200	0xbe98b5dc	-0.29826248
201	0xbec32ffe	-0.38122553
202	0xbeb64c18	-0.3560493
203	0x3ead8245	0.3388845
204	0x3e0a964c	0.13533896
205	0xbe8791b5	-0.26478353
206	0x3ea304b8	0.31839538
207	0xbe4954c0	-0.19661236
208	0x3ea42dac	0.32066095
209	0x3ea931ee	0.33045906
210	0xbe0e4186	-0.13892183
211	0x3e00b5c2	0.12569335
212	0xbeb7f30a	-0.35927612
213	0x3b700be8	0.003662819
214	0xbe20860f	-0.1567614
215	0xbe96e45d	-0.29471102
216	0xbe9f4cb8	-0.3111322
217	0xbe949abb	-0.290243
218	0x3d82496d	0.06361661
219	0x3eb3a66e	0.35087913
220	0xbe9f2fa7	-0.31091043
221	0xbeb8df1f	-0.36107728
222	0x3ebe8a31	0.37214807
223	0x3d0c53f5	0.034259755
224	0xbd79ecdc	-0.061016902
225	0xbd9e4f58	-0.07729977
226	0xbeb966fd	-0.36211386
227	0x3db8d656	0.09025256
228	0xbce0978c	-0.027416013
229	0xbea0fd37	-0.31443188
230	0x3ded221e	0.11578773
231	0xbe9ea933	-0.30988464
232	0x3e476dd0	0.19475484
233	0xbea2abeb	-0.31771788
234	0x3e81018c	0.25196493
235	0xbec77089	-0.38953045
236	0x3e7522e5	0.23939092
237	0x3e04d1d4	0.12970668
238	0xbe16b2d4	-0.14716655
239	0xbec62aee	-0.38704628
240	0xbea200f3	-0.3164135
241	0x3eab013b	0.33399376
242	0xbdbed366	-0.09317665
243	0xbec4222a	-0.38307315
244	0x3e585662	0.21126702
245	0x3ece1b8d	0.40255395
246	0xbe0e3376	-0.13886818
247	0x3dcef2f3	0.10104933
248	0x3e5209c3	0.20511536
249	0x3dfd80e1	0.12378097
250	0x3db0958b	0.08622273
251	0xbe46b39b	-0.19404452
252	0xbeb16661	-0.3464842
253	0x3ec5b740	0.3861637
254	0x3cbb6ae8	0.022878125
255	0xbebf9d65	-0.3742477

fc2.weight f4 [256, 256]
0	0x3cfebfe0	0.031097353
1	0x3c7628c1	0.015024365
2	0x3d479584	0.048726574
3	0xbbae9dc2	-0.005328865
4	0xbc380bd0	-0.011233285
5	0x3ca5ba44	0.02023042
6	0x3bc7fc89	0.0061031026
7	0xbc7080e0	-0.014679164
8	0xbb60ed80	-0.0034321249
9	0x3d4b0300	0.049563408
10	0xbd68c4f2	-0.056828447
11	0xbc94bd18	-0.018156573
12	0xbbdbfed0	-0.0067137256
13	0xbc247ade	-0.010039059
14	0x3cc025d0	0.02345553
15	0x3d6457a4	0.055747643
16	0xbcc71da8	-0.024306133
17	0xbd497f7c	-0.049193844
18	0x3c33adb0	0.010966703
19	0x3c942645	0.018084655
20	0x3d5ae802	0.053443916
21	0xbd4cf9de	-0.05004298
22	0xbd5e014c	-0.054200456
23	0xbd4368b1	-0.047707263
24	0x3cdf69b4	0.027272083
25	0x3d593c6e	0.053036146
26	0x3d0f90a8	0.035050064
27	0xbd4b476f	-0.04962867
28	0xbccb03e4	-0.024782129
29	0x3d661223	0.05616964
30	0x3d02d2f7	0.031939473
31	0x3d630c16	0.055431448
32	0xbd169ea2	-0.036772378
33	0x3d4d8add	0.05018126
34	0x3cb2ecf8	0.021841511
35	0x3d27e6ae	0.040991478
36	0x3d56aa5f	0.052408572
37	0xbd62fbe9	-0.05541602
38	0xbc97df72	-0.018539164
39	0xbd1ad348	-0.03779915
40	0xbcfd5b0b	-0.030927202
41	0x3d6b6c3e	0.057476275
42	0x3d04020e	0.032228522
43	0xbd094884	-0.033516422
44	0x3cd90044	0.026489384
45	0xbd09fceb	-0.033688467
46	0xbd5ed8f5	-0.054406125
47	0xbbe83610	-0.007086523
48	0x3ce4ae30	0.02791509
49	0x3ce84809	0.028354662
50	0xbce3ef18	-0.02782397
51	0x3d7f28a0	0.062294602
52	0x3d45036e	0.048098974
53	0x3d031d58	0.032010406
54	0x3d6527b8	0.055946082
55	0xbbffbf67	-0.0078047994
56	0xbd358fde	-0.044326656
57	0xbc799de0	-0.015235394
58	0xbbfdbbad	-0.00774332
59	0x3d150102	0.036377914
60	0xba0fa32d	-0.0005479332
61	0x3c1a887e	0.009431956
62	0xbc927cb5	-0.01788173
63	0xbd60810d	-0.054810572
64	0xbd1e7094	-0.03868158
65	0x3d591d53	0.05300648
66	0x3cdbf706	0.026851188
67	0x3b47a973	0.003046599
68	0x3d2caadd	0.042155135
69	0x3d182cc9	0.037152085
70	0x3d37a972	0.04483933
71	0xbb981735	-0.0046414384
72	0x3c84dcc4	0.01621855
73	0x3d48c584	0.04901649
74	0x3d1b057c	0.037847027
75	0x3cc8d0c6	0.024513613
76	0xbc7e2c7a	-0.015513534
77	0x3cc6f104	0.024284847
78	0x3d14702e	0.036239795
79	0xbd48c571	-0.04901642
80	0x3c7e2816	0.015512487
81	0x3ce34ba8	0.027746037
82	0x3d77a160	0.060456634
83	0xbd324bfe	-0.043529503
84	0x3d3437c9	0.043998513
85	0xbc6b3520	-0.014355928
86	0xbd149cea	-0.036282457
87	0x3b293f60	0.0025825128
88	0xbd71f82c	-0.059074566
89	0xbd5c6323	-0.05380548
90	0xbd47e13a	-0.048798777
91	0x3d1b41b0	0.03790444
92	0xbd63a27d	-0.055574883
93	0xbd53552e	-0.051594906
94	0xbc98f38c	-0.01867082
95	0xbd3c75cf	-0.04601079
96	0xbc48bab2	-0.012251543
97	0xbd4cac33	-0.04996891
98	0x3d761cb4	0.060085967
99	0xbc4c4b0b	-0.0124690635
100	0xbd57c5b6	-0.052678786
101	0x3d534ccb	0.051586907
102	0xbd766582	-0.0601554
103	0xbd4a3816	-0.049369894
104	0x3d244784	0.040107265
105	0x3d6b378b	0.057426017
106	0x3c5d8de4	0.013522599
107	0x3d46b432	0.04851169
108	0x3cbb8769	0.022891717
109	0x3d6f0036	0.05834981
110	0xbbc98da0	-0.006150916
111	0xbc621978	-0.013800018
112	0xbcdf43f8	-0.02725409
113	0xbc8f0456	-0.017458122
114	0x3d64e852	0.05588562
115	0x3d5c065e	0.05371701
116	0xbd1db679	-0.038504098
117	0xbd440fe8	-0.047866732
118	0xbcb09fd2	-0.021560583
119	0x3c9cbc25	0.019132683
120	0xbc3b2648	-0.011422701
121	0x3c6ff025	0.014644657
122	0xbcdced18	-0.026968524
123	0xbd668c1e	-0.05628597
124	0xbc295588	-0.010335334
125	0xbd757bac	-0.059932396
126	0xbca1d460	-0.019754589
127	0x3d466eec	0.048445627
128	0x3bf984a0	0.007614687
129	0x3c866bf0	0.01640889
130	0x3c7399c0	0.0148682
131	0x3ca0d1f1	0.019631358
132	0x3d625fbc	0.05526708
133	0xbd77a296	-0.06045779
134	0xbd494d7c	-0.04914616
135	0x3cbbead0	0.022939116
136	0xbc1dbab1	-0.00962703
137	0x3d5c5254	0.05378945
138	0x3cdaffb5	0.026733259
139	0x3cd906bf	0.026492475
140	0x3d0546fa	0.03253839
141	0xbd0a862c	-0.033819363
142	0x3d22d937	0.039757933
143	0x3d069200	0.03285408
144	0x3ca9b16c	0.020714484
145	0xbb61a400	-0.0034430027
146	0x3bc5fcec	0.0060421135
147	0xbd48ea7a	-0.04905174
148	0xbd498664	-0.04920043
149	0x3c9e2a2f	0.019307224
150	0xbbcd358a	-0.006262486
151	0x3ce5a7cb	0.028034111
152	0xbb7828e0	-0.003786616
153	0xbbac5830	-0.005259536
154	0x3d588e32	0.052869983
155	0xbd5a7a04	-0.05333902
156	0x3cfea7fc	0.03108596
157	0x3d598478	0.053104848
158	0x3c368b78	0.01114165
159	0xbd6294e0	-0.05531776
160	0x3a661ca7	0.0008778073
161	0xbcc286f0	-0.023745984
162	0xbc9e5f10	-0.019332439
163	0xbba17c20	-0.004928127
164	0xbd5d1af6	-0.05398079
165	0x3d624dc8	0.05524996
166	0xbd2cf73b	-0.042227965
167	0x3c15c331	0.009140776
168	0x3d3753f5	0.044757802
169	0x3d1dd60b	0.038534205
170	0xbb1ed1c0	-0.0024233907
171	0x3d672828	0.05643478
172	0x3cd72686	0.026263487
173	0x3d5e1758	0.05422148
174	0xbbed0320	-0.0072330385
175	0xbaba52fb	-0.0014215404
176	0xbc93cb34	-0.01804123
177	0xbcf10767	-0.029422475
178	0xbb1fe7e0	-0.0024399683
179	0x3d05d994	0.0326782
180	0x3bf66290	0.007519074
181	0xbd000cc6	-0.03126218
182	0x3bf714c0	0.0075403154
183	0x3ca18ba8	0.019719914
184	0xbbe262a4	-0.0069087315
185	0xbd58ce13	-0.052930903
186	0x3d16c031	0.03680438
187	0x3c895800	0.016765594
188	0x3c09d738	0.008413129
189	0x3d67f36a	0.056628622
190	0x3b23e5e0	0.0025008842
191	0xbbe24130	-0.0069047436
192	0xbd2f530e	-0.042803816
193	0xbccf439c	-0.025300793
194	0xbd49c411	-0.04925925
195	0x3c6d9b88	0.014502414
196	0x3d1b7d3f	0.03796124
197	0xbd5a6f5b	-0.053328853
198	0xbc6cff84	-0.014465217
199	0xbd3e2dd0	-0.04643041
200	0xbcc89ee2	-0.024489824
201	0xbd6a54c7	-0.057209756
202	0xbd42d2c4	-0.047564283
203	0xbd0c8024	-0.034301892
204	0x3cc7a868	0.024372295
205	0xbc3cb558	-0.011517845
206	0x3c78e85d	0.0151921185
207	0xbc569e69	-0.013099291
208	0x3d5a8aa0	0.05335486
209	0x3bde8940	0.006791264
210	0x3c4d6250	0.012535647
211	0xbc583d20	-0.013198167
212	0xbd39a3be	-0.045322172
213	0xbcea0408	-0.028566375
214	0x3d72d0e4	0.059281245
215	0x3d20b204	0.03923227
216	0xbd7ba08e	-0.061432414
217	0xbca32c4c	-0.019918583
218	0xbd4b5522	-0.049641736
219	0x3c43e91a	0.011957431
220	0x3d4e1a32	0.05031795
221	0xbca1111a	-0.019661475
222	0xbd27da9c	-0.040979967
223	0x3cc66e5c	0.024222545
224	0xbd29bebf	-0.041441675
225	0xbd13d1c2	-0.036088713
226	0x3cf9c68d	0.030490184
227	0xbd696af0	-0.05698675
228	0x3c399698	0.011327408
229	0xbce41aa7	-0.02784474
230	0xbd2346d1	-0.039862458
231	0xbc65c8b0	-0.014024898
232	0xbd7351d4	-0.05940421
233	0xbd3d9c80	-0.04629183
234	0xbc6acad0	-0.014330581
235	0x3d2e8184	0.042603984
236	0xbbb095be	-0.0053889444
237	0xbc0859f0	-0.008322224
238	0xbd2d3b84	-0.042293087
239	0x39a702b5	0.0003185474
240	0xbc84a488	-0.016191736
241	0x3b1d2072	0.0023975638
242	0xbd059199	-0.032609556
243	0x3cb0988e	0.021557119
244	0x3c837fd4	0.016052164
245	0xbd2f7241	-0.04283357
246	0x3bb1c98c	0.0054256376
247	0x3c1e7047	0.009670324
248	0x3d2a8a6c	0.041635916
249	0x3cd8b9d2	0.026455794
250	0x3cc58781	0.024112465
251	0xbcb33d5f	-0.02187985
252	0xbd6f5422	-0.058429845
253	0xbcb9d3c0	-0.022683978
254	0xbc9e68a2	-0.019337002
255	0x3d58ed32	0.052960582

fc2.bias f4 [256]
0	0xbd5226e0	-0.051306605
1	0xbd58bd82	-0.052915104
2	0x3c2ad0d8	0.010425769
3	0xbd40d540	-0.04707837
4	0x3d63c5da	0.055608608
5	0xbca133bd	-0.019677991
6	0xbd05ce10	-0.03266722
7	0xbd7d6048	-0.0618594
8	0xbd34252f	-0.043980774
9	0xbd27b0a8	-0.040939957
10	0x3d6de874	0.058083013
11	0x3be7d401	0.0070748334
12	0xbbb97900	-0.0056601763
13	0xbc72ac80	-0.014811635
14	0x3c5dced0	0.0135380775
15	0x3c6226cb	0.013803194
16	0x3d7ccc42	0.061718233
17	0x3b0bc5a0	0.002132751
18	0xbd34d342	-0.044146784
19	0xbd347854	-0.044060066
20	0xbd2e5e8c	-0.042570636
21	0x3d40fd3c	0.047116503
22	0xbcd7a3fe	-0.026323315
23	0x3bad9c34	0.005298162
24	0x3d7f87a2	0.06238521
25	0xbd69403c	-0.056946024
26	0xbd09e653	-0.03366692
27	0xbd2035dc	-0.039113864
28	0xbd305371	-0.043048326
29	0xbd18bfd4	-0.037292317
30	0xbd7e277e	-0.06204938
31	0x3d29f86a	0.04149667
32	0xbd597756	-0.053092323
33	0x3cec5f2d	0.028853977
34	0x3cacd941	0.021099688
35	0xbd370a72	-0.044687696
36	0x3a776f11	0.00094388524
37	0xbc803ae4	-0.015653081
38	0x3d031505	0.032002468
39	0xba125400	-0.0005581975
40	0x3d2b0cbc	0.04176019
41	0xbca20d37	-0.019781692
42	0x3d257ea7	0.04040399
43	0x3ba248a0	0.004952505
44	0xbcce6cd4	-0.025198378
45	0xbb2ee2c0	-0.0026685447
46	0x3d7f0b02	0.062266357
47	0x3cc98da4	0.024603672
48	0xbd2569f5	-0.04038425
49	0xbb3c1684	-0.0028699944
50	0xbd71cad5	-0.059031326
51	0x3c821b40	0.015882134
52	0x3d5f842f	0.05456942
53	0xbd6c3290	-0.057665408
54	0xbb13f5e0	-0.0022576973
55	0xbc2f655e	-0.01070532
56	0x3c1345e0	0.0089888275
57	0x3cf97258	0.030450031
58	0xbc9df23b	-0.019280544
59	0xbbc89188	-0.0061208643
60	0x3c6e1471	0.014531241
61	0xbd2e57e0	-0.042564273
62	0x3d749ce0	0.05971992
63	0xbd1e2ff7	-0.03861996
64	0xbcdfa069	-0.02729817
65	0xbd4ca1f6	-0.049959145
66	0xbccd7990	-0.02508238
67	0xbd5a3cc8	-0.05328062
68	0x3d29681e	0.04135906
69	0xbcff9622	-0.031199519
70	0xbd847ece	-0.064694986
71	0x3d69935c	0.0570253
72	0x3c0c25b6	0.008553913
73	0x3d746500	0.059666634
74	0xbd639c0e	-0.055568747
75	0x3c22b6d8	0.009931289
76	0xbcf96df8	-0.030447945
77	0xbd61c382	-0.05511809
78	0x3d470428	0.048587948
79	0xbd6776e3	-0.056509864
80	0x3b1a734f	0.0023567264
81	0xbd7d4990	-0.061837733
82	0x3a898f89	0.0010495047
83	0x3bb1308b	0.005407398
84	0xbcf1724c	-0.029473446
85	0x3c2f6888	0.010706075
86	0xbd6c172e	-0.057639293
87	0xbc6bded0	-0.014396384
88	0xbd67136a	-0.056415
89	0x3b3bb088	0.0028639156
90	0xbd80d61f	-0.0629084
91	0xbd5cec85	-0.0539365
92	0xbb9a7300	-0.004713416
93	0xbccaa770	-0.024738044
94	0xbca63128	-0.020287111
95	0x3b360de0	0.0027779266
96	0x3c6a2c80	0.014292836
97	0xbcc38c62	-0.02387065
98	0xbd2ccffd	-0.04219054
99	0xbc22e428	-0.009942092
100	0xbd5f3a46	-0.054498933
101	0x3d67819d	0.056520093
102	0x3c92cbd8	0.017919466
103	0x3c63a9e0	0.013895482
104	0xbd543874	-0.05181165
105	0x3c298c80	0.010348439
106	0xbaada425	-0.0013247771
107	0x3d2b3536	0.041798793
108	0xbb9c0e10	-0.0047624186
109	0xbc1b6898	-0.009485386
110	0xbd711894	-0.05886133
111	0xbd68e9bc	-0.05686353
112	0x3d1086fe	0.03528499
113	0xbd131815	-0.03591164
114	0x3d077751	0.033072773
115	0xbcfe7d20	-0.031065524
116	0x3d4af3e4	0.049549
117	0xbd182b77	-0.037150826
118	0x3d48f606	0.04906275
119	0x3b94195b	0.004519624
120	0xbd18436e	-0.03717368
121	0x3d05918a	0.0326095
122	0x3d58a0e4	0.052887812
123	0x3cbef292	0.023309026
124	0xbd320172	-0.04345841
125	0xbc61cc00	-0.013781548
126	0x3d5ded31	0.05418128
127	0xbb0459c0	-0.0020195097
128	0x3d0578e6	0.032586
129	0x3cff078a	0.031131525
130	0x3d30c8e1	0.043160323
131	0x3cc8cb2c	0.024510942
132	0x3c611043	0.013736787
133	0x3cde5aa7	0.027142836
134	0x3cd6df6c	0.026229583
135	0x3d842092	0.06451525
136	0x3b64c654	0.0034908252
137	0xbc3ca8e5	-0.011514877
138	0x3c787328	0.015164174
139	0xbd54a6dc	-0.051916942
140	0xbd18bef7	-0.037291493
141	0x3bf69325	0.007524865
142	0xbd081d68	-0.03323117
143	0xbccc94f0	-0.024973363
144	0xbc738360	-0.014862865
145	0x3c1445fb	0.009049888
146	0xbc911ba8	-0.017713383
147	0xbc667e90	-0.014068261
148	0xbcc60cac	-0.024175964
149	0xbce3c520	-0.027803957
150	0xbc5d31ea	-0.01350067
151	0xbce9149c	-0.02845221
152	0x3ae5cb80	0.0017531961
153	0x3caf0f5b	0.021369627
154	0x3c5abed5	0.013351162
155	0x3c59f7e6	0.0133037325
156	0xbd1ecc32	-0.038768955
157	0x3c520661	0.012818904
158	0xbc88e592	-0.01671103
159	0x3b946df0	0.004529707
160	0x3d5623fa	0.052280404
161	0x3d4014e8	0.046894938
162	0x3c369aee	0.011145337
163	0xbb8e1920	-0.004336491
164	0xbd472176	-0.048615895
165	0x3d15d910	0.03658396
166	0xba0fff39	-0.0005493048
167	0x3c941598	0.018076703
168	0x3b2cc600	0.0026363134
169	0xbd51acdf	-0.051190253
170	0xbd4a2738	-0.04935381
171	0xbd696842	-0.056984194
172	0x3d078c15	0.033092577
173	0xbd46eb56	-0.048564278
174	0x3d511b56	0.05105146
175	0xbd18489c	-0.03717862
176	0xbd44dcde	-0.048062198
177	0x3d612f86	0.054976963
178	0xbc173ca7	-0.009230769
179	0xbcc09278	-0.023507342
180	0xbcbf506c	-0.023353778
181	0x3c766f9d	0.015041259
182	0x3d23c1ce	0.03997975
183	0xbd14a58a	-0.036290683
184	0xbcb11ec9	-0.021621125
185	0xbd23afda	-0.039962627
186	0x3d54ec92	0.051983424
187	0x3d6fd22c	0.058550045
188	0xbd58e340	-0.052951097
189	0xbd3cca2c	-0.046091244
190	0xbd7e5916	-0.062096678
191	0x3c795b7a	0.015219564
192	0x3d104394	0.035220698
193	0x3beb6710	0.007183917
194	0x3d698891	0.057015005
195	0xbbd8e4aa	-0.0066190558
196	0x3d017614	0.03160675
197	0x3d644170	0.05572647
198	0xbd5b8989	-0.05359796
199	0x3d393a7d	0.045221794
200	0x3cc3d621	0.023905816
201	0xbd3bfd90	-0.045896113
202	0x3d7ae6ce	0.06125527
203	0xbd35d3d9	-0.044391487
204	0x3cc64828	0.024204329
205	0x3b860361	0.0040897583
206	0x3c9564a9	0.018236475
207	0x3bedfa00	0.0072624683
208	0xbb058e60	-0.0020379052
209	0x3cbeaab8	0.023274764
210	0x3d6289c7	0.055307176
211	0x3d17a0cc	0.037018582
212	0xbd393f39	-0.04522631
213	0x3c0fef78	0.008785121
214	0x3d55ad6e	0.05216735
215	0x3d064b5d	0.032786716
216	0xbd663c54	-0.056209877
217	0xbaa5cdbd	-0.0012649816
218	0x3d10293c	0.035195574
219	0x3d275624	0.040853634
220	0x3bad3b53	0.005286613
221	0x3cbc7d6d	0.023009026
222	0xbd26c901	-0.040719036
223	0x3d4d9831	0.05019397
224	0x3d5a9990	0.053369105
225	0xbcd390a6	-0.02582581
226	0x3c1e041e	0.009644536
227	0x3cefb80b	0.029262563
228	0xbd20fbe0	-0.039302707
229	0x3c3c5b04	0.011496309
230	0x3d4e3fee	0.050353937
231	0x3b8f4e00	0.004373312
232	0x3d50fb9e	0.05102121
233	0xbceee572	-0.029162142
234	0x3d41bdfa	0.047300316
235	0xbd05cb7d	-0.032664765
236	0x3d565d61	0.052335147
237	0xbd7b7a1e	-0.061395757
238	0x398c0714	0.00026708154
239	0xbd365e4f	-0.044523533
240	0xbccbf58a	-0.024897356
241	0xbd32028a	-0.043459453
242	0x3b9de770	0.0048188493
243	0xbabfc8ae	-0.0014631951
244	0x3d3f397c	0.04668568
245	0xbbff1181	-0.007784069
246	0xbd545b80	-0.051845074
247	0x3d21e335	0.039523322
248	0xbd47b682	-0.048758037
249	0x3cbec6bc	0.023288123
250	0x3d14b598	0.036305994
251	0xbd2b12fa	-0.041766144
252	0x3bbe7e90	0.0058134273
253	0x3c8b4b25	0.017003605
254	0xbd3a5dbc	-0.04549955
255	0x3cde46a7	0.027133299

fc3.weight f4 [1, 256]
0	0xbd4c4af3	-0.049876165
1	0x3c22169b	0.009893085
2	0x3d336048	0.043792993
3	0x3d7e4514	0.062077597
4	0xbd416f7e	-0.047225468
5	0x3bf74b1b	0.007546795
6	0x3cd55d29	0.026045399
7	0x3d554322	0.052065976
8	0xbd0f5d11	-0.035000864
9	0x3ced7ce5	0.028990218
10	0x3d2cb1cf	0.04216176
11	0x3d288a50	0.04114753
12	0xbd78688e	-0.060646586
13	0x3ce17804	0.027523048
14	0xbc318e30	-0.010837123
15	0x3d42b696	0.04753741
16	0xbd465442	-0.0484202
17	0x3b8b9770	0.004259996
18	0xbd02f016	-0.031967245
19	0xbb6160a8	-0.0034389887
20	0xbd64b422	-0.05583585
21	0xbc888b60	-0.016668022
22	0xbcecbdba	-0.028899062
23	0x3be99293	0.0071280687
24	0x3cccf08c	0.025017045
25	0x3ca331a8	0.019921139
26	0x3d5e88a9	0.054329548
27	0xbcce3964	-0.02517385
28	0xbc8e0a9f	-0.017339049
29	0xbc9d8454	-0.019228138
30	0xbce12888	-0.027485147
31	0x3d2077b2	0.03917665
32	0xbcc1d068	-0.023658946
33	0x3cb4c8f8	0.022068486
34	0x3d674edc	0.05647169
35	0xbcfa80dc	-0.030579023
36	0xbca2c382	-0.019868616
37	0x3c020f40	0.007938206
38	0xbd25be62	-0.040464766
39	0xbd56e460	-0.05246389
40	0xbba8aa11	-0.0051472266
41	0xbd7aaaf2	-0.061198182
42	0x3d3d8430	0.046268642
43	0xbd28e482	-0.041233547
44	0xbd6191a5	-0.055070538
45	0xbd2266e0	-0.03964889
46	0xbc11085d	-0.008852092
47	0xbc10e560	-0.00884375
48	0xbca64cd7	-0.020300312
49	0x3cc27532	0.023737524
50	0x3cdf3d30	0.027250856
51	0xbc472f48	-0.012157269
52	0x3d527a97	0.051386442
53	0x3c788df8	0.015170567
54	0x3b3a0e80	0.002838999
55	0x3c304f4e	0.010761095
56	0x3c03e1f0	0.008049473
57	0xbca84e1e	-0.020545062
58	0x3d647248	0.05577305
59	0xbd462c77	-0.04838225
60	0xbcdcd332	-0.026956175
61	0x3b62cf42	0.0034608399
62	0x3d3305ed	0.043706823
63	0x3d172513	0.03690059
64	0x3b69b5f5	0.0035661433
65	0x3d125df1	0.03573412
66	0x3c8bb71c	0.017055087
67	0x3c4d6338	0.012535863
68	0x3cafb5f0	0.02144906
69	0xbc883d45	-0.016630778
70	0x3d6cb25a	0.057787277
71	0x3c9da594	0.019243993
72	0xbbf7ff01	-0.0075682406
73	0x3cdb1efc	0.026748173
74	0xbd61f3aa	-0.055164017
75	0xbca2efc4	-0.01988972
76	0xbd50118c	-0.050797984
77	0x3d28f3de	0.041248195
78	0x3c95b405	0.018274317
79	0xbd354d15	-0.044262964
80	0x3d4b58e1	0.04964531
81	0xbd40f866	-0.04711189
82	0xbc4cdb72	-0.012503492
83	0x3d4ca590	0.04996258
84	0x3c559bb8	0.0130376145
85	0x3cb51bf0	0.022108048
86	0x3cd3d5c4	0.025858767
87	0x3c204248	0.009781428
88	0xbd60f3d9	-0.05492005
89	0xbd7fc9c5	-0.06244828
90	0x3cd472d4	0.02593366
91	0xbc52f7b3	-0.012876439
92	0x3c118e40	0.008884013
93	0xbc82b442	-0.015955094
94	0x3c5fac78	0.01365196
95	0xbcd20dfc	-0.025641434
96	0xbce51588	-0.027964368
97	0x3d19db12	0.037562437
98	0xbd675b4b	-0.056483548
99	0xbd524604	-0.051336303
100	0x3c912848	0.017719403
101	0x3c0cb77b	0.008588667
102	0x3d0f3814	0.03496559
103	0x3d7a16a6	0.061056755
104	0xbd381784	-0.0449443
105	0xbb4cd100	-0.0031252503
106	0x3c9158bc	0.017742507
107	0x3c9d1e1c	0.019179396
108	0xbc80fedc	-0.015746526
109	0x3d09510a	0.03352455
110	0x3cc53a78	0.024075732
111	0x3d01cde4	0.031690493
112	0x3d402cc4	0.04691769
113	0xbd7f5d74	-0.062344983
114	0xbd5f91a1	-0.054582242
115	0xbbb149a5	-0.0054103904
116	0xbc69af20	-0.014262944
117	0x3cb9e204	0.02269078
118	0x3c32e540	0.010918915
119	0x3d1832da	0.03715787
120	0x3d2a8638	0.041631907
121	0xbc930c55	-0.017950216
122	0xbc569590	-0.013097182
123	0xbcf09127	-0.029366089
124	0xbd0b9fac	-0.03408782
125	0x3caa3284	0.02077604
126	0xbc843262	-0.016137306
127	0x3c69fe60	0.014281839
128	0x3d02416c	0.031800672
129	0xbc5b458d	-0.013383281
130	0xbd361404	-0.044452682
131	0xbd0f010a	-0.0349131
132	0xbd33379b	-0.0437542
133	0x3b8707fc	0.004120825
134	0xbd2987fc	-0.04138945
135	0xbd5e1284	-0.054216877
136	0x3cab2030	0.020889372
137	0xbd3b945e	-0.04579579
138	0xbbb94f60	-0.005655214
139	0xbd5bfa45	-0.053705472
140	0xbcf03bce	-0.029325392
141	0xbcfcc505	-0.030855665
142	0x3d6e3e68	0.058164984
143	0xbd7ec592	-0.062200136
144	0x3c6a1da0	0.01428929
145	0x3c55a821	0.013040573
146	0x3a20c400	0.0006132722
147	0x3d744ad6	0.05964168
148	0xbd4f006c	-0.05053751
149	0xbc68b827	-0.014204062
150	0xbcddbaac	-0.027066551
151	0x3c841fb0	0.016128391
152	0xbccf2f24	-0.025291033
153	0xbd5c2f59	-0.05375609
154	0xbd6055d5	-0.054769356
155	0xbcc774e3	-0.024347728
156	0xbc7941f8	-0.015213482
157	0xbd6135a1	-0.054982785
158	0xbc2238f3	-0.009901273
159	0x3d56281e	0.052284352
160	0xbd698e8c	-0.05702071
161	0xbbf1d170	-0.007379703
162	0xbd2b37ef	-0.04180139
163	0x3d04d95e	0.03243386
164	0xbd288de0	-0.041150928
165	0xbd213edf	-0.0393666
166	0x3ccb7912	0.024838004
167	0x3d5354bc	0.05159448
168	0xbcbaa078	-0.022781596
169	0xbd34e6f9	-0.044165585
170	0xba779480	-0.00094444305
171	0x3c403db9	0.011733466
172	0x3bc047db	0.005867941
173	0x3d46f0e0	0.04856956
174	0xbd57afc6	-0.052657865
175	0x3ca8e544	0.020617135
176	0x3c931368	0.01795359
177	0x3d225b1e	0.039637677
178	0x3c58a7d0	0.013223603
179	0xbd676130	-0.05648917
180	0xbc5c9e90	-0.013465539
181	0x3d37b63d	0.04485153
182	0x3d667926	0.05626788
183	0x3d156050	0.036468804
184	0xbd583c78	-0.052792042
185	0xbd1cbade	-0.038264148
186	0x3d0ce2c0	0.034395933
187	0x3c9c5d38	0.019087419
188	0xbc9d49a4	-0.019200154
189	0xbcece904	-0.028919704
190	0x3d267e7b	0.040647965
191	0x3d575d68	0.052579314
192	0xbca83c8c	-0.020536683
193	0xbd40d026	-0.047073506
194	0xbc9bf984	-0.019039877
195	0xbcc80220	-0.024415076
196	0x3d42dd49	0.047574315
197	0xbd5fd726	-0.05464854
198	0xbbe3b94b	-0.006949579
199	0xbc1866f9	-0.009301894
200	0xbd2fba67	-0.042902377
201	0x3cf4344c	0.029810093
202	0xbca85949	-0.020550387
203	0xbc2d0b26	-0.01056174
204	0xbd277400	-0.04088211
205	0xbc4aea3f	-0.01238495
206	0x3d67fa13	0.056634974
207	0x3cc2aae0	0.02376312
208	0xbc183980	-0.009291053
209	0xbd4caa96	-0.04996737
210	0x3d499f95	0.049224455
211	0xbd0c5b44	-0.034266725
212	0x3c14a5ec	0.009072762
213	0x3d6f1d3c	0.05837749
214	0xbd769c96	-0.060207926
215	0xbd086b9a	-0.03330574
216	0xbc8fbd3d	-0.01754629
217	0xbd66f193	-0.056382727
218	0x3c87cd90	0.016577512
219	0x3d4ea1ee	0.050447397
220	0xbc86c5ed	-0.0164518
221	0x3d3dcd81	0.046338562
222	0xbca308af	-0.019901602
223	0xbd391be9	-0.045192633
224	0x3c817f74	0.015807845
225	0x3c0f3b27	0.00874213
226	0x3c11dd2d	0.00890283
227	0x3d502c1c	0.050823316
228	0x3d1fae32	0.038984485
229	0x3d49498f	0.049142417
230	0xbd54153b	-0.05177806
231	0xbd69bb08	-0.057063133
232	0xbd02de28	-0.031950146
233	0x3b740eb2	0.0037240204
234	0xbd1d3436	-0.03837987
235	0xbcb3adf1	-0.021933528
236	0xbc73c761	-0.014879079
237	0xbba76340	-0.005108267
238	0x3cb52e58	0.022116825
239	0x3bf92e6f	0.0076044123
240	0xbc978322	-0.018495146
241	0x3c3f9b28	0.011694707
242	0xbd6f2274	-0.058382466
243	0x3c806e3c	0.015677564
244	0x3bbe5250	0.0058081523
245	0x3d22e57f	0.039769646
246	0x3c824fed	0.015907252
247	0x3cb4124a	0.021981377
248	0xbd52d996	-0.051477037
249	0x3d671600	0.056417465
250	0xbd2b57e4	-0.041831866
251	0xbd06d7c6	-0.03292062
252	0x3cbe68d8	0.023243353
253	0x3c0a7c81	0.008452536
254	0x3c7f5360	0.015583843
255	0xbc9da186	-0.01924206
