outputs/router_rule/A2C_router/summer20251110-070826/models/policyB_critic.pth (torch, 274062 bytes, 5 tensors)

fc1.weight f4 [256, 6]
-0.21997981 0.18546008 -0.045489132 -0.18495199 -0.23817196 -0.32764897 0.40068778 0.05725409
-0.2867726 0.04291026 0.050342303 -0.26854336 0.2847861 0.39331323 -0.0011325673 0.10149675
0.20020844 -0.17243831 0.36334312 -0.092851214 -0.1937554 -0.022547174 0.26465926 0.03432629
0.20575713 -0.2501443 -0.33680496 -0.3473625 -0.108942226 0.1884165 0.07797134 0.31251645
-0.0376707 0.044394426 0.096781895 -0.2651718 -0.12310451 -0.25309297 -0.1782736 -0.23743875
0.36153412 -0.21381283 -0.05219807 -0.39653257 -0.17522526 -0.293407 0.19036108 -0.18194856
-0.046415802 0.35121605 -0.13899371 -0.068247765 -0.30334044 0.23829582 -0.015575943 -0.32693622
0.06300943 0.028008146 0.33265653 -0.3315723 0.16437918 -0.0860986 -0.27718934 0.08347946
0.07199997 0.09833934 0.061997056 -0.16236189 -0.27676702 0.036421675 0.115939714 0.19223256
-0.14820164 0.32820776 0.011964293 -0.30419025 -0.16055751 -0.17472617 0.13568898 0.11668018
-0.11951435 -0.35781837 0.07131661 -0.34894451 0.35219732 0.05324533 0.11792528 0.044809617
0.12993653 0.08207569 -0.05691348 -0.068216175 0.35507694 0.023572195 -0.18025313 0.32526168
-0.21990618 0.25919303 0.20183305 -0.40200126 -0.36660716 0.39589605 -0.27715662 0.039030526
-0.1581796 0.3386014 0.39790496 -0.10991628 -0.18126819 -0.12735549 -0.25183183 -0.27055076
0.18601638 0.26719156 -0.38768834 -0.097024314 0.22137718 -0.31146583 0.054011405 -0.063987166
0.06805772 -0.136309 -0.19469875 0.21707688 0.114984706 0.36213946 0.36748275 -0.30258283
0.3155574 -0.36744815 -0.20255591 0.16692802 0.35556903 0.36133435 0.39097294 -0.0027889556
0.029878924 0.1657853 -0.3625554 -0.1041796 -0.18183982 0.22575337 0.07090147 0.013607653
0.35110337 0.107676275 0.124081336 0.3988783 0.14308609 0.30515885 -0.3796348 -0.08402387
0.008122706 0.3055108 0.25929338 -0.029166164 0.13660417 0.16303529 0.38656896 0.32508805
0.3307161 0.20695265 -0.069236435 -0.33667448 0.27947867 -0.04789192 0.16269161 -0.06742369
0.10284274 -0.31917244 0.17213008 -0.39882112 -0.02678928 -0.03365965 0.08108953 -0.12660246
-0.27917063 -0.18581057 0.2891354 -0.3443668 -0.23731741 -0.22678664 -0.067517005 0.13553423
-0.14665388 0.014349967 -0.25649065 -0.09104825 -0.0030154984 0.38879752 0.2619226 -0.23708871
0.069572054 -0.25045243 0.29168898 0.026311439 -0.055900086 -0.3115649 -0.1990509 -0.21035674
-0.23474047 0.059107684 -0.3002091 -0.22088988 -0.080733955 -0.3612775 -0.14321594 0.028992508
0.10908955 0.3373233 -0.3276929 -0.120429926 -0.09457627 -0.3768044 0.3909422 -0.35905176
0.28141427 -0.38317627 -0.16441475 0.046553046 -0.25179607 0.22149211 -0.08141631 -0.34493405
0.25685525 0.3116861 0.29838333 0.1555909 0.14945348 -0.041244794 -0.24079978 0.23432462
0.20198381 -0.3577505 0.18503097 0.13170406 0.29257086 -0.27228796 -0.1302848 -0.3887996
0.24269074 -0.34623158 -0.05385207 -0.09067707 -0.1844511 0.4076041 -0.23716189 -0.11097714
0.32298797 0.40281826 0.21196179 0.2116553 -0.08943192 0.067250274 0.24151517 0.09191614
00000000: 6342 61be 3fe9 3d3e d052 3abd 0e64 3dbe
00000010: 5ae3 73be 9bc1 a7be f326 cd3e 4483 6a3d
00000020: dcd3 92be abc2 2f3d bb33 4e3d 847e 89be
00000030: 7ccf 913e 5a60 c93e a772 94ba 87dd cf3d
00000040: 7103 4d3e ab93 30be 1c08 ba3e c728 bebd
00000050: d167 46be dab4 b8bc 6b81 873e b999 0c3d
00000060: ffb1 523e ea12 80be b371 acbe 7fd9 b1be
00000070: 1a1d dfbd 41f0 403e 70af 9f3d 2802 a03e
00000080: 984c 1abd eed6 353d 9635 c63d 99c4 87be
00000090: 381e fcbd 6795 81be 5b8d 36be 2523 73be
000000a0: 001b b93e c0f1 5abe a5cd 55bd 5106 cbbe
000000b0: 406e 33be 7139 96be 04ee 423e b950 3abe
000000c0: 7f1e 3ebd 97d2 b33e 5e54 0ebe 7cc5 8bbd
000000d0: 704f 9bbe d203 743e 3d32 7fbc 2f64 a7be
000000e0: 170b 813d 5771 e53c f551 aa3e d8c3 a9be
000000f0: 0453 283e 7654 b0bd c3eb 8dbe 47f7 aa3d
00000100: b874 933d 2366 c93d a0f0 7d3d 3242 26be
00000110: 68b4 8dbe e52e 153d cd71 ed3d 9dd8 443e
00000120: 2cc2 17be d90a a83e e205 443c d3be 9bbe
00000130: 3069 24be 6beb 32be 0df2 0a3e 05f6 ee3d
00000140: f1c3 f4bd f833 b7be 710e 923d dba8 b2be
00000150: 3553 b43e c617 5a3d cf82 f13d 4a8a 373d
00000160: 150e 053e 4d17 a83d 1c1e 69bd ecb4 8bbd
00000170: a5cc b53e 7a1a c13c 4794 38be b388 a63e
00000180: 162f 61be f3b4 843e 53ad 4e3e 1cd3 cdbe
00000190: efb3 bbbe e3b2 ca3e 79e7 8dbe 79de 1f3d
000001a0: d5f9 21be 2a5d ad3e 33ba cb3e c91b e1bd
000001b0: 5e9e 39be 7a69 02be 1af0 80be a185 8abe
000001c0: 147b 3e3e 55cd 883e 167f c6be afb4 c6bd
000001d0: b3b0 623e 7378 9fbe 103b 5d3d b40b 83bd
000001e0: d961 8b3d 9694 0bbe 1c5f 47be 6749 5e3e
000001f0: 1a7d eb3d 586a b93e b326 bc3e 23ec 9abe
00000200: bd90 a13e 2a22 bcbe d16a 4fbe 2eef 2a3e
00000210: 250d b63e d100 b93e 9b2d c83e e9c6 36bb
00000220: a5c4 f43c 9fc3 293e dda0 b9be 1d5c d5bd
00000230: 3834 3abe e42b 673e ca34 913d a2f2 5e3c
00000240: d2c3 b33e 6185 dc3d 5b1e fe3d c739 cc3e
00000250: 2985 123e c83d 9c3e 7e5f c2be b514 acbd
00000260: 1915 053c e96b 9c3e 1ac2 843e e1ed eebc
00000270: f7e1 0b3e b9f2 263e 5eec c53e f171 a63e
00000280: 9f53 a93e 65eb 533e d5cb 8dbd 9960 acbe
00000290: d417 8f3e 512a 44bd a198 263e 6e15 8abd
000002a0: 379f d23d 926a a3be de42 303e 4832 ccbe
000002b0: 3175 dbbc b3de 09bd 4412 a63d 13a4 01be
000002c0: 74ef 8ebe 2045 3ebe 8e09 943e d850 b0be
000002d0: 5603 73be c23a 68be 5b46 8abd 7cc9 0a3e
000002e0: 6f2c 16be 201c 6b3c be52 83be 8177 babd
000002f0: ab9f 45bb 7810 c73e b81a 863e 62c7 72be
00000300: cb7b 8e3d 4d3b 80be 4258 953e 168b d73c
00000310: 7df7 64bd 6f85 9fbe 00d4 4bbe c267 57be
00000320: ce5f 70be e61a 723d 02b5 99be f530 62be
00000330: d857 a5bd 5df9 b8be 33a7 12be b281 ed3c
00000340: 586a df3d a4b5 ac3e 5dc7 a7be f7a3 f6bd
00000350: 34b1 c1bd 82ec c0be 9329 c83e a2d5 b7be
00000360: 8815 903e ae2f c4be 575c 28be 68ae 3e3d
00000370: 6aeb 80be d4ce 623e 98bd a6bd 329b b0be
00000380: 8882 833e 5295 9f3e b3c5 983e 3953 1f3e
00000390: 550a 193e 4df0 28bd 3894 76be cbf2 6f3e
000003a0: d8d4 4e3e 132b b7be c278 3d3e 6edd 063e
000003b0: d9cb 953e 5469 8bbe 6169 05be be10 c7be
000003c0: ec83 783e 4445 b1be fd93 5cbd e6b4 b9bd
000003d0: c0e0 3cbe 7cb1 d03e 91da 72be fc47 e3bd
000003e0: ae5e a53e 323e ce3e 830c 593e 2bbc 583e
000003f0: 1528 b7bd 83ba 893d c14f 773e 873e bc3d

fc1.bias f4 [256]
-0.20985936 0.23965742 -0.01951824 0.32641798 0.11370439 -0.20189887 0.33445612 -0.11558921
0.30064675 0.24850018 0.07832281 -0.3780455 -0.0832516 -0.08493607 -0.1589813 -0.13500892
0.27543458 0.18573645 -0.29147682 0.067761146 0.028757093 0.28952956 0.15452889 0.117783636
0.22106339 -0.3779794 0.07364019 -0.028023086 0.2986883 -0.20355962 0.2570069 0.2504536
-0.13449073 0.20895888 0.14231811 -0.05339095 0.06974631 -0.13102017 -0.16089895 -0.13060488
-0.15651737 0.005049227 0.39986292 -0.013653218 0.19378237 0.36460686 -0.05272864 0.18344842
-0.06577735 0.19460946 -0.2348516 0.06368791 0.36018056 0.114718966 0.2439847 -0.38552463
0.18399726 0.11231689 -0.1818429 0.017245539 0.14818045 -0.14101236 0.071421936 -0.07255212
0.09138002 -0.04255425 0.302071 -0.27524745 -0.07067786 -0.17937835 -0.17658271 0.12263965
0.07370864 -0.2190367 -0.15776314 -0.2700418 -0.26486543 0.32238746 -0.3139009 -0.06467351
-0.26545742 -0.15036422 0.11862861 -0.23020428 -0.03959269 -0.34801424 0.30296284 -0.21681418
0.00738599 -0.1589991 -0.014523291 0.21476378 -0.34354433 0.017132483 -0.2749957 0.37621647
0.2534319 0.33297327 0.19355042 0.049083143 -0.07965409 -0.11893451 0.06190121 0.37387636
-0.19863977 0.16301908 0.024598 0.10095755 -0.37784523 -0.39266846 -0.061498713 -0.15368252
0.114769176 -0.40214133 0.11957668 0.20573458 -0.09339745 -0.22926523 0.39508653 0.27025378
-0.350018 -0.049393345 -0.037189428 0.3401843 0.054536555 -0.062641986 0.3010563 -0.104365215
0.34264418 0.12376298 -0.1713118 0.14564481 -0.2976316 0.0012889452 0.30469438 -0.08857412
-0.3118369 -0.06951991 -0.21647379 0.0043492718 0.34035283 0.036102146 -0.043900058 -0.05763191
-0.11188599 -0.065669395 0.07111558 -0.18900804 0.27349842 0.006331916 -0.2618873 0.37148795
-0.36045238 -0.046597477 0.16364977 -0.1753036 0.018826587 0.013469252 0.1082921 0.25791603
-0.17643383 -0.13674062 -0.20981176 0.21778789 0.19274119 -0.14855078 -0.3174993 -0.14592165
0.17794433 -0.23290473 -0.18509497 0.093570076 -0.029781278 0.076781616 -0.37143728 -0.19820711
-0.11820935 -0.04246114 -0.10519781 -0.15067992 0.36882624 -0.17973751 -0.06922573 0.08453885
0.018815437 0.27301776 -0.36183512 0.3632084 0.0011752105 -0.12769645 0.064520724 0.40711296
-0.2824354 -0.04921233 -0.05430633 0.35729438 -0.33104715 0.021175591 -0.11545591 -0.2050078
-0.15668966 -0.2229465 -0.3486395 -0.19176434 0.39386183 -0.38084128 -0.38477698 -0.34430102
0.22664164 0.18665071 0.2569743 -0.066380024 0.22033933 -0.08547149 -0.07122388 -0.18148856
0.20609196 -0.1265142 -0.3353643 -0.12793954 -0.22075933 -0.14641567 -0.26063943 -0.008769907
0.3785476 -0.06921416 -0.15476775 0.3011619 -0.22731066 -0.26237655 0.34540954 0.022883676
0.0680434 0.34924114 -0.05639537 0.3176878 0.28795266 -0.134235 0.35919768 -0.22536574
0.07127797 -0.16079642 -0.044450708 -0.18201566 0.35376042 0.33284828 0.068507746 0.40202203
0.36388212 -0.40054175 0.124337636 -0.12867782 -0.18889382 0.23912773 0.064546004 -0.2595283
00000000: 5fe5 56be c168 753e b7e4 9fbc 4220 a73e
00000010: d9dd e83d 94be 4ebe d53d ab3e 09ba ecbd
00000020: 5fee 993e d576 7e3e b667 a03d 2e8f c1be
00000030: d17f aabd f6f2 adbd fecb 22be c73f 0abe
00000040: c305 8d3e b231 3e3e 733c 95be 5bc6 8a3d
00000050: ff93 eb3c 383d 943e d23c 1e3e 8c38 f13d
00000060: 715e 623e 8486 c1be abd0 963d ac90 e5bc
00000070: aced 983e ef71 50be 6996 833e 743b 803e
00000080: f0b7 09be 51f9 553e d7bb 113e 78b0 5abd
00000090: 27d7 8e3d 272a 06be b2c2 24be 49bd 05be
000000a0: 1746 20be fc73 a53b d5ba cc3e bfb1 5fbc
000000b0: e36e 463e c0ad ba3e fdf9 57bd e7d9 3b3e
000000c0: 46b6 86bd b447 473e f07c 70be cf6e 823d
000000d0: 9669 b83e c7f1 ea3d 20d7 793e 7c63 c5be
000000e0: c769 3c3e 6606 e63d 0635 3abe 8446 8d3c
000000f0: 9ebc 173e 8b65 10be aa45 923d 3596 94bd
00000100: 7325 bb3d 5e4d 2ebd 0da9 9a3e 3ced 8cbe
00000110: 8ebf 90bd f5ae 37be 19d2 34be 7f2a fb3d
00000120: 8ef4 963d 284b 60be a98c 21be eb42 8abe
00000130: 719c 87be f80f a53e 9eb7 a0be 8c73 84bd
00000140: 09ea 87be 14f9 19be 8ff3 f23d acba 6bbe
00000150: f22b 22bd ec2e b2be f21d 9b3e 8904 5ebe
00000160: 2d06 f23b a9d0 22be 19f3 6dbc 09eb 5b3e
00000170: 0be5 afbe 6c59 8c3c 3dcc 8cbe 729f c03e
00000180: d3c1 813e 797b aa3e 1532 463e 680b 493d
00000190: af21 a3bd f093 f3bd 208c 7d3d b96c bf3e
000001a0: 3968 4bbe 79ee 263e bf81 c93c d5c2 ce3d
000001b0: ee74 c1be d70b c9be 13e6 7bbd f35e 1dbe
000001c0: 1a0c eb3d 78e5 cdbe 9ee4 f43d 16ac 523e
000001d0: 2a47 bfbd 81c4 6abe c848 ca3e b45e 8a3e
000001e0: 8f35 b3be ad50 4abd f153 18bd a32c ae3e
000001f0: b961 5f3d 714a 80bd 0d24 9a3e 6ebd d5bd
00000200: 0f6f af3e 7277 fd3d 5c6c 2fbe ea23 153e
00000210: 2b63 98be d3f1 a83a e700 9c3e 5966 b5bd
00000220: 16a9 9fbe 7460 8ebd 4eab 5dbe 5684 8e3b
00000230: ba42 ae3e d8df 133d 8cd0 33bd 700f 6cbd
00000240: 7b24 e5bd ad7d 86bd 0ca5 913d 538b 41be
00000250: fc07 8c3e f67b cf3b 1816 86be ab33 be3e
00000260: 378d b8be ffdc 3ebd ce93 273e c982 33be
00000270: 373a 9a3c 23ae 5c3c 40c8 dd3d 920d 843e
00000280: 12ab 34be bc05 0cbe e5d8 56be ca03 5f3e
00000290: f25d 453e b21d 18be 458f a2be 7c6c 15be
000002a0: 0a37 363e 947e 6ebe 8989 3dbe aba1 bf3d
000002b0: def7 f3bc ae3f 9d3d 072d bebe cef6 4abe
000002c0: be17 f2bd bbeb 2dbd f371 d7bd d64b 1abe
000002d0: cbd6 bc3e 1c0d 38be 38c6 8dbd b422 ad3d
000002e0: d522 9a3c fcc8 8b3e 7442 b9be 74f6 b93e
000002f0: 8509 9a3a dcc2 02be 7123 843d 1c71 d03e
00000300: 5f9b 90be de92 49bd 5070 5ebd 4aef b63e
00000310: 037f a9be 6f78 ad3c 2674 ecbd 91ed 51be
00000320: 4173 20be 164c 64be e080 b2be df5d 44be
00000330: 42a8 c93e a1fd c2be 7d01 c5be 3948 b0be
00000340: bf14 683e 5d21 3f3e 2392 833e 40f2 87bd
00000350: a2a0 613e ad0b afbd d3dd 91bd 23d8 39be
00000360: c509 533e f08c 01be dfb4 abbe 9502 03be
00000370: bc0e 62be fded 15be 8872 85be a8af 0fbc
00000380: fed0 c13e 27c0 8dbd 707b 1ebe e431 9a3e
00000390: 20c4 68be 3856 86be 85d9 b03e 8c76 bb3c
000003a0: 575a 8b3d bccf b23e d5fe 66bd faa7 a23e
000003b0: 886e 933e e674 09be c2e8 b73e 47c6 66be
000003c0: 2ffa 913d d1a7 24be f211 36bd 5062 3abe
000003d0: 1620 b53e 176b aa3e ca4d 8c3d d5d5 cd3e
000003e0: c24e ba3e cf13 cdbe bba4 fe3d 1ec4 03be
000003f0: 626d 41be e6dd 743e b230 843d e5e0 84be

fc2.weight f4 [256, 256]
-0.061420135 -0.054670125 0.045327514 0.026109919 -0.0028835908 -0.03345958 -0.019382209 0.049720258
-0.026000448 -0.02894736 -0.011358328 0.039177857 0.0032804832 0.010629341 -0.039469853 0.055600777
0.048936628 0.04308813 0.0490197 0.03359188 -0.03901352 0.049118914 -0.055003874 -0.055528656
-0.058943972 -0.012098476 0.05974683 -0.031445667 0.008055195 -0.04299678 -0.00034262985 -0.04139012
0.024152294 0.012968823 0.03374882 0.014484592 0.04058738 -0.046892777 -0.056926526 0.0031475946
-0.03996118 -0.027331464 -0.04498505 -0.02449011 -0.05138343 -0.03156165 0.03919112 -0.058359616
-0.044726394 0.049485974 -0.050552137 -0.023762234 0.03822141 -0.005691342 -0.013235904 -0.013607524
-0.055321798 -0.039997764 0.04768163 -0.028302059 -0.042273887 -0.049900256 -0.05076108 0.009734407
-0.04920297 -0.015180148 -0.0412891 -0.0024781302 -0.049605407 -0.028553665 -0.05435604 0.033048622
-0.044795893 0.03605304 -0.048242822 -0.053341553 0.04337556 0.057830393 -0.048385426 0.06202002
0.037169784 0.03319016 0.032524988 -0.022527747 0.05426553 -0.043630376 -0.04320752 -0.0040662214
-0.022875391 0.060928904 -0.04828073 0.050718956 0.008439355 -0.04371743 -0.053674646 0.040523738
-0.003459096 -0.05373799 -0.043174557 -0.028229997 -0.041028544 0.026604742 0.053785235 -0.062191382
-0.020136766 0.041457735 0.05059413 -0.034007967 0.053881288 -0.02558636 0.05086811 0.037267365
0.020968385 -0.05533438 -0.015072763 -0.0430431 0.022919603 0.021711566 -0.054698937 0.04942049
0.010676287 0.035678014 -0.05951733 -0.017104685 0.038133107 0.029434659 0.034281746 0.0380027
0.0019706264 0.03996835 0.009004034 -0.051240854 0.05062046 -0.0047124177 -0.026412204 -0.043173127
0.03043259 0.0058200955 0.009276435 0.007088624 -0.012654267 -0.0332959 -0.062143862 -0.024599187
0.022 -0.018812098 -0.027785636 -0.014774978 -0.007695645 -0.04720819 -0.0031161606 0.062307537
0.056102745 0.028297447 -0.052351348 -0.04481867 -0.033863142 0.035685048 -0.0046784654 -0.016278893
-0.029354304 0.019948035 -0.03606596 -0.043393135 -0.02838219 0.022997893 -0.020491607 -0.045895167
0.0011493489 0.05206167 0.021883182 0.03856668 -0.022300266 0.0313574 0.041505106 -0.018565923
0.031954587 0.043901533 -0.0027226806 0.027580045 0.002021499 -0.04668933 0.026062027 -0.055377528
0.0423012 0.042106003 0.0274247 -0.011509255 0.05005508 -0.017592154 0.029995315 -0.017258562
-0.015905052 0.00874003 0.023840897 0.033740193 0.04197386 0.01250805 0.04465445 -0.031624883
-0.061934017 -0.04072719 -0.033423 0.06015929 -0.01818204 0.054179408 -0.018379614 0.022419915
-0.009444259 -0.016331539 0.058967896 -0.05562745 0.055162154 -0.004531041 -0.05729878 -0.05628594
-0.020172156 0.05577249 -0.03704028 -0.021513775 0.052208267 0.012955487 -0.033411227 0.02781561
-0.024218544 0.061859682 0.049132735 0.0544952 -0.01205463 -0.02646701 -0.05650071 0.05092684
-0.04615964 -0.05446198 0.007841989 -0.054757826 -0.024497993 -0.048300512 0.05585622 0.046773925
-0.049768858 0.05577653 0.030355938 -0.036611877 0.005397342 0.004168503 0.018495418 -0.009049244
-0.013288528 -0.055393957 0.046512917 0.028957844 0.029068604 0.028045855 -0.011833765 -0.028692134
00000000: ae93 7bbd c8ed 5fbd 58a9 393d 78e4 d53c
00000010: a0fa 3cbb ea0c 09bd 70c7 9ebc 78a7 4b3d
00000020: e4fe d4bc 0423 edbc 4818 3abc f678 203d
00000030: 60fd 563b b026 2e3c 24ab 21bd a4bd 633d
00000040: c671 483d 2e7d 303d e2c8 483d a497 093d
00000050: a4cc 1fbd ea30 493d be4b 61bd 0472 63bd
00000060: 3c6f 71bd b038 46bc 18b9 743d 2ccd 00bd
00000070: f0f9 033c 641d 30bd 00a3 b3b9 b088 29bd
00000080: 08db c53c 307b 543c 343c 0a3d c850 6d3c
00000090: f43e 263d a412 40bd ca2b 69bd e047 4e3b
000000a0: 56ae 23bd 3ce6 dfbc 3e42 38bd 7c9f c8bc
000000b0: 6e77 52bd ca46 01bd de86 203d 7e0a 6fbd
000000c0: 0633 37bd ceb1 4a3d c20f 4fbd 04a9 c2bc
000000d0: 0e8e 1c3d 707e babb 68db 58bc 18f2 5ebc
000000e0: 1c99 62bd b2d4 23bd d04d 433d b8d9 e7bc
000000f0: 6227 2dbd 3664 4cbd daea 4fbd 107d 1f3c
00000100: 0e89 49bd 28b6 78bc c21e 29bd 2068 22bb
00000110: 0a2f 4bbd 60e9 e9bc 70a4 5ebd fe5d 073d
00000120: e67b 37bd 5aac 133d 449a 45bd ac7c 5abd
00000130: 92aa 313d 90df 6c3d cc2f 46bd b408 7e3d
00000140: 583f 183d 68f2 073d ec38 053d 1c8c b8bc
00000150: 8845 5e3d c4b5 32bd 5efa 30bd f03d 85bb
00000160: 2c65 bbbc 9690 793d 04c2 45bd aebe 4f3d
00000170: 3845 0a3c 0c11 33bd f2d9 5bbd 38fc 253d
00000180: 00b2 62bb 5e1c 5cbd ced7 30bd 9842 e7bc
00000190: 8c0d 28bd 30f2 d93c e84d 5c3d 64bc 7ebd
000001a0: dcf5 a4bc 96cf 293d ca3b 4f3d f04b 0bbd
000001b0: a0b2 5c3d 7c9a d1bc 145b 503d aaa5 183d
000001c0: e4c5 ab3c 4ea6 62bd c0f3 76bc f64d 30bd
000001d0: e4c1 bb3c 74dc b13c fe0b 60bd 246d 4a3d
000001e0: 98eb 2e3c 1c23 123d 72c8 73bd 201f 8cbc
000001f0: 7631 1c3d f420 f13c 046b 0c3d b8a8 1b3d
00000200: a025 013b dab5 233d a885 133c eee1 51bd
00000210: 6657 4f3d a06a 9abb 685e d8bc 4ed6 30bd
00000220: c44d f93c 80b6 be3b 30fc 173c b047 e83b
00000230: d853 4fbc 4861 08bd 908a 7ebd 3c84 c9bc
00000240: 5839 b43c d41b 9abc b49e e3bc c012 72bc
00000250: c02b fcbb 605d 41bd 8038 4cbb 3036 7f3d
00000260: fecb 653d 0cd0 e73c 5e6e 56bd c893 37bd
00000270: 14b4 0abd 7c2a 123d d04d 99bb 505b 85bc
00000280: 7078 f0bc 106a a33c e6b9 13bd 00bd 31bd
00000290: c481 e8bc 1466 bc3c 04de a7bc 92fc 3bbd
000002a0: c0a5 963a 9e3e 553d 5c44 b33c 18f8 1d3d
000002b0: 0caf b6bc 9e70 003d 4201 2a3d 9017 98bc
000002c0: d0e2 023d 18d2 333d 006f 32bb 8cef e13c
000002d0: 207b 043b 503d 3fbd 0880 d53c 8cd3 62bd
000002e0: 0644 2d3d 5877 2c3d c4a9 e03c 5091 3cbc
000002f0: 8e06 4d3d 6c1d 90bc bcb8 f53c d461 8dbc
00000300: 504b 82bc 5832 0f3c fc4d c33c 2833 0a3d
00000310: c8ec 2b3d 90ee 4c3c 96e7 363d 1889 01bd
00000320: 86ae 7dbd 8ed1 26bd 8ee6 08bd 9669 763d
00000330: 80f2 94bc 3aeb 5d3d d890 96bc f8a9 b73c
00000340: 18bc 1abc b8c9 85bc 5288 713d 9cd9 63bd
00000350: b6f1 613d 2079 94bb 20b2 6abd 168c 66bd
00000360: 1440 a5bc b271 643d 8cb7 17bd a83d b0bc
00000370: 56d8 553d 4043 543c 36da 08bd 90dd e33c
00000380: f865 c6bc 9460 7d3d 683f 493d 5c36 5f3d
00000390: c880 45bc 58d1 d8bc 4a6d 67bd aa98 503d
000003a0: e411 3dbd 8613 5fbd b07b 003c be49 60bd
000003b0: 04b0 c8bc c2d6 45bd 7ec9 643d 0496 3f3d
000003c0: 6eda 4bbd ee75 643d 04ad f83c 56f6 15bd
000003d0: 30dc b03b f097 883b b483 973c 4843 14bc
000003e0: 20b8 59bc c6e4 62bd 5484 3e3d 0039 ed3c
000003f0: 4821 ee3c 6cc0 e53c 68e2 41bc c40b ebbc

fc2.bias f4 [256]
-0.021811672 0.02126902 0.048345402 -0.042081244 0.017113954 0.022121903 -0.021719065 -0.012074068
-0.012812242 0.03241071 0.011257782 -0.023378907 -0.06156239 -0.006361395 -0.0115457475 0.039892
0.005541183 -0.0012660176 -0.036205515 0.03852354 -0.007667102 -0.033986446 -0.05849766 -0.031268187
-0.008477084 0.05208597 0.022979848 0.047552135 0.027771682 -0.015842915 0.052914865 -0.029366285
0.01458639 -0.04880818 0.048810355 -0.05321496 0.037054665 -0.04937896 -0.018941425 0.0005271877
0.048382655 -0.059641954 0.060156763 -0.039881676 -0.03842427 0.051693574 -0.059270702 0.0067603067
-0.06023748 0.038904406 0.019422302 -0.028974831 0.03898218 0.02000168 -0.010865293 0.03890527
0.061350323 0.018551137 -0.013730194 -0.025387611 0.05215741 -0.021793634 0.059067756 0.04149476
0.027052827 -0.009460742 -0.010308622 0.037949607 -0.035580277 0.020978697 -0.03880945 -0.017710887
0.013052873 0.009128302 0.028297111 -0.047779318 -0.041723832 0.045988157 7.4230134e-05 0.045826368
-0.04109531 0.01511278 -0.03017227 -0.021705521 -0.031427342 0.0030033588 0.030407475 -0.019146096
-0.0062533766 0.03957042 0.015128077 -0.005763991 0.037799835 0.06058374 0.002989549 -0.055048093
0.043257475 0.03115715 -0.023209943 -0.037958555 -0.044164997 -0.016778603 -0.0433107 -0.042369127
-0.05569109 0.035809666 -0.005195949 0.025354179 0.050169244 0.008654331 -0.02005811 0.027745064
-0.028758854 -0.057373613 0.041259773 -0.040906645 -0.0058060884 -0.024638843 -0.019171657 0.01251908
0.036017977 -0.033738635 -0.0068362206 0.033550207 -0.033748075 -0.022348695 -0.037276745 -0.039707936
-0.06199632 0.061878663 0.0047519 0.011625767 0.027549399 0.04631971 -0.0032231647 -0.022703405
-0.029443298 -0.05662503 0.021290898 0.028172122 0.05223784 0.04842513 -0.04504754 -0.04204695
0.012976259 -0.056768507 -0.0062813982 -0.025889084 0.04873708 0.05697199 -0.056492403 0.03570026
0.05508626 -0.056635253 -0.013465828 -0.023419298 -4.272908e-05 0.06068974 -0.058949877 0.06139633
0.040686928 0.051677797 0.021666452 -0.044309825 0.015052059 -0.012947577 0.039782353 0.031738117
0.025606811 0.03029956 0.019678056 0.022060845 0.04088606 -0.025966952 0.007431425 0.041754365
0.054097436 -0.0054027173 0.004716754 0.020580992 -0.041655317 -0.017167754 -0.043660402 0.053969387
-0.027222894 0.050587032 0.055634916 0.04264199 0.007148885 -0.041909322 -0.011000492 0.012246497
-0.031674556 -0.018299902 -0.020298397 0.040581018 -0.04712286 -0.024473742 0.021435672 0.059105746
-0.020295404 -0.04767923 -0.056062184 -0.039149288 -0.027754232 -0.032101095 -0.0004671721 0.045432035
0.015719503 -0.0027586264 -0.056361817 -0.04597821 -0.027427688 0.0024464503 -0.027186625 0.047544003
-0.046670813 -0.0021906942 0.009632009 0.035072573 -0.013122352 0.053614616 -0.027185563 -0.009351566
-0.018994756 0.030571342 0.05349335 0.03586657 0.008067213 0.03495714 -0.048484266 -0.034601495
-0.0165537 -0.013500067 -0.020306833 0.023517914 -0.054310147 -0.020132536 -0.008948888 0.008105613
-0.0057922453 0.05450012 -0.012350731 0.046794415 0.017400213 0.01864376 -0.01047169 -0.003073926
-0.038555242 -0.011524737 -0.053960465 0.002528958 0.049074516 0.036036722 -0.019269824 0.022000914
00000000: 64ae b2bc 5e3c ae3c d405 463d 625d 2cbd
00000010: 9032 8c3c fe38 b53c 2eec b1bc 50d2 45bc
00000020: 70ea 51bc 18c1 043d 8f72 383c 1f85 bfbc
00000030: d828 7cbd 4073 d0bb 602a 3dbc cb65 233d
00000040: d092 b53b 80f0 a5ba 3c4c 14bd dcca 1d3d
00000050: 503c fbbb 5f35 0bbd 3e9b 6fbd 1213 00bd
00000060: 78e3 0abc 1958 553d 3c40 bc3c 07c6 423d
00000070: 7081 e33c 00c9 81bc 42bd 583d 9091 f0bc
00000080: c1fb 6e3c 16eb 47bd 5eed 473d eef7 59bd
00000090: a2c6 173d 9841 4abd 0c2b 9bbc f832 0a3a
000000a0: e42c 463d 1f4b 74bd f066 763d f85a 23bd
000000b0: c462 1dbd a4bc 533d d6c5 72bd 9085 dd3b
000000c0: 93bb 76bd 3a5a 1f3d 851b 9f3c a05c edbc
000000d0: c7ab 1f3d 90da a33c 5804 32bc 225b 1f3d
000000e0: 7a4a 7b3d 8ef8 973c 9cf4 60bc aef9 cfbc
000000f0: 02a3 553d 9088 b2bc 08f1 713d 69f6 293d
00000100: e49d dd3c 3a01 1bbc 7fe5 28bc 0c71 1b3d
00000110: a0bc 11bd 84db ab3c a8f6 1ebd 6c16 91bc
00000120: b8db 553c e08e 153c 58cf e73c 3fb4 43bd
00000130: 9ce6 2abd 145e 3c3d 00ac 9b38 6eb4 3b3d
00000140: 8e53 28bd 989b 773c d62b f7bc c7cf b1bc
00000150: f5b9 00bd 00d4 443b 1919 f93c 46d8 9cbc
00000160: 20e9 ccbb 9814 223d c1db 773c dcdf bcbb
00000170: 00d4 1a3d a826 783d 4fec 433b 1c7a 61bd
00000180: c02e 313d 483d ff3c c722 bebc 6e7a 1bbd
00000190: 5be6 34bd 4873 89bc 9066 31bd 408b 2dbd
000001a0: 571c 64bd 28ad 123d c842 aabb 91b3 cf3c
000001b0: 447e 4d3d e5ca 0d3c e850 a4bc 9e49 e33c
000001c0: b097 ebbc 9800 6bbd 0200 293d ba8d 27bd
000001d0: 0041 bebb 66d7 c9bc e10d 9dbc d41c 4d3c
000001e0: 9687 133d 8631 0abd 6002 e0bb f16b 093d
000001f0: 6c3b 0abd 9c14 b7bc 80af 18bd caa4 22bd
00000200: daef 7dbd 7b74 7d3d d4b5 9b3b 007a 3e3c
00000210: 47af e13c bcb9 3d3d bb3b 53bb 7efc b9bc
00000220: 1233 f1bc a6ef 67bd 406a ae3c 39c9 e63c
00000230: 58f7 553d 6e59 463d c583 38bd 6c39 2cbd
00000240: 609a 543c 1886 68bd 30d4 cdbb 5815 d4bc
00000250: 88a0 473d 765b 693d 9464 67bd 703a 123d
00000260: 21a2 613d 5efa 67bd c79f 5cbc d4d9 bfbc
00000270: 0038 33b8 ce95 783d 6d75 71bd b87a 7b3d
00000280: 56a7 263d 19ac 533d d87d b13c 387e 35bd
00000290: e99c 763c 1322 54bc d2f2 223d d4ff 013d
000002a0: 60c5 d13c c836 f83c e033 a13c f2b8 b43c
000002b0: 2478 273d a5b8 d4bc 5083 f33b a006 2b3d
000002c0: 4695 5d3d 4709 b1bb 008f 9a3b 7899 a83c
000002d0: c49e 2abd 64a3 8cbc 40d5 32bd 010f 5d3d
000002e0: 8c02 dfbc 5934 4f3d 70e1 633d 5ea9 2e3d
000002f0: 3241 ea3b 1ca9 2bbd 683b 34bc 88a5 483c
00000300: 2ebd 01bd ade9 95bc d348 a6bc 4838 263d
00000310: e603 41bd 287d c8bc dd99 af3c de18 723d
00000320: 8c42 a6bc 4c4b 43bd 76a1 65bd 015b 20bd
00000330: d85c e3bc 707c 03bd c7ee f4b9 f116 3a3d
00000340: 30c6 803c 12ca 34bb a6db 66bd a653 3cbd
00000350: 08b0 e0bc a054 203b 7cb6 debc 80bd 423d
00000360: e529 3fbd c091 0fbb 93cf 1d3c 42a8 0f3d
00000370: 22ff 56bc 009b 5b3d 42b4 debc 5037 19bc
00000380: e49a 9bbc c070 fa3c d81b 5b3d d3e8 123d
00000390: 582c 043c 382f 0f3d 7097 46bd 4cba 0dbd
000003a0: a09b 87bc 632f 5dbc 845a a6bc a4a8 c03c
000003b0: 5174 5ebd fdec a4bc 5b9e 12bc 68cd 043c
000003c0: e0cc bdbb 853b 5f3d b85a 4abc 80ab 3f3d
000003d0: e48a 8e3c ccba 983c 7491 2bbc ec73 49bb
000003e0: 1aec 1dbd 40d2 3cbc a605 5dbd e0bc 253b
000003f0: 5c02 493d 3e9b 133d c0db 9dbc 433b b43c

fc3.weight f4 [1, 256]
0.060972877 0.028203214 0.041037507 -0.025236815 -0.034752876 -0.017719071 0.06091617 0.03991189
0.019723155 -0.024467155 -0.041754365 0.027482608 0.040228583 -0.02173572 -0.0344022 0.023492366
-0.008340985 -0.01897087 -0.011376217 -0.03914594 0.039585665 0.029460145 -0.010838805 0.027012303
0.014324762 -0.009580896 0.055001102 -0.0009566577 -0.058918484 0.026812784 -0.011335723 0.055981472
0.03614837 -0.044960607 0.059827723 -0.02505918 0.01053042 0.019201167 -0.024798933 0.05459878
-0.013774354 0.0013770097 -0.038964357 -0.039167352 -0.005233288 0.00035090744 0.055459082 -0.02925983
-0.02540281 -0.04047946 -0.0392922 0.0019110292 -0.046168532 -0.04160305 0.024123445 0.044645414
-0.0071257874 0.04927693 0.04628329 -0.0019123404 -0.04829061 0.05977869 -0.05490234 -0.061146554
0.043664444 0.049844846 -0.04036897 0.00013572723 0.04296107 0.040918417 -0.032205526 -0.039764978
-0.050977543 0.027262382 0.009306096 0.022743158 0.0048958138 0.029571809 -0.058455467 0.014105931
-0.049574114 0.005694352 -0.013318777 0.057436135 -0.013501765 -0.0145870745 0.008112138 0.05083108
0.030873775 0.05928751 0.05444148 -0.000859404 0.022683531 0.012222528 -0.05775854 0.027250506
-0.060062602 -0.008362673 -0.041713886 -0.049056873 0.023700919 -0.021242574 0.05638805 -0.036914177
-0.05641893 -0.06068763 -0.060758084 -0.0067537813 0.036286406 -0.008792695 0.007697217 -0.0015135207
-0.055104736 -0.019040652 -0.028265886 0.006159149 -0.026307926 -0.049771775 -0.052787285 -0.062397916
0.04163736 -0.031195456 0.019243822 0.032184314 -0.057123706 0.014283426 0.0010878965 0.05983501
0.03621728 0.023273684 0.0013756545 -0.045990527 0.013746803 0.026421994 -0.024620965 -0.041490305
-0.039228983 0.06123008 -0.040670827 0.031292085 0.0077700242 -0.010083728 0.04068779 0.00602711
0.013869412 -0.031763572 0.0049438253 0.048577107 0.049019895 0.039894104 -0.054241374 -0.038261663
-0.049311638 0.051099345 -0.027174637 0.020971224 0.036612377 0.0064108204 0.04537698 0.018746667
0.039884783 0.00787242 -0.061976276 -0.020606555 0.015622436 0.0057490147 0.03646072 -0.0123665705
-0.044840857 0.003142187 0.001492396 -0.031025311 0.037768092 0.03365739 0.03003756 -0.011157103
0.005354248 0.057436913 0.04266469 0.05926139 0.062046006 0.06045632 0.017224126 0.02819323
0.050483443 0.055513404 0.04651107 -0.031278476 -0.04038541 0.01250595 0.05692842 -0.004450099
-0.031146243 0.050207056 -0.0032511305 0.06150485 -0.006382797 0.0037887618 0.037038956 0.021269273
0.0085250735 0.05450751 0.019290023 0.047241967 -0.036508776 -0.056596115 -0.06304306 0.03364437
-0.025181495 -0.028503584 0.03621678 0.06117507 0.049188912 -0.019486345 -0.0005374998 0.027361242
0.047497965 -0.05687236 0.013011075 0.0058824653 0.013057302 0.014279313 0.051101092 -0.0575205
-0.013036859 0.0019207746 0.0031626895 -0.04699591 0.038927317 -0.049823783 -0.03541471 0.010463357
0.031758785 0.044641946 -0.00090017915 0.022996627 -0.020212134 0.03370595 -0.010292455 -0.013302878
0.008426078 -0.011392769 -0.04446459 0.020291967 0.007003367 -0.021475846 0.042461406 0.009517097
0.058433592 -0.059047826 0.057455324 0.0016474575 -0.021898866 -0.035818763 -0.0018632018 -0.0245152
00000000: b2be 793d 6d0a e73c f216 283d 70bd cebc
00000010: 0859 0ebd 9627 91bc 3c83 793d a67a 233d
00000020: 7492 a13c 586f c8bc a006 2bbd 3523 e13c
00000030: bac6 243d 1c0f b2bc 52e9 0cbd 1073 c03c
00000040: a0a8 08bc cc68 9bbc 5063 3abc 7e57 20bd
00000050: 9424 223d 6756 f13c 3e95 31bc e848 dd3c
00000060: 68b2 6a3c 31f9 1cbc d648 613d 36c8 7aba
00000070: 8254 71bd 7ca6 db3c 78b9 39bc d44c 653d
00000080: 5010 143d 9d28 38bd ea0d 753d e948 cdbc
00000090: c887 2c3c c44b 9d3c 2227 cbbc f8a2 5f3d
000000a0: d4ad 61bc c77c b43a 1799 1fbd f26d 20bd
000000b0: 007c abbb 00fa b739 1029 633d 50b2 efbc
000000c0: 8e19 d0bc cacd 25bd dcf0 20bd 807b fa3a
000000d0: 371b 3dbd f667 2abd 889e c53c 1cde 363d
000000e0: 707f e9bb 9bd6 493d 8c93 3d3d 7fa7 faba
000000f0: 60cc 45bd 80da 743d 47e1 60bd cf74 7abd
00000100: 7dd9 323d 1c2a 4c3d ef59 25bd 0052 0e39
00000110: f2f7 2f3d 129a 273d f1e9 03bd 9ae0 22bd
00000120: d4cd 50bd 5c55 df3c 9878 183c dc4f ba3c
00000130: 106d a03b 9440 f23c 006f 6fbd 901c 673c
00000140: 3a0e 4bbd b097 ba3b 0037 5abc 2742 6b3d
00000150: 8236 5dbc a0fe 6ebc c6e8 043c 4034 503d
00000160: 00eb fc3c 76d7 723d 08fe 5e3d a049 61ba
00000170: d0d2 b93c 0041 483c 3894 6cbd 743c df3c
00000180: 3404 76bd 9803 09bc 2edc 2abd dcef 48bd
00000190: 6e28 c23c e804 aebc 28f7 663d 5233 17bd
000001a0: 8917 67bd 9893 78bd 78dd 78bd d34e ddbb
000001b0: 0ea1 143d 3c0f 10bc f038 fc3b 5461 c6ba
000001c0: 81b5 61bd 24fb 9bbc dc8d e7bc b0d2 c93b
000001d0: b883 d7bc 7ddd 4bbd 7b37 58bd f594 7fbd
000001e0: f08b 2a3d 9d8d ffbc 38a5 9d3c b3d3 033d
000001f0: 8cfa 69bd 0805 6a3c c097 8e3a 8e15 753d
00000200: 9258 143d 74a8 be3c 4e4f b43a 9060 3cbd
00000210: 453a 613c f072 d83c e8b1 c9bc bdf1 29bd
00000220: 92ae 20bd 64cc 7a3d 7496 26bd 212c 003d
00000230: b09b fe3b 3836 25bc 3da8 263d 107f c53b
00000240: 883c 633c 851a 02bd d0ff a13b caf8 463d
00000250: 16c9 483d 0068 233d 342c 5ebd 43b8 1cbd
00000260: 00fb 49bd 8c4d 513d 589d debc d8cb ab3c
00000270: dcf6 153d dc11 d23b 36dd 393d 9c92 993c
00000280: 3a5e 233d 53fb 003c d6da 7dbd 14cf a8bc
00000290: 3ff5 7f3c 3b62 bc3b d657 153d 289d 4abc
000002a0: 0cab 37bd 26ed 4d3b 809c c33a cb28 febc
000002b0: b7b2 1a3d 55dc 093d 5411 f63c 48cc 36bc
000002c0: b072 af3b f842 6b3d 2cc1 2e3d 12bc 723d
000002d0: f423 7e3d 0ca1 773d 9c19 8d3c 7df5 e63c
000002e0: bac7 4e3d 0662 633d 6482 3e3d dc1d 00bd
000002f0: 2c6b 25bd c2e5 4c3c c62d 693d 23d2 91bb
00000300: 6826 ffbc eaa5 4d3d eb10 55bb 82ec 7b3d
00000310: c826 d1bb e04c 783b 29b6 173d e63c ae3c
00000320: c0ac 0b3c 4443 5f3d 1c06 9e3c cb80 413d
00000330: 3a8a 15bd 54d1 67bd b81c 81bd aece 093d
00000340: 6c49 cebc 5980 e9bc 0c58 143d b692 7a3d
00000350: 507a 493d d4a1 9fbc 00e7 0cba af24 e03c
00000360: 3a8d 423d fef2 68bd 672c 553c b2c1 c03b
00000370: 4bee 553c c8f3 693c 614f 513d 9e9a 6bbd
00000380: 8d98 55bc 80c2 fb3a 2045 4f3b c97e 40bd
00000390: 4072 1f3d 0614 4cbd 040f 11bd 806e 2b3c
000003a0: 8015 023d 79da 363d 00fa 6bba 6c63 bc3c
000003b0: eb93 a5bc 400f 0a3d afa1 28bc 50f4 59bc
000003c0: 880d 0a3c bda8 3abc 8020 36bd 573b a63c
000003d0: 807c e53b 1dee afbc 03ec 2d3d 99ed 1b3c
000003e0: 1058 6f3d 22dc 71bd 4656 6b3d 80ef d73a
000003f0: 4065 b3bc b2b6 12bd ae36 f4ba 1ad4 c8bc
