outputs/router_rule/A2C_router/summer20251110-070826/models/policyA_actor.pth (torch, 279816 bytes, 8 tensors)

fc1.weight f4 [256, 6]
0	0x3e9fce66	0.31212157
1	0x3eab4b04	0.3345567
2	0xbdd83350	-0.10556662
3	0x3ec002d1	0.3750215
4	0xbdbe7668	-0.09299928
5	0x3d9f2159	0.077700324
6	0xbe4b8726	-0.19875774
7	0x3e7582e6	0.23975715
8	0x3eb8434b	0.3598884
9	0xbe995863	-0.29950246
10	0x3eb5ae9f	0.35484788
11	0x3d9c7b85	0.07640747
12	0x3e9a6d9b	0.30161747
13	0x3d627709	0.055289302
14	0x3e4993b2	0.19685248
15	0xbd6c18f5	-0.05764099
16	0x3ea1220a	0.31471282
17	0x3d7729f2	0.060342737
18	0xbe432922	-0.1905866
19	0x3dd51e5b	0.104061805
20	0xbe409bf6	-0.18809494
21	0xbd441a17	-0.047876444
22	0xbe29cb00	-0.16581345
23	0x3e8aa8ee	0.27082008
24	0xbea4ff23	-0.32225904
25	0xbe40b941	-0.18820669
26	0xbdec1767	-0.11527901
27	0xbe7b5c16	-0.24546847
28	0x3d1dd378	0.03853175
29	0xbece72a2	-0.40321833
30	0x3ebcc54c	0.36869276
31	0xbeb1730b	-0.34658083
32	0x3ea6b326	0.32558554
33	0x3d8b244d	0.06794033
34	0xbe051126	-0.12994823
35	0x3e83fb65	0.25777736
36	0x3d824e40	0.06362581
37	0x3ea8e20f	0.3298497
38	0x3d36cd81	0.044629578
39	0xbe03d730	-0.12875056
40	0x3de0a4f8	0.10968965
41	0xbde2bb29	-0.11070854
42	0x3e2ff01c	0.17181438
43	0x3eba9ed8	0.36449313
44	0x3e71a7d8	0.23599184
45	0xbe36c223	-0.17847495
46	0x3e7152c6	0.23566732
47	0x3d959950	0.07304633
48	0x3e544c6d	0.20732279
49	0xbe7ecd23	-0.24882941
50	0xbecee9ed	-0.40412846
51	0xbe21843e	-0.15773103
52	0xbea05355	-0.31313577
53	0x3eab82f9	0.33498362
54	0x3df0d223	0.117588304
55	0x3e2d2911	0.16910197
56	0x3e043639	0.1291131
57	0xbbe8b6dc	-0.0071018767
58	0x3ea3954f	0.3194985
59	0xbe948387	-0.29006597
60	0x3cd292f1	0.025704833
61	0xbe8eaaac	-0.27864587
62	0x3e00e7c8	0.12588418
63	0xbe0ff7bd	-0.14059348
64	0x3e00189f	0.12509392
65	0xbdae3158	-0.08505505
66	0x3ead5cb1	0.3385978
67	0xbe77c6de	-0.24196956
68	0xbe79526c	-0.24347848
69	0xbe795646	-0.24349317
70	0x3ebc011d	0.367196
71	0x3e0b507c	0.13604921
72	0x3ec921f6	0.39283723
73	0xbeac8078	-0.33691764
74	0xbecf5337	-0.40493175
75	0xbea38839	-0.31939867
76	0xbe8c9b8a	-0.27462417
77	0x3e295355	0.16535695
78	0x3e15b139	0.14618386
79	0x3eadaeb3	0.33922347
80	0xbe57e3c3	-0.21082978
81	0xbe8e7e58	-0.27830768
82	0x3e5dce64	0.21660763
83	0xbe28f9e7	-0.1650158
84	0x3e7db8e4	0.24777561
85	0xbdc667c1	-0.09687758
86	0x3e6f2444	0.23353678
87	0xbea2677f	-0.31719586
88	0xbe52f78a	-0.20602241
89	0x3dfee7a9	0.124465294
90	0x3db0c19b	0.08630677
91	0xbde2cdf2	-0.11074437
92	0x3e711055	0.23541386
93	0x3e8e188a	0.27753097
94	0xbe96a86f	-0.2942538
95	0xbe668ce6	-0.22514686
96	0x3ebf6500	0.37381744
97	0xbe0d0ff9	-0.13775624
98	0xbe14344a	-0.14473072
99	0xbeca3fea	-0.39501888
100	0xbe6f6714	-0.23379165
101	0x3dd0dbe6	0.10198192
102	0xbd5cb78e	-0.05388599
103	0xbe97ba1a	-0.29634172
104	0x3c1ce54e	0.009576155
105	0xbe8ec7a3	-0.27886686
106	0xbeb155a4	-0.3463565
107	0xbe6633d4	-0.22480708
108	0xbeb6f088	-0.35730386
109	0xbe8268e8	-0.25470662
110	0x3ed53ac4	0.41646397
111	0x3d9deabd	0.077107884
112	0x3e02c09c	0.12768787
113	0xbebfb5a9	-0.37443283
114	0xbe8947ea	-0.2681268
115	0xbe0b262e	-0.13588783
116	0x3d82bda0	0.06383824
117	0xbeb7ec85	-0.35922638
118	0xbe341ff7	-0.17590319
119	0xbe7a456b	-0.24440543
120	0x3a944a32	0.0011313616
121	0xbe1b8e6e	-0.15191051
122	0xbce7c02d	-0.028289879
123	0xbe8da3ea	-0.2766412
124	0xbe8f78f4	-0.28021967
125	0xbe73e392	-0.2381728
126	0xbe0f189e	-0.13974234
127	0xbea4fa5c	-0.3222226
128	0x3eaf4275	0.3423039
129	0xbda5ef2e	-0.081022605
130	0x3eb3d7c3	0.3512555
131	0x3e024177	0.12720285
132	0xbeb1000a	-0.34570342
133	0x3e90a6c0	0.2825222
134	0xbde60be9	-0.112327404
135	0xbe203f7f	-0.15649222
136	0xbead8102	-0.33887488
137	0xbecfcd75	-0.4058644
138	0x3def3708	0.11680418
139	0xbdb6a3a8	-0.08917934
140	0x3e22c14d	0.15894051
141	0xbeab89a3	-0.33503446
142	0x3e9b2f53	0.30309543
143	0xbe996f28	-0.29967618
144	0xbd905ef3	-0.0704936
145	0x3da137b2	0.07871951
146	0x3e4f1305	0.20222099
147	0x3ea8b34e	0.329493
148	0x3ebe70ff	0.37195584
149	0xbeaa0f97	-0.3321502
150	0x3dd26ac8	0.10274273
151	0xbe33d003	-0.17559819
152	0xbd373eff	-0.044737812
153	0xbe9c73a6	-0.30556983
154	0x3ebe63f9	0.37185648
155	0xbe9969a2	-0.29963404
156	0x3e5f6ce4	0.21818882
157	0x3e12eb03	0.14347462
158	0x3e07d8bc	0.13266271
159	0xbe6203df	-0.22071789
160	0x3ebdfded	0.37107792
161	0x3db7bb4f	0.08971273
162	0x3d571c28	0.052517086
163	0xbeb833e0	-0.35977077
164	0x3e2f7db3	0.17137794
165	0xbd7adcb9	-0.061245654
166	0xbe3f8464	-0.18702847
167	0x3eb38a2a	0.35066348
168	0x3dba67e4	0.09101847
169	0xbe674b8e	-0.22587416
170	0xbe5396e9	-0.20663036
171	0xbc9fb67a	-0.019496191
172	0x3e696bbd	0.22795005
173	0xbdd5a661	-0.10432125
174	0xbe6e86d6	-0.23293623
175	0xbe0f608a	-0.1400167
176	0xbe9f99f6	-0.3117215
177	0x3e1516c0	0.1455946
178	0x3ea0034d	0.31252518
179	0xbec754ff	-0.38932034
180	0x3dc22edd	0.09481595
181	0x3e57f593	0.21089773
182	0x3d979bae	0.074027404
183	0xbe14e067	-0.14538728
184	0x3e5a322b	0.213082
185	0x3e5bb056	0.21453986
186	0x3e1c51a2	0.15265515
187	0xbd97763a	-0.07395597
188	0xbdeb20bc	-0.11480853
189	0x3d32e453	0.04367478
190	0xbd82e3b3	-0.063910864
191	0xbe028359	-0.12745418
192	0x3e859be9	0.26095513
193	0x3eb3a267	0.3508484
194	0xbd258aba	-0.040415503
195	0xbdbb32d0	-0.09140551
196	0x3bc33544	0.0059572775
197	0xbcc7afbb	-0.024375787
198	0x3dc9018e	0.0981475
199	0x3dea4d1e	0.1144049
200	0xbebdd8c0	-0.3707943
201	0xbe1a465d	-0.15065904
202	0x3eb00648	0.34379792
203	0x3e22da1d	0.15903516
204	0xbca65742	-0.02030528
205	0xbe7c0ae1	-0.24613525
206	0xbe7fc349	-0.24976839
207	0xbebb3c6a	-0.3656953
208	0xbe084473	-0.13307361
209	0x3e0d2d0c	0.13786715
210	0x3e854716	0.26030797
211	0x3e4102c7	0.18848716
212	0xbeb8c3c7	-0.36086866
213	0xbe7b65b8	-0.24550521
214	0xbd83f307	-0.06442838
215	0x3eca32cc	0.3949188
216	0x3d71e4e4	0.059056178
217	0xbdd88604	-0.105724365
218	0x3e2cf3be	0.16889855
219	0xbe1f39e2	-0.15549424
220	0xbe874a9a	-0.26424104
221	0x3e989036	0.29797524
222	0xbe3e161d	-0.18563123
223	0xbdb88020	-0.09008813
224	0xbed40aa9	-0.41414383
225	0x3e8be49f	0.27322862
226	0x3ea434a8	0.32071424
227	0x3e0fbe21	0.14037372
228	0xbe91bf17	-0.28466102
229	0xbed1c3ce	-0.409697
230	0xbeadc76d	-0.33941212
231	0x3e9bde5d	0.30443087
232	0x3e48cbd0	0.19608998
233	0x3eac0981	0.33601
234	0x3e5b0079	0.21386899
235	0x3dd39bc5	0.10332445
236	0xbb830060	-0.0039978474
237	0xbe9ef69e	-0.3104753
238	0xbeb315d0	-0.3497758
239	0xbec3826f	-0.3818545
240	0x3e2b21da	0.16712132
241	0xbe4d3f51	-0.20043685
242	0xbda8440a	-0.082161024
243	0xbe70967c	-0.23494905
244	0xbd985b13	-0.07439246
245	0xbe931e26	-0.2873394
246	0xbe889439	-0.26675585
247	0x3e0ae369	0.13563313
248	0xbde6ff17	-0.11279123
249	0x3e8109fc	0.2520293
250	0xbe039310	-0.12849069
251	0xbe965271	-0.29359773
252	0xbd9384ef	-0.072030894
253	0xbe4aa598	-0.19789732
254	0xbdffcba4	-0.12490013
255	0xbec6fd36	-0.3886506

fc1.bias f4 [256]
0	0x3d621c3e	0.055202715
1	0xbe005655	-0.12532933
2	0xbe57d238	-0.21076286
3	0xbe066bea	-0.13127103
4	0xbe150dc5	-0.14556034
5	0x3eca6de9	0.3953698
6	0x3e2059d0	0.15659261
7	0x3ecdb3d2	0.40176255
8	0x3de540bb	0.11193987
9	0x3dbd5146	0.09244017
10	0x3e2bdb2c	0.16782826
11	0x3d8f802c	0.07006869
12	0xbea4090f	-0.3203816
13	0xbe773690	-0.24141908
14	0xbdca913b	-0.09890982
15	0xb9347da6	-0.00017212945
16	0x3e1d7bec	0.15379304
17	0x3e20f7ce	0.1571953
18	0x3ea89dfa	0.32933027
19	0x3daa34a6	0.08310823
20	0xbe0ead26	-0.13933238
21	0xbe9d30df	-0.30701348
22	0xbe99173d	-0.29900542
23	0xbe79b6f7	-0.24386202
24	0x3deef246	0.11667304
25	0x3e61dbd6	0.22056517
26	0x3eb6e082	0.3571816
27	0xbe043ba1	-0.12913372
28	0xbd03e828	-0.032203823
29	0xbe0103e2	-0.12599137
30	0xbac38682	-0.0014917406
31	0x3e022382	0.12708858
32	0xbc12f61f	-0.008969813
33	0x3c9ad3b5	0.018899778
34	0x3d53d82a	0.051719822
35	0x3e1bb026	0.15203914
36	0xbdfdabee	-0.123863086
37	0xbe7fdd54	-0.24986774
38	0x3db817d8	0.08988923
39	0xbd45fefd	-0.04833888
40	0xbe3d62fb	-0.1849479
41	0x3e34ef26	0.17669353
42	0x3b72a49d	0.0037024387
43	0xbd733e6c	-0.059385702
44	0xbe48bade	-0.19602534
45	0xbd73e8a8	-0.05954805
46	0xbeb1bcd4	-0.34714377
47	0x3dbe33f4	0.09287253
48	0x3bc8c057	0.0061264443
49	0x3e7daf8a	0.24773994
50	0x3cd7f289	0.026360767
51	0x3d1f693a	0.03891871
52	0x3de7a992	0.1131164
53	0x3e9f0db6	0.31065148
54	0xbe458d0c	-0.19292086
55	0x3e799365	0.24372633
56	0x3dcc79e1	0.09984184
57	0xbe8b715e	-0.2723493
58	0x3e149ff5	0.14514144
59	0xbe7ab762	-0.24484017
60	0xbe0403ac	-0.12892026
61	0xbe43df54	-0.19128162
62	0xbe8e338f	-0.2777371
63	0x3ea49ee3	0.3215247
64	0xbebad449	-0.36490086
65	0x3e541c15	0.20713837
66	0xbebc1f91	-0.36742833
67	0xbd4b83d5	-0.04968627
68	0x3cc77730	0.024348825
69	0x3e92417c	0.28565586
70	0xbe1e0961	-0.15433265
71	0x3df9ec33	0.122032546
72	0x3d7b6b62	0.061381705
73	0x3e7aa7f5	0.24478133
74	0x3c8f5b3f	0.017499564
75	0x3e20d89d	0.15707631
76	0xbe7c89b4	-0.24661905
77	0xbe9140a2	-0.28369623
78	0x3ebc9f45	0.36840263
79	0xbe984eea	-0.29747707
80	0xbd832460	-0.06403422
81	0xbd529cf1	-0.051419202
82	0x3ecf611a	0.4050377
83	0xbdb4b0e1	-0.088227995
84	0xbe9f2156	-0.3108012
85	0xbdd3f2d4	-0.1034905
86	0x3e66da35	0.22544177
87	0x3e25aaea	0.1617848
88	0x3eacec56	0.3377406
89	0xbda04549	-0.07825715
90	0x3e4072cf	0.18793796
91	0xbec4b2fb	-0.384178
92	0x3e21c23c	0.15796751
93	0x3e3b4499	0.18287887
94	0x3e86d68e	0.26335567
95	0xbe7486c4	-0.23879534
96	0xbddf37f8	-0.10899347
97	0x3dc4f1f8	0.096164644
98	0xbe91d03e	-0.2847919
99	0xbea64620	-0.32475376
100	0xbec916d6	-0.39275235
101	0x3cd898f2	0.026440118
102	0x3e83effb	0.25769028
103	0x3dd6c236	0.104862615
104	0x3cad370c	0.021144412
105	0x3e0dd0d4	0.13849193
106	0xbe8359db	-0.25654492
107	0x3d304aad	0.043039966
108	0xbdcfb481	-0.1014185
109	0xbe4efe32	-0.20214155
110	0x3eb75d4c	0.35813367
111	0xbea1b618	-0.3158424
112	0x3d658390	0.05603367
113	0xbeb91a85	-0.36153045
114	0xbc62ed53	-0.013850528
115	0xbe35410e	-0.17700598
116	0x3e0b589e	0.13608024
117	0xbe6abfb5	-0.22924693
118	0x3e891735	0.26775518
119	0xbea99d88	-0.33128
120	0x3e7517f2	0.23934916
121	0xbe9d038e	-0.30666775
122	0x3e6511f7	0.22370134
123	0xbe2b2fe6	-0.1671749
124	0xba794fe8	-0.0009510503
125	0xbd9896fc	-0.07450673
126	0x3e87a444	0.26492512
127	0x3e095cf5	0.13414367
128	0xbeb6e005	-0.35717788
129	0x3d104472	0.035221525
130	0xbe931dde	-0.28733724
131	0x3e9a1100	0.30091095
132	0x3d895eaa	0.06707509
133	0xbde15209	-0.11001975
134	0xbe5901f9	-0.21192159
135	0x3e0b3593	0.13594656
136	0xbe753288	-0.23945057
137	0x3e49b473	0.19697742
138	0x3e641e15	0.222771
139	0x3e804c92	0.2505842
140	0x3dda6b45	0.10664991
141	0xbeb4e7b2	-0.3533302
142	0x3e98b76a	0.29827434
143	0xbe01b011	-0.1266482
144	0xbdecc7b9	-0.115615316
145	0xbd36eff8	-0.044662446
146	0x3e98d2f9	0.2984846
147	0x3ea3b4c5	0.31973854
148	0x3d811a4e	0.06303845
149	0x3e4778b8	0.19479644
150	0xbebf9df0	-0.37425184
151	0x3a7cceca	0.0009643851
152	0xbeb8eb5a	-0.3611706
153	0x3e086e8c	0.1332342
154	0xbe940288	-0.2890818
155	0xbe14fe5f	-0.1455016
156	0x3e921d1b	0.2853783
157	0x3ec496c1	0.38396266
158	0xbe7afc9e	-0.24510428
159	0xbe68052e	-0.22658226
160	0x3d4f17f1	0.05055994
161	0x3e245610	0.16048455
162	0xbd882d24	-0.06649235
163	0xbe028d43	-0.127492
164	0xbe8be6fc	-0.27324665
165	0x3e32742c	0.17427129
166	0x3ecccafb	0.39998612
167	0xbe4a5e12	-0.19762447
168	0x3e452d60	0.1925559
169	0x3e45b32d	0.19306631
170	0x3ea8031d	0.32814875
171	0xbd3e6278	-0.046480626
172	0x3bdd7f4a	0.006759559
173	0x3e9bc21d	0.30421534
174	0x3e8685da	0.26273996
175	0x3ece7422	0.40322977
176	0xbdef995e	-0.11699174
177	0x3e200702	0.15627673
178	0x3e94fbf9	0.2909849
179	0xbe8e20dc	-0.27759445
180	0x3da618df	0.081102125
181	0xbdbb13f7	-0.09134667
182	0x3e892e6f	0.2679324
183	0xbe4035cb	-0.1877052
184	0x3cdd17b2	0.026988838
185	0x3e8043fa	0.25051862
186	0xbec1cdb2	-0.37852246
187	0xbeb07dc1	-0.34470943
188	0xbe511e8d	-0.2042181
189	0x3e886df6	0.26646394
190	0x3e8c27e4	0.27374184
191	0xbe90bcd1	-0.28269055
192	0x3d961fad	0.073302604
193	0xbe5b2aa8	-0.21402991
194	0xbe47a7e5	-0.1949764
195	0x3eb6fc37	0.357393
196	0x3e49eb8f	0.19718765
197	0xbde4a833	-0.11164894
198	0x3d8008b3	0.06251659
199	0x3da1ffad	0.079100944
200	0x3dcec579	0.10096259
201	0xbe15dc65	-0.14634855
202	0xbe718401	-0.23585512
203	0x3e879b3c	0.26485622
204	0x3d4fd0cc	0.050736234
205	0x3e2ab5c9	0.16670908
206	0xbe21b0f5	-0.1579016
207	0x3e471a4a	0.19443622
208	0x3e981eaf	0.2971091
209	0x3e776074	0.24157888
210	0x3de3547c	0.111000985
211	0x3ecda77f	0.40166852
212	0xbbad6c93	-0.005292484
213	0x3db2006c	0.08691487
214	0x3ec69960	0.3878889
215	0x3ecb2622	0.3967753
216	0xbe2babad	-0.16764708
217	0x3ebaa567	0.36454317
218	0x3e1e88c8	0.15481865
219	0xbd1d7b5a	-0.038447715
220	0x3eb79a97	0.3586013
221	0xbe5d8b7e	-0.21635243
222	0x3e85435f	0.26027963
223	0x3ecf2158	0.40455127
224	0xbe8dc8e5	-0.27692333
225	0xbe705cca	-0.23472896
226	0xbecf1fbd	-0.40453902
227	0xbd967718	-0.07346934
228	0xbebbc164	-0.36670983
229	0xbe0f0cfd	-0.13969798
230	0x3dfdd56b	0.12394222
231	0x3e93c0f9	0.28858164
232	0x3e6ed3c0	0.23322964
233	0x3e680cac	0.22661084
234	0x3e2d6ea9	0.16936745
235	0xbe81a4a3	-0.2532092
236	0xbea4a3a4	-0.32156098
237	0x3c8aa2f7	0.01692341
238	0x3ec7fb2c	0.39058816
239	0x3ce4bfdf	0.027923523
240	0xbd0fd30c	-0.03511338
241	0xbe8ddf2f	-0.27709338
242	0xbe4f4889	-0.20242514
243	0xbea087f9	-0.3135374
244	0x3ea75bb4	0.3268715
245	0xbd8f2776	-0.069899485
246	0xbeb8a721	-0.3606501
247	0x3d336211	0.043794695
248	0x3cf2b1e1	0.029625835
249	0xbd57f10d	-0.05272012
250	0x3e15a53e	0.14613816
251	0x3e5cbb70	0.21555877
252	0xbec23d81	-0.3793755
253	0xbe9d721c	-0.3075112
254	0xbc706434	-0.014672328
255	0xbec1cb11	-0.3785024

fc2.weight f4 [256, 256]
0	0xbd688a44	-0.056772485
1	0x3d62066c	0.055181906
2	0xbb9bc510	-0.0047537163
3	0xbcfd20bc	-0.030899398
4	0xbcaf9fe8	-0.021438554
5	0xbd47dd6e	-0.048795156
6	0x3d47c60c	0.048772857
7	0xbc5e0b00	-0.013552427
8	0xbd0feed4	-0.035139874
9	0xbd422758	-0.047400802
10	0x3d15a124	0.03653063
11	0xbc0d8c88	-0.008639462
12	0xbbd72840	-0.0065660775
13	0xbc8571b8	-0.016289577
14	0xbcf72774	-0.03017018
15	0x3c3628e0	0.011118144
16	0x3d44f576	0.048085652
17	0xbd145f5e	-0.03622376
18	0x3b444020	0.0029945448
19	0xbd42b100	-0.04753208
20	0xbcf01348	-0.029306069
21	0x3d60b588	0.05486062
22	0x3a2bc980	0.0006553158
23	0x3d769c14	0.06020744
24	0xbc3368b8	-0.01095026
25	0xbd0b8804	-0.03406526
26	0xbd18f4fe	-0.037343018
27	0x3d62e584	0.055394664
28	0xbd44dc54	-0.048061684
29	0x3d0658ec	0.032799646
30	0x3c7e8c58	0.01553639
31	0x3c97184c	0.018444203
32	0x3d107208	0.035265
33	0xbc85f370	-0.016351432
34	0x3d1e674a	0.038672723
35	0xbd4bf602	-0.04979516
36	0xbcb4248c	-0.021990083
37	0x3d3b6710	0.045752585
38	0x3c97f384	0.018548734
39	0xbc085e60	-0.008323282
40	0xbc6f22a8	-0.014595665
41	0xbd1c513c	-0.03816341
42	0x3d1babe6	0.038005732
43	0xbb0240e0	-0.0019875094
44	0xbb0a9560	-0.0021146163
45	0x3c722b58	0.014780842
46	0x3d3cea2e	0.04612177
47	0xbd029b60	-0.03188646
48	0xbcb054dc	-0.02152484
49	0x3d2d793a	0.04235194
50	0x3d1094ee	0.03529828
51	0xbcfbdf18	-0.030746028
52	0xbd7d4026	-0.061828755
53	0x3c3df6b0	0.011594459
54	0x3d06a0fe	0.032868378
55	0x3c7496f8	0.014928572
56	0x3d3595a0	0.044332147
57	0xbd4b211e	-0.04959213
58	0x3d0118e4	0.03151788
59	0xbd1f2660	-0.038854957
60	0x3d10141a	0.03517542
61	0x3d3e6410	0.046482146
62	0x3ca2289c	0.019794755
63	0x3d4f1f82	0.050567158
64	0xbd28be28	-0.041196972
65	0xbd64f5d0	-0.055898488
66	0xbd762534	-0.060094073
67	0x3d20b990	0.039239466
68	0x3cb35bd4	0.021894373
69	0xbd3b75d6	-0.045766674
70	0x3cf7f3a8	0.030267552
71	0x3d6993da	0.057025768
72	0xbd7c6ffa	-0.061630227
73	0x3d39b532	0.045338817
74	0x3c1d0dc8	0.009585805
75	0x3bbe81c0	0.0058138072
76	0x3d6658d8	0.05623707
77	0x3d67d4c2	0.056599386
78	0x3cd7bb58	0.02633445
79	0x3d4a4648	0.04938343
80	0x3cd50128	0.026001528
81	0x3c26da28	0.010183848
82	0xbd6106de	-0.05493819
83	0x3c3f43f8	0.01167392
84	0xbd362158	-0.044465393
85	0x3c9da0a4	0.019241638
86	0x3c34ab18	0.01102712
87	0x3ab80a00	0.0014041066
88	0xbd2f08b6	-0.042732917
89	0xbd1b2fbe	-0.037887327
90	0x3d3d3820	0.046196103
91	0x3cf95a90	0.030438691
92	0x3d06f930	0.032952487
93	0xbc98906c	-0.018623553
94	0xbc305438	-0.010762267
95	0xbc8336d4	-0.016017355
96	0x3d300cac	0.042980835
97	0xbcdd0630	-0.02698049
98	0x3d213ed2	0.03936655
99	0x3d3082aa	0.04309336
100	0xbd6a2058	-0.05715975
101	0x39c81a00	0.00038166344
102	0xbc430640	-0.011903346
103	0xbd0d85c4	-0.034551397
104	0x3cdd0a14	0.026982345
105	0xbbf8d260	-0.007593438
106	0x3d60214e	0.05471926
107	0xbd203b3e	-0.039118998
108	0x3cede42c	0.029039465
109	0xbd5a9228	-0.05336204
110	0xbd005010	-0.031326354
111	0x3b8bb340	0.0042633116
112	0x3d4a438c	0.049380824
113	0x3d06d712	0.03291995
114	0xbd5232a8	-0.05131784
115	0x3be2d900	0.006922841
116	0xbd16e8ce	-0.036843114
117	0x3b317a80	0.0027081072
118	0xbd55444a	-0.05206708
119	0xbc96350c	-0.018335842
120	0x3d2f94f2	0.042866655
121	0xbd6ae3a6	-0.05734601
122	0xbd741382	-0.059588917
123	0x3c3a8408	0.011384018
124	0x3c0c5fd8	0.008567773
125	0xbc3b4658	-0.0114303455
126	0x3d5f8ad4	0.054575756
127	0xbd1a2280	-0.037630558
128	0xbd1b699c	-0.037942514
129	0xbd3f5a98	-0.046717256
130	0xbc3e96e8	-0.011632659
131	0xbc82aa38	-0.015950307
132	0x3d1e6632	0.03867168
133	0xbb65fc80	-0.0035093129
134	0x3ca38250	0.019959599
135	0xbcd4c3d8	-0.025972292
136	0x3d4faa4e	0.050699525
137	0x3d57d014	0.052688673
138	0xbd654402	-0.05597306
139	0xbc839574	-0.016062476
140	0xbd593720	-0.053031087
141	0x3cd982e8	0.026551679
142	0xbd5fa9b4	-0.0546052
143	0xbcf21464	-0.029550739
144	0x3d7fc9c4	0.062448278
145	0xbd747596	-0.05968245
146	0x3d3ce0c2	0.046112783
147	0x3bad0360	0.0052799433
148	0x3d4cb4dc	0.04997717
149	0xbd01ead2	-0.031718083
150	0x3d2825ea	0.041051783
151	0x3bf71950	0.0075408593
152	0x3b9d8440	0.004807025
153	0x3d2eba6e	0.042658262
154	0xbd7355c0	-0.05940795
155	0xbd4e320e	-0.050340705
156	0x3d773c46	0.060360216
157	0xbd19ba24	-0.037531033
158	0xbd3886da	-0.04505048
159	0xbb4845c0	-0.0030559152
160	0xbca3e478	-0.020006403
161	0xbc0c1868	-0.008550741
162	0xbd2b842c	-0.041874096
163	0x3cb8bd40	0.022551179
164	0xbd5c4886	-0.0537801
165	0x3ba5dfa0	0.0050620586
166	0x3d1562d8	0.036471218
167	0x3c44bf50	0.012008503
168	0x3c080f08	0.008304365
169	0x3c15c640	0.009141505
170	0xbc95fd9c	-0.018309407
171	0xbc4311f8	-0.01190614
172	0xbcd7e830	-0.026355833
173	0xbd2cef70	-0.042220533
174	0xbd078a70	-0.03309101
175	0x3d7d124e	0.061785035
176	0xbc2b5f80	-0.010459781
177	0x3cb35a00	0.021893501
178	0x3d3109b0	0.04322213
179	0xbb9ffc40	-0.0048823655
180	0xbd09b8ac	-0.033623382
181	0xbd2d7332	-0.042346187
182	0xbcbc9f5c	-0.023025207
183	0x3cb6c060	0.022308528
184	0xbd5797b4	-0.05263491
185	0xbbfa0de0	-0.0076310486
186	0x3cc2c208	0.023774162
187	0x3d50dbe2	0.050990947
188	0x3c9a1390	0.018808156
189	0x3c4a8358	0.012360416
190	0x3d2f4156	0.04278692
191	0x3cec96c8	0.028880492
192	0x3cad3774	0.021144606
193	0xbc9ebe6c	-0.01937791
194	0xbd4d493e	-0.050118677
195	0xbc5d2fa8	-0.013500132
196	0xbc39b770	-0.011335239
197	0x3b966640	0.004589826
198	0xbbe13d50	-0.006873764
199	0x3ccefee8	0.025268033
200	0x3d2a1ff4	0.04153438
201	0xbccf9340	-0.025338769
202	0xbd72e888	-0.05930379
203	0xbd0357e0	-0.032066226
204	0xbcf4fadc	-0.029904775
205	0x3d111c70	0.03542751
206	0xbd252194	-0.040315226
207	0xbbc0a100	-0.0058785677
208	0xbc590690	-0.0132461935
209	0xbd1b5fea	-0.037933268
210	0x3ce814f4	0.028330304
211	0xbcd546c4	-0.02603472
212	0xbb53e520	-0.0032332614
213	0xbd33fd5c	-0.043942794
214	0xbbce8f90	-0.006303735
215	0x3c117ef0	0.008880362
216	0xbb26ad80	-0.0025433004
217	0xbcbf4ec0	-0.02335298
218	0x3c981b58	0.018567726
219	0xbc84a870	-0.016193599
220	0xbd0ded16	-0.03464993
221	0xbd3cc862	-0.046089537
222	0xbc58e9d8	-0.013239346
223	0xbd71d672	-0.0590424
224	0x3d547c30	0.051876247
225	0xbcf498bc	-0.029857986
226	0xbcd42ea0	-0.025901139
227	0x3bbd50b0	0.005777441
228	0x3c84ba38	0.016202077
229	0xbbc11c60	-0.005893275
230	0x3d2f9f32	0.04287643
231	0xbd153c30	-0.036434352
232	0x3cb77db0	0.0223988
233	0xb913ce00	-0.00014095753
234	0xbd503fa4	-0.050841942
235	0xbcc64b84	-0.02420593
236	0x3c824c24	0.015905447
237	0x3c43a078	0.011940114
238	0x3d3a258c	0.045445964
239	0x3d2b4320	0.041812062
240	0xbd0ba0d4	-0.034088925
241	0xbcdaa39c	-0.026689343
242	0xbc592160	-0.013252586
243	0xbd376756	-0.044776283
244	0xbc8a3c1c	-0.016874366
245	0xbd517cf4	-0.051144555
246	0x3cc2bc34	0.023771383
247	0x3d35229c	0.04422246
248	0x3ba22740	0.0049485266
249	0xbd3743f4	-0.04474254
250	0xbd41def0	-0.04733175
251	0xbcc75238	-0.024331197
252	0x3c94eabc	0.018178336
253	0x3ac7d1c0	0.0015245005
254	0x3c3a2f88	0.011363871
255	0x3d714674	0.05890508

fc2.bias f4 [256]
0	0xbd47d26e	-0.048784666
1	0x3ba3d840	0.0050001442
2	0xbcdcfd90	-0.026976377
3	0x3c452318	0.012032293
4	0xbd673b38	-0.05645296
5	0x3cfc59e4	0.030804582
6	0x3d481b66	0.048854254
7	0x3d5a6e74	0.053327993
8	0xbc971230	-0.01844129
9	0xbd4c8ec0	-0.049940825
10	0x3cecebd4	0.028921045
11	0x3d235798	0.039878458
12	0xbd028095	-0.031860907
13	0x3ce6576c	0.028117858
14	0x3c684ff6	0.01417922
15	0xbc6d638e	-0.014489068
16	0x3d189d04	0.037259117
17	0x3cffa7e8	0.031207994
18	0x3c97fc83	0.018553024
19	0xbd274417	-0.04083642
20	0xbc104a28	-0.008806743
21	0x3d5e57a0	0.054282784
22	0xb9207a00	-0.00015304238
23	0xbd7829d8	-0.06058678
24	0x3bf33d3c	0.007423071
25	0xbca701ab	-0.020386538
26	0x3cb80124	0.022461481
27	0xbd0a73da	-0.03380189
28	0xbc3aed76	-0.011409154
29	0xbd5475d2	-0.051870175
30	0xbd69a946	-0.057046197
31	0xbd1e80ee	-0.038697176
32	0xbd19dcd4	-0.037564114
33	0x3c680ab8	0.014162712
34	0x3ca91d53	0.020643866
35	0x3d1e0c10	0.038585722
36	0xbcff06c8	-0.031131163
37	0xbd2b0346	-0.04175117
38	0x3ca5dd44	0.02024711
39	0xbcfd05b4	-0.030886509
40	0xbd254a80	-0.04035425
41	0x3bb0d2d7	0.005396228
42	0x3d078688	0.033087283
43	0x3988c742	0.000260884
44	0xbd5d1582	-0.05397559
45	0x3c9e4478	0.019319758
46	0x3cbff1e7	0.023430778
47	0xbb016933	-0.0019746542
48	0xbcd6dbcb	-0.026227852
49	0x3c209bd0	0.009802774
50	0x3c4994a8	0.012303509
51	0xbcbf87e4	-0.023380227
52	0xbcb49e38	-0.0220481
53	0xbcd12178	-0.025528654
54	0xbc801c54	-0.015638508
55	0x3cdf1acb	0.027234456
56	0xbcd270e0	-0.025688589
57	0xb9d0e7a9	-0.00039845452
58	0xbd0c951b	-0.034321886
59	0xbc52514b	-0.012836765
60	0x3be80ee0	0.0070818514
61	0x3ced9cf8	0.029005513
62	0x3d2ca678	0.042150944
63	0xbd6c1c38	-0.0576441
64	0xbb32f2a0	-0.002730526
65	0xbc6cd6c9	-0.014455506
66	0x3d2e0840	0.042488337
67	0xbcd27fac	-0.025695644
68	0xbc912509	-0.017717855
69	0xbd320d66	-0.04346981
70	0x3cfad9f8	0.030621514
71	0xbc8a891c	-0.016911082
72	0x3c08176b	0.0083063645
73	0xbcaed5af	-0.021342127
74	0xbd2c6236	-0.04208585
75	0xbd43fbbb	-0.04784749
76	0x3a1b4637	0.00059232436
77	0x3bf85189	0.007578079
78	0x3bb1a69d	0.005421473
79	0x3d5b4d17	0.053540315
80	0xbd4ad4ee	-0.04951947
81	0xbbe6a470	-0.0070386454
82	0x3b166b50	0.0022952147
83	0x3d3b83f0	0.045780122
84	0x3d1bc110	0.038025916
85	0x3d1ea7b8	0.038734168
86	0xbd534772	-0.051581807
87	0x3c70d765	0.014699792
88	0xbd56ceba	-0.052443244
89	0x3c729c70	0.014807805
90	0xbd5c75ba	-0.05382321
91	0x3d502385	0.050815124
92	0x3d82b992	0.06383051
93	0x3c409630	0.0117545575
94	0x3bec1fa0	0.0072059184
95	0xbd571aa6	-0.05251565
96	0xbc822082	-0.015884642
97	0xba5c6fba	-0.00084089825
98	0xbc5002a1	-0.012695939
99	0xbd656bc2	-0.05601097
100	0xbd1c3352	-0.03813488
101	0xbd05eb9d	-0.0326954
102	0x3d03e11a	0.032197095
103	0x3c5348c0	0.012895763
104	0xbd1c2e60	-0.038130164
105	0x3d02f99c	0.031976327
106	0xbd4bf2aa	-0.04979197
107	0x3c3b7523	0.011441502
108	0x3d2d9318	0.042376608
109	0xbb997d29	-0.0046841097
110	0x3c1ff69e	0.009763388
111	0xbcaad1d4	-0.020852007
112	0xbc2d7ce5	-0.010588859
113	0xbd252416	-0.040317617
114	0x3c45e178	0.012077682
115	0xbccfd580	-0.02537036
116	0xbc439c1d	-0.011939076
117	0xbd61a92b	-0.05509297
118	0x3cf7087e	0.030155417
119	0xbd647d0c	-0.055783316
120	0xbd0c78de	-0.034294955
121	0x3d06d704	0.0329199
122	0x3d6cd6a0	0.05782187
123	0xbd3e3664	-0.04643859
124	0xbd8a6d5f	-0.06759142
125	0x3ccef038	0.02526103
126	0xbcf0afef	-0.029380767
127	0x3cc140f3	0.02359054
128	0x3d65f9a7	0.05614629
129	0x3d351dec	0.04421799
130	0x3ba01da1	0.0048863445
131	0xbcb84b08	-0.022496715
132	0xbca66878	-0.020313486
133	0x3b735840	0.0037131459
134	0x3ca8da18	0.020611808
135	0x3d300f26	0.042983197
136	0x3d49b269	0.04924241
137	0x3c6ff92d	0.0146468105
138	0xbc928d8c	-0.01788976
139	0x3d7db2a8	0.061937958
140	0xbd30901d	-0.043106187
141	0xbd56893f	-0.05237698
142	0x3ae9bdc0	0.0017833039
143	0x3d15dab7	0.036585536
144	0x3bc53e3f	0.006019383
145	0xbc828f07	-0.015937341
146	0x3d1cbd46	0.038266443
147	0xbd32b7ca	-0.043632306
148	0x3a342ab5	0.0006872819
149	0x3d412dc7	0.047162797
150	0xbc862b7a	-0.016378153
151	0x3d6a2707	0.057166126
152	0xbd0494ae	-0.032368354
153	0xbd1b4e11	-0.037916247
154	0x3d7f0e65	0.062269587
155	0x3c33ea08	0.01098109
156	0xbd50ccac	-0.05097644
157	0xbcd663ad	-0.026170576
158	0x3cd35f6c	0.025802337
159	0xbcc089fe	-0.0235033
160	0x3d5d7dc6	0.054075025
161	0xbd76dff0	-0.060272157
162	0x3d10931e	0.035296552
163	0xbcc0c88c	-0.023533128
164	0xbd849417	-0.064735584
165	0xbd48a9f5	-0.04899021
166	0x3d3a51df	0.045488235
167	0xbc6f7a6f	-0.014616593
168	0xbd45a56c	-0.04825346
169	0x3d782acc	0.06058769
170	0x3cdafb73	0.026731228
171	0x3d45cfb6	0.04829379
172	0xbd2e6b5e	-0.042582862
173	0xbd17d8be	-0.037071936
174	0x3d2e5cfa	0.042569138
175	0x3d5a3e9d	0.05328237
176	0xbbbc2a74	-0.0057423655
177	0xbd151954	-0.036401108
178	0x3cf1ec84	0.029531725
179	0xb9513a00	-0.000199534
180	0x3d153b90	0.036433756
181	0xbd714923	-0.05890764
182	0xbd0a1a0e	-0.033716254
183	0x3d5e47e2	0.05426777
184	0xbbbb9a30	-0.0057251677
185	0x3d68585e	0.0567249
186	0x3be3ff68	0.006957937
187	0x3d0274c6	0.031849645
188	0x3cc94f21	0.024573864
189	0x3c1ca81f	0.009561568
190	0x3d44be30	0.04803294
191	0x3b90e0e9	0.0044213426
192	0x3d355666	0.04427185
193	0xbcbc3c74	-0.022978045
194	0x3d29b6e0	0.04143417
195	0xbd230a30	-0.039804637
196	0xbc58f803	-0.013242724
197	0xbb2f5c40	-0.0026757866
198	0xbc8b37a4	-0.016994305
199	0x3cf9e7b4	0.030505992
200	0xbd59467a	-0.053045727
201	0xb933f5d1	-0.00017162344
202	0x3cd394d8	0.02582781
203	0x3d25b3bd	0.040454615
204	0x3c3d4693	0.011552471
205	0xbd38778e	-0.04503589
206	0x3cb1a91c	0.021687083
207	0x3c42dfd2	0.011894183
208	0x3ba0cfc7	0.0049075815
209	0xbd0f9169	-0.035050783
210	0xbd066b82	-0.03281737
211	0xbc8ccaff	-0.01718664
212	0xbcb4f608	-0.022089973
213	0xbd40a518	-0.047032446
214	0xbd49839a	-0.04919777
215	0x3ce5de00	0.02805996
216	0x3c4e0b00	0.012575865
217	0x3d1aaf55	0.037764866
218	0xbcdf1619	-0.027232217
219	0x3d0477aa	0.032340683
220	0x3c821b23	0.01588208
221	0xbd23a3f8	-0.039951295
222	0x3a3e9707	0.00072704296
223	0xbcf17c14	-0.02947811
224	0x3bc6cd78	0.0060669743
225	0x3cf25f12	0.029586349
226	0xbd083d88	-0.033261806
227	0x3d4b5e2a	0.04965035
228	0xba032e80	-0.00050041825
229	0x3b6b4cc3	0.0035903908
230	0x3c250faf	0.01007454
231	0xbc214eb5	-0.009845425
232	0xbc79ce6d	-0.01524697
233	0x3c2b5c08	0.010458954
234	0xbd67f7c8	-0.056632787
235	0xbd4f87b0	-0.05066651
236	0x3b8f21c0	0.004368037
237	0xbc9ac854	-0.018894352
238	0x3c6ac484	0.01432908
239	0x3a598799	0.00082980987
240	0x3d120240	0.035646677
241	0x3d79cb87	0.060985114
242	0xbd1ba90b	-0.03800301
243	0xbbdcbc5b	-0.006736321
244	0x3d027f0c	0.031859443
245	0xbd71e168	-0.059052855
246	0x3c9c8fa0	0.019111454
247	0x3cea2dac	0.028586231
248	0xba95d100	-0.0011430085
249	0xbd1857c4	-0.037193075
250	0x3d5570ba	0.052109458
251	0xbc2ffcf6	-0.010741463
252	0x3d41bb26	0.04729762
253	0xbcee2450	-0.02907005
254	0xbd15c0b7	-0.03656074
255	0x3d1e4815	0.03864296

mean_layer.weight f4 [3, 256]
0	0xbcc3cb00	-0.023900509
1	0x3d349472	0.04408688
2	0x3ca1c060	0.019745052
3	0xbd1f51a2	-0.03889621
4	0x3d6e88b0	0.058235824
5	0xbb938230	-0.0045016035
6	0x3b2c2701	0.0026268365
7	0x3d1cd3e0	0.038287997
8	0x3d664641	0.056219343
9	0xbd7796cf	-0.060446557
10	0x3b12ef9b	0.0022420648
11	0x3a58750a	0.0008257186
12	0xbd5e14f4	-0.0542192
13	0xbd79932e	-0.060931377
14	0x3ac86cd4	0.0015291222
15	0xbd4843cd	-0.048892785
16	0x3befedc0	0.007322043
17	0xbd35b3e2	-0.044361003
18	0xbced17e9	-0.028942065
19	0x3d2552d8	0.04036221
20	0x3d66a4c8	0.05630949
21	0xbd3c94be	-0.04604029
22	0x3d4717b8	0.048606604
23	0xbd51ae4c	-0.051191613
24	0xbc48a138	-0.012245469
25	0xbc0ed664	-0.008718107
26	0xbd62b8ff	-0.055352207
27	0xbc8fba8c	-0.017545007
28	0xbca28a54	-0.01984135
29	0xbcc68ce5	-0.024237106
30	0xbc4c3440	-0.012463629
31	0xba8d2680	-0.001076892
32	0xbcd8defc	-0.026473515
33	0xbc0fdc50	-0.008780554
34	0x3b075406	0.0020649447
35	0xbcf400cc	-0.029785536
36	0xbcea9fe4	-0.028640695
37	0x3ca7d607	0.020487798
38	0x3d0dedc4	0.03465058
39	0x3ca3c068	0.019989207
40	0xbc4576f8	-0.01205229
41	0xbd7ff403	-0.062488567
42	0x3c107985	0.008818035
43	0xba944768	-0.0011312785
44	0xbd1f6c5c	-0.0389217
45	0x3d3b8dd2	0.045789547
46	0xbd30e434	-0.04318638
47	0x3d67de8b	0.056608718
48	0x3b76fd14	0.0037687467
49	0xbbc2f360	-0.0059494227
50	0x3d4a4610	0.049383223
51	0x3d587eaa	0.05285517
52	0x3d63ca03	0.055612575
53	0x3ce381f7	0.027771933
54	0xbceca1ec	-0.028885804
55	0x3d4dd0cc	0.050247952
56	0x3ca95e78	0.020674929
57	0x3c9b4e72	0.018958304
58	0xbd4e0f95	-0.05030783
59	0xb7a57ed9	-1.97286e-05
60	0xbc1f6d10	-0.009730592
61	0x3d2c0502	0.041996963
62	0x3d4918cc	0.049095914
63	0xbd301b1e	-0.04299461
64	0x3d73bbca	0.05950526
65	0xbbff31cf	-0.00778792
66	0xbd57e1ba	-0.052705504
67	0xbc0aebf0	-0.008479103
68	0xbc2929ce	-0.010324908
69	0xbc788b3b	-0.015169914
70	0xba80e900	-0.0009835064
71	0x3d2e1640	0.042501688
72	0xbc16e0bb	-0.009208853
73	0xbcd92ef6	-0.02651165
74	0x3d62fa2f	0.055414375
75	0xbccdb87d	-0.025112385
76	0xbd5d6170	-0.054048
77	0x3cf9840a	0.030458469
78	0x3d7351c9	0.05940417
79	0x3d969240	0.07352114
80	0xbd1a37d8	-0.037650913
81	0xbca4a2d8	-0.020097181
82	0xbd104300	-0.035220146
83	0x3c7377a8	0.014860071
84	0x3b92ec60	0.0044837445
85	0xbd24fc04	-0.040279403
86	0x3d6e8724	0.05823435
87	0x3d63e651	0.05563957
88	0xbb157720	-0.00228066
89	0xbcaac692	-0.020846639
90	0xbcc6b570	-0.024256438
91	0xbd448b19	-0.047984216
92	0x3ca6f2c2	0.020379428
93	0x3c5d7bc0	0.013518274
94	0xbd46f656	-0.048574768
95	0xbcfae8e0	-0.030628622
96	0x3cb24b03	0.021764284
97	0xbd019e9c	-0.031645402
98	0x3cd0be4f	0.025481371
99	0x3c0b124d	0.00848825
100	0xbc3b5018	-0.01143267
101	0x3d80a4ea	0.06281455
102	0x3d70ba84	0.058771625
103	0x3cc9d2c4	0.024636634
104	0xbc8169d9	-0.015797542
105	0xbd105f32	-0.035247035
106	0x3d00b8ec	0.031426355
107	0x3ce999d1	0.028515728
108	0x3c8be914	0.017078914
109	0xbd63d245	-0.05562045
110	0xbcf7b33c	-0.030236833
111	0xbd09fb7e	-0.033687107
112	0x3d534dbe	0.051587813
113	0xbc74ba90	-0.014937058
114	0x3cc1e1d0	0.023667246
115	0x3d745b50	0.059657395
116	0x3c19af25	0.009380137
117	0xba71d0d6	-0.00092245394
118	0xbd424222	-0.04742635
119	0xbd6b9192	-0.057511874
120	0xbd36be0a	-0.04461483
121	0xbd59af3e	-0.05314564
122	0x3d3596ea	0.044333376
123	0x3c944ca5	0.018102953
124	0x3add597d	0.0016887632
125	0x3d477982	0.048699863
126	0xbd16a8b7	-0.036781993
127	0x3d737c29	0.05944458
128	0x3d3351e4	0.04377927
129	0x3c805cf4	0.015669324
130	0xbd51c41a	-0.051212408
131	0xbd37f24e	-0.044908814
132	0xbcb019f8	-0.021496758
133	0xbd3476b6	-0.044058524
134	0x3d398f3e	0.045302622
135	0x3b1e8720	0.0024189427
136	0xbc9b181d	-0.018932397
137	0xbd48c044	-0.049011484
138	0x3c196160	0.009361595
139	0x3d575574	0.05257173
140	0x3cb1bc59	0.021696256
141	0xbd472e34	-0.048628047
142	0x3c915904	0.017742641
143	0x3d393e54	0.045225456
144	0x3d6e2454	0.058140114
145	0x3c9d0075	0.019165257
146	0x3d6e6bc5	0.058208246
147	0xbcd6e351	-0.02623144
148	0x3d616f46	0.05503776
149	0xbd07d881	-0.03316546
150	0x3ca46f1a	0.020072509
151	0xbd4f08b5	-0.050545413
152	0x3d3a51a0	0.045488
153	0x3cd1c2f4	0.025605656
154	0xbd0a9d10	-0.033841193
155	0x3a789680	0.00094828755
156	0xbd3a94a6	-0.04555192
157	0x3d6171fa	0.055040337
158	0xbd1a872c	-0.037726566
159	0xbcdcbbe4	-0.026945062
160	0x3c3bd078	0.011463277
161	0xbd244224	-0.04010214
162	0xbc904246	-0.017609727
163	0x3d746f0a	0.059676208
164	0xbd468bc9	-0.048473153
165	0xbc35d02d	-0.011096996
166	0x3cbcd415	0.023050347
167	0xbbd4229a	-0.0064738514
168	0x3c5510ec	0.013004523
169	0x3d3ab736	0.04558488
170	0xbd3e180b	-0.046409648
171	0xbd3b52ba	-0.04573319
172	0x3d1acc16	0.037792288
173	0x3c45d188	0.012073882
174	0x3d5ee928	0.054421574
175	0xbb028223	-0.0019913993
176	0xbd331c60	-0.043728232
177	0xbcbc4874	-0.022983767
178	0xbd7f7686	-0.062368892
179	0xbac9b640	-0.0015389398
180	0x3d4f50b8	0.05061409
181	0x3cf9d1d1	0.030495556
182	0x3d2846b8	0.041083068
183	0xbc62e118	-0.013847612
184	0x3c9ec78c	0.01938226
185	0xbc9dd254	-0.019265331
186	0xbcf6f9a9	-0.030148344
187	0x3cb40550	0.02197519
188	0x3d45f60c	0.04833035
189	0x3be80fb0	0.007081948
190	0xbd313897	-0.04326686
191	0xbd11ccd3	-0.035595726
192	0xbc0fda90	-0.008780137
193	0xbd16828f	-0.036745604
194	0x3d45c641	0.048284773
195	0x3d6d05f7	0.057867017
196	0x3d2e26cb	0.042517465
197	0xba880180	-0.0010376424
198	0xbc86be7c	-0.016448252
199	0xbd0a8734	-0.033820346
200	0xbc9298c9	-0.01789512
201	0x3c044523	0.008073124
202	0xbc7799e1	-0.015112371
203	0x3cee5748	0.029094353
204	0x3c8a47fc	0.016880028
205	0x3c7f4298	0.015579842
206	0x3cb76748	0.022388116
207	0x3d14c7c6	0.03632333
208	0x3ccd4c6c	0.025060855
209	0x3d24a0ca	0.040192403
210	0x3d7d2f72	0.061812826
211	0x3d15eed9	0.036604736
212	0xbc9fa48c	-0.019487642
213	0x3cd232c8	0.02565898
214	0xbd0cf58c	-0.03441386
215	0x3c400808	0.011720665
216	0xbd592f86	-0.053023838
217	0x3cd96b52	0.026540432
218	0xbd78dd7d	-0.060758103
219	0xbd131832	-0.035911746
220	0x3d327947	0.04357269
221	0x3d305852	0.04305298
222	0xbd611e1d	-0.05496036
223	0xbcc60a30	-0.02417478
224	0x3d3ae40f	0.04562765
225	0xbce5c2a7	-0.028046919
226	0x3afd5e80	0.0019330531
227	0xbd10d49d	-0.035359014
228	0x3d72b726	0.059256695
229	0xbc302a8f	-0.010752334
230	0x3b708010	0.0036697425
231	0xbcee74f5	-0.029108504
232	0xbcf5a850	-0.029987484
233	0x3c04c110	0.00810267
234	0x3d48850e	0.048955016
235	0xbd33981c	-0.043846235
236	0xbc91e6d4	-0.017810263
237	0xba8443c0	-0.0010090992
238	0x3d916f02	0.07101251
239	0xbd297986	-0.04137566
240	0xbd2b3886	-0.04180195
241	0x3d339554	0.043843582
242	0x3c3497f8	0.01102256
243	0xbabc1b0f	-0.0014351326
244	0xbd530f0c	-0.05152802
245	0xbd422a7c	-0.047403798
246	0x3add1940	0.0016868487
247	0x3bf771a0	0.007551387
248	0x3ba53760	0.0050420016
249	0xbc98183b	-0.018566241
250	0xbc549640	-0.0129752755
251	0x3d420df3	0.047376584
252	0x3c595133	0.013263988
253	0x3c56c334	0.0131080635
254	0xbda1ba9a	-0.078969195
255	0x3c185e4d	0.009299827

mean_layer.bias f4 [3]
0	0xbc42649d	-0.011864808
1	0xbd1bd56f	-0.038045343
2	0x3b8deb2a	0.0043310123

log_std_layer.weight f4 [3, 256]
0	0xbd04599c	-0.03231202
1	0xbb94a790	-0.0045365766
2	0x3a9a4000	0.0011768341
3	0xbd173612	-0.0369168
4	0x3d050a0e	0.032480292
5	0x3d4073a4	0.046985283
6	0x3d3826a0	0.04495871
7	0xbb7fd300	-0.0039035678
8	0xbccc2034	-0.0249177
9	0x3d4a8f6c	0.049453184
10	0xbd3c2922	-0.045937665
11	0xbcc7c9e0	-0.024388254
12	0xbcf6dd38	-0.030134782
13	0xbd7710e2	-0.060318835
14	0xbd23d898	-0.04000148
15	0x3d06abf2	0.032878824
16	0x3c3c39d0	0.011488393
17	0x3c54b960	0.01298365
18	0x3d55d3e4	0.052204028
19	0xbd43aab8	-0.047770232
20	0xbd69234c	-0.056918427
21	0xbd1d617e	-0.038423054
22	0xbc578a08	-0.013155468
23	0xbad3b740	-0.0016152635
24	0x3b7e4960	0.003880106
25	0xbd5bf99e	-0.05370485
26	0xbd33ef3c	-0.043929324
27	0xbcc28688	-0.02374579
28	0x3d52c168	0.051453978
29	0x3ca96ee0	0.020682752
30	0x3d48fb24	0.04906763
31	0x3cee7a64	0.029111095
32	0x3d7ba2ea	0.061434664
33	0x3d2cfec6	0.04223516
34	0x3d1eae86	0.038740657
35	0x3d3ea4de	0.04654395
36	0x3ce17aa8	0.027524307
37	0xbd100e08	-0.03516963
38	0xbc91a208	-0.017777458
39	0x3d7426bc	0.059607252
40	0xbd064f0e	-0.032790236
41	0xbc86f91c	-0.016476206
42	0x3d41bd98	0.04729995
43	0xbc995c30	-0.018720716
44	0x3d31ccfc	0.04340838
45	0x3d53bbd4	0.0516928
46	0xbd2e3934	-0.042535022
47	0x3d40d674	0.04707952
48	0x3c37e168	0.011223175
49	0xbc76b1e8	-0.015057065
50	0x3d26724e	0.040636353
51	0x3ca3dbac	0.020002209
52	0x3cb13230	0.021630377
53	0xbd1e3310	-0.038622916
54	0x3cec1da0	0.02882272
55	0x3b3fc100	0.0029259324
56	0x3c642208	0.013924129
57	0x3bbe1e20	0.005801931
58	0xbcb7fb30	-0.022458643
59	0xbca128d4	-0.019672789
60	0xbc2ced80	-0.010554671
61	0xbd3b21fa	-0.0456867
62	0x3cef0fe8	0.02918239
63	0x3d4efefa	0.050536133
64	0xbd0ddce6	-0.034634493
65	0x38c75000	9.5039606e-05
66	0xbd531b30	-0.0515396
67	0x3c0fcc38	0.008776717
68	0x3cb8c180	0.022553205
69	0x3c3e65e8	0.011620976
70	0x3d1d3758	0.038382858
71	0xbd4b894a	-0.049691476
72	0x3cc54308	0.024079815
73	0xbcf8910c	-0.030342601
74	0x3d790a9a	0.060801126
75	0xbd6fff5c	-0.05859314
76	0xbbedf060	-0.007261321
77	0x3cac9114	0.021065272
78	0x3d032a46	0.032022737
79	0x3d5992a6	0.05311837
80	0xbd057500	-0.032582283
81	0xbca51514	-0.020151652
82	0x3d61cb92	0.05512578
83	0xbd3586e8	-0.04431811
84	0x3b1d9160	0.002404295
85	0xb9dbb600	-0.00041906536
86	0xbce83e74	-0.028350092
87	0x3c347480	0.011014104
88	0xbc5f5a90	-0.013632432
89	0x3d215e68	0.039396673
90	0xbd503a48	-0.05083683
91	0xbd7dfd7c	-0.06200932
92	0x3c90f770	0.017696112
93	0x3b710120	0.0036774352
94	0xbd6ae818	-0.057350248
95	0xbd2c07a6	-0.04199948
96	0xbce502b8	-0.027955398
97	0x3cc539d0	0.024075419
98	0xbc85a7f4	-0.016315438
99	0xbd65e590	-0.05612713
100	0x3c112768	0.008859493
101	0x3be63250	0.0070250407
102	0xbd3018ea	-0.04299251
103	0x3d0df83c	0.034660563
104	0x3d2dcbfa	0.042430855
105	0xbbe58070	-0.0070038363
106	0x3c8b4204	0.016999252
107	0xbd282220	-0.04104817
108	0x3d1f1b00	0.03884411
109	0x3c207280	0.009792924
110	0x3d4d1830	0.050071895
111	0x3d76ba08	0.060236007
112	0xbd0393a2	-0.032123215
113	0x3cd47634	0.02593527
114	0x3c489198	0.0122417435
115	0xbcd66adc	-0.026174001
116	0xbd3c7ed8	-0.046019405
117	0x3d1eeb30	0.03879851
118	0xbd1bd33c	-0.038043246
119	0x3d36f484	0.044666782
120	0x3d72b7f6	0.05925747
121	0xbc020978	-0.007936828
122	0xbd5b3212	-0.053514548
123	0xbd364f14	-0.04450901
124	0xbc715278	-0.014729135
125	0xbc76b8e8	-0.0150587335
126	0xbd717b34	-0.058955386
127	0x3cf59c80	0.029981852
128	0xbb0be220	-0.0021344498
129	0x3cbf0e40	0.023322225
130	0xbca00c64	-0.019537158
131	0xbd10e876	-0.035377942
132	0x3d662a42	0.056192644
133	0x3c6ba4c8	0.014382549
134	0x3c797548	0.015225716
135	0x3d32813c	0.04358028
136	0x3cecf9c0	0.028927684
137	0x3c439190	0.01193656
138	0xbcf03894	-0.029323854
139	0x3ca0088c	0.019535325
140	0x3d3da818	0.046302885
141	0x3d5616a8	0.0522677
142	0xb9440c00	-0.00018696487
143	0xbd6e6e4e	-0.058210663
144	0xbd13ba1c	-0.03606616
145	0x3d0e85bc	0.034795508
146	0x3d699d9e	0.05703508
147	0x3d1ef7bc	0.038810477
148	0x3d105618	0.035238355
149	0x3d7421ba	0.059602477
150	0xbc905b84	-0.017621763
151	0x3d370f08	0.04469207
152	0xbc0fefa8	-0.008785166
153	0x3d3acbcc	0.045604512
154	0x3cecaae8	0.028890088
155	0xbb80d580	-0.003931701
156	0xbbf28dc0	-0.007402152
157	0x3ce4e50c	0.02794125
158	0xbc6eecb8	-0.014582805
159	0xbb386a20	-0.0028139427
160	0x3cb4fea8	0.022094086
161	0xbcfcf290	-0.030877382
162	0xbc513ec0	-0.012771308
163	0x3d097e6e	0.03356784
164	0x3c6aea20	0.014338046
165	0x3d3cadf0	0.046064317
166	0x3c94d428	0.01816757
167	0x3d02bdba	0.03191922
168	0x3b1e3100	0.0024138093
169	0xbc912e40	-0.017722249
170	0xbc90eb94	-0.017690457
171	0x3d066e2a	0.032819904
172	0x3bb58ca0	0.0055404454
173	0xbc7ca560	-0.015420288
174	0xbd4e69f6	-0.05039402
175	0xbcfcc39c	-0.030854993
176	0x3d38791e	0.04503738
177	0x3ba2cf20	0.004968539
178	0x3cff6c34	0.031179525
179	0xbd4ebfbc	-0.05047582
180	0x3d6c7e52	0.057737656
181	0x3ca920d0	0.020645529
182	0x3d4e73ec	0.05040352
183	0xbc8c6a74	-0.017140605
184	0x3d46e12a	0.048554577
185	0xbd327c98	-0.043575853
186	0x3c398e08	0.011325367
187	0x3c1c5060	0.009540647
188	0xbce8bbd8	-0.028409883
189	0xbbad0750	-0.0052804127
190	0x3cb0d980	0.021588087
191	0xbcea1eac	-0.028579079
192	0x3bdc1340	0.006716162
193	0x3c86c420	0.016450942
194	0xbd637c2a	-0.055538334
195	0xbcba26e8	-0.02272363
196	0x3d25e820	0.040504575
197	0xbd34d688	-0.044149905
198	0x3ad08240	0.0015907958
199	0x3d35e94a	0.044411935
200	0xbc8be218	-0.017075583
201	0x3d266c4c	0.040630624
202	0x3cffdfc8	0.031234637
203	0xbcffd24c	-0.031228207
204	0x3d5bcab0	0.053660095
205	0x3d4a19b4	0.04934092
206	0x3d4950ba	0.049149252
207	0x3c893274	0.01674769
208	0x3d26eed4	0.040755108
209	0xbcdc3f7c	-0.02688574
210	0xbb0a9c00	-0.0021150112
211	0x3d41f33e	0.047351114
212	0xbd5b640e	-0.053562216
213	0x3c2caf48	0.010539837
214	0x3d621416	0.055194937
215	0x3a903a00	0.0011003613
216	0xbce166a8	-0.02751477
217	0xbd3c100e	-0.04591375
218	0xbd016b48	-0.031596452
219	0xbc713cb0	-0.014723942
220	0x3bc84c00	0.0061125755
221	0x3cd0374c	0.025416993
222	0xbd12fbee	-0.03588479
223	0xbd5a1b08	-0.053248435
224	0xbb8d4ee0	-0.004312381
225	0xbc9ad018	-0.018898055
226	0xbcda0ba8	-0.026616886
227	0xbd2fa702	-0.04288388
228	0x3b282a80	0.0025660098
229	0x3a555c00	0.0008139014
230	0x3c82bda8	0.015959576
231	0x3a17b100	0.0005786568
232	0xbcf77f18	-0.03021197
233	0xbcf50044	-0.029907353
234	0x3b3efbe0	0.0029141828
235	0xbc91cd2c	-0.017798029
236	0xbc2d6db8	-0.010585241
237	0xbc8ca7fc	-0.017169945
238	0xbc90fc38	-0.017698392
239	0x3d6701c6	0.056398176
240	0x3c10d178	0.008839004
241	0x3d43640a	0.047702827
242	0x3d119454	0.035541847
243	0x3d4ae920	0.04953873
244	0xbc06fc10	-0.008238807
245	0xbd55dd64	-0.052213088
246	0xbd0eda16	-0.03487595
247	0xbbe405d0	-0.0069587007
248	0x3c792cb8	0.015208416
249	0xbc7bbc40	-0.0153647065
250	0xbd6b1232	-0.0573904
251	0xbd0d2112	-0.034455366
252	0x3d531578	0.051534146
253	0xbd1675c8	-0.03673342
254	0xbd280e1e	-0.04102909
255	0x3d2dd09a	0.042435266

log_std_layer.bias f4 [3]
0	0xbd5c0bc2	-0.05372215
1	0xbd6ce54a	-0.057835855
2	0xbd2d1fb0	-0.042266548
