outputs/router_rule/A2C_router/summer20251110-070826/models/policyB_actor.pth (torch, 277768 bytes, 8 tensors)

fc1.weight f4 [256, 6]
000000 c0 91 ae be 03 ad e7 3d ad 6d 0a 3e 32 a2 b9 bd
       -0.34095573 0.11312296 0.135184 -0.090641394
000010 49 60 ce be dc 19 60 3d c2 6a 16 3e 0f 95 ac 3a
       -0.40307835 0.05471216 0.14689162 0.0013166982
000020 5a 6b ae 3e 5b e6 3b 3d 8e 5a ef 3d a8 de c3 be
       0.34066278 0.04587398 0.11687194 -0.3825581
000030 7f 22 d0 be 37 8e a1 3e 51 cb 91 be 20 f4 f0 bd
       -0.40651318 0.31553814 -0.2847543 -0.11765313
000040 bf ec 9f 3e cf fe ea 3d 0e f4 13 be c1 1a 3b 3d
       0.3123531 0.11474382 -0.14448568 0.04567981
000050 65 ad f9 3c 85 b1 98 be 5f f9 8f bc 8f 95 60 be
       0.030478189 -0.29822937 -0.017574964 -0.21932052
000060 d9 bb a3 bd 0b 43 b6 3e e7 81 9a be 52 6b 93 be
       -0.079948135 0.35598025 -0.30177233 -0.28792816
000070 f0 f6 09 3e f3 bb a4 3d 87 da 92 be fe 3d af 3e
       0.13473105 0.08043661 -0.28682348 0.34226984
000080 07 db dc 3d a5 85 ae 3e b8 08 3d bb 4b 84 74 3d
       0.10783964 0.34086338 -0.0028844308 0.059696477
000090 00 88 cc 3e 25 5e ee bd 8a 54 fa bd 9a 93 a9 3e
       0.3994751 -0.116390504 -0.12223156 0.33120424
0000a0 14 84 d3 3d 77 e0 5b 3e 35 37 5e 3d 2d dd 4a be
       0.10327926 0.21472345 0.05425187 -0.19810934
0000b0 16 69 56 be 93 64 ce be ea 1d fc 3c bd 38 15 be
       -0.20938525 -0.40311107 0.030775983 -0.14572425
0000c0 ca f2 73 3e 1f 2b 3f 3e d4 ee aa 3e d7 a1 5d be
       0.23823085 0.18668793 0.33385336 -0.21643768
0000d0 85 82 aa bc 10 bc 8b 3e 0d c5 61 be 43 a6 f6 3d
       -0.02081419 0.27291918 -0.22047825 0.12043431
0000e0 23 77 a3 bd 1c b7 58 bd ff 59 1f 3e 8d 69 79 be
       -0.07981708 -0.052909 0.15561675 -0.2435667
0000f0 d9 a8 3a 3e ee 35 25 3e 85 cb 67 be 49 c8 07 3e
       0.18228473 0.16133854 -0.2263623 0.13259996
000100 c9 1c 36 3e a7 7f b6 3e a3 76 a2 3d 32 a8 95 3e
       0.17784418 0.35644266 0.079327844 0.29229885
000110 16 9a 7a be 5e 57 a0 3e 30 3a 84 3e 8a da 03 3d
       -0.24472842 0.31316656 0.25825644 0.032190837
000120 7f 32 92 3e cf 60 0c 3e 7e 17 0c 3e 4c 90 10 be
       0.2855415 0.13708805 0.13680837 -0.14117545
000130 4b 40 ef bd 1c 20 5c 3e 60 7d 83 be 8c bc 5b 3e
       -0.11682185 0.21496624 -0.2568159 0.21458644
000140 c8 f0 10 be 13 65 02 be 74 00 59 3e 08 f3 3c 3e
       -0.14154351 -0.12733869 0.21191579 0.18452084
000150 fe 09 83 bd bb 2a 15 3e 0e 5e 80 3e 48 45 19 be
       -0.0639839 0.14567082 0.25071758 -0.14967835
000160 ac b4 81 bc 75 63 6a 3e 56 d1 46 be f0 06 8c be
       -0.015833221 0.22889502 -0.19415793 -0.27349043
000170 c1 53 40 be d0 69 b2 3e ae 72 77 3e 3c 61 1e 3e
       -0.1878195 0.34846354 0.2416484 0.1546678
000180 bd 1e d4 3b 23 08 dc 3d de 4f 8e be 4c 85 63 be
       0.006473391 0.107437395 -0.2779531 -0.22218817
000190 59 5c 86 bc 46 90 c8 be be 46 d8 be 6d a1 82 be
       -0.016401457 -0.39172572 -0.42241472 -0.25513783
0001a0 fe 97 53 bd 01 96 96 3d 87 40 d2 bd c8 0f d2 be
       -0.051658623 0.0735283 -0.10266214 -0.41027665
0001b0 81 b1 c9 be 98 f9 ab be 6b 33 30 be 50 f8 8b be
       -0.39393237 -0.33588862 -0.17207114 -0.27337885
0001c0 ab 74 97 bd de b0 10 be 7c 7c 66 bd c5 fb b3 3e
       -0.073952995 -0.1412997 -0.05627106 0.35153022
0001d0 15 03 8b 3d 60 cd 09 be 61 2e b9 3d d5 18 f4 3c
       0.06787697 -0.1345725 0.09042049 0.029796997
0001e0 cd d0 6b bd af 0c 08 3c 13 51 40 be 7d 94 5a be
       -0.057572175 0.008303805 -0.18780927 -0.21345706
0001f0 12 3d 17 be d2 c0 80 3d d9 ce 2a be 99 58 31 be
       -0.1476939 0.062867776 -0.16680469 -0.17318954
000200 d9 15 10 be 4b d0 7a 3e 62 95 4c be 36 cf 48 3e
       -0.14070834 0.2449352 -0.1997886 0.19610295
000210 d9 cf 6b 3e e3 b7 c4 bc 05 5c f0 bb bb cb aa 3a
       0.23028506 -0.024013465 -0.0073351883 0.0013030687
000220 15 20 2d 3d 84 32 92 3e 03 ea 45 be a9 cb b8 bd
       0.042266924 0.28554165 -0.1932755 -0.0902322
000230 d9 8d 89 3e 6e f0 9c bd e3 66 ac be 2b 85 2d be
       0.26866034 -0.07663046 -0.33672246 -0.16945331
000240 94 3b db 3e 89 0f 8d 3e 10 73 23 ba 87 ff 6c 3e
       0.42818892 0.27550915 -0.0006235102 0.23144351
000250 c0 b6 8b be b6 3b 87 3e c4 22 28 be dc 5f c9 be
       -0.27287865 0.26412743 -0.16419512 -0.39330947
000260 a2 d2 35 be 1d 38 9c be d8 a7 03 3e de aa 9a be
       -0.17756131 -0.3051156 0.12856996 -0.30208486
000270 cf 3d 87 3e f4 8a ad 3e eb 85 8d be f1 28 86 be
       0.26414344 0.33895075 -0.27641234 -0.2620311
000280 21 4d 8b 3d 26 52 c4 3d fe dc fe bd 64 5c 5b bd
       0.068018205 0.09585981 -0.12444495 -0.053554907
000290 bc 31 b0 be e2 9b 65 be 35 fe 46 3e 25 fd eb 3d
       -0.34412944 -0.22422746 0.1943291 0.11522893
0002a0 b4 9c 04 bc a2 e0 dd 3d 44 14 8d be 52 4f 9e be
       -0.008094002 0.10833861 -0.27554524 -0.30919892
0002b0 0a 1a 71 be 9a da 8f bd 2e 8a b4 3e 85 a8 a4 3e
       -0.2354509 -0.07024117 0.35261673 0.3215982
0002c0 47 87 af 3c 03 17 8c be ea ef 1e be 41 17 37 be
       0.02142681 -0.27361307 -0.15521207 -0.17879964
0002d0 cc 71 91 3e a3 df 05 bd 1c 4a 4d be 78 5d 26 b8
       0.28407133 -0.03268398 -0.20047802 -3.9664534e-05
0002e0 39 52 89 3e 27 42 0d 3e 2f 9c b3 be 1c 86 7a be
       0.26820543 0.13794766 -0.35080096 -0.24465221
0002f0 0b 64 dd be 49 c5 be 3e 62 80 2c be 39 f5 a8 3e
       -0.4324039 0.37259892 -0.16845849 0.3299959
000300 13 b4 05 3e cd 5d cc be c5 5f 19 3e ae 33 ca 3e
       0.13056974 -0.39915314 0.1497794 0.39492553
000310 c6 11 e9 bd 6a f7 b6 be 31 f9 ae be ac 07 0e bd
       -0.11380343 -0.35735637 -0.34174493 -0.034675285
000320 b6 b9 83 3d e8 92 ba 3c d0 84 6e be 92 e2 31 3e
       0.06431906 0.022775128 -0.23292851 0.17371586
000330 29 9b f6 bd 41 7f bb 3e f6 41 a8 3e fa 4c 6e be
       -0.12041313 0.36620525 0.32862824 -0.23271552
000340 f6 34 08 be 3d 10 93 be 94 ce c8 bd 02 d8 82 be
       -0.13301453 -0.28723326 -0.09805027 -0.25555426
000350 3d e5 90 be d1 86 49 3e 60 c4 a8 3e 62 eb b5 be
       -0.28299895 0.19680335 0.32962322 -0.35531145
000360 c7 34 61 be 34 9e 08 3e 46 ce b3 3e 02 da 2a 3e
       -0.21992789 0.133416 0.35118312 0.16684726
000370 92 f8 9c 3e cd 55 9e 3c 79 cc 47 be cf 5a 49 be
       0.30658394 0.019328022 -0.19511594 -0.19663547
000380 2f a4 8a be 50 8a ad be 31 da 18 3e 26 54 8a be
       -0.27078387 -0.33894587 0.14926983 -0.27017325
000390 46 ae d4 be 87 8e d5 3d 89 64 8f 3c ed 90 f9 3b
       -0.4153921 0.104275756 0.017503994 0.0076161535
0003a0 33 bc a2 bd 6d 84 95 bd 85 ca 16 be b4 56 5a bd
       -0.079460524 -0.07300649 -0.14725693 -0.053305343
0003b0 7a 9a 6b 3e 6c fe 74 be 3f a2 1e 3d 64 6f 4d be
       0.23008147 -0.23925179 0.03872895 -0.20062023
0003c0 fa 2f 8a be 1c 2c c1 3d b7 a9 64 be e7 fd cc 3e
       -0.26989728 0.09432241 -0.22330366 0.40037462
0003d0 bd eb ad be 1e df c4 be 0b 2a ad be 66 7e a9 be
       -0.33968917 -0.38451475 -0.3382114 -0.33104247
0003e0 14 1b 8a be ac 04 2e 3e cf 13 06 3e 1c 32 a1 be
       -0.26973784 0.1699397 0.13093494 -0.31483543
0003f0 d7 41 43 3e d0 da 7c 3e 3d 80 c8 be 2c 7d ae 3e
       0.19068085 0.24692845 -0.39160338 0.34079874

fc1.bias f4 [256]
000000 3c 70 b9 bd 37 cd 18 3e ad 92 97 bd ea 73 a5 bd
       -0.0905461 0.14922033 -0.07401023 -0.080787495
000010 54 b3 10 3d 6a c6 23 be c6 43 23 be 15 7a ac 3e
       0.03532727 -0.15993658 -0.15943822 0.3368689
000020 c7 bf 5e be 7f d5 b2 3e 1d 8d cf bd ab 5b bd 3e
       -0.21752845 0.3492851 -0.10134337 0.36984
000030 e7 9f bc 3e 0d 69 03 3e 1b 34 ff 3d b6 c6 14 be
       0.36840746 0.12833042 0.1246111 -0.14528927
000040 48 09 b0 3e c5 57 b4 be 84 0f b8 3e 42 dd 8d 3c
       0.3438208 -0.35223213 0.35949337 0.017317418
000050 00 c7 c7 bd 46 18 27 be 46 e2 af be d8 d8 4d be
       -0.09754753 -0.16317853 -0.3435232 -0.2010225
000060 40 27 d2 3e 22 02 bf be 1d 03 a4 bc 0a 2c 0e 3e
       0.4104557 -0.37306315 -0.020021016 0.13883987
000070 45 31 92 bd c8 69 26 3d 30 08 6d 3e 5a f1 af bd
       -0.07138304 0.040628225 0.23147655 -0.08590956
000080 72 92 61 3b 26 d0 d5 bd c9 56 41 3e 5d 0f 99 3d
       0.0034419564 -0.10440092 0.18880762 0.074736334
000090 07 40 25 3e c6 3b 1e 3e 7e b0 0b 3d 37 6f 07 be
       0.16137706 0.1545249 0.034103863 -0.13226019
0000a0 98 ad 77 be d4 63 1d 3d ec 90 fa 3d 65 43 f6 bd
       -0.24187315 0.03842528 0.12234673 -0.12024573
0000b0 91 17 a2 3e 5f 28 15 3e 7e 55 5e 3e 74 bc a5 be
       0.31658605 0.14566182 0.217123 -0.3237034
0000c0 d9 87 94 be 7b 7b 70 3d 25 21 db 3d 88 bd ac 3d
       -0.29009894 0.05871151 0.10699681 0.08434588
0000d0 34 71 8f be 67 b8 23 3a 62 3d 99 3e c1 2b bf be
       -0.28016055 0.00062454346 0.29929644 -0.3733807
0000e0 b8 5d a4 3e ac f1 56 3e db d4 9d 3c 35 61 c2 be
       0.32102752 0.20990628 0.019266536 -0.37964788
0000f0 d0 ee 1f 3c fe d9 69 be 32 19 97 3e 87 38 59 3e
       0.009761527 -0.22837064 0.2951141 0.2121297
000100 54 28 a7 3d 2b 63 a1 be 82 f0 b7 be 7c af fa bd
       0.08161989 -0.31520972 -0.3592568 -0.12240502
000110 37 9f e3 bd 50 be 75 3e cc 57 b2 3d e6 62 9b 3c
       -0.11114352 0.2399838 0.08708152 0.018968057
000120 0c 01 24 be 51 5d b9 be 62 9c 81 bb d6 57 df 3d
       -0.16016024 -0.36204007 -0.00395541 0.10905425
000130 40 07 b0 be 20 fd 32 be 1e 46 de 3d 8a d3 6c bd
       -0.3438053 -0.17479372 0.108532175 -0.057818927
000140 9e 6f b3 3e c6 6c 84 be 41 0a 4d 3d 9f d1 6e be
       0.35046095 -0.25864238 0.050058607 -0.23322152
000150 55 71 6c 3e 58 1d e0 3e 4f 5d 02 3e 73 d4 6a bd
       0.23090108 0.43772388 0.12730907 -0.057331514
000160 b2 77 a8 3e cb bd a8 be 1c 66 ca be 12 35 9e 3c
       0.3290382 -0.329573 -0.39531028 0.019312415
000170 f1 c0 a2 be f3 82 c8 bd 73 d7 7e 3e ee 05 82 3d
       -0.31787828 -0.097906016 0.24886875 0.06348787
000180 75 ee e5 3d ef 83 cb 3c 47 1f 3f 3e 22 8e bc be
       0.11227123 0.024843184 0.18664275 -0.3682719
000190 4d 73 8e 3d 40 1e b1 3e 8e c8 60 3e 1c d9 83 3e
       0.06955586 0.3459339 0.21951506 0.2575158
0001a0 1c e9 b9 3e 4d 4d 1b be 13 97 9f be 76 e3 c4 be
       0.3631066 -0.15166207 -0.31169948 -0.3845479
0001b0 0a c7 5a 3e d3 ff 86 be f8 a9 2a 3d 3a 11 01 3e
       0.2136499 -0.26367053 0.041666 0.12604228
0001c0 1b d2 2f 3e 09 46 6f bd 8c 98 fa 3d 3c ee b8 bd
       0.17169993 -0.0584164 0.12236127 -0.090298146
0001d0 f2 7c ed bd 4c 0d 6f bc 1a 8f fb 3d 4b 58 a6 3e
       -0.11596097 -0.014590573 0.12283154 0.32489237
0001e0 6e ba 9b 3e 15 c1 e2 3d 95 55 aa 3e 90 9b 66 3e
       0.30415672 0.11071984 0.3326842 0.2252028
0001f0 76 61 e7 3d 38 0a af be 48 08 41 3d e2 bd 1d 3d
       0.11297886 -0.34187484 0.04712704 0.038511164
000200 7f 4b b3 bd 0f 4e 02 be f8 66 2d be 71 0e ae be
       -0.08754634 -0.1272509 -0.1693381 -0.33995393
000210 16 5b af 3d d6 95 a6 bd aa 31 aa be b6 63 1e 3d
       0.08562295 -0.08134048 -0.33241016 0.03866931
000220 0f 23 90 be c9 31 92 be 97 5b ab 3e 37 27 01 bd
       -0.28151748 -0.28553608 0.33468315 -0.03153154
000230 15 93 ce be 8d db 3f 3e 16 b2 ab 3e f5 88 07 bc
       -0.4034659 0.18736096 0.33534306 -0.008272399
000240 c7 85 21 3d 3c 28 87 3e 9c d3 0c 3e 04 e1 21 3e
       0.03943422 0.26397884 0.13752598 0.15808493
000250 a0 86 79 be 38 16 22 be 5e 0f 39 3e 06 73 72 3e
       -0.24367762 -0.15828788 0.18072268 0.2367669
000260 1b 5b 10 3e 6b 46 ba be 41 2b ee 3d 7c 37 0d 3e
       0.14097254 -0.3638185 0.11629344 0.13790697
000270 b9 93 24 be 3e 3e 40 be 79 4b 7c 3e 2b af 7a 3e
       -0.16071977 -0.18773744 0.24638166 0.24480884
000280 aa 30 fd 3d 96 d1 9b 3d 82 d5 74 be 2e 5a cb 3e
       0.123627976 0.07608335 -0.23909572 0.3971724
000290 66 7b 67 3e 46 4f 81 3d 34 44 16 be 5a fb cb 3e
       0.22605667 0.06313948 -0.14674455 0.39840204
0002a0 43 09 c9 3d 23 12 13 be 37 60 dc 3d 24 8a 7c 3e
       0.0981622 -0.14362387 0.10760539 0.24662071
0002b0 72 80 1f bd d2 86 09 be 44 57 08 3e c3 8f 2f 3e
       -0.038940854 -0.13430336 0.13314539 0.17144684
0002c0 69 e1 aa be 15 8a d4 3d d4 ca 62 bd d1 d4 6f be
       -0.333751 0.103778996 -0.055369213 -0.23421027
0002d0 71 13 c7 3e aa cd c7 be 2d da 61 3e 31 82 06 3d
       0.3888202 -0.39024097 0.22055884 0.032839004
0002e0 eb e0 40 3e e5 aa 98 3e b1 c4 27 bd ad b5 a2 3e
       0.188358 0.29817882 -0.040959064 0.31779233
0002f0 81 87 90 be 16 be 5a 3d 32 8c b2 bd da cd bb be
       -0.2822838 0.053403936 -0.087181464 -0.3668049
000300 ec 64 8b 3e 75 6a cb 3c 0a d9 b6 be 0a 8b 8e 3e
       0.27225435 0.024831036 -0.35712463 0.27840453
000310 92 92 ad be 74 35 20 3e 6b 3d 03 be 73 5d cb 3e
       -0.33900887 0.15645391 -0.12816398 0.39719734
000320 fa ea 11 bd 5d e3 bb bd b5 6d f7 3d 06 43 d0 be
       -0.03562448 -0.091742255 0.12081472 -0.40676135
000330 ec 78 95 3e 78 b5 11 be b4 30 c2 3e 17 06 b2 be
       0.2919382 -0.14229381 0.37927783 -0.3477027
000340 c6 5e 4a be 2a 77 ff 3d 27 39 08 3e 64 19 4c 3e
       -0.19762716 0.124739006 0.13303052 0.19931561
000350 1b 04 c5 be e1 64 a8 3c 9c 6b 57 bc 64 82 4f 3d
       -0.38479695 0.020555915 -0.013148215 0.05066146
000360 18 f4 b7 be f2 d2 f3 bc d2 7c 7b be 89 73 4d 3e
       -0.35928416 -0.029763673 -0.24559334 0.20063604
000370 21 4d 1b 3e 2a 7e 6c 3e b3 99 c9 be 4e 5a a7 3e
       0.15166141 0.23095003 -0.39375076 0.32686085
000380 79 91 8e be d0 c9 4e 3d 22 c3 b8 3e e0 56 96 3e
       -0.27845362 0.050485432 0.36086375 0.29363155
000390 a9 9e 35 3e 0b bc 8d be 52 2a ae be a3 64 b6 be
       0.17736305 -0.27682528 -0.34016663 -0.35623655
0003a0 d2 45 86 be 10 35 70 be c4 da 6c 3d cb 1c bc bd
       -0.26225144 -0.23457742 0.05782582 -0.09185179
0003b0 29 13 5b be bc 0f a8 3e 56 9a 87 be 95 f9 2d be
       -0.21394028 0.32824504 -0.26484936 -0.16989739
0003c0 e9 5e db 3d 2a c5 71 3e 4f 94 8d 3d 18 02 0d be
       0.10711462 0.23610368 0.06913053 -0.1377033
0003d0 e7 cf 3f 3c 34 9f ba 3e 3f 9d 6b 3e 6e 1a 80 3e
       0.011707283 0.36449587 0.23009203 0.25020164
0003e0 bd 53 a7 3e fe 10 65 3e ea 11 bc bd 20 60 fe bc
       0.32681075 0.22369763 -0.09183104 -0.031051695
0003f0 e2 cb aa be 81 c8 35 3e 9c 54 2d bd 74 a1 a8 3e
       -0.33358675 0.17752267 -0.042317018 0.3293568

fc2.weight f4 [256, 256]
000000 da cd 4c 3d 64 99 32 3b b0 89 9c bc 90 a6 5f bd
       0.050001003 0.0027252072 -0.019108623 -0.054602206
000010 ba 55 33 bd 52 88 bf bc 1b 8e 0d 3d 14 55 f1 bc
       -0.043782927 -0.023380432 0.03455935 -0.029459514
000020 32 4c 27 bd 74 cd 5e 3d 56 04 89 3c d4 c0 12 3d
       -0.04084415 0.054395154 0.0167257 0.035828426
000030 74 13 2b 3d 6e ee 62 bd d4 9c 17 3d a5 6b 31 bd
       0.0417666 -0.055403166 0.037014797 -0.04331555
000040 90 dc e1 bc 69 03 82 3d 12 eb 3e bd 18 f5 1f 3c
       -0.027570993 0.06348307 -0.0466109 0.009763025
000050 b0 33 87 3b 0e 12 08 bc c5 73 09 3d b0 27 f4 bc
       0.0041260347 -0.008305086 0.033557672 -0.02980408
000060 f2 ad 40 3d 78 cf 9c 3c 14 e1 0d bd 4a 08 13 bd
       0.047040887 0.019141898 -0.03463848 -0.035896577
000070 c6 5e 09 3d c0 6e 22 3d 59 33 c6 ba 0e 2a 74 3d
       0.03353765 0.0396564 -0.0015121504 0.05961042
000080 97 37 fb bc 7f b9 04 bc 22 7c 3b bd 67 5d 4e 3c
       -0.030666156 -0.008100866 -0.04577268 0.012595511
000090 9a 20 2b bc 04 53 a0 bc 12 82 97 3d b0 c0 47 3d
       -0.010444785 -0.019570835 0.07397856 0.048767745
0000a0 97 50 19 bc 8e 0a b6 ba db 66 38 bc 70 87 4a bd
       -0.009357593 -0.0013888644 -0.011254991 -0.04944557
0000b0 b8 93 f9 bc d0 0f 8b bc 14 42 3a bd 57 9e 5b bd
       -0.030465946 -0.016975313 -0.045473173 -0.0536178
0000c0 a1 67 08 3c ad 75 fe bc 68 ed 01 bc ea 00 12 bd
       0.008325488 -0.031061972 -0.007930137 -0.035645403
0000d0 e8 1c 56 3d b4 c0 59 3d 3e 63 3b 3d f8 2a 12 bc
       0.05227366 0.05316229 0.04574894 -0.008921377
0000e0 80 d2 2b 3b 8a c2 08 bd e0 eb 00 3d de 72 24 3d
       0.0026217997 -0.033388652 0.031474948 0.04014861
0000f0 94 26 c1 3c 72 01 15 3d 6e 7c 7d 3d f9 12 d9 3c
       0.023577966 0.03637833 0.061886244 0.026498305
000100 92 6d 7f bc 58 76 76 bd da 90 93 bb e4 7a 06 3d
       -0.015590088 -0.060171455 -0.0045033516 0.03283204
000110 93 99 c5 3c 6a 46 6b 3c da 7c 21 3d 96 61 71 bd
       0.024121081 0.01436005 0.03942571 -0.058930956
000120 d0 fa e0 3b 24 90 2a bd b2 7f 1d bd f1 7e 82 bd
       0.0068658367 -0.04164137 -0.038451858 -0.063718684
000130 dc eb 28 3d f5 d4 32 3d 5f 4c 48 3d 72 6b f1 3b
       0.041240558 0.043660123 0.04890096 0.007367545
000140 d4 ea 1b bd c4 d1 77 bd 25 81 55 bc ea 04 5a 3d
       -0.038065746 -0.060502782 -0.013031279 0.053227343
000150 9e 5e 63 bd b7 86 17 3d c4 aa 45 bd 1a b6 66 3d
       -0.055510156 0.03699371 -0.048258558 0.05632601
000160 dc 1f 16 bd 82 f4 4c 3c 90 95 74 bd cb 5e 1f bc
       -0.036651477 0.012509467 -0.059712946 -0.00972719
000170 44 95 2d 3d 96 15 6c bd 8f c4 81 3c 44 b9 b1 bc
       0.04237868 -0.057637773 0.015840797 -0.021694787
000180 70 43 d5 bc 54 67 5f 3d b5 6e b2 3c 96 45 cc bb
       -0.026033133 0.0545419 0.021781305 -0.006233881
000190 73 93 b3 3c 10 48 e5 3c 1d 2c 62 bc a7 93 e1 ba
       0.021920895 0.027988464 -0.013804463 -0.0017210142
0001a0 4c 74 8d 3c 40 ce 0e bb f8 cf 57 3d 13 f3 ff bb
       0.017267369 -0.0021790415 0.05268857 -0.007810959
0001b0 db 4a 3f bc fd e5 df bc f0 0f a0 bc 49 67 77 3d
       -0.011675562 -0.027331347 -0.01953885 0.060401235
0001c0 b7 96 48 bd b0 86 b2 bc 00 4f ac 3a d0 e4 9b 3b
       -0.048971858 -0.02179274 0.0013146102 0.004757501
0001d0 4e 71 1b bc 3d 43 45 bc fa a6 1a 3d 58 02 55 3c
       -0.009487463 -0.012039957 0.037756898 0.013001047
0001e0 60 ae 87 bb 60 87 69 bb 1c c5 33 bd 22 a4 25 bd
       -0.00414066 -0.0035633668 -0.04388915 -0.040439732
0001f0 d0 b9 58 bd 4c 7d 71 bd a8 88 4b bc 04 22 d1 3c
       -0.05291158 -0.058957383 -0.012422718 0.025528915
000200 fd bb 0a bd 84 6a 84 bc a8 13 8b bc 20 09 08 3d
       -0.033870686 -0.016164072 -0.016977146 0.033211827
000210 78 f5 5f 3d 6a f2 5f bc 90 07 dc 3c 57 2a 3d 3c
       0.054677457 -0.013668636 0.026859075 0.011545739
000220 30 4c e5 bc 2c db 27 3d d8 91 89 3c 32 85 39 3d
       -0.02799043 0.040980503 0.016793177 0.04529304
000230 b8 ad 7b 3c 05 6d 45 bd 00 94 39 bd 00 ca 80 bd
       0.015361242 -0.048199672 -0.04530716 -0.062885284
000240 6a 47 61 3d c3 bb 19 bc 0a 36 e0 3c 46 72 51 3d
       0.054999746 -0.009383145 0.027369518 0.05113437
000250 24 f1 84 bc 9d 50 25 bd 60 4f c0 3c cf ea 8e bd
       -0.016228266 -0.040360082 0.023475349 -0.0697838
000260 72 8b 17 3d fa 4c 5c 3d c1 b6 37 bc c7 45 3b 3c
       0.03699822 0.053784348 -0.0112130055 0.01143021
000270 28 04 22 3d 4c 68 72 bd 10 59 fd 3b 30 4c cc 3c
       0.039554745 -0.059181497 0.0077315643 0.024938673
000280 90 f8 68 3c 78 01 b2 bc 4c b7 85 bc de 24 6d 3d
       0.014219418 -0.021729216 -0.016322754 0.057896487
000290 44 18 aa 3c 84 5e f9 3c 1c 57 01 3c d4 01 ff bb
       0.020763524 0.030440576 0.007894304 -0.0077822004
0002a0 dc 98 ac 3c 67 fe e8 3c 20 d9 95 bc 6f dd 6d bc
       0.021068983 0.028441621 -0.01829201 -0.014518126
0002b0 20 02 2d bd a3 02 e4 bb fa be 19 bd 38 d4 4c bd
       -0.042238355 -0.006958322 -0.037535645 -0.050007075
0002c0 ea d1 83 3c 94 28 08 3d 96 e9 1d 3d b7 a7 fb ba
       0.016091306 0.033241823 0.038552843 -0.0019199763
0002d0 68 40 1b 3d 93 c6 4e 3d 35 7e 33 3d 8e 55 dc bc
       0.03790322 0.050482344 0.043821532 -0.026896264
0002e0 a2 22 45 3d f0 c0 96 bb f6 27 72 3d 64 50 48 3d
       0.04812873 -0.0046006367 0.05912014 0.04890479
0002f0 58 a4 1e bc d1 fd 4d 3d 64 0a 6e bd 8c cd 7f bd
       -0.009682737 0.050290886 -0.058115378 -0.062451884
000300 ce a1 04 bd 04 20 65 bd c4 a7 e8 3c f8 23 a7 bc
       -0.03238087 -0.055938736 0.02840031 -0.020402893
000310 68 89 67 bd 3e 21 40 bd 48 44 a5 bc 80 1f 6c bc
       -0.056527525 -0.046906702 -0.02017416 -0.014411807
000320 f8 77 46 3d 5c 5e 42 bd fc df 2e 3c 00 44 bc 3c
       0.048454255 -0.04745327 0.010673519 0.022981644
000330 ae f8 7d 3d d4 f5 f3 3c 70 1a 4b 3d 14 82 bc bc
       0.062004738 0.029780306 0.04958576 -0.023011245
000340 14 e4 52 3d 78 81 a9 3c 22 ca d7 3c c8 05 a5 3b
       0.051487043 0.020691618 0.026341502 0.0050360896
000350 85 ed 1c bd 50 58 26 3d 24 10 44 bd 30 3b 29 bd
       -0.038312454 0.040611565 -0.047866955 -0.04131621
000360 8c a0 75 bd 46 d8 ea bc 30 52 4d 3d fe 21 7b 3d
       -0.059967563 -0.02866758 0.05012721 0.061311714
000370 4f 2a a7 bc ae a1 51 bd 60 83 eb 3c cc 68 0a 3d
       -0.020405916 -0.05117958 0.028749168 0.03379135
000380 89 ce 67 3d 7e 3c 36 bd be c2 78 bd 18 3f 86 3a
       0.05659345 -0.044491284 -0.060732596 0.0010242192
000390 af 71 fc b9 27 26 7d bd 56 37 2e bd 72 6b 0b 3d
       -0.00048149886 -0.061803963 -0.04253324 0.034038015
0003a0 a0 f3 57 3c 00 22 b2 bc c2 74 14 3d 22 c5 24 3d
       0.013180643 -0.021744728 0.03624416 0.040227063
0003b0 1e 46 6d 3d 91 ed b8 3c e0 a6 78 bb 3c 49 17 3d
       0.057928197 0.022574218 -0.0037941262 0.036935076
0003c0 7c bc 46 3d d0 b5 8f bb 14 46 d4 bc 68 71 31 bd
       0.048519596 -0.0043856874 -0.025912322 -0.043321043
0003d0 10 2a fb 3b 51 b3 8e 3b 2e a6 17 bd a2 90 73 bd
       0.0076649264 0.0043548723 -0.037023716 -0.059464104
0003e0 f9 72 15 3d 6a 4b 7e bd cf 40 82 bd 5c 66 72 3d
       0.0364866 -0.06208364 -0.063600175 0.05917965
0003f0 00 a4 d0 3a fb f1 c2 3c 92 39 49 bd d9 6f 3c bd
       0.0015918016 0.023797026 -0.04912717 -0.046005104

fc2.bias f4 [256]
000000 27 3c 68 bd 51 82 59 3c 4f 10 4b bd 75 f3 bd bc
       -0.05669799 0.013275699 -0.0495761 -0.023187378
000010 7f d8 6f 3d 30 9b 58 3c fe 86 6d bd 5b 5d 81 3c
       0.058556076 0.013220593 -0.057990067 0.015791586
000020 83 19 02 bd 6d a5 53 3d 9d 04 47 bc 47 54 f5 3c
       -0.03176261 0.051671434 -0.012147096 0.029947413
000030 ee 21 5d 3d f6 28 8f 3c b9 19 5e 3c ce e9 f8 3c
       0.053987436 0.017475586 0.013555937 0.030384924
000040 78 ec 1f 3b bf 15 85 3d dc 18 9a bc 91 1f 47 3c
       0.002440242 0.06498288 -0.018810682 0.012153522
000050 d4 6b 24 bd 00 52 7d ba 90 07 13 bd 40 21 b6 bb
       -0.040141895 -0.0009663403 -0.035895884 -0.005558163
000060 e4 75 57 3c 65 c3 8e bc 6d 17 1d 3d a0 9a 71 bd
       0.013150666 -0.017427156 0.03835242 -0.058985353
000070 91 8e 44 3d a0 27 2e 3d f8 e6 5a bd 6a b9 48 3d
       0.047987524 0.042518258 -0.053442925 0.04900495
000080 30 61 3c 3d f6 87 1c 3c 21 72 92 bc a0 7d 6c bc
       0.045991123 0.0095539 -0.017876687 -0.014434248
000090 45 f4 46 bc 95 06 77 bd 22 4b 64 3d 78 75 ce 3c
       -0.012143199 -0.06030901 0.055735715 0.025202498
0000a0 45 b9 4f 3d f9 7a 8c 3d 98 45 51 bc 60 7c 1d 3b
       0.050713796 0.06859393 -0.01277294 0.0024030432
0000b0 28 20 8b bb ec 7e 57 bd 18 fb 38 3c 10 f7 49 3d
       -0.0042457767 -0.052611277 0.011290334 0.049307883
0000c0 0c 19 e2 3c 2b 8d e3 bc 2c dc d3 3c 5e 0a c5 ba
       0.027599834 -0.027777275 0.025861822 -0.0015032997
0000d0 ce 40 bd bc ca c1 36 3d 08 e8 33 bd 66 ae 5d 3d
       -0.02310219 0.044618405 -0.043922454 0.054121397
0000e0 65 67 4a bd c0 09 1e bd d7 e8 8b 3c 18 21 2d bc
       -0.04941501 -0.038583517 0.0170788 -0.010566972
0000f0 8e 45 bf 3c 34 5b de bc 4e 25 80 bd e6 cb 0e bd
       0.023348596 -0.027143098 -0.06257115 -0.03486242
000100 88 b2 da bc e6 27 ef 3c fc 73 00 3d e3 ca b6 bc
       -0.026696458 0.02919383 0.03136061 -0.02231354
000110 3e 2f 6c 3d 67 f9 2b 3c 72 7a 6f bd 28 6f fa bc
       0.05766224 0.010496474 -0.058466382 -0.030570582
000120 50 12 0c bd 0d 34 e1 3c f5 7e 97 3d d4 68 cf 3c
       -0.03419715 0.02749064 0.07397262 0.02531854
000130 b2 ad 45 3d 16 2f fa 3b f0 88 43 bc 48 5b d9 3c
       0.048261352 0.0076350076 -0.011934504 0.026532784
000140 68 ee c1 3b fc 99 07 bc 7c 87 f5 3c 72 91 07 3d
       0.005918313 -0.008276459 0.02997183 0.03309769
000150 e4 eb 83 bc dc 11 bc bc e4 f9 f2 3c c0 76 c6 3c
       -0.016103692 -0.022957735 0.029660173 0.024226546
000160 3e e9 4a 3d 9e 4a 3b bd 5e 6c 39 bd 83 68 1b 3c
       0.049538843 -0.045725457 -0.045269363 0.009485367
000170 b5 d1 fc bc ca 09 95 bd 5c ba 8f 3c 3f 36 92 bc
       -0.030861715 -0.07277258 0.017544918 -0.017848132
000180 3c b4 f0 3c d4 15 4f bc 8c 16 cb bc 77 c5 aa 3c
       0.029382817 -0.012639482 -0.024791025 0.020846112
000190 89 68 43 3d f0 32 be bc c0 ad bc bc b0 4b f4 3b
       0.047707114 -0.023217648 -0.02303207 0.0074553117
0001a0 4e 13 cf bc 11 d7 06 3d 88 67 22 bc 4a e8 a5 3d
       -0.02527776 0.032919947 -0.009912379 0.08100946
0001b0 50 c2 d1 bc 92 20 6a bd 10 f6 18 3d b7 3d a6 bd
       -0.02560535 -0.057159968 0.03734404 -0.0811724
0001c0 21 bc 26 3d 65 a5 6e 3d 19 01 12 bd 8e 0c ab bd
       0.040706757 0.0582632 -0.035645578 -0.08352004
0001d0 fd 05 7d 3d 75 e3 fe bb b4 6d 8a b9 07 af d6 bc
       0.06177329 -0.00777858 -0.00026403146 -0.026206506
0001e0 d9 13 23 3d 54 2e 8c 3c b0 86 e2 bb 70 48 04 bc
       0.03981385 0.017111935 -0.0069130287 -0.008073911
0001f0 9a 05 18 bd 22 e5 65 3d 6c bb d2 bc 9b 79 01 bd
       -0.037114717 0.05612672 -0.025724135 -0.031610113
000200 55 14 6f 3d e0 e8 bd 3b b6 fd 5e 3d 50 92 57 bc
       0.058369 0.005795583 0.054441176 -0.013157442
000210 45 0b a6 3d cc 6e a7 3c 29 0d 72 3c 25 63 a8 bc
       0.08107618 0.020438574 0.014773645 -0.020555088
000220 b5 26 d7 bc 90 df 1e bc 57 85 97 3c ba 46 38 bd
       -0.026263574 -0.009696856 0.018496199 -0.044989325
000230 1a 76 59 3d a4 a7 a8 bc a3 dc 00 3c 48 26 e6 3a
       0.053091146 -0.02058775 0.007865104 0.0017559016
000240 18 52 db 3c ac 15 0a bc 00 a5 09 bb 82 c9 5d bd
       0.026772544 -0.008428019 -0.0021002889 -0.05414725
000250 9d 89 3b 3d 8b 03 97 bc 49 08 67 bd 53 11 28 3d
       0.045785535 -0.018434307 -0.056404386 0.041032147
000260 e8 7b 52 3d 21 8d 4f bd 68 52 16 bd 59 bd 96 bc
       0.051387697 -0.0506717 -0.036699682 -0.018400835
000270 b0 4d 0b bc 21 6f 58 3d bd 07 1e 3d c9 0c 43 bc
       -0.008502409 0.052840356 0.0385816 -0.011904904
000280 04 85 e8 bb 06 bc 25 3d 80 14 62 3d d8 db 36 3d
       -0.007095935 0.040462516 0.05519533 0.044643253
000290 60 56 9c bb 50 65 a4 bb 11 a5 77 bc ec 91 ba 3c
       -0.004771039 -0.00501696 -0.0151150385 0.02277466
0002a0 9a a3 63 bd a2 99 c0 bd ac dd 48 bd eb 74 af bc
       -0.055575944 -0.09404303 -0.049039528 -0.021418056
0002b0 00 38 98 39 14 08 71 3d f1 6b b2 bc c7 70 90 bc
       0.00029033422 0.058845595 -0.021779986 -0.017631901
0002c0 ae cc 02 bd 46 a8 76 3d 32 00 85 3d 50 49 8b 3c
       -0.03193348 0.06021907 0.06494178 0.017002732
0002d0 17 fe 20 3c 38 e8 6e 3c b6 85 79 3d 0b c2 66 bd
       0.009826205 0.014581732 0.060918532 -0.056337398
0002e0 3f 21 78 3d 30 22 a8 3c 10 84 ec 3c c0 47 05 3d
       0.06057858 0.020524114 0.028871566 0.03253913
0002f0 88 a7 29 bc 35 47 b2 bc b0 05 58 3d fb 7b 21 bd
       -0.010354884 -0.02176247 0.0527398 -0.039424878
000300 68 5a ae 3d d8 38 5a 3c 22 48 64 3d 62 9e 6e bd
       0.085133374 0.013319217 0.055732854 -0.058256514
000310 d0 35 db 3c b0 5a 65 3d 42 98 7c bd 6b e2 e4 3c
       0.026759058 0.05599469 -0.061668642 0.027939996
000320 04 df db 3c 0c ef ff 3c 4a 69 32 3a 7e 19 00 bd
       0.02683974 0.031241916 0.00068058504 -0.03127431
000330 40 d0 e3 3b 9f e1 ab 3b d3 67 17 3d 40 13 65 bb
       0.0069523156 0.005245402 0.03696425 -0.00349541
000340 87 c7 a0 3d b4 2f 1e 3c c5 53 75 3d 69 a5 8a 3d
       0.07850557 0.009654928 0.059894342 0.06769831
000350 30 60 d2 3b fa 8c 43 3d e2 fd ef bc 35 f6 c0 3c
       0.006420158 0.047741868 -0.029295865 0.0235549
000360 7f a1 86 3c 98 11 a8 3d 7f db 51 bc ef 54 2c 3d
       0.01643443 0.08206481 -0.01280868 0.042073186
000370 f6 86 4e bd 48 b4 c9 3c a0 99 b2 3c 65 15 ba bc
       -0.050421678 0.024622098 0.02180177 -0.02271528
000380 4a 3d 06 bd 3d b5 95 3c c4 17 0d bd c0 21 9f bd
       -0.032773294 0.018274898 -0.034446493 -0.07770109
000390 18 cb 2c 3c d0 d4 d0 bb 90 d4 84 3c 10 f0 ed bc
       0.010546468 -0.0063730255 0.016214639 -0.029045135
0003a0 32 94 63 bd 66 7a 2a 3d 72 68 82 3d 36 4b 9b bc
       -0.055561252 0.041620634 0.063675776 -0.018956762
0003b0 43 98 57 bc a8 52 03 bd c0 38 83 3c 4e 3a 49 3d
       -0.013158861 -0.03206125 0.016018271 0.04912787
0003c0 0b 9f be bc c4 34 8f 3d 1b 89 b0 bc 60 52 ec 3c
       -0.023269197 0.06992486 -0.021549752 0.028847873
0003d0 c4 75 bc 3c cd 72 20 3c ec cf 8e bc 3a 3b 4d bd
       0.023005374 0.009792996 -0.01743313 -0.05010531
0003e0 80 98 52 bc 33 82 f1 bb 38 b5 29 bd 16 48 5d 3d
       -0.012853742 -0.0073702573 -0.04143259 0.054023825
0003f0 23 2b 78 3d b5 ef 26 3d 33 58 bd 3c 92 78 2e bd
       0.060588013 0.040755946 0.023113346 -0.042595454

mean_layer.weight f4 [2, 256]
000000 3f 91 5d 3d 72 10 23 3d a2 f4 3e 3c 68 f9 b8 3c
       0.054093596 0.039810605 0.011655005 0.022579864
000010 cb e7 b3 bc 90 99 98 3c 79 d0 f8 3c cb 55 5a 3d
       -0.021961113 0.018627912 0.030372845 0.053304475
000020 db cd 2c 3d 05 81 b1 bc 07 63 b7 bc 34 27 e4 3c
       0.042188507 -0.021667967 -0.022386087 0.027850725
000030 e8 eb 66 3d 00 4b fc bc a0 f0 3d bc 83 5b 06 3d
       0.05637732 -0.030797482 -0.011593014 0.032802116
000040 68 c5 f8 3c f1 c0 3b bc 72 66 07 bd 6e e4 7c bd
       0.030367568 -0.011459575 -0.033056684 -0.061741285
000050 26 ca 27 3d f8 32 8b 3c 50 bc aa bb 90 51 91 3c
       0.04096427 0.016992077 -0.005210437 0.017739087
000060 85 8a ea bc 08 48 10 3d 08 c8 7e bd a0 a1 03 3c
       -0.028630504 0.035224944 -0.062202483 0.00803414
000070 14 23 52 3b 9c 4e 95 bc 82 bf 77 bd 86 05 0a bd
       0.0032064365 -0.01822596 -0.06048537 -0.033696674
000080 bc 2b f5 bc 30 d6 25 3d 22 45 66 3b dc d6 ac bc
       -0.02992808 0.04048747 0.0035136421 -0.021098547
000090 5f bf de 3c 0d f0 20 3d 9c 48 9d 3c ee 71 1d bd
       0.027190862 0.03929143 0.019199662 -0.03843873
0000a0 cc a6 53 bd dd 7c 56 bd 4c 8c 03 bd 11 82 1b 3d
       -0.05167274 -0.052365173 -0.03211622 0.037965838
0000b0 84 04 c5 bc 94 2f 46 bd 19 1c 4c bd c0 11 97 3b
       -0.024050005 -0.048385218 -0.049831484 0.0046102703
0000c0 98 d6 e6 3c d4 61 cb 3c 9c b0 71 bd 3a 11 69 bd
       0.028178498 0.024826922 -0.05900632 -0.056901194
0000d0 bc 55 22 3d c6 d5 27 3d 92 d1 5f bd 78 b9 5f 3d
       0.039632544 0.040975355 -0.05464322 0.054620236
0000e0 cc 6a 47 3d be f6 98 3c ac 79 dd bc 0a 35 1e 3d
       0.048685834 0.018672343 -0.027035557 0.0386248
0000f0 26 bf 39 3d 1e de 4d bd 14 cd 9b 3c ca 20 03 bd
       0.04534831 -0.050260656 0.019018687 -0.032013692
000100 6a fa 09 bd 43 58 85 3c 52 0a dc 3c 3a c1 a7 bc
       -0.03368608 0.016277438 0.02686039 -0.02047788
000110 ba f3 6f bd f8 dd 63 3d 40 77 a5 3a 80 03 40 3d
       -0.058582045 0.055631608 0.001262404 0.046878338
000120 2c ba c0 3c 96 b0 47 bd 9f 46 dd bb e6 12 27 bd
       0.023526274 -0.04875239 -0.0067528035 -0.040789507
000130 38 78 92 bc 3f a8 00 bd 3e f4 03 3d c4 c3 7a 3d
       -0.01787959 -0.031410452 0.03221535 0.061221853
000140 7b 17 0d 3d 40 5f 5f 3b 8a 27 70 bd 40 45 a2 bc
       0.03444622 0.0034083873 -0.058631457 -0.019808412
000150 93 2e 18 3d 68 21 d5 bc f8 72 b6 bc 62 28 2e bd
       0.03715379 -0.026016906 -0.022271618 -0.04251898
000160 48 e3 69 bc 10 6b 84 bb e6 ef 63 3d 10 3f 5c 3d
       -0.0142753795 -0.004041083 0.055648707 0.05377108
000170 d8 c3 fd 3b 0e 5d 8e 3c a8 dc 56 3c 06 0b 4d bd
       0.0077442937 0.017378356 0.013114132 -0.05005934
000180 60 8e b7 bc a9 81 73 bd c8 bb 47 3d fc 13 2f 3c
       -0.022406757 -0.059449825 0.048763067 0.010685917
000190 7f d9 f6 bc b0 d5 12 3c dc 6b 6f bd 8c 63 74 bd
       -0.030133007 0.00896208 -0.058452472 -0.059665248
0001a0 bd 4c 39 bd 37 9d ec 3b 18 68 d2 bc ce 31 8b bc
       -0.0452392 0.00722089 -0.025684401 -0.016991522
0001b0 1c 9d 7e 3d b0 5d 01 3c 18 28 24 3c 9a 76 62 3d
       0.06216155 0.007895872 0.010019325 0.05528889
0001c0 93 24 2c 3d 92 18 67 3c 00 fe 74 39 c6 cf 2f 3d
       0.042027067 0.014104979 0.00023364276 0.042922758
0001d0 03 c5 2c bd 08 4d 1f 3d b4 84 6d bd fa 02 62 3d
       -0.042180073 0.038891822 -0.057987884 0.05517862
0001e0 9c d4 af bc c0 08 45 3c 8e 78 19 3d c0 9d 31 bd
       -0.021463685 0.012026012 0.037468486 -0.043363333
0001f0 df 4a 4b 3d 8e 6e de bc ba d8 2a 3d 07 bf 47 bd
       0.04963195 -0.027152326 0.041710593 -0.048766162
000200 73 23 18 3c 89 e4 3a bc 80 6c 3b 3b b0 46 d7 3b
       0.0092857955 -0.011407026 0.0028598607 0.006569706
000210 61 89 7f bd d0 77 4f bd 74 98 88 bc 11 a5 29 bd
       -0.062386874 -0.05065137 -0.016674258 -0.041417185
000220 99 a1 19 3d 00 6a 33 bc 4a 96 38 3d 27 94 03 3d
       0.037507627 -0.010950565 0.0450652 0.03212371
000230 90 87 54 bc 00 b4 5f b9 c2 5c 40 bd 4e 62 74 bd
       -0.012971774 -0.00021333992 -0.04696346 -0.059664063
000240 9a ec cf 3b f5 7f a4 bd 5a c2 38 bd 7c 2b 74 3c
       0.006345344 -0.08032218 -0.045107223 0.014902946
000250 2f 66 e5 3c ae 15 f3 3c 3e be af 3b 9c 1d 33 3d
       0.028002826 0.029673424 0.005363255 0.04372941
000260 8c d8 c9 bc 6c ba 0b 3d ec 56 da 3c 12 b5 11 3c
       -0.02463939 0.034113333 0.026652776 0.008893268
000270 50 6d d2 bb 80 02 66 3a d4 00 74 bd 7c d6 15 3d
       -0.0064217225 0.0008774176 -0.059571102 0.0365815
000280 d0 b6 7e 3c a2 15 5c bd 90 4f 77 bd 7a 95 2a bd
       0.015546516 -0.05373157 -0.06037861 -0.04164646
000290 98 66 e9 bc 8a 51 7f bd a2 ff 8a bc 40 1d f2 bb
       -0.028491303 -0.06233362 -0.016967598 -0.007388741
0002a0 08 62 2e 3d a5 61 78 3d b5 70 74 3c f2 5c b0 bc
       0.04257396 0.060639996 0.01491945 -0.021528695
0002b0 bc ee 25 bd 88 21 5c bd 55 e7 a2 3b 4b 12 76 bd
       -0.040510878 -0.053742915 0.0049714246 -0.06007604
0002c0 4a 33 49 3d da 36 22 bd 28 28 97 bc 20 54 0e bb
       0.04912118 -0.03960309 -0.018451765 -0.0021717623
0002d0 da 3e 22 3d e4 25 b6 bc b9 54 41 bb 9e 77 48 3d
       0.03961072 -0.022234865 -0.0029499962 0.0489422
0002e0 12 be 7a 3d d0 61 23 bd 80 af 76 bb 32 51 2c 3d
       0.06121642 -0.039888203 -0.0037641227 0.04206962
0002f0 e8 6e 77 bc 0c 34 7d 3d 96 53 bc 3a 97 59 35 3d
       -0.015102126 0.061817214 0.0014368172 0.044274893
000300 c3 79 cc bc b0 66 d3 bb 38 d5 cf bb ce ba 34 bd
       -0.024960404 -0.0064514503 -0.0063425563 -0.044123463
000310 40 f4 25 3d 12 10 ff bc da 8a 2b bd 2a 2e 70 bd
       0.040516138 -0.031135593 -0.041880466 -0.058637775
000320 8e 3a 05 3d 00 8a f8 b9 4d bd 8e bb ff 64 40 3c
       0.032526545 -0.00047405064 -0.0043560625 0.011742829
000330 02 1c 68 3d 54 57 f8 bc dc 13 79 3d b5 a3 26 3d
       0.056667335 -0.030315079 0.060809955 0.040683467
000340 d3 b1 d2 bb 2e c2 54 3d b0 77 62 3c 7f 3d ad bc
       -0.0064298897 0.051942997 0.013822481 -0.021147488
000350 50 22 67 3d 68 3f 3b bc 5e 55 7e bd ab 75 70 bc
       0.056429207 -0.011428691 -0.06209313 -0.014676492
000360 9e 4f 07 bd 2d ce e0 bc 68 d5 9d bc b9 ff 2f 3d
       -0.033034913 -0.027442062 -0.0192668 0.042968486
000370 9a 56 7f 3d 8d 2e 61 bd 37 51 7e bd 90 d4 d4 3c
       0.06233845 -0.054976035 -0.06208917 0.025980264
000380 7c ba 92 3c 96 ff 71 bd 5f 36 79 bd d4 d7 55 3d
       0.017911188 -0.059081636 -0.060842868 0.052207783
000390 b0 42 51 bd 98 d2 65 3c 4c d7 96 bc 84 4a af bc
       -0.05108899 0.01402726 -0.018413208 -0.021397837
0003a0 32 72 3c 3d 94 ed fc 3c 81 84 94 bc 77 e7 34 3d
       0.046007343 0.030875005 -0.018129589 0.044166055
0003b0 a4 0c 0a bd f0 22 bf 3b dc f3 d8 bc 6a 4a 0d bd
       -0.03370346 0.0058330223 -0.026483469 -0.034494795
0003c0 77 bf ab 3c cd cc 1e bd 71 ff 08 bd e2 fb 01 3d
       0.020965321 -0.038769532 -0.033446733 0.031734355
0003d0 80 4c 86 bb e2 2e 26 3d ad 66 1f 3c 98 88 69 3c
       -0.004098475 0.040572055 0.00972907 0.014253758
0003e0 48 d3 4e bc b6 09 eb 3c 4e cd 3a bd 10 f3 ef 3c
       -0.012623616 0.028691154 -0.04560595 0.029290706
0003f0 4a d5 fa 3b 31 e5 82 bd 5a d1 33 3d 54 2a 9c 3c
       0.0076548206 -0.06391371 0.043900825 0.019063152

mean_layer.bias f4 [2]
000000 29 15 c3 3b d5 2b 22 3d
       0.00595345 0.039592583

log_std_layer.weight f4 [2, 256]
000000 fc 1d c7 bc 32 11 24 3d 7c 36 c6 bc bc a7 06 3d
       -0.02430629 0.04005546 -0.024195902 0.032874808
000010 ac ec fc bc 00 d0 ed b8 40 52 c6 ba 98 aa 33 bd
       -0.030874573 -0.00011339784 -0.0015130714 -0.043863863
000020 a2 31 1f 3d 68 e6 fd 3c 28 ec 03 bc 72 96 20 bd
       0.038865693 0.030993655 -0.0080519095 -0.039205976
000030 94 3c c7 3c ac 50 7d bd a8 bd 06 bd 16 cc 63 bd
       0.024320878 -0.061844513 -0.032895714 -0.055614553
000040 da a3 16 3d ae f7 5f bd a8 c5 05 bd e6 2d 25 3d
       0.036777355 -0.054679565 -0.032659203 0.040326975
000050 00 50 43 3d 20 11 95 bc 44 be 01 3d dc 42 87 3c
       0.047683716 -0.018196642 0.031675592 0.016511373
000060 80 b9 40 ba e8 d7 fe bc 7e f2 4f bd 8c a4 5f 3d
       -0.00073518604 -0.031108811 -0.050768368 0.054600284
000070 f4 f5 6c bd f8 bb 78 bd 0c f8 62 bd 64 c3 1b 3d
       -0.057851747 -0.060726136 -0.055412337 0.038028136
000080 08 70 1e bc f8 11 75 3c 20 43 8a 3b cc af ea 3c
       -0.009670265 0.014957897 0.0042194277 0.02864828
000090 48 85 f7 bc b2 dd 05 bd 72 87 0a bd 54 62 1d bd
       -0.03021492 -0.03268213 -0.033820577 -0.03842385
0000a0 16 82 6f bd 88 35 a6 bc a4 8a 30 3d 72 b0 2d 3d
       -0.05847367 -0.020289198 0.043100968 0.0424046
0000b0 94 f8 de bc d0 27 21 bd c0 0f 1c 3c c0 a6 5f bd
       -0.02721814 -0.03934461 0.0095252395 -0.054602385
0000c0 6c 97 a4 bc c4 43 49 bd e8 fb 89 bc e4 72 db 3c
       -0.020091735 -0.049136892 -0.016843751 0.026788183
0000d0 c6 84 39 bd 22 06 18 3d a8 07 32 bc e0 e8 cb 3c
       -0.04529264 0.037115224 -0.010866083 0.024891317
0000e0 48 8e 14 bc 06 c3 35 3d 60 84 d5 3c 00 1a c4 ba
       -0.009067126 0.044375442 0.026064098 -0.0014961362
0000f0 86 3e 77 bd e0 6b 46 3d 9a 8d 27 3d 00 92 13 3d
       -0.06036236 0.04844272 0.040906526 0.03602791
000100 70 8a 71 3c 46 3a 37 3d 34 25 e2 3c b4 0d 50 bd
       0.014742479 0.04473331 0.02760563 -0.05079432
000110 48 d0 43 3c e0 47 95 3c d8 31 e9 bc 68 07 08 3d
       0.011951514 0.01822275 -0.02846615 0.03321019
000120 c0 bf 9c 3a 3c cc c4 3c e2 cb 2c 3d 6c 06 34 3d
       0.0011959001 0.024023168 0.042186625 0.043951437
000130 fc ff e8 bc 42 5a 61 bd f4 7b b1 bc 20 49 44 3c
       -0.028442375 -0.055017717 -0.02166555 0.011980325
000140 24 ce a0 bc da 5e 14 bd 22 c3 14 3d e0 cc b6 bc
       -0.019629546 -0.03622327 0.036318906 -0.022314489
000150 0c e5 ce bc bc b9 db 3c 4c a2 93 bc b6 aa 0c bd
       -0.025255702 0.026821963 -0.018021725 -0.03434249
000160 20 48 1d bd 9a d3 13 bd 22 b9 14 3d 00 79 cf 39
       -0.038398862 -0.03609047 0.03630937 0.0003957227
000170 98 1d 8d 3c c6 bf 18 bd fc 1e 52 3d 44 8f b0 bc
       0.017226025 -0.037292264 0.05129908 -0.02155269
000180 38 1d 6b bc a8 12 bd 3c c6 eb 0e bd 60 b2 02 bd
       -0.014350228 0.023080185 -0.03489282 -0.031908393
000190 2a e2 2c bd 9a ef 1c 3d 50 e6 a9 bb 30 0c 3f 3d
       -0.042207874 0.03831444 -0.005184926 0.046642482
0001a0 7c c9 8a 3c 12 a6 3e bd 1a 8e 27 bd ec 78 8b 3c
       0.016941778 -0.046545096 -0.040907003 0.017025433
0001b0 96 88 71 3d e0 6c 9d 3b dc 1a 5c 3d 60 8f 1f 3b
       0.05896815 0.0048042387 0.053736553 0.0024346933
0001c0 76 05 7b bd 08 fd cc bc b2 93 66 bd 68 56 7f bc
       -0.061284505 -0.025022998 -0.056293197 -0.015584566
0001d0 02 fb 0e 3d c4 4e 27 3d 78 c3 8f 3c a8 98 5f bd
       0.03490735 0.0408466 0.017549261 -0.054588944
0001e0 d8 49 66 bc a0 10 4f 3b e2 e4 68 3d 10 c4 9e 3b
       -0.014055692 0.0031595603 0.056858905 0.00484515
0001f0 f4 10 c5 3c 48 9e 68 3c 4e 54 5d bd 30 33 e3 3b
       0.024055935 0.014197893 -0.054035477 0.0069335923
000200 38 32 16 bd f8 da 27 3d 68 cd f4 bc ac 1d 82 3c
       -0.036668986 0.04098031 -0.029883102 0.01588329
000210 28 5c 42 3c a6 e4 5c 3d 58 86 4f bd b8 e1 6d bc
       0.011862792 0.053928994 -0.05066523 -0.014519148
000220 b8 ce 02 3c 1c f1 12 3d 2a 62 0d bd e4 8f f2 3c
       0.007983856 0.03587447 -0.034517445 0.029609628
000230 10 5a d7 3b ca 8c 2f 3d 2c 33 91 3c 76 f6 38 3d
       0.0065720156 0.042858876 0.017724596 0.04515692
000240 44 c0 d3 bc c6 5f 6a bd e8 43 21 bd ca 8b 12 bd
       -0.025848515 -0.057220243 -0.0393714 -0.035777844
000250 c0 2e b8 bc 76 bc 50 bd 48 f3 37 3c 7e 40 1b bd
       -0.02248323 -0.05096098 0.011227436 -0.0379033
000260 a0 99 0c 3b 00 f4 62 39 70 a0 f7 bb a4 8d c2 bc
       0.0021453872 0.00021643937 -0.0075569674 -0.02374918
000270 80 a4 42 3d c2 45 12 3d 0c 64 aa bc 18 de c3 3c
       0.04752016 0.035711057 -0.02079966 0.023909613
000280 b8 c3 5d bc 80 e4 60 ba 3c 7d bd 3c dc 19 4e bd
       -0.0135354325 -0.0008578971 0.023131005 -0.05031763
000290 ce fe 06 bd 5e 0f 12 3d 90 27 79 bd d6 cc 15 3d
       -0.032957844 0.035659187 -0.060828745 0.0365723
0002a0 e0 02 b8 3b e8 48 5b bc 70 06 ba 3b b8 f8 5b bc
       0.005615577 -0.013384081 0.005677037 -0.013425998
0002b0 b6 7e 57 bd 14 52 b6 bc e8 2a 47 3d 88 b0 24 bd
       -0.052611075 -0.022255935 0.048624903 -0.040207416
0002c0 90 b6 5b bd f0 4d 9c bb b6 bd 1a 3d 9e f5 6d 3d
       -0.053640902 -0.004770033 0.03777858 0.058095567
0002d0 2a 4a 2f bd 80 c3 f6 3b e8 1e 5e 3d 58 27 fa 3c
       -0.042795338 0.0075306296 0.054228693 0.030536339
0002e0 54 83 42 bd e2 f3 6b 3d 00 6c a0 39 f2 b6 3a bd
       -0.047488526 0.05760563 0.00030598044 -0.045584626
0002f0 00 d7 69 bb 64 6e c8 3c 20 b9 96 3c 10 e9 18 3d
       -0.0035681129 0.0244667 0.018398821 0.03733164
000300 34 ec 41 bd 5a 96 1b bd f0 01 d1 bc 70 f8 58 3d
       -0.0473444 -0.037985183 -0.02551362 0.052971303
000310 34 57 84 3c 50 56 38 bd 06 c7 53 bd 22 23 23 3d
       0.016154863 -0.04500419 -0.051703475 0.039828427
000320 f2 6c 62 3d be 2e 06 3d 18 27 3b bd 50 57 e2 bc
       0.05527968 0.03275942 -0.04569158 -0.027629524
000330 d0 ce c7 3b 24 6c 08 bd 08 c0 4e bd d4 e3 7d bd
       0.006097652 -0.033306256 -0.050476104 -0.061984852
000340 ca 2a 75 3d c8 57 dd bc 6c 6c ba bc 58 6e 10 3c
       0.05985526 -0.027019396 -0.022756778 0.0088153705
000350 14 12 e2 bc 20 b7 45 3d c2 70 19 3d 50 eb 5f bc
       -0.027596511 0.048270345 0.03746105 -0.013666943
000360 8c b9 d9 3c e8 2e c6 3c 12 85 77 bd 78 ca 6a 3d
       0.026577733 0.024192289 -0.06042964 0.057321995
000370 bc 62 80 bc 42 92 6e bd c8 68 4c bc 4c 66 85 bc
       -0.01567208 -0.05824495 -0.012476154 -0.01628413
000380 30 6f 1a bd 72 2a 26 3d ce b2 58 bd 80 22 5f bc
       -0.037703693 0.040567823 -0.052904896 -0.013619065
000390 f0 92 8a 3b 88 f5 05 bc 16 e8 54 3d c2 b6 33 bd
       0.004228942 -0.008176215 0.051979147 -0.043875463
0003a0 60 1c 9d bb 2a db 11 3d 34 03 87 bc 54 5e aa 3c
       -0.0047946423 0.0356094 -0.01648102 0.020796932
0003b0 5c a1 d6 3c b8 15 5b 3d e0 e4 38 3b 00 60 58 b7
       0.026199989 0.05348751 0.0028212592 -1.2896955e-05
0003c0 24 3f f7 bc 58 38 b4 bc f0 40 14 bc b4 73 95 bc
       -0.030181475 -0.021999523 -0.009048685 -0.018243648
0003d0 a8 de 78 bc e8 bb 43 bd 78 fc 0b bd ca 7e 6c 3d
       -0.015189804 -0.047786623 -0.03417632 0.057738103
0003e0 5e 91 21 bd 00 3f 2f 3b 2c e7 89 3c de 4b 0b 3d
       -0.039445274 0.0026740432 0.016833864 0.0340079
0003f0 c6 eb 77 bd 80 3a 0a bd 54 ca a2 bc bc 27 38 3d
       -0.060527585 -0.033747196 -0.019871868 0.04495977

log_std_layer.bias f4 [2]
000000 88 c8 18 bd 55 20 b3 bc
       -0.037300617 -0.021866003
