outputs/router_rule/ppo/summer20251128-100014/models/hac_model.pth (torch, 869122 bytes, 27 tensors)

router_backbone.0.weight f4 [128, 6]
00000000: 4e64 b63d a561 d33e 0488 c03d bcdb be3e
00000010: 2e9a 3fbe cf03 333c 2687 4bbe e682 753e
00000020: 4b43 b83e 6358 99be 9fae b53e 857b 9c3d
00000030: b46d 9a3e d8b1 633d 81cc 493e 7c6a 6abd
00000040: db5d a13e 5507 793d 14e8 43be 0883 d53d
00000050: 97af 40be 17ff 44bd 6142 2abe 5b74 8a3e
00000060: 23ff a4be 41b9 40be 6717 ecbd 165c 7bbe
00000070: 78d3 1d3d a272 cebe c71c 1a3e 7a87 88be
00000080: d56b f63e 8316 8e3d 9978 65be b8c3 3d3e
00000090: 404e 823d 0fe2 a83e 81cd 363d 30d7 03be
000000a0: f8a4 e03d 29bb e2bd 1cf0 2f3e 9177 ba3e
000000b0: b159 713e c910 37be 3f3a 713e 21fc 943d
000000c0: 048b 533e 5f5e 7fbe 6648 cfbe 1645 22be
000000d0: a6b4 a0be 4f22 ab3e 23d2 f03d 1129 2d3e
000000e0: 87e7 033e c18d f2bb 2f70 a33e fca9 94be
000000f0: f192 d23c acaa 8ebe c8e7 003e bdf7 0fbe
00000100: 9f18 003e 5831 aebd b15c ad3e dec6 77be
00000110: 6c52 79be 4656 79be 1d01 bc3e 7c50 0b3e
00000120: f621 c93e 7880 acbe 3753 cfbe 3988 a3be
00000130: 8a9b 8cbe 5553 293e 39b1 153e b3ae ad3e
00000140: c3e3 57be 587e 8ebe 64ce 5d3e e7f9 28be
00000150: e4b8 7d3e c167 c6bd 4424 6f3e 7f67 a2be
00000160: 8af7 52be a9e7 fe3d ef37 0dbe d16e 9dbc
00000170: 8f3b a63e 38f3 8e3e 6890 c7be 81f9 88be
00000180: 0065 bf3e f90f 0dbe 4a34 14be ea3f cabe
00000190: 1467 6fbe e6db d03d 8eb7 5cbd 1aba 97be
000001a0: 4ee5 1c3c a3c7 8ebe a455 b1be d433 66be
000001b0: 6e6b 17bf fb10 3ebe 1a9f fb3e 9c7d a33d
000001c0: c02e 103d 1968 dbbe ea47 89be 2e26 0bbe
000001d0: a0bd 823d 85ec b7be f71f 34be 6b45 7abe
000001e0: 324a 943a 6e8e 1bbe 2dc0 e7bc eaa3 8dbe
000001f0: f478 8fbe 92e3 73be 10db 0fbe af4b a5be
00000200: 571f af3e b3fd a6bd 187a b33e 3bae 013e
00000210: 0a00 b1be c0a6 903e e90b e6bd 7f3f 20be
00000220: 0281 adbe 75cd cfbe 0837 ef3d a8a3 b6bd
00000230: 4dc1 223e a389 abbe 532f 9b3e 286f 99be
00000240: e7f6 a5be 7828 3d3e 865c ae3e e856 aa3e
00000250: be0f 873e ae2b c8be c86a d23d 03d0 33be
00000260: ff3e 37bd a673 9cbe f963 be3e a269 99be
00000270: e46c 5f3e 03eb 123e bcd8 073e df03 62be
00000280: edfd bd3e 4fbb b73d 511a 5a3d 0df3 b7be
00000290: 5e76 2f3e 9724 7abd 7e10 3fbe 32b8 b33e
000002a0: e467 ba3d 8e4b 67be e996 53be 7ab6 9fbc
000002b0: bd6b 693e 61a6 d5bd 0667 0abf 356c 6dbd
000002c0: ca48 1cbe 1414 0c3e 0f06 3e3e e1a4 f1be
000002d0: 4eae c03d 1599 573e 5218 963d d9a2 15be
000002e0: 5c6f 593e 42ed 5a3e 0d31 a23e fe1f 45be
000002f0: c639 c9bd 464d 233d 17c1 5039 ffe3 e4bd
00000300: ef9b 853e f6d4 b33e 6e2a 24bd 336a babd
00000310: 4b8a d13b 82ad c4bc 8e01 c93d 1e4d ea3d
00000320: c0d8 bdbe 5d46 1abe 4806 b03e 1dda 223e
00000330: 4257 a6bc e10a 7cbe 49c3 7fbe 6a3c bbbe
00000340: 7344 08be 0c2d 0d3e 01f2 843e ea90 403e
00000350: 5c17 b9be 4eb5 7bbe a785 84bd a70a ca3e
00000360: a5eb 743d c05f d7bd 3464 2d3e 8a9e 1ebe
00000370: 11ea 86be 2bed 983e ed1a d0be 3d94 b63c
00000380: 3c1e a8be 1aca 8d3e c3ed 5a3e 403f c93d
00000390: b654 70bd 3654 01bf b801 ebbe b948 9b3e
000003a0: 492f 963e 00ab cf3e 7900 5b3e c59b d33d
000003b0: 6000 83bb 9ef6 9ebe d015 b3be 6f82 c3be
000003c0: da21 2b3e 513f 4dbe 0a44 a8bd 7c96 70be
000003d0: 135b 98bd 261e 93be b1e3 01bf 9865 7d3e
000003e0: bf40 d1ba d755 823e 1759 70be 6914 babe
000003f0: ef84 93bd 98a5 4abe a4cb ffbd 36fd c6be
0.0890585 0.41285434 0.09400943 0.3727702 -0.18711159 0.010926201 -0.19875774 0.23975715
0.3598884 -0.29950246 0.35484788 0.07640747 0.30161822 0.055589527 0.19706918 -0.057230458
0.3151692 0.060798008 -0.191315 0.10425383 -0.18816982 -0.048094835 -0.16626884 0.27041897
-0.32225904 -0.18820669 -0.11527901 -0.24546847 0.03853175 -0.40321833 0.1505004 -0.2666586
0.48129144 0.069378875 -0.22409286 0.18531692 0.06362581 0.3298497 0.044629578 -0.12875056
0.10968965 -0.11070854 0.17181438 0.36419347 0.23569371 -0.17877497 0.23557375 0.07274652
0.20658499 -0.24938343 -0.40484923 -0.15846667 -0.31387824 0.33424613 0.117588304 0.16910197
0.1288129 -0.0074021523 0.31921527 -0.29035938 0.025704833 -0.27864587 0.12588418 -0.14059348
0.12509392 -0.08505505 0.3385978 -0.24196956 -0.24347848 -0.24349317 0.367196 0.13604921
0.39283723 -0.33691764 -0.40493175 -0.31939867 -0.27462417 0.16535695 0.14618386 0.33922347
-0.21082978 -0.27830768 0.21660763 -0.1650158 0.24777561 -0.09687758 0.23353678 -0.31719586
-0.20602241 0.124465294 -0.13790868 -0.01921788 0.32467315 0.27919936 -0.3897736 -0.26752856
0.37381744 -0.13775624 -0.14473072 -0.39501888 -0.23379165 0.10198192 -0.05388599 -0.29634172
0.009576155 -0.27886686 -0.3463565 -0.22480708 -0.591483 -0.18561165 0.49144822 0.079829425
0.035200834 -0.42852858 -0.2681268 -0.13588783 0.06383824 -0.35922638 -0.17590319 -0.24440543
0.0011313616 -0.15191051 -0.028289879 -0.2766412 -0.28021967 -0.2381728 -0.1404841 -0.32284304
0.34203598 -0.08153858 0.35054088 0.1266412 -0.34570342 0.2825222 -0.112327404 -0.15649222
-0.33887488 -0.4058644 0.11680418 -0.08917934 0.15894051 -0.33503446 0.30309543 -0.29967618
-0.32414934 0.18472469 0.34054965 0.3326943 0.26379198 -0.39095825 0.10274273 -0.17559819
-0.044737812 -0.30556983 0.37185648 -0.29963404 0.21818882 0.14347462 0.13266271 -0.22071789
0.37107792 0.08971273 0.053247754 -0.3592762 0.17134997 -0.06107005 -0.18658635 0.35101467
0.09101847 -0.22587416 -0.20663036 -0.019496191 0.22795005 -0.10432125 -0.5406345 -0.057964522
-0.15262142 0.13679534 0.18556999 -0.47196105 0.09408246 0.2105449 0.073288575 -0.14612903
0.21233886 0.21379569 0.31678048 -0.19250485 -0.098254725 0.039868616 0.00019908357 -0.11176299
0.2609553 0.35123414 -0.040079527 -0.09102287 0.0063946596 -0.024008516 0.0981475 0.1144049
-0.3707943 -0.15065904 0.34379792 0.15903516 -0.02030528 -0.24613525 -0.24976839 -0.3656953
-0.13307361 0.13786715 0.25965884 0.1880528 -0.36150634 -0.24580881 -0.06470805 0.39461252
0.05979504 -0.1051631 0.16932756 -0.15490165 -0.26350453 0.29868445 -0.40645543 0.022287482
-0.32835567 0.27693254 0.21379761 0.09826517 -0.058674537 -0.5051912 -0.4589975 0.3032892
0.2933295 0.4056015 0.21386899 0.10332445 -0.0039978474 -0.3104753 -0.3497758 -0.3818545
0.16712132 -0.20043685 -0.082161024 -0.23494905 -0.07439246 -0.2873394 -0.50738055 0.24745786
-0.001596473 0.25456116 -0.23471485 -0.36343697 -0.072030894 -0.19789732 -0.12490013 -0.3886506

router_backbone.0.bias f4 [128]
00000000: 7c3f 85be 7f97 ce3e 4f44 203e 5b5a 273e
00000010: c41d 7abe 1b3f 2fbe 596c 7cbd 507a 99bd
00000020: 759c 8fbe d588 083d f431 263d d8bb 53bd
00000030: 6cd1 673d 62b1 25be 3b98 d93d 5dcd 283e
00000040: 8733 5cbe 5143 cfbe 5215 663e 5370 c73d
00000050: 019d 54be 3623 c93e 820f 3dbe 293f 8d3e
00000060: 2dab 603e 273f afbe c3ce 863e 3201 c0be
00000070: 919a 67be 88bf 84bd 7745 8dbe 339f c53e
00000080: e2e2 a6bd 2f0b 263e a6a3 babe b258 703e
00000090: 2c2f 01be 7851 98be 8179 4f3d 0687 4a3e
000000a0: 55e3 b43e c6e0 73be edb8 4dbe e3bf a03d
000000b0: e7be b33d 212f 163e 8a74 653e a301 bfbd
000000c0: fa40 683e 6a1c 9a3e bd4a dabd be0d 923e
000000d0: aa23 413e 1114 b83e 9690 6dbe 5c6f 4ebe
000000e0: 22bd f1bd c3a5 a93c 3adf 723e dd29 5ebe
000000f0: 6a18 373e 8566 29be ae8b 7c3e 60c7 9ebc
00000100: 581f b7be 0fb8 5bbe 739c 97be d455 4f3e
00000110: fb28 8cbe 5873 c3bc f40e a33d 3f31 57be
00000120: 146c 013e 844f d1be 20cf 95be b2f0 c2be
00000130: 29e6 fcbd 0d4b 18be af19 4c3d 099b 9abd
00000140: 057e 4e3e 6f11 bb3e ce74 f33d 9e6b 25be
00000150: ecb9 c3be cb6a 173e 005d 56be ddbb 543e
00000160: f319 8c3e 1d91 ef3d 1745 bf3e b6d3 c63e
00000170: be08 b13d 343a 9cbe fabf ba3e 740b 4bbe
00000180: 3577 45be b73a b43e c07e 9e3e 60a0 fc3d
00000190: 4da3 d13c a0e2 b3be 9de5 64bd 4619 c33e
000001a0: 4f40 bd3d 9e6c fc3c 8f9d adbd a1ce 11be
000001b0: 422a 793e b456 c83c 1058 803e bafc 93bd
000001c0: 1966 2d3e 5e34 353e a753 853d e67c 793e
000001d0: 7240 803e 98bf c13e e6d0 a53e 3bc9 d5bd
000001e0: 4346 aabe 31da 983d ed2b e93b 8786 edbd
000001f0: f501 8cbd 924b 9d3c 0961 943e 9246 0d3e
-0.26024997 0.40349957 0.15651058 0.16343062 -0.24425417 -0.17113917 -0.061626766 -0.074940324
-0.28049055 0.03333362 0.040574983 -0.051692814 0.056596205 -0.16180947 0.10624739 0.1648459
-0.21504031 -0.40481046 0.2246907 0.09738221 -0.20763017 0.39284676 -0.18462947 0.2758725
0.21940298 -0.3422787 0.26329622 -0.37500912 -0.22617556 -0.06481844 -0.2759206 0.38598022
-0.08148743 0.16215204 -0.3645298 0.23471335 -0.12615651 -0.29749656 0.050652985 0.1977807
0.3532969 -0.23816213 -0.20090075 0.078490995 0.08776646 0.14666416 0.22407737 -0.09326484
0.22681037 0.30099803 -0.106587864 0.2852611 0.18861261 0.3595281 -0.23199686 -0.20159668
-0.11803652 0.020708924 0.23717967 -0.21695657 0.17880407 -0.16543014 0.24662659 -0.019382179
-0.357661 -0.21456932 -0.2961155 0.20247585 -0.27375016 -0.023858711 0.079618365 -0.2101488
0.12638885 -0.40880978 -0.29259586 -0.3807426 -0.12348587 -0.1487238 0.04982918 -0.07549102
0.2016526 0.36536738 0.11887513 -0.16154334 -0.38227785 0.14786832 -0.20933914 0.20774789
0.27363548 0.116976 0.373574 0.38833398 0.086442456 -0.30513155 0.36474591 -0.19828588
-0.19283755 0.35201046 0.30956078 0.123352766 0.025590563 -0.3513384 -0.05588304 0.3810522
0.092407815 0.030813511 -0.084773175 -0.14238979 0.24332526 0.024455406 0.25067186 -0.07225938
0.16933478 0.17695758 0.06510096 0.24364051 0.25049168 0.37841487 0.3238594 -0.10438772
-0.3325673 0.07463492 0.007115832 -0.11597925 -0.06836311 0.019201074 0.28980282 0.13796452

router_backbone.2.weight f4 [64, 128]
00000000: d18e 00bd 1ce1 14bd e14d b3bc d4ed 0bbd
00000010: d7c6 a23d 89c0 3f3d c074 a33d c8fe 9339
00000020: 7b06 923c 9e15 fb3c 2b58 abbd b550 013c
00000030: f0bb c1bb 7bfa 4abd 2376 8cbd 7540 a03d
00000040: 402e 933d 28cb 273d d7bc ac3d 0beb 12bd
00000050: 1221 7abc 1713 093d 0d46 6fbc d516 8ebc
00000060: a49f 95bd 1288 c23c 31ca 5abd daa7 523b
00000070: 4b7d b03d d1e1 debc 2439 e4bc 2e6c 5a3d
00000080: cd1a 05bd 42ba f8bb 5406 a93d 256d 14bd
00000090: ca80 81bd d89c 4abd 4ebf c8bc 72c9 2bbd
000000a0: 94df 3bbd 583e 123d 9b18 763c d4bf e7bc
000000b0: d0a2 8cbd 9ffb e3bc 64cb 18bd e4a0 ebbc
000000c0: 3c4d a3bd c0fc 9b3c caff 84bd 4bfa 8cbd
000000d0: 18e6 93bd e91b 173d faf4 59bd 886e 15bd
000000e0: ece3 8d3d c63a 403d fc96 4f3d 09e1 abbd
000000f0: 16cf 81bd 70ac 08bd 268a 953d 9525 143c
00000100: 4462 87bd e816 113a aa97 8cbd 13a5 9ebc
00000110: 6c1a c7bc 95b3 9c3d fa45 e03c 3084 7cbc
00000120: 8ca2 743c 2404 d1bc c03e 0e3d 9c35 0f3d
00000130: ba72 c23c 441d 0dbd d06f 9a3d ee11 51bc
00000140: 9cf2 0cbd fabf 623d 808a 933d a624 b43d
00000150: 9283 d63c 62d5 f6bc 65e0 373d 6d4e 9b3d
00000160: c98c b1bd 4f68 33bc dbe5 76bd 5af0 863c
00000170: d4bb 153d eb95 95bc 064c f2bb 1ff5 223d
00000180: 1564 73bc 2e04 98bd 0fd7 903d 2538 36bd
00000190: 9517 1fbc 6499 083c 210f aebb 4848 aabd
000001a0: 731a 263d 0a73 24bd 5bc6 3bbd 46fe ac3c
000001b0: 2aef 3cbd d551 27bd 52fa f3bc 8302 08bd
000001c0: 6f33 17bd ff45 c3bc 8f2b bc3c ed7b 92bd
000001d0: 8722 5bbd a40b a93a 6464 493c 84f3 473d
000001e0: d74f 7ebd 8f1f e73c 71c7 4d3d 9106 493d
000001f0: f59a a8bd cd27 0abd 1699 9bbd 2a1a 65bd
00000200: 27dc 433d b13c 58bc 8643 193d 12a2 52bd
00000210: ba0f 5c3c 374e 38bd f0fa 343d 1e59 1ebd
00000220: 7484 afbc 41ac 9dbd b016 9939 d0df ab3d
00000230: c5b9 2f3d 9729 41bd 7bce 9b3a d73f 81bc
00000240: e7bb 91bd 87ef 8d3d ec23 0abd 117d 983c
00000250: a333 12bd dddd 27bd 1dc9 6e3c 83d9 053d
00000260: eeee 493c 957b 2ebd 53c0 af3d 829e 4dbc
00000270: cbb7 5dbd 7300 50bd 5aa7 b33d 6803 883b
00000280: ef9c 4cbc aaaa 16bd 44d0 bdbc 7eff 96bd
00000290: d564 8ebd bc09 603d 662c aa3d 30bf ac3d
000002a0: 7eaf 82bd 2428 263d ff16 60bd 56fa 573d
000002b0: 0f35 0d3e cbc8 8a3d dc57 823d 1074 653d
000002c0: b97d e13a b459 263d d817 fdbc c62f 513d
000002d0: 47cb c3bc a6c0 45ba 2f8e 9dbd ed53 bdbc
000002e0: dc65 3ebd 113f f4bc f65c 5fbd 6410 70be
000002f0: 50d2 ea3d d993 463e fedc a43d b142 533d
00000300: 7ea8 3bbd cc08 c5bd 1cc8 0a3d f6da 4a3d
00000310: 4368 9bbd c0ed d43c 54bf a13d 6ad0 143c
00000320: 0267 5ebd af62 9c3d e7c5 153d 6c70 a63d
00000330: 6dd7 74bd d1af 523d 9941 87bd 1b1e b33d
00000340: ba10 60bd 7552 583d 87ea 913d c46d c23c
00000350: ee14 5ebc bcb3 143d c40a 45be 05a0 aabd
00000360: 6918 08bd 065f 093e a1ac 88bc d586 e73c
00000370: f2da 05bd d2f5 723d 36ad 583d 8804 133d
00000380: 6f0f 39bd dbe3 a7bd 7c28 033b 8e64 54bd
00000390: 3dd5 943d 7d56 b6bd 24f1 533e 8883 243e
000003a0: 0fc4 4f3d db0e e33c ca2a aebd 0b1f ae3d
000003b0: 0eb4 77bc a061 a8bd 58b1 b73d 1c53 13bd
000003c0: 6795 dbbb 3abf 9c3d 28f7 7abd 765e 80bd
000003d0: f4bd 3e3c 57d7 41bc e92f ee3b 66d2 97bd
000003e0: ec5b b339 2d05 21bd 4b41 52bd 65ed 97bd
000003f0: a5f5 3f3d d57b 8b3c 4ccf 9abd ac66 873d
-0.0313862 -0.036347494 -0.021887721 -0.034162357 0.07948082 0.046814475 0.07981253 0.00028227852
0.017825356 0.030649956 -0.08366426 0.007892777 -0.0059122965 -0.049555283 -0.0685847 0.07824794
0.07186556 0.04096523 0.08434456 -0.035868686 -0.015266674 0.03346547 -0.014604104 -0.017344872
-0.0730584 0.023746524 -0.05341548 0.0032143504 0.08617648 -0.027207287 -0.027859278 0.053325824
-0.032496262 -0.007590563 0.0825316 -0.0362369 -0.06323393 -0.049465984 -0.024505284 -0.04194016
-0.045867518 0.035703987 0.015020515 -0.028289713 -0.068669915 -0.027829943 -0.037303343 -0.028763242
-0.07973716 0.019041419 -0.064941004 -0.06883677 -0.07221621 0.03689185 -0.053212143 -0.036482364
0.06928238 0.04693105 0.0506811 -0.083925314 -0.06338327 -0.033367574 0.0730174 0.009042163
-0.066105396 0.00055347243 -0.06864865 -0.019365823 -0.024304591 0.0765144 0.027377117 -0.015412375
0.014931332 -0.02551467 0.03472781 0.034963235 0.023736347 -0.034451738 0.07540858 -0.012760622
-0.034411058 0.055358864 0.07204151 0.08796053 0.026185784 -0.030131046 0.044891734 0.07583318
-0.08669431 -0.010950162 -0.0602778 0.01647203 0.03655608 -0.018259963 -0.0073943166 0.039784547
-0.014855404 -0.07422672 0.07072269 -0.044487137 -0.009710212 0.008337352 -0.005311862 -0.08314568
0.040552568 -0.040148772 -0.045843463 0.02111734 -0.046126522 -0.040849525 -0.029782448 -0.03320552
-0.036914285 -0.023837088 0.02296999 -0.07152543 -0.053499725 0.0012897146 0.012292001 0.04881622
-0.06208786 0.02821329 0.05023903 0.049078528 -0.08232681 -0.033729363 -0.07597558 -0.055933155
0.047817376 -0.013198064 0.03741791 -0.051424094 0.013431484 -0.044996466 0.044184625 -0.038659208
-0.021425463 -0.076988705 0.00029199338 0.08392298 0.042901773 -0.047158804 0.0011887097 -0.015777512
-0.07115918 0.06930452 -0.033725664 0.018614324 -0.035693776 -0.04098307 0.014574316 0.03267814
0.012325032 -0.042598326 0.08581605 -0.012549998 -0.054130357 -0.05078168 0.08772154 0.0041507967
-0.012488588 -0.03678385 -0.023170598 -0.0737295 -0.06952826 0.054696783 0.083092496 0.084349036
-0.06381129 0.040565625 -0.05470943 0.052728973 0.13789771 0.067765795 0.06364414 0.05601889
0.0017203606 0.04061289 -0.030895159 0.05107095 -0.023900641 -0.00075436605 -0.07693135 -0.023111308
-0.04648386 -0.029815229 -0.054532014 -0.23443753 0.11465895 0.19392337 0.080499634 0.051577274
-0.045814984 -0.096208185 0.033882245 0.049525224 -0.07588246 0.025992274 0.07897821 0.009082893
-0.054297455 0.0763601 0.036565688 0.081269115 -0.05977576 0.051437203 -0.06604309 0.087459765
-0.05470345 0.052813012 0.07124811 0.023733981 -0.013554795 0.03630422 -0.19242388 -0.083313026
-0.033226404 0.13415155 -0.016683878 0.028262535 -0.032679506 0.059316464 0.05289956 0.035892993
-0.045180734 -0.08197757 0.0020013144 -0.05185371 0.072672345 -0.08903215 0.20697457 0.160658
0.050724085 0.027717045 -0.08504255 0.08502015 -0.015118612 -0.082217455 0.089693725 -0.03596793
-0.0067011598 0.07653661 -0.061270863 -0.06268017 0.011641968 -0.011831126 0.007268895 -0.07413177
0.00034210028 -0.039311577 -0.0513318 -0.07418326 0.046865124 0.017026821 -0.0755907 0.0661138

router_backbone.2.bias f4 [64]
00000000: dbb3 66bb 5d7f 55bd e5aa 503d 3864 783d
00000010: 39f3 98b8 1395 81bd 4f78 3ebd 3bd5 b0bd
00000020: dec4 41bd 3f07 b3bd 7892 ffbb bb8e 80bd
00000030: 6b69 4f3d ec6c 91bd d598 79bd 893b 83bd
00000040: 7908 10bd ad83 d43c ae47 823d bf89 cc3d
00000050: 5d0e f0bc 44fe a93c e9c4 783c 27fd 243d
00000060: 3c4f 063d 9138 803d 0b8b 903d 6db1 963d
00000070: 5bf7 933b f9fd 5a3d 5dc8 6dbd 1510 98bc
00000080: 04f3 83bc 4dc2 0abd a4eb 70ba 54da a8bd
00000090: fc72 27bd c73d 77bc 5043 113c 6e41 803d
000000a0: 9493 78bd 87aa b03c 68f3 5d3d 4c9e 63bd
000000b0: bac0 ab3b 96a4 60bd 7c39 4abc eaad 45bd
000000c0: 71a1 cabc d01f 2ebd 249f 9c3d 1a49 b03c
000000d0: 6d37 b0bd d240 373c 496d 453d 7774 20bd
000000e0: 2f13 7fbd eb77 d8bc 0210 b2bd 63b3 06bd
000000f0: f629 943c 71e6 8fbd 3394 8fbd 1199 86bd
-0.0035202417 -0.052123416 0.050944228 0.06064245 -7.2932286e-05 -0.06327262 -0.046501454 -0.086344205
-0.047306888 -0.087416165 -0.007799443 -0.06277224 0.050637644 -0.07100853 -0.060936768 -0.0640784
-0.03516433 0.025941694 0.06361328 0.099872105 -0.029303724 0.020751126 0.015183666 0.040280487
0.032790408 0.06260789 0.0705777 0.0735806 0.004515571 0.053464863 -0.05805241 -0.018562356
-0.01610709 -0.033876706 -0.00091903866 -0.08244768 -0.040881142 -0.015090412 0.008866146 0.0626248
-0.060687616 0.021565689 0.05418721 -0.055570886 0.0052414807 -0.05484446 -0.012342807 -0.04826156
-0.024735184 -0.042510808 0.07647541 0.021519233 -0.08604322 0.011184888 0.048199926 -0.03917357
-0.062274154 -0.026424369 -0.086944595 -0.03288592 0.018086415 -0.07026375 -0.07010689 -0.06572164

router_head.weight f4 [2, 64]
00000000: 9201 bbbd a394 bf3c aaa7 613d 3772 a23d
00000010: 23e5 043e caf0 843d 9033 64bd 6bec b73d
00000020: d476 83bd a9c9 a03d 34b3 2a3d 64ff 6b3d
00000030: 059c acbd 1504 c93d 1460 e1bd 9dd7 b73d
00000040: 8b51 c3bd ee9c df3d 9ec4 97bd 034e 5bbe
00000050: 0173 743d 6cf9 e23d 58cb e7bc b0c5 723d
00000060: 3e7c 063e d3ff 5cbe 1040 0d3d c8b3 eb3c
00000070: 34a9 91bd d0ed 9b3d f853 e63d ecda c43d
00000080: fdaf d4bd 2863 383e bbb3 413e 946a 453d
00000090: 8e37 46bd 11c4 023e d3e9 a2bd 5a89 9bbd
000000a0: 7ec9 8c3d 88c2 aa3d a2be efbd daa3 f23d
000000b0: 3566 a03d 30f1 873d a9ca 083e 0e23 fc3d
000000c0: dc0a b33d 728e 033e f008 413c 6ddd c83d
000000d0: c2f6 883d 60ca 7bbd 8612 8f3d 2a04 1a3c
000000e0: 4bd6 bcbc 010a d33d aedd 193d 447c c73d
000000f0: 56f3 49bb b113 343e fa41 80bd 9c42 b53d
00000100: ca16 9f3d dfb3 acbd 4e46 e2bc 41b6 323c
00000110: 59f7 a63d 3b60 633d 4085 f53d 74b2 31be
00000120: 20f9 21bc be24 62bc cea1 d03d 64ad f13d
00000130: f473 023d eb54 d0bd 4ab2 b9bd f054 85bb
00000140: df81 fdbd 1ac4 69bd aef3 bfbd 2456 393e
00000150: 7e31 6abc a86e c8bd 089c ce3d ef36 f1bd
00000160: 5e19 efbc 7138 703e 61cc a13d bacb ddbd
00000170: 80f9 5c3c 680f a8bc ab67 5f3d 2287 ec3d
00000180: 30ee f63d d5d7 a6bd a780 d8bc 82c3 fcbd
00000190: ead7 043e 57ff 0e3d a210 b7bd 4c15 14bd
000001a0: a40d 47bd 6cad 95bd 4ab1 1f3e 10b6 23bd
000001b0: 3fc2 213d dd05 31bd f8d1 843d b9a3 49bd
000001c0: f063 b1bc e019 86bd a094 bc3b ec21 3dbd
000001d0: 7a34 b3bd 9c48 f3bd b23c 9f3d d073 883c
000001e0: a1b8 cdbd 9d4c 633d 8b8f 063c 68e2 38bd
000001f0: dcea b23c be8e ffbd f7b1 683e a032 70be
-0.09131159 0.023386305 0.055091538 0.07931941 0.12978034 0.06491239 -0.055713236 0.0898064
-0.06419149 0.078509636 0.041674808 0.057616606 -0.08428196 0.09815232 -0.110046536 0.08976672
-0.095370375 0.10918604 -0.074105486 -0.21416478 0.05967999 0.1108273 -0.028295204 0.05927056
0.13133332 -0.21581964 0.034484923 0.02877225 -0.07112351 0.076137185 0.112464845 0.096120685
-0.103851296 0.18006575 0.18916218 0.048197344 -0.048392825 0.12770106 -0.07954755 -0.07594557
0.06874369 0.08337885 -0.11706282 0.118476585 0.078319944 0.066378 0.13358559 0.12311374
0.08742306 0.12847307 0.011781916 0.098078586 0.0668769 -0.061472297 0.06985955 0.009400407
-0.023051402 0.103046425 0.037564926 0.09740499 -0.0030815206 0.17585637 -0.06262584 0.08850595
0.077680185 -0.08432745 -0.027621415 0.0109077105 0.081526466 0.055511694 0.11988306 -0.1735323
-0.009886056 -0.013802705 0.10187112 0.1180065 0.031848863 -0.10172447 -0.09067209 -0.004068963
-0.123782866 -0.057071783 -0.0937265 0.18099266 -0.014294026 -0.09786731 0.10088354 -0.11778056
-0.0291869 0.2345903 0.0790031 -0.108298734 0.01348722 -0.020515159 0.054542225 0.11549212
0.120571494 -0.081466354 -0.026428534 -0.12341978 0.1297299 0.03491148 -0.08938719 -0.036153123
-0.048596993 -0.07308468 0.15594974 -0.03996855 0.039491888 -0.043218482 0.06485361 -0.049228404
-0.0216541 -0.06547904 0.005755022 -0.04617493 -0.087502435 -0.118790835 0.077752486 0.016656786
-0.10044981 0.055492986 0.008212934 -0.045137793 0.021840505 -0.12478398 0.22724138 -0.23456812

router_head.bias f4 [2]
00000000: 50c8 d7bd a950 bdbd
-0.105362535 -0.092439

experts.0.fc1.weight f4 [256, 6]
00000000: c0dd a3be 9b8d 3c3b 4c73 683e 8929 db3d
00000010: 176e 313e 596a 4a3d c629 f0bb b834 bdbe
00000020: 50ba ba3e 3c2a ca3e 08d7 04bb 5daa 973d
00000030: d3de 9b3d 17a6 ce3e 9bc0 9aba c661 8abd
00000040: fe05 64be ea5d d73d 8cc9 403e 9d94 b0be
00000050: 22b2 0e3e 4534 d03d fb1f 393e cdac 433e
00000060: 3286 dbbd 7a24 613d 184d 92be 1ef2 7b3e
00000070: 07b6 afbe 2c39 b7be 4612 9bbe 2f8e 69be
00000080: 5e1b 893c f003 893e c88b 5dbd 68f1 953e
00000090: 8f98 89bd 7763 b13e f26a 903e b029 843e
000000a0: 64f9 2a3e c4a2 8cbe dbd4 cc3e 0bef c6be
000000b0: a586 92be 77a0 7cbe d0a2 dcbd 8b91 353e
000000c0: 1a65 ac3d 3fbd b3be 86f7 c93e 0855 c43e
000000d0: 757a 4e3e 0d9a ccbe 4e8a 693e 3f8e ee3d
000000e0: 40ba 4ebd ea1a afbe 8816 b13e cff0 f9bd
000000f0: b2d3 a8be 267c a13e 6574 233e bfbf f63d
00000100: d03f 873e f4f0 113e c8f8 b5bd 3307 59be
00000110: f4fa bd3e b0ee d43c 0794 b7be 8c1c 67be
00000120: ce82 9dbe cc9a 1e3d eab0 983e cbc5 793e
00000130: 1d88 dc3d 0605 0b3e 4903 46be 66a4 c33e
00000140: b170 1f3e a3be 83be f33f 8bbe 7b42 bbbe
00000150: eede edbd 91e2 983e e159 c43c 1721 46be
00000160: 8cbc e83d dd16 91be 114d f83d 7cb6 8e3e
00000170: 6840 4b3e 1091 febd 0e3e 0ebe 3b40 2e3e
00000180: a74e 7a3e e6e2 ccbd ab89 72ba 5d98 3cbd
00000190: 5486 44bd 527d b9be 8765 acbe f10c b33e
000001a0: ad9e 49be 5765 9a3e 5f87 813e 5b94 7fbd
000001b0: 5836 4abe 4014 5e3c 1bf0 90bd df06 78be
000001c0: 712c cb3e cd16 04bd 238b 80bd b5c3 8dbe
000001d0: eb5e 873d 2085 663d e8f7 cd3e 9365 01be
000001e0: cca4 6b3e 00ad a43c 1b3d 5e3e 3d50 f43b
000001f0: e38a 8fbd 2e2c 243e 2a35 3abe c055 7d3e
00000200: 9912 afbe 72d7 95be 5724 c73e 2288 1dbe
00000210: 6c33 a6be e6cc 98be 1e89 ca3e 6818 6bbd
00000220: b90a b0be 7146 72bd 823f 4bbe 6a0e 8cbe
00000230: 3b43 4cbe 1979 9e3e 8fef 283e 1d91 743e
00000240: 7e03 0a3d 58c6 2ebe 3b9e 2abe 5c49 8cbe
00000250: ae03 97be 5d38 b4be 9cec 933d 15ab 5b3e
00000260: 66b9 aa3e 99f1 24bc 1a6e 72bd efc3 09bd
00000270: c3b5 243e 996e 84bd 60e4 12be e85f e6bd
00000280: 732f ccbe 2cf9 a0be 5069 32be f13d 233d
00000290: b221 83be b669 203e 0154 64be 8562 ca3e
000002a0: cdb9 b8be 311a 693e 3b0e 59be 693a 14be
000002b0: 4b2c c3be a5b8 c1be 61bc c5be c862 05bc
000002c0: 3b5f c03e 805f 3f3e e4b9 823e ae97 ba3d
000002d0: 4485 21be 4bcf 22be ca5d f8bd a449 c3be
000002e0: 22ca 653e bc88 f8bd 0ff2 6cbe 650e d03d
000002f0: 8cf8 a239 44a8 633e 02bb 88be 5bcd cf3e
00000300: 7e68 26be 83f4 1d3e ef21 be3e 3450 c2bc
00000310: 8dd3 b7be bc62 cabe c5ce cd3e e3da c3be
00000320: a962 1bbe 9769 8e3e 9abb a2be 632f c33e
00000330: ff64 223d 34a2 013e dc94 823d 51a4 363d
00000340: fb4f 6a3e 2944 b5be 857c b53d 6ae4 3cbe
00000350: 0dfa c53e 2837 ad3e f6e8 23be 8ec6 683e
00000360: fa5f 8ebd 3797 5c3e a77b ecbd 21a3 74be
00000370: e85f 303e 88fd 4e3e 6b25 bc3e b02d 043e
00000380: 15db 3abe 08ff d43d 55d6 c63c aeaf b53e
00000390: 38d1 2b3e 646f b23e 8ddf fa3c a94d 9ebe
000003a0: afae 85be 54e3 bc3e 00ef ba3e 3a3e fb3d
000003b0: 6952 95be 8395 983e d51b 2d3e 0d15 a5be
000003c0: aaaf f33d 329e c93e 4de7 89be 914f 003d
000003d0: 9a7c ef3d 7528 16be 9f95 893e dae1 b93e
000003e0: 1979 cb3e c115 bbbe 7b2e ba3c 649e aa3e
000003f0: 4907 b23e 0dfd d7bd 0351 8a3e 2adc 9b3e
-0.3200512 0.0028770927 0.22700232 0.107012816 0.17327152 0.049417827 -0.0073291985 -0.36954284
0.3647027 0.39485347 -0.002026977 0.07405541 0.0761086 0.40361091 -0.0011806668 -0.0675693
-0.22267911 0.105159596 0.18826884 -0.34488383 0.1393514 0.101662196 0.18078606 0.19108887
-0.10718955 0.054966427 -0.28574443 0.24604079 -0.34318563 -0.35785806 -0.3028738 -0.22808145
0.016736683 0.26760817 -0.054088384 0.2928574 -0.06718551 0.34646198 0.28206593 0.25813055
0.16696697 -0.2746793 0.40006146 -0.3885425 -0.2861835 -0.24670587 -0.107732415 0.17731301
0.08417721 -0.3510532 0.39446658 0.38346124 0.20163901 -0.3996128 0.22806665 0.11648225
-0.05047059 -0.3420022 0.34587502 -0.12204134 -0.3297401 0.3154003 0.1596237 0.120482914
0.26415873 0.14252073 -0.08885342 -0.21194153 0.37105525 0.025992721 -0.35855123 -0.22569484
-0.3076386 0.038721845 0.29822475 0.24391858 0.10768149 0.13576135 -0.1933719 0.38211364
0.15570332 -0.25731382 -0.27197227 -0.36574158 -0.11614786 0.29860356 0.023968639 -0.1934856
0.113640875 -0.28337756 0.12124074 0.278736 0.19848788 -0.12430012 -0.1389086 0.1701669
0.24444066 -0.10004215 -0.00092520815 -0.046043742 -0.047979668 -0.36228424 -0.3367121 0.3497081
-0.19689436 0.3015544 0.25298592 -0.062397342 -0.19747293 0.013554633 -0.070770465 -0.24221371
0.39682344 -0.032248307 -0.06276538 -0.27688375 0.06609901 0.0562793 0.402282 -0.12636404
0.23012084 0.020102024 0.21702997 0.007455854 -0.070089124 0.16032478 -0.18184343 0.24739742
-0.34193876 -0.29265934 0.38894913 -0.15383962 -0.32461107 -0.29843825 0.39557737 -0.057396322
-0.3438318 -0.05914921 -0.19848445 -0.27354747 -0.19947521 0.30951765 0.16497634 0.23883481
0.033694737 -0.1706785 -0.16661923 -0.2739972 -0.29494995 -0.35199252 0.07222864 0.21451981
0.33344573 -0.010067367 -0.059187032 -0.033634122 0.16084962 -0.06466407 -0.1434493 -0.112487614
-0.3987995 -0.31440103 -0.17422986 0.039853994 -0.25611645 0.15665326 -0.2229767 0.3952829
-0.36079255 0.22763897 -0.21196835 -0.14475407 -0.3811973 -0.37836185 -0.38620284 -0.008141227
0.37572655 0.18688774 0.25532448 0.09110962 -0.15773493 -0.15899388 -0.12127264 -0.3814212
0.22440389 -0.12135455 -0.23139213 0.101589955 0.0003108423 0.22232157 -0.26705176 0.4058636
-0.16250798 0.15425305 0.37135264 -0.023719884 -0.35903588 -0.39528453 0.40196815 -0.38252935
-0.15174355 0.27814934 -0.31783754 0.3812209 0.0396471 0.12659532 0.06376049 0.044590298
0.22882073 -0.35403565 0.08861641 -0.18446508 0.38667336 0.33831143 -0.16006836 0.22731993
-0.069519 0.21542059 -0.11547022 -0.23890354 0.17224085 0.20213902 0.36747298 0.12908053
-0.18247636 0.10400206 0.024272123 0.35485595 0.1677903 0.3485061 0.030624175 -0.30918625
-0.26109836 0.36892188 0.36510468 0.12267728 -0.29164436 0.29801568 0.16905148 -0.32242623
0.1189874 0.39378506 -0.2693428 0.03132588 0.11693688 -0.1466387 0.26871964 0.36305124
0.39740828 -0.36540034 0.022727242 0.33323967 0.34771183 -0.105463125 0.27014932 0.3044141

experts.0.fc1.bias f4 [256]
00000000: 4adc 163e f3d5 2bbe 136b b4be d5d5 2cbe
00000010: 5ae8 ccbe b170 a63d bdd5 fa3c 8805 c13e
00000020: 9f37 66be fc33 58be 3f41 c83d 5763 d9bd
00000030: 58bd a23e ba61 7e3d 1e56 11bc ab63 20be
00000040: 5996 7c3e 6afe 43be 691a 283e d61f 863e
00000050: 4cce a3be a533 b9be e00f 6cbe 49e6 483e
00000060: 6b97 66be 164c 1f3d 6f7a 7c3d 6525 b03d
00000070: c92c 55be 92f6 643c 36d7 903e 2102 593e
00000080: dc1b 9f3d 7062 a6be 635f 443e b827 26be
00000090: 0b49 923e fd50 2d3e ddda 98bd 284c 213e
000000a0: 1988 2dbe 7b50 903d fe54 a9bc 9147 d43b
000000b0: 01cc 123e 0669 cb3e b985 38be 4d57 cc3e
000000c0: 426e 99bd c5cd c63e 63c3 bc3d f497 093d
000000d0: 8980 0bbe b281 5cbe 698e cdbe fee1 63be
000000e0: ba7c 14bd 2700 b03e 2588 623e ecc6 913d
000000f0: 4c24 cabe f21a 933e e9c0 8f3e 85e1 3bbe
00000100: 0aa0 293e a500 aebe 720d 53be 8350 fcbd
00000110: 58ae bdbe f04e ccbc 3937 ab3d db5d f33d
00000120: e574 c33e 67bd 713e e817 bfbe 1938 03be
00000130: b483 6a3e c067 c8be 17d5 cebc 797e 1e3e
00000140: c500 8cbe ba25 b33e 0af5 89be 112e 99be
00000150: a883 9ebe 3974 92bd d7e8 0b3e 5473 f13d
00000160: 1c40 4ebe a4f8 b63e 537c 60be c202 a43e
00000170: 4d01 0c3e f0e3 06be 0f64 9a3e 339d 0a3e
00000180: 4fba b1be 215f 543e aad5 c53e 4982 9cbe
00000190: a844 b0bd 7b84 a8be edfb 8b3e 07cc 5d3e
000001a0: a479 983e 9371 eb3d e37b 8abd 3a64 24bd
000001b0: 31bd 9bbe 4579 843e 17b7 27be 194a 363d
000001c0: 1390 5e3c b4c0 fc3d b5c1 a7be 446e 84bd
000001d0: c6dc 403e 7180 9abe efe4 33be ac31 66be
000001e0: c10d b1be 0fed cb3e c697 b43e 9c22 833e
000001f0: b10c adbe fb2e 74bb 6289 993d 2270 393e
00000200: 6966 a83d 0046 80be 0429 4f3c 9a37 a9be
00000210: a4f3 513e 65a9 833e 856e 15be 4bcf b6be
00000220: d6c1 783b 2769 553e 08c6 8ebe 452f 303e
00000230: e0b7 913e 446d adbe a2d2 663e 7f0f 3d3e
00000240: ea9a 56be 246e af3e 520a 49be 95de 9e3e
00000250: d410 a0be 1706 a53e 75fd bbbd a27c b8be
00000260: abfb 5e3e cb31 0abd 6e26 ec3d c894 403e
00000270: b6c5 333d 8f85 053e 922d b0be 0bb4 b8be
00000280: 7b4f 44be 9591 5abe bb46 c5be 48a5 813d
00000290: 45ac 04bd 9fbf b8bd 64de 9dbc d8e3 483e
000002a0: 3320 1bbe d4d2 d03c 115e 15bd 39df 493e
000002b0: 8e1f 33bd cadc 153e 8639 23be bfc3 a13e
000002c0: fc56 8d3d f6e5 8d3d a6b4 4a3e 3184 d0be
000002d0: 8fb9 383e 51c4 a73e 71ac 7a3e ef93 873e
000002e0: 61e6 a7be 25eb b43e 1fef ba3d 96e3 cbbe
000002f0: fdfc bc3e ccd6 a23e 7f63 85bd c7f7 cc3e
00000300: 5b07 d53c 39cd a73e e7c5 b8be 2207 c3be
00000310: 7290 e93d 8277 34bb 8148 b1be dc69 6abe
00000320: 5054 6a3e 7b40 853e 2789 9ebe e134 3bbe
00000330: f897 1b3b 814d 57ba ba1a 9abe 16bc 9a3e
00000340: 67cc 91be 36e8 943e ef48 81be 7bad cfbe
00000350: ca50 d03d 80fb 47be a5e9 8c3e 59e8 0abe
00000360: a9e5 203d de96 9b3e cdc0 87be e6af 2cbe
00000370: ae51 8e3e f52a b03e c057 923d 8daf a03e
00000380: d295 7c3e f1fa 6b3e 914d 86bc 36cf c93e
00000390: da96 04be bba4 e33c d9c2 fbbd 4212 fdbc
000003a0: 7939 7b3e 8f78 9e3e d130 783d b741 893e
000003b0: 47ac 923e 2be3 4a3e 69db e3bd 37ea 733e
000003c0: 9a4d af3e f3e9 ac3e f2a3 d83d 8a41 9a3e
000003d0: f08d 90be dff9 9e3d c2a4 b7be 2e7c 563e
000003e0: 9e88 993c f739 a0bd 643f 853e 48bd 7ebd
000003f0: f3fe 2a3e 0138 613e 2713 4fbe d738 b5be
0.14732471 -0.16780834 -0.3523794 -0.16878445 -0.4002102 0.08126963 0.030619496 0.37699533
-0.22482155 -0.2111358 0.0977807 -0.10614651 0.31785083 0.062104918 -0.00887063 -0.1566302
0.24666728 -0.1914002 0.16416325 0.26196164 -0.3199333 -0.36172214 -0.23052931 0.19619097
-0.22518699 0.03889092 0.0616402 0.086008824 -0.20817865 0.013974803 0.28289193 0.21192218
0.07768986 -0.32496977 0.19177012 -0.16226089 0.28571352 0.16925426 -0.0746362 0.15751708
-0.16946448 0.070466004 -0.02067041 0.006478258 0.14335634 0.39728564 -0.18019761 0.39910355
-0.07491733 0.38828865 0.092169546 0.03359218 -0.13623251 -0.2153385 -0.40147713 -0.22254178
-0.03625176 0.34375116 0.22122248 0.071180195 -0.39480817 0.28731495 0.28076866 -0.18347748
0.16564956 -0.33984867 -0.20610598 -0.12320044 -0.37047076 -0.024939984 0.08360142 0.11883136
0.3817512 0.23607408 -0.37322927 -0.12814368 0.22901803 -0.39141655 -0.025248094 0.15477933
-0.27344337 0.3498972 -0.26944762 -0.29917958 -0.3095982 -0.07151074 0.1366304 0.11789575
-0.20141643 0.35736573 -0.21922426 0.32033354 0.13672371 -0.13172889 0.30154464 0.13536529
-0.34712455 0.20739414 0.38639575 -0.3056815 -0.08606845 -0.32913575 0.27340642 0.21659862
0.29780304 0.11496272 -0.06761911 -0.040134646 -0.3041778 0.2587377 -0.16378437 0.04450426
0.013584155 0.12341443 -0.32764974 -0.06466344 0.18834218 -0.30176118 -0.175678 -0.22479886
-0.34580806 0.398293 0.35272044 0.25612342 -0.33798745 -0.0037259448 0.07496907 0.18109182
0.08222658 -0.25053406 0.012644056 -0.33050233 0.20503098 0.25715175 -0.14592941 -0.35705027
0.0037957332 0.20840894 -0.2788546 0.17205532 0.28460598 -0.33872426 0.22541288 0.18462943
-0.20957533 0.34263718 -0.19632843 0.31029192 -0.3126284 0.3223121 -0.091792025 -0.36032587
0.21775691 -0.033738893 0.115307674 0.18806756 0.043889724 0.1303923 -0.34409767 -0.36074862
-0.19170944 -0.21344598 -0.38530526 0.06330353 -0.03239085 -0.09020924 -0.019271083 0.19618165
-0.15149002 0.025491156 -0.03646666 0.19714059 -0.043731265 0.14635006 -0.15939912 0.31594655
0.069013566 0.06928627 0.19795474 -0.40725854 0.18039535 0.32766965 0.24479844 0.26480052
-0.32792953 0.3533565 0.0912764 -0.39822072 0.36911765 0.31804502 -0.06513118 0.4003279
0.026004484 0.3277376 -0.36088488 -0.3809138 0.11404504 -0.0027537053 -0.3462563 -0.22891945
0.22883725 0.26025757 -0.30964014 -0.1828189 0.0023741703 -0.0008213148 -0.30098516 0.30221623
-0.2847626 0.29083413 -0.25250956 -0.40562043 0.10171659 -0.19529533 0.27522007 -0.13565196
0.03928152 0.3038854 -0.26514283 -0.16863975 0.27796692 0.34407774 0.07145643 0.31383935
0.24666527 0.23044945 -0.016394408 0.39415902 -0.1294817 0.02778851 -0.122930236 -0.030892495
0.24533643 0.30951354 0.06059343 0.2680795 0.28647062 0.1981322 -0.111258335 0.23819815
0.34238893 0.3377224 0.10578145 0.30128127 -0.2823329 0.07762503 -0.35867888 0.20945808
0.018741902 -0.07823556 0.26024926 -0.06219223 0.16698818 0.2199402 -0.2022215 -0.35394928

experts.0.fc2.weight f4 [256, 256]
00000000: 1713 ad3b cec6 1dbd 0093 0fbd 82a8 ee3c
00000010: ed69 6e3c d77c 68bc bb98 bcbc 7851 3dbd
00000020: d63f ddbc b045 833b 64c9 16bd 5715 84bd
00000030: 7740 79bd da6a 71bd a483 ebbc 4097 8d3c
00000040: 9822 eabc ebe3 273d 721a 0c3d 0087 49bd
00000050: b431 773c 9c81 dcbc d68b 553d 3cc1 403d
00000060: a4d6 ea3c 5a6e 01bd a011 143c 59a1 22bd
00000070: 2851 193c b9d8 7b3d 5071 45bc 1773 14bd
00000080: c41e f7bc 681e 20bd 4874 003d 1139 18bd
00000090: 3231 333d 9239 143d 8b3d 1b3d 0d1b 58bb
000000a0: f9ae 5abc fc78 b93c 6de0 1dbc d4c2 cd3c
000000b0: 1aee 6b3c 439a af3c 38dd dabc 888a 203d
000000c0: e867 44bc fa76 113d 4b15 88bb ead2 7cbd
000000d0: ad52 b8bb 287e a2bc 34da fdbc 0aec 33bb
000000e0: 2114 c6bc 719f 963b bd9e 99bc 6cd6 1ebd
000000f0: c480 b93c 18e3 52bd 616a 47bd cbb0 1fbc
00000100: d728 bcbb 06b2 70bd 8add 003d 1004 a93b
00000110: c973 d53c 80ae 21ba b081 5fbc 482e b4bc
00000120: 84c1 c0bb e469 4abd 5b65 de3c f886 913c
00000130: f3d9 353d 76fb 6dbd 2056 d5bb d853 c6bc
00000140: 133f d73a ab70 173c a662 1dbc 0914 b0bb
00000150: 2bfc 2dbc 9812 793c 4b2b 0dbd ac2a f7bb
00000160: 209b fa3c 3124 2b3d 719e f33b 30f8 e0bb
00000170: 5e0c 323c f0b7 eb3c a7c8 423c 6ef8 14bd
00000180: 78bb 49bd 96fd f13c 9c91 debc de48 bd3c
00000190: 8af6 5bbd fbc6 0a3d 51cd d43c 1013 4abc
000001a0: 1208 43bd 8d0f f1bb c6bd 0f3d 753a 403d
000001b0: 60c1 17bb 759b a0bb 6000 523d 2084 2d3c
000001c0: bd3b 733d de97 673d 7075 27bd fc7c 34bd
000001d0: dcf0 a9bc e093 1cbc 0d8d 663d 4e8e 40bd
000001e0: 33f9 e63c db34 433d c0be 803b 1ee0 57bd
000001f0: 5474 3fbd f047 183c ac23 943c c8e0 6d3c
00000200: 8e4c 1f3d 3c3f 233d d54c 60bd 4e82 f23c
00000210: 20c6 1d3d e24a 01bd a7a7 1ebd ae1d 67bd
00000220: b894 7cbd 3487 043d 2019 8f3c 744a 0cbd
00000230: 1414 66bd b836 6fbd 7b99 693d 3c83 a83c
00000240: 84ae 2a3c 6051 a9bb 5002 d13c 10f4 dd3b
00000250: 3191 da3c c72c 803c b6e2 03bd 54c4 f1bc
00000260: 4565 843c 8d8e 7e3c f4bf 343d 365d 3dbd
00000270: fc3c f63c 50d6 6abd a078 af3b 2a3c 4ebd
00000280: e4d3 fbbc 4053 12bd 06d8 653d 8a29 653d
00000290: 0413 e3bc 6d70 3fbb a9c6 57bd 72be 51bd
000002a0: 1c9d 01bd b268 bd3b 8470 66bd 6025 55bc
000002b0: 6919 123c d98c d339 10e6 c8ba ed5c 333c
000002c0: a5fd 7b3d 84aa 59bd 9cea 39bd ba06 073d
000002d0: e0d3 9c3c e949 583d 0f85 4a3d c75c 3fbd
000002e0: 9097 68bc 4683 66bd 645a ce3c 4190 173d
000002f0: 974c 4cbd e296 0cbd 9ebc 083d 1879 793c
00000300: 2642 21bd 3c00 20ba 1629 2abd ef12 c43c
00000310: 64bf 383c 7097 883c 7d9f 2dbb 00b5 5e3b
00000320: 32e2 3dbd b8f8 6e3d 2096 27bb c73e bd3a
00000330: b019 b93b 7307 72bd 06d5 813c 7026 5b3d
00000340: 4eb5 133d 4d0c 153c 80a3 943c c0ef 353c
00000350: 0090 2839 e033 e03c f8a7 a83c dad3 a33c
00000360: 2699 1bbd 4083 f9bb b29c 1f3d 9417 293d
00000370: 9c20 10bd 1ba7 a43c 800b 2cbd 6c6f 853c
00000380: c23d af3c 3557 18bd dcca 3c3d b8c9 363d
00000390: 3ca0 363d a468 8c3c 7944 d03c b050 beba
000003a0: ba9a 07bd a0ed 9b3c 1415 dbbc 369b 813c
000003b0: 6f9c 04bd 9848 dbbc d0ab 49bd e00e 8abc
000003c0: 1b34 193d 682e 9f3c 00b8 a5bb ac7c 223d
000003d0: c27b 353d efbe ddbc 9a78 3dbd 68c5 463d
000003e0: 9632 68bd d0d1 46bd 7cff 51bd bc4a 26bd
000003f0: d775 2ebd d2f5 d03a 94c0 e2bc 97c9 433d
0.0052818167 -0.038519673 -0.0350523 0.029133085 0.014551622 -0.01418992 -0.023022046 -0.046220273
-0.027007978 0.00400611 -0.036813155 -0.06449383 -0.060852494 -0.058939792 -0.028749295 0.017284036
-0.028580949 0.040988844 0.034204908 -0.04920101 0.015087534 -0.026917271 0.05213531 0.047059283
0.028666802 -0.03159938 0.009037405 -0.039704654 0.009357728 0.06148598 -0.012050942 -0.03624257
-0.030166037 -0.039091498 0.031360894 -0.037163798 0.04374809 0.036187716 0.03790049 -0.0032975108
-0.013347381 0.022640698 -0.009636027 0.025117315 0.01440003 0.021435862 -0.026716813 0.039194614
-0.011987664 0.035513856 -0.004152929 -0.06172458 -0.00562509 -0.019835547 -0.030987836 -0.0027453923
-0.02417952 0.0045966436 -0.01875245 -0.038778707 0.022644408 -0.051486105 -0.048685435 -0.009746741
-0.005742173 -0.058763526 0.031461276 0.005157955 0.026056187 -0.0006167665 -0.01364176 -0.021994725
-0.005882444 -0.04941739 0.02714794 0.017764553 0.044397306 -0.05810114 -0.006510511 -0.024209902
0.0016421996 0.009243171 -0.009606039 -0.005373482 -0.010619204 0.015202187 -0.034465116 -0.0075429287
0.030591547 0.04178256 0.007434659 -0.0068655238 0.010867206 0.028774232 0.01188866 -0.036369734
-0.04925105 0.029539865 -0.027169041 0.023106035 -0.053701915 0.03388117 0.025976809 -0.012333646
-0.04761512 -0.00735659 0.03509309 0.04693075 -0.0023156032 -0.0049013444 0.05126989 0.010590583
0.059383143 0.056541316 -0.04088348 -0.044064507 -0.020744734 -0.0095567405 0.05628686 -0.047010712
0.028195 0.04765783 0.003928989 -0.05270397 -0.0467418 0.009294495 0.018083416 0.014518924
0.038891368 0.039855227 -0.054760773 0.02960315 0.038519025 -0.031565554 -0.038734104 -0.05642479
-0.061665267 0.032355502 0.017468035 -0.03425069 -0.05617149 -0.058401793 0.057031136 0.02057039
0.010417584 -0.0051671714 0.025513798 0.0067734793 0.02668056 0.015646352 -0.03219863 -0.029512562
0.01616157 0.015536916 0.044128373 -0.04623147 0.030058376 -0.05733329 0.005354956 -0.050350346
-0.030740686 -0.035723925 0.05611422 0.055947818 -0.027719028 -0.0029211298 -0.05267969 -0.051207013
-0.03164397 0.005780303 -0.056259647 -0.013009399 0.008917191 0.00040349996 -0.0015327353 0.010947448
0.06152119 -0.053141132 -0.045389757 0.0329654 0.019143999 0.05280486 0.0494433 -0.04671934
-0.014196292 -0.056277536 0.025189586 0.037002806 -0.04987773 -0.03432358 0.033383004 0.015226625
-0.039369725 -0.00061035505 -0.04154309 0.02393481 0.0112761 0.016673774 -0.0026492768 0.0033982396
-0.046358295 0.058342665 -0.002557166 0.0014438265 0.005648814 -0.059089135 0.015848648 0.053503454
0.036061577 0.009097171 0.01814437 0.011104524 0.00016075373 0.027368486 0.020587906 0.01999848
-0.03798785 -0.007614523 0.038967796 0.04128225 -0.03518735 0.020099213 -0.042003155 0.016288482
0.021391753 -0.037192542 0.0460919 0.044625968 0.044586405 0.01713974 0.025423275 -0.0014519896
-0.033106543 0.019034207 -0.02674345 0.01582108 -0.03237575 -0.026768014 -0.04923612 -0.016852796
0.037403207 0.019431308 -0.005057335 0.039669678 0.044307478 -0.027068583 -0.046257593 0.048528105
-0.056688868 -0.048539937 -0.05126904 -0.040598616 -0.04259285 0.0015942401 -0.027679719 0.047799673

experts.0.fc2.bias f4 [256]
00000000: 80b2 94bb a126 29bb 005e 5e3d fa05 5bbd
00000010: c0c8 ec3b 8080 c2ba 80de eebb 496e 07bd
00000020: 3032 843c 205f 5d3d 00ad 5d3b e9a5 2abd
00000030: 3a35 34bd b4ad 27bd a0e5 cbbc 9419 2fbd
00000040: ed31 7abc 6718 b43c 52ac 48bd eabe 3ebd
00000050: 38c3 d2bc 7fe3 4d3d 254f 31bb dd21 fa3c
00000060: 0803 9abc ec9a 7b3d 5b51 51bd 11e9 5cbd
00000070: d6e8 7a3d 705f e33b 4ed7 1a3d 7064 83bb
00000080: 5702 66bd 1452 323d ba38 89bb fdd8 783d
00000090: d85a 9abc b609 2a3d 42fe 11bd 3065 4a3d
000000a0: 177c a7bc dae0 febc 8fcf 373d 8e96 2ebd
000000b0: 6238 78bb 4a72 a0bc c756 15bd 2840 a33c
000000c0: 00e8 08b9 e0a5 30bc e27b 013d 8a62 453d
000000d0: de0c 593d f8ca 1a3c 0a24 bb3b 3109 2ebc
000000e0: e4df fcbb 9d04 50bd 0ce7 bcbc 0880 6b3d
000000f0: 92bb 11bd 20e8 df3c c2c1 683d 0983 36bd
00000100: d012 2bbc 585e 703c b453 863c 10db a6bc
00000110: 047f 0cbd a21d 6fbd 151b 5d3d 0d2a d8bc
00000120: 9ee6 67bd 7a9e 033d a4c7 833c 68e3 783d
00000130: 7bb2 093d 02e3 113d 8e04 343d 1077 4ebd
00000140: f1ad 65bd 7884 69bb 182f 473c 049e 7b3d
00000150: a88e c73c 2cc5 3cbd b083 6a3d a822 6fbc
00000160: a89d 09bd 841c 6fbd d49d 16bd 0dc8 fc3c
00000170: c43c f13c 5c02 8eba fad5 5bbd 142f c6bb
00000180: c9b2 613d f2e6 0ebd ebea 5a3d f8d6 083d
00000190: 450b 5c3c dfbc c8bc e814 a83c 07cf 50bd
000001a0: 8164 1dbd 663a 463d 0d8f 77bc c839 3a3d
000001b0: 9306 56bc 80cf 4d3d 3882 e6bb 6866 343c
000001c0: b68e e63c 1302 37bd e11d bf3c d801 953c
000001d0: b804 603d c973 4a3d 107c e23c a34b f13a
000001e0: 9818 473c f7c1 ef3b dd4f 043d 3925 14bd
000001f0: 3c6f e93c eb85 1e3d e0f0 d3bb 50d8 62bd
00000200: 926c 4fbc ae7f c33b f06e 9c3c 69bf e73c
00000210: e0a3 0b3d 3505 c2bb 1e40 5c3d e86f 6bbc
00000220: c688 27bd ced0 833b 196f 7d3d ed6b 1d3c
00000230: 2d72 4f3d dacf 53bd 7c1c bb3c aa42 663d
00000240: 7626 4e3d a862 5bbd 0aa0 913b e70e e23c
00000250: bae3 6dbd ba94 2a3d 598e 4abd 980f 35bd
00000260: dce1 c73c 3b36 c13c 9420 a63c 5489 4b3c
00000270: 5c77 71bd c40a 9a3c 4135 013d b03c 91bb
00000280: 1e2c 2e3c d858 fbbc 85d0 30bd 6326 f73c
00000290: 729f c53c e698 0dbd 5860 413d 27c4 29bd
000002a0: 9f4b a0bc 4a02 2a3d a358 d6bc 1831 763c
000002b0: f6b7 213d 73ed 2cbd b4ba 063c 8f78 5e3d
000002c0: 4c61 403d 779a f43c 7e86 46bd 3eee e03c
000002d0: 7007 69bd 6259 b9bb 1caf 8dbc de06 1e3d
000002e0: 5d54 34bd a771 f43b b0e3 193d a88d 883c
000002f0: c098 11bd 3d1a 8cbc 40c3 83ba ccb0 2f3d
00000300: aad6 53bd e035 683b 0f73 57bd 658b ea3c
00000310: c767 8d3c 1040 49bb 4f4b 443d e073 853b
00000320: 38d6 14bd f4a8 9bbc 9403 48bd 7d39 063c
00000330: ac59 f33c 8b29 313d 1fc5 1d3d 55b3 053d
00000340: d425 ab3c b8e0 6f3c 9450 4d3b ca77 4cbd
00000350: 9e97 86bc 3472 6e3d 4880 5dbd 4310 05bd
00000360: 3177 d33c d853 6a3d dde7 e73b ff37 313c
00000370: d80e 5dbd 6e56 5a3d 5a91 68bd c684 73bc
00000380: 4060 48bb 1914 d8bc 647d 94bc 9c6c 24bd
00000390: cdc5 3b3d 70fd d8bc f6a3 94bc deb4 7dbd
000003a0: e2f2 2abd 719a 7cbc 6067 f83b 4367 aabc
000003b0: 1646 063d 28ae 463d 7ab2 7bbd 4494 13bd
000003c0: 5ef5 32bd 199c 3cbd b62d d73c f535 793b
000003d0: b463 47bc d15e 3c3d 3c77 7dbd b6f0 37bd
000003e0: 4e4f 1f3d d683 ad3b 36a5 073d db97 e53b
000003f0: 504c a3bb c8fb 19bd 4ec4 7b3a 5611 17bd
-0.0045378804 -0.0025810378 0.054288864 -0.053472497 0.0072260797 -0.0014839321 -0.0072897077 -0.03306416
0.016137213 0.054045796 0.003382504 -0.04166213 -0.043996073 -0.04093714 -0.024889767 -0.042749003
-0.015270692 0.021984292 -0.048992462 -0.04656879 -0.025727853 0.050265785 -0.002705523 0.030533725
-0.018800274 0.061427042 -0.051102977 -0.053933207 0.061257206 0.0069388673 0.037802987 -0.004009776
-0.056154575 0.043535307 -0.0041876705 0.06075381 -0.018842146 0.041513167 -0.03564287 0.049412906
-0.020444913 -0.031113077 0.044875678 -0.04262405 -0.0037875404 -0.019585747 -0.03645971 0.019928053
-0.00013056397 -0.010781735 0.031612284 0.048189677 0.052990787 0.009447806 0.0057110833 -0.010622309
-0.0077171195 -0.05078565 -0.02305939 0.057495147 -0.03557927 0.027332366 0.056825407 -0.04455856
-0.010441497 0.014670931 0.016397335 -0.020368129 -0.03430082 -0.05837787 0.053980906 -0.026387239
-0.056616418 0.032133557 0.016086407 0.060763747 0.033617478 0.035616882 0.043949656 -0.050406516
-0.056074087 -0.0035631936 0.012157224 0.061429992 0.024360016 -0.046086475 0.057254493 -0.014595665
-0.03359762 -0.058376804 -0.03677161 0.03085711 0.02944792 -0.0010834443 -0.05367086 -0.0060480926
0.055102143 -0.034888215 0.05344669 0.033408135 0.013430421 -0.024504123 0.020517781 -0.050978687
-0.038425926 0.048395537 -0.01510979 0.04546526 -0.013063091 0.050246716 -0.0070345663 0.011010744
0.028144222 -0.044679713 0.023329677 0.018189356 0.054692 0.049426828 0.027647048 0.0018409382
0.01215186 0.0073168236 0.032302726 -0.03616831 0.028495423 0.038701933 -0.0064679235 -0.055382073
-0.0126601625 0.0059661483 0.019095868 0.028289514 0.03409183 -0.005921031 0.053772084 -0.014369942
-0.04090192 0.004022694 0.06187353 0.009608251 0.050645996 -0.051711895 0.02284073 0.05621592
0.050329648 -0.053560883 0.004444127 0.027594997 -0.058078505 0.041645743 -0.04945216 -0.044204324
0.02439969 0.02358543 0.020279206 0.012422878 -0.05895172 0.018803962 0.031544928 -0.0044322833
0.010630636 -0.030682012 -0.04316761 0.030169671 0.024123881 -0.034569643 0.04721102 -0.04144683
-0.019567309 0.04150609 -0.026165312 0.015026353 0.03948208 -0.042218637 0.008223224 0.054314192
0.04696779 0.02985881 -0.048468105 0.027457353 -0.05689186 -0.005656407 -0.017295413 0.038580768
-0.044025768 0.0074598375 0.037570655 0.01666911 -0.035546064 -0.017102355 -0.0010052696 0.042893216
-0.05171839 0.0035432503 -0.052599963 0.028630922 0.017261399 -0.003070835 0.047923382 0.0040726513
-0.036337107 -0.019001462 -0.048831537 0.008192417 0.029705845 0.04325251 0.038518067 0.032641727
0.020892061 0.0146409795 0.0031328546 -0.049918927 -0.016429719 0.05821438 -0.054077417 -0.03248621
0.02581367 0.057208866 0.007077201 0.010816573 -0.053969234 0.053305082 -0.056779243 -0.014863199
-0.0030574948 -0.02637677 -0.018126197 -0.04014264 0.045842934 -0.026488036 -0.018144589 -0.061940067
-0.041735537 -0.015417681 0.0075806826 -0.020801192 0.032781683 0.048505932 -0.061449505 -0.03603007
-0.04369103 -0.046047304 0.026266914 0.0038026546 -0.012169767 0.04598886 -0.06188129 -0.044907294
0.03889399 0.005295257 0.03311654 0.007006628 -0.0049834624 -0.037593633 0.0009604142 -0.036881767
