outputs/standard/ppo/summer20251129-150716/models/hac_model.pth (torch, 869122 bytes, 27 tensors)

router_backbone.0.weight f4 [128, 6]
0	0xbd5213cd	-0.051288415
1	0x3efe75fc	0.4969939
2	0xbd9d1470	-0.07669914
3	0x3ebcf31a	0.36904222
4	0xbe0464be	-0.12929055
5	0xbb1c97f9	-0.0023894294
6	0xbe4b8726	-0.19875774
7	0x3e7582e6	0.23975715
8	0x3eb8434b	0.3598884
9	0xbe995863	-0.29950246
10	0x3eb5ae9f	0.35484788
11	0x3d9c7b85	0.07640747
12	0x3e9a6db4	0.30161822
13	0x3d63b1d8	0.055589527
14	0x3e49cc81	0.19706918
15	0xbd6a6a7c	-0.057230458
16	0x3ea15ddb	0.3151692
17	0x3d790755	0.060798008
18	0xbe43e814	-0.191315
19	0x3dd58308	0.10425383
20	0xbe40af97	-0.18816982
21	0xbd44ff17	-0.048094835
22	0xbe2a4261	-0.16626884
23	0x3e8a745b	0.27041897
24	0xbea4ff23	-0.32225904
25	0xbe40b941	-0.18820669
26	0xbdec1767	-0.11527901
27	0xbe7b5c16	-0.24546847
28	0x3d1dd378	0.03853175
29	0xbece72a2	-0.40321833
30	0x3e93a70a	0.28838378
31	0xbead36f6	-0.33830994
32	0x3f22b332	0.6355468
33	0x3d7f12e1	0.062273864
34	0xbea439d1	-0.3207536
35	0x3e3048c7	0.17215262
36	0x3d824e40	0.06362581
37	0x3ea8e20f	0.3298497
38	0x3d36cd81	0.044629578
39	0xbe03d730	-0.12875056
40	0x3de0a4f8	0.10968965
41	0xbde2bb29	-0.11070854
42	0x3e2ff01c	0.17181438
43	0x3eba7791	0.36419347
44	0x3e7159b1	0.23569371
45	0xbe3710c9	-0.17877497
46	0x3e713a3f	0.23557375
47	0x3d94fc21	0.07274652
48	0x3e538b04	0.20658499
49	0xbe7f5e5f	-0.24938343
50	0xbecf4866	-0.40484923
51	0xbe224516	-0.15846667
52	0xbea0b4a6	-0.31387824
53	0x3eab224f	0.33424613
54	0x3df0d223	0.117588304
55	0x3e2d2911	0.16910197
56	0x3e03e787	0.1288129
57	0xbbf28dc1	-0.0074021523
58	0x3ea3702f	0.31921527
59	0xbe94a9fc	-0.29035938
60	0x3cd292f1	0.025704833
61	0xbe8eaaac	-0.27864587
62	0x3e00e7c8	0.12588418
63	0xbe0ff7bd	-0.14059348
64	0x3e00189f	0.12509392
65	0xbdae3158	-0.08505505
66	0x3ead5cb1	0.3385978
67	0xbe77c6de	-0.24196956
68	0xbe79526c	-0.24347848
69	0xbe795646	-0.24349317
70	0x3ebc011d	0.367196
71	0x3e0b507c	0.13604921
72	0x3ec921f6	0.39283723
73	0xbeac8078	-0.33691764
74	0xbecf5337	-0.40493175
75	0xbea38839	-0.31939867
76	0xbe8c9b8a	-0.27462417
77	0x3e295355	0.16535695
78	0x3e15b139	0.14618386
79	0x3eadaeb3	0.33922347
80	0xbe57e3c3	-0.21082978
81	0xbe8e7e58	-0.27830768
82	0x3e5dce64	0.21660763
83	0xbe28f9e7	-0.1650158
84	0x3e7db8e4	0.24777561
85	0xbdc667c1	-0.09687758
86	0x3e6f2444	0.23353678
87	0xbea2677f	-0.31719586
88	0xbe52f78a	-0.20602241
89	0x3dfee7a9	0.124465294
90	0xbe6cd99c	-0.23129886
91	0x3d1c4336	0.038150035
92	0x3e45ee70	0.19329238
93	0x3e96ba0a	0.29438812
94	0xbe9be1cc	-0.30445707
95	0xbe7cd93e	-0.24692246
96	0x3ebf6500	0.37381744
97	0xbe0d0ff9	-0.13775624
98	0xbe14344a	-0.14473072
99	0xbeca3fea	-0.39501888
100	0xbe6f6714	-0.23379165
101	0x3dd0dbe6	0.10198192
102	0xbd5cb78e	-0.05388599
103	0xbe97ba1a	-0.29634172
104	0x3c1ce54e	0.009576155
105	0xbe8ec7a3	-0.27886686
106	0xbeb155a4	-0.3463565
107	0xbe6633d4	-0.22480708
108	0xbf2d26e0	-0.67637444
109	0xbdf7e8b7	-0.12104934
110	0x3eba2471	0.36355928
111	0x3dae6155	0.08514658
112	0x3dc0b6d5	0.094098724
113	0xbeda3a7a	-0.4262274
114	0xbe8947ea	-0.2681268
115	0xbe0b262e	-0.13588783
116	0x3d82bda0	0.06383824
117	0xbeb7ec85	-0.35922638
118	0xbe341ff7	-0.17590319
119	0xbe7a456b	-0.24440543
120	0x3a944a32	0.0011313616
121	0xbe1b8e6e	-0.15191051
122	0xbce7c02d	-0.028289879
123	0xbe8da3ea	-0.2766412
124	0xbe8f78f4	-0.28021967
125	0xbe73e392	-0.2381728
126	0xbe0fdb10	-0.1404841
127	0xbea54baf	-0.32284304
128	0x3eaf1f57	0.34203598
129	0xbda6fdb3	-0.08153858
130	0x3eb37a18	0.35054088
131	0x3e01ae3b	0.1266412
132	0xbeb1000a	-0.34570342
133	0x3e90a6c0	0.2825222
134	0xbde60be9	-0.112327404
135	0xbe203f7f	-0.15649222
136	0xbead8102	-0.33887488
137	0xbecfcd75	-0.4058644
138	0x3def3708	0.11680418
139	0xbdb6a3a8	-0.08917934
140	0x3e22c14d	0.15894051
141	0xbeab89a3	-0.33503446
142	0x3e9b2f53	0.30309543
143	0xbe996f28	-0.29967618
144	0xbedfd864	-0.4371978
145	0x3e852563	0.26005086
146	0x3e3fb89b	0.18722765
147	0x3eae19f7	0.34004185
148	0x3eae6808	0.34063745
149	0xbec545bf	-0.38529775
150	0x3dd26ac8	0.10274273
151	0xbe33d003	-0.17559819
152	0xbd373eff	-0.044737812
153	0xbe9c73a6	-0.30556983
154	0x3ebe63f9	0.37185648
155	0xbe9969a2	-0.29963404
156	0x3e5f6ce4	0.21818882
157	0x3e12eb03	0.14347462
158	0x3e07d8bc	0.13266271
159	0xbe6203df	-0.22071789
160	0x3ebdfded	0.37107792
161	0x3db7bb4f	0.08971273
162	0x3d5a1a51	0.053247754
163	0xbeb7f30d	-0.3592762
164	0x3e2f765e	0.17134997
165	0xbd7a2497	-0.06107005
166	0xbe3f107e	-0.18658635
167	0x3eb3b832	0.35101467
168	0x3dba67e4	0.09101847
169	0xbe674b8e	-0.22587416
170	0xbe5396e9	-0.20663036
171	0xbc9fb67a	-0.019496191
172	0x3e696bbd	0.22795005
173	0xbdd5a661	-0.10432125
174	0xbf2bde65	-0.6713622
175	0x3ce1c064	0.02755756
176	0xbea4f0c7	-0.3221495
177	0x3e104802	0.14089969
178	0x3e84ee26	0.25962943
179	0xbef1caff	-0.47225186
180	0x3dc0ae4e	0.09408246
181	0x3e579915	0.2105449
182	0x3d961852	0.073288575
183	0xbe15a2d9	-0.14612903
184	0x3e596f5c	0.21233886
185	0x3e5aed42	0.21379569
186	0x3f042706	0.51622045
187	0xbe970a31	-0.29499963
188	0x3dea2372	0.11432542
189	0x3cf881e8	0.030335382
190	0xbdc2e242	-0.095158115
191	0xbdefd48e	-0.117104635
192	0x3e859bef	0.2609553
193	0x3eb3d4f6	0.35123414
194	0xbd242a6e	-0.040079527
195	0xbdba6a33	-0.09102287
196	0x3bd18a4b	0.0063946596
197	0xbcc4ad82	-0.024008516
198	0x3dc9018e	0.0981475
199	0x3dea4d1e	0.1144049
200	0xbebdd8c0	-0.3707943
201	0xbe1a465d	-0.15065904
202	0x3eb00648	0.34379792
203	0x3e22da1d	0.15903516
204	0xbca65742	-0.02030528
205	0xbe7c0ae1	-0.24613525
206	0xbe7fc349	-0.24976839
207	0xbebb3c6a	-0.3656953
208	0xbe084473	-0.13307361
209	0x3e0d2d0c	0.13786715
210	0x3e84f201	0.25965884
211	0x3e4090ea	0.1880528
212	0xbeb9175c	-0.36150634
213	0xbe7bb54e	-0.24580881
214	0xbd8485a7	-0.06470805
215	0x3eca0aa7	0.39461252
216	0x3d74eba5	0.05979504
217	0xbdd75fc0	-0.1051631
218	0x3e2d6434	0.16932756
219	0xbe1e9e8a	-0.15490165
220	0xbe86ea11	-0.26350453
221	0x3e98ed2b	0.29868445
222	0xbf05cd1a	-0.52266085
223	0x3dbd9907	0.09257703
224	0xbef3f4ef	-0.47647807
225	0x3e94403d	0.2895526
226	0x3e9829c0	0.29719353
227	0x3de468f0	0.11152828
228	0x3d735fb9	0.05941746
229	0xbf16c5ad	-0.5889538
230	0xbe99aea3	-0.3001605
231	0x3e99cbb5	0.3003823
232	0x3e6cea93	0.23136358
233	0x3ed1c46b	0.40970168
234	0x3e5b0079	0.21386899
235	0x3dd39bc5	0.10332445
236	0xbb830060	-0.0039978474
237	0xbe9ef69e	-0.3104753
238	0xbeb315d0	-0.3497758
239	0xbec3826f	-0.3818545
240	0x3e2b21da	0.16712132
241	0xbe4d3f51	-0.20043685
242	0xbda8440a	-0.082161024
243	0xbe70967c	-0.23494905
244	0xbd985b13	-0.07439246
245	0xbe931e26	-0.2873394
246	0xbf222418	-0.63336325
247	0x3ea8ad08	0.32944512
248	0xbe27f046	-0.16400251
249	0x3e858ebd	0.26085463
250	0xbe28a042	-0.16467384
251	0xbeb9d772	-0.36297184
252	0xbd9384ef	-0.072030894
253	0xbe4aa598	-0.19789732
254	0xbdffcba4	-0.12490013
255	0xbec6fd36	-0.3886506

router_backbone.0.bias f4 [128]
0	0xbe6bf6a4	-0.23043305
1	0x3ece977f	0.40349957
2	0x3e20444f	0.15651058
3	0x3e275a5b	0.16343062
4	0xbe7a1dc4	-0.24425417
5	0xbe70fdb3	-0.23534279
6	0xbd7c6c59	-0.061626766
7	0xbd997a50	-0.074940324
8	0xbe8f9c75	-0.28049055
9	0x3d0888d5	0.03333362
10	0x3d2631f4	0.040574983
11	0xbd53bbd8	-0.051692814
12	0x3d67d16c	0.056596205
13	0xbe25b162	-0.16180947
14	0x3dd9983b	0.10624739
15	0x3e665db1	0.22496678
16	0xbe5c3387	-0.21504031
17	0xbecf4351	-0.40481046
18	0x3e85f478	0.26163077
19	0x3dc77053	0.09738221
20	0xbe549d01	-0.20763017
21	0x3ec92336	0.39284676
22	0xbe3d0f82	-0.18462947
23	0x3e8d3f29	0.2758725
24	0x3e89c5d2	0.26908737
25	0xbeaf3f27	-0.3422787
26	0x3e86cec3	0.26329622
27	0xbec00132	-0.37500912
28	0xbe679a91	-0.22617556
29	0xbc9e4e31	-0.019324394
30	0xbe8d4577	-0.2759206
31	0x3ea6a256	0.32545727
32	0xbda6e2e2	-0.08148743
33	0x3e260b2f	0.16215204
34	0xbebaa3a6	-0.3645298
35	0x3e7058b2	0.23471335
36	0xbe012f2c	-0.12615651
37	0xbe773d34	-0.24144441
38	0x3c677c19	0.014128708
39	0x3e4a8706	0.1977807
40	0x3eb4e355	0.3532969
41	0xbe480ce2	-0.19536164
42	0xbe4db8ed	-0.20090075
43	0x3da0bfe3	0.078490995
44	0x3d5f7af5	0.05456062
45	0x3dcc507d	0.099762894
46	0x3e65748a	0.22407737
47	0xbdbf01a3	-0.09326484
48	0x3e6840fa	0.22681037
49	0x3e9a1c6a	0.30099803
50	0xbdda4abd	-0.106587864
51	0x3eb6fff4	0.35742152
52	0x3e09e0d0	0.13464665
53	0x3eb81411	0.3595281
54	0xbe6d9096	-0.23199686
55	0xbe4e6f5c	-0.20159668
56	0xbdf1bd22	-0.11803652
57	0x3ca9a5c3	0.020708924
58	0x3e6dd9ec	0.23227662
59	0xbe2fdcb6	-0.17174038
60	0x3e31e305	0.17371757
61	0xbe2fe20b	-0.17176072
62	0x3e7c8bae	0.24662659
63	0xbc9ec760	-0.019382179
64	0xbeb71f58	-0.357661
65	0xbe372191	-0.17883898
66	0xbe979c73	-0.2961155
67	0x3e4f55d4	0.20247585
68	0xbe8c28fb	-0.27375016
69	0x3caf5013	0.021400487
70	0x3d456ec9	0.048201356
71	0xbe67b069	-0.22625889
72	0x3e2a6632	0.16640547
73	0xbee70054	-0.45117438
74	0xbe883fea	-0.26611263
75	0xbeda6fda	-0.4266346
76	0xbdfce629	-0.12348587
77	0xbe184b0d	-0.1487238
78	0x3c161730	0.009160802
79	0xbd9a9b09	-0.07549102
80	0x3e7c7408	0.24653637
81	0x3ea8f5b1	0.32999948
82	0x3d95207b	0.07281586
83	0xbe256b9e	-0.16154334
84	0xbec3b9ec	-0.38227785
85	0x3e176acb	0.14786832
86	0xbe6cc08f	-0.2312033
87	0x3e54bbdd	0.20774789
88	0x3e8c19f3	0.27363548
89	0x3d9500fd	0.07275579
90	0x3ea96645	0.33085838
91	0x3ec6d3b6	0.38833398
92	0x3db108be	0.086442456
93	0xbe8f8519	-0.28031233
94	0x3ebabffa	0.36474591
95	0xbe659950	-0.22421765
96	0xbe457735	-0.19283755
97	0x3ecb6b0c	0.39730108
98	0x3e931e34	0.2873398
99	0x3dfca060	0.123352766
100	0x3cd1a34d	0.025590563
101	0xbeabed1e	-0.33579344
102	0xbdb9fd4a	-0.09081514
103	0x3ea622fe	0.32448572
104	0x3d498fbf	0.049209353
105	0x3ca72d28	0.020407274
106	0xbdad9d8f	-0.084773175
107	0xbe11cea1	-0.14238979
108	0x3e792a42	0.24332526
109	0x3cc856b4	0.024455406
110	0x3e9039b2	0.28169018
111	0xbd93fcba	-0.07225938
112	0x3e0cd1be	0.13751885
113	0x3e63878f	0.2221968
114	0x3d8553a7	0.06510096
115	0x3e84946b	0.25894484
116	0x3e9bda0e	0.304398
117	0x3ec1bf98	0.37841487
118	0x3ebccdb6	0.36875695
119	0xbdd5c93b	-0.10438772
120	0xbe88ae97	-0.266957
121	0x3d98da31	0.07463492
122	0x3d4b100e	0.049575858
123	0xbe0fd7ba	-0.14047137
124	0xbd8c01f5	-0.06836311
125	0x3c9d4b92	0.019201074
126	0x3e81a397	0.25320122
127	0x3e46bef8	0.19408786

router_backbone.2.weight f4 [64, 128]
0	0xbd008ed1	-0.0313862
1	0xbd14e11c	-0.036347494
2	0xbcb34de1	-0.021887721
3	0xbd0bedd4	-0.034162357
4	0x3da2c6d7	0.07948082
5	0x3d3fc089	0.046814475
6	0x3da374c0	0.07981253
7	0x3993fec8	0.00028227852
8	0x3c92067b	0.017825356
9	0x3cfb159e	0.030649956
10	0xbdab582b	-0.08366426
11	0x3c0150b5	0.007892777
12	0xbbc1bbf0	-0.0059122965
13	0xbd4afa7b	-0.049555283
14	0xbd8c7623	-0.0685847
15	0x3da04075	0.07824794
16	0x3d932e40	0.07186556
17	0x3d27cb28	0.04096523
18	0x3dacbcd7	0.08434456
19	0xbd12eb0b	-0.035868686
20	0xbc7a2112	-0.015266674
21	0x3d091317	0.03346547
22	0xbc6f460d	-0.014604104
23	0xbc8e16d5	-0.017344872
24	0xbd959fa4	-0.0730584
25	0x3cc28812	0.023746524
26	0xbd5aca31	-0.05341548
27	0x3b52a7da	0.0032143504
28	0x3db07d4b	0.08617648
29	0xbcdee1d1	-0.027207287
30	0xbce43924	-0.027859278
31	0x3d5a6c2e	0.053325824
32	0xbd051acd	-0.032496262
33	0xbbf8ba42	-0.007590563
34	0x3da90654	0.0825316
35	0xbd146d25	-0.0362369
36	0xbd8180ca	-0.06323393
37	0xbd4a9cd8	-0.049465984
38	0xbcc8bf4e	-0.024505284
39	0xbd2bc972	-0.04194016
40	0xbd3bdf94	-0.045867518
41	0x3d123e58	0.035703987
42	0x3c76189b	0.015020515
43	0xbce7bfd4	-0.028289713
44	0xbd8ca2d0	-0.068669915
45	0xbce3fb9f	-0.027829943
46	0xbd18cb64	-0.037303343
47	0xbceba0e4	-0.028763242
48	0xbda34d3c	-0.07973716
49	0x3c9bfcc0	0.019041419
50	0xbd84ffca	-0.064941004
51	0xbd8cfa4b	-0.06883677
52	0xbd93e618	-0.07221621
53	0x3d171be9	0.03689185
54	0xbd59f4fa	-0.053212143
55	0xbd156e88	-0.036482364
56	0x3d8de3ec	0.06928238
57	0x3d403ac6	0.04693105
58	0x3d4f96fc	0.0506811
59	0xbdabe109	-0.083925314
60	0xbd81cf16	-0.06338327
61	0xbd08ac70	-0.033367574
62	0x3d958a26	0.0730174
63	0x3c142595	0.009042163
64	0xbd876244	-0.066105396
65	0x3a1116e8	0.00055347243
66	0xbd8c97aa	-0.06864865
67	0xbc9ea513	-0.019365823
68	0xbcc71a6c	-0.024304591
69	0x3d9cb395	0.0765144
70	0x3ce045fa	0.027377117
71	0xbc7c8430	-0.015412375
72	0x3c74a28c	0.014931332
73	0xbcd10424	-0.02551467
74	0x3d0e3ec0	0.03472781
75	0x3d0f359c	0.034963235
76	0x3cc272ba	0.023736347
77	0xbd0d1d44	-0.034451738
78	0x3d9a6fd0	0.07540858
79	0xbc5111ee	-0.012760622
80	0xbd0cf29c	-0.034411058
81	0x3d62bffa	0.055358864
82	0x3d938a80	0.07204151
83	0x3db424a6	0.08796053
84	0x3cd68392	0.026185784
85	0xbcf6d562	-0.030131046
86	0x3d37e065	0.044891734
87	0x3d9b4e6d	0.07583318
88	0xbdb18cc9	-0.08669431
89	0xbc33684f	-0.010950162
90	0xbd76e5db	-0.0602778
91	0x3c86f05a	0.01647203
92	0x3d15bbd4	0.03655608
93	0xbc9595eb	-0.018259963
94	0xbbf24c06	-0.0073943166
95	0x3d22f51f	0.039784547
96	0xbc736415	-0.014855404
97	0xbd98042e	-0.07422672
98	0x3d90d70f	0.07072269
99	0xbd363825	-0.044487137
100	0xbc1f1795	-0.009710212
101	0x3c089964	0.008337352
102	0xbbae0f21	-0.005311862
103	0xbdaa4848	-0.08314568
104	0x3d261a73	0.040552568
105	0xbd24730a	-0.040148772
106	0xbd3bc65b	-0.045843463
107	0x3cacfe46	0.02111734
108	0xbd3cef2a	-0.046126522
109	0xbd2751d5	-0.040849525
110	0xbcf3fa52	-0.029782448
111	0xbd080283	-0.03320552
112	0xbd17336f	-0.036914285
113	0xbcc345ff	-0.023837088
114	0x3cbc2b8f	0.02296999
115	0xbd927bed	-0.07152543
116	0xbd5b2287	-0.053499725
117	0x3aa90ba4	0.0012897146
118	0x3c496464	0.012292001
119	0x3d47f384	0.04881622
120	0xbd7e4fd7	-0.06208786
121	0x3ce71f8f	0.02821329
122	0x3d4dc771	0.05023903
123	0x3d490691	0.049078528
124	0xbda89af5	-0.08232681
125	0xbd0a27cd	-0.033729363
126	0xbd9b9916	-0.07597558
127	0xbd651a2a	-0.055933155
128	0x3d1e98b5	0.03871985
129	0xbc583cb1	-0.013198064
130	0x3d194386	0.03741791
131	0xbd52a212	-0.051424094
132	0x3c5c0fba	0.013431484
133	0xbbef8cdc	-0.007310493
134	0x3d34faf0	0.044184625
135	0xbd1e591e	-0.038659208
136	0xbcaf8474	-0.021425463
137	0xbd9dac41	-0.076988705
138	0x399916b0	0.00029199338
139	0x3dabdfd0	0.08392298
140	0x3d2fb9c5	0.042901773
141	0xbd412997	-0.047158804
142	0x3a9bce7b	0.0011887097
143	0xbc952e88	-0.018210664
144	0xbd91bbe7	-0.07115918
145	0x3d8def87	0.06930452
146	0xbc3d5365	-0.011555527
147	0x3c987d11	0.018614324
148	0xbd1233a3	-0.035693776
149	0xbd27dddd	-0.04098307
150	0x3c6ec91d	0.014574316
151	0x3d05d983	0.03267814
152	0x3bcf7a8e	0.0063317483
153	0xbd2e7b95	-0.042598326
154	0x3dafc053	0.08581605
155	0xbc4d9e82	-0.012549998
156	0xbd5db7cb	-0.054130357
157	0xbd725ea1	-0.059172276
158	0x3db3a75a	0.08772154
159	0x3d984158	0.07434338
160	0xbc4c9cef	-0.012488588
161	0xbd16aaaa	-0.03678385
162	0xbcbdd044	-0.023170598
163	0xbd96ff7e	-0.0737295
164	0xbd8e64d5	-0.06952826
165	0x3d440ea4	0.047865525
166	0x3db2e131	0.08734358
167	0x3dacbf30	0.084349036
168	0xbd82af7e	-0.06381129
169	0x3cf7cbc1	0.030248525
170	0xbd6016ff	-0.05470943
171	0x3d57fa56	0.052728973
172	0x3e0ee96b	0.1395623
173	0x3d9b59b0	0.07585466
174	0x3d8257dc	0.06364414
175	0x3d657410	0.05601889
176	0x3ae17db9	0.0017203606
177	0x3d2659b4	0.04061289
178	0xbcfd17d8	-0.030895159
179	0x3d0a6844	0.03379084
180	0xbcb0eead	-0.021598184
181	0xba45c0a6	-0.00075436605
182	0xbd9d8e2f	-0.07693135
183	0xbcbd53ed	-0.023111308
184	0xbd3e65dc	-0.04648386
185	0xbcf43f11	-0.029815229
186	0xbd661211	-0.056169573
187	0xbe83a2e6	-0.2571022
188	0x3e707380	0.2348156
189	0x3ea17431	0.3153396
190	0x3da4dcfe	0.080499634
191	0x3d5342b1	0.051577274
192	0xbd3ba87e	-0.045814984
193	0xbdc6dae8	-0.09709722
194	0x3d0ac81c	0.033882245
195	0x3d4adaf6	0.049525224
196	0xbd9b6843	-0.07588246
197	0x3cb24312	0.021760497
198	0x3da3835b	0.079840384
199	0x3cc266f7	0.023730738
200	0xbd8818d1	-0.06645358
201	0x3d9749e2	0.07387139
202	0x3d08c35e	0.03338944
203	0x3df9840e	0.121833906
204	0xbd74d76d	-0.05977576
205	0x3d52afd1	0.051437203
206	0xbd93337e	-0.07187556
207	0x3db31e1b	0.087459765
208	0xbd8d7d61	-0.0690868
209	0x3d5cb9cd	0.05388813
210	0x3e2b9517	0.16756092
211	0x3cc26dc4	0.023733981
212	0xbc5e14ee	-0.013554795
213	0x3d14b3bc	0.03630422
214	0xbe1439c6	-0.14475164
215	0xbdaaa005	-0.083313026
216	0xbd081869	-0.033226404
217	0x3e6f1c3f	0.23350619
218	0xbc362bee	-0.011118872
219	0x3ce786d5	0.028262535
220	0xbd05daf2	-0.032679506
221	0x3d54ab28	0.05192104
222	0x3d58ad36	0.05289956
223	0x3d4d6c92	0.05015237
224	0xbd390f6f	-0.045180734
225	0xbdd2901b	-0.10281392
226	0x396fbbae	0.00022862732
227	0xbd54648e	-0.05185371
228	0x3d94d53d	0.072672345
229	0xbdb87a85	-0.09007744
230	0x3e4cb368	0.19990313
231	0x3e234bfd	0.15946956
232	0x3d7c4f23	0.06159891
233	0x3cf64f7e	0.030067202
234	0xbdae2aca	-0.08504255
235	0x3dae1f0b	0.08502015
236	0xbc77b40e	-0.015118612
237	0xbda861a0	-0.082217455
238	0x3d9f2634	0.077709585
239	0xbd13531c	-0.03596793
240	0xbc51376a	-0.012769559
241	0x3d9c618d	0.07635794
242	0xbd7af728	-0.061270863
243	0xbd916d37	-0.07100909
244	0x3b4fef68	0.003172839
245	0xbc41d757	-0.011831126
246	0xbb90909c	-0.00441177
247	0xbd97d266	-0.07413177
248	0xbc0be8be	-0.008539377
249	0xbd21052d	-0.039311577
250	0xbd736c77	-0.059429612
251	0xbda7f727	-0.082014374
252	0x3d3ff5a5	0.046865124
253	0x3c8b7bd5	0.017026821
254	0xbda6d934	-0.08146897
255	0x3d7a7451	0.061146084

router_backbone.2.bias f4 [64]
0	0xbb66b3db	-0.0035202417
1	0xbdae6fec	-0.08517441
2	0x3bef6b0c	0.007306462
3	0x3d786438	0.06064245
4	0xbd42a46b	-0.047520082
5	0xbda5b0f4	-0.08090392
6	0xbd3e784f	-0.046501454
7	0xbde62623	-0.11237743
8	0xbd41c4de	-0.047306888
9	0xbe09b4bb	-0.1344785
10	0xbbff9278	-0.007799443
11	0xbd808ebb	-0.06277224
12	0x3d4f696b	0.050637644
13	0xbd916cec	-0.07100853
14	0xbd7998d5	-0.060936768
15	0xbdc60c84	-0.09670356
16	0xbd96758a	-0.073466375
17	0xbcb5d381	-0.02219558
18	0x3d8247ae	0.06361328
19	0x3e172523	0.1476026
20	0xbd7f3306	-0.06230452
21	0x3ca9fe44	0.020751126
22	0x3d838a6a	0.06422885
23	0x3a0d431f	0.0005388725
24	0xba74dade	-0.0009340475
25	0x3de19958	0.11015576
26	0x3dfa9b1d	0.12236617
27	0x3d96b16d	0.0735806
28	0x3b93f75b	0.004515571
29	0x3b956c53	0.0045600324
30	0xbdd6c5f5	-0.10486976
31	0xbc981015	-0.018562356
32	0x3d00f110	0.031479895
33	0xbd728d21	-0.059216622
34	0xbd3bdf38	-0.045867175
35	0xbda8da54	-0.08244768
36	0x3c001e60	0.007819742
37	0xbd3470d5	-0.044052918
38	0x3d161def	0.03664964
39	0x3d80416e	0.0626248
40	0xbd789394	-0.060687616
41	0x3cb0aa87	0.021565689
42	0x3dd2a858	0.10286015
43	0xbdd1f1bf	-0.102511875
44	0xbd357e68	-0.044310004
45	0xbdcdc4ae	-0.10047279
46	0xbd61487d	-0.05500077
47	0xbd45adea	-0.04826156
48	0xbccaa171	-0.024735184
49	0xbd8f5758	-0.069990814
50	0x3d9c9f24	0.07647541
51	0x3cb0491a	0.021519233
52	0xbdb0376d	-0.08604322
53	0x3c3740d2	0.011184888
54	0x3d456d49	0.048199926
55	0xbd207477	-0.03917357
56	0xbddf97d7	-0.10917633
57	0xbd934597	-0.071910076
58	0xbe093a8e	-0.13401243
59	0xbd06b363	-0.03288592
60	0x3d940ba6	0.07228784
61	0xbdc24978	-0.09486669
62	0xbcb5c4c9	-0.022188561
63	0xbe07a7be	-0.13247582

router_head.weight f4 [2, 64]
0	0xbdbb0192	-0.09131159
1	0x3d9e3077	0.07724088
2	0x3d8b0518	0.06788081
3	0x3da27237	0.07931941
4	0x3e09944a	0.13435474
5	0x3d761dda	0.060087062
6	0xbd643390	-0.055713236
7	0x3e60ac68	0.21940768
8	0xbd8376d4	-0.06419149
9	0x3dabbd76	0.08385746
10	0x3d2ab334	0.041674808
11	0x3d6bff64	0.057616606
12	0xbdac9c05	-0.08428196
13	0x3dc90415	0.09815232
14	0xbde16014	-0.110046536
15	0x3e52d481	0.20588876
16	0xbd746718	-0.05966863
17	0x3e521108	0.2051431
18	0xbd97c49e	-0.074105486
19	0xbe783439	-0.24238671
20	0x3e162c87	0.14665423
21	0x3de2f96c	0.1108273
22	0xbd4b6802	-0.049659736
23	0x3da5ba21	0.08092142
24	0x3e515c85	0.2044545
25	0xbe787756	-0.24264273
26	0x3c835c3c	0.016035192
27	0x3cebb3c8	0.02877225
28	0xbd91a934	-0.07112351
29	0x3e2f9756	0.17147574
30	0x3deacd71	0.11464966
31	0x3dc4daec	0.096120685
32	0xbdf1dd7b	-0.11809822
33	0x3e9e9641	0.3097401
34	0x3ea5be86	0.3237192
35	0x3d456a94	0.048197344
36	0xbd95d48c	-0.07315931
37	0x3e89529c	0.26820838
38	0xbdbf4b63	-0.09340551
39	0xbd9b895a	-0.07594557
40	0x3d8cc97e	0.06874369
41	0x3daac288	0.08337885
42	0xbe1df9aa	-0.1542727
43	0x3dfdd5e3	0.12394311
44	0x3dce4d4d	0.10073338
45	0x3d8186fd	0.06324575
46	0x3e88c011	0.26709035
47	0x3dfc230e	0.12311374
48	0x3db30adc	0.08742306
49	0x3e8a6ecd	0.2703766
50	0x3c4108f0	0.011781916
51	0x3dc8dd6d	0.098078586
52	0x3d88f6c2	0.0668769
53	0xbd7bca60	-0.061472297
54	0x3d8f1286	0.06985955
55	0x3c1a042a	0.009400407
56	0x3d228dc2	0.039685972
57	0x3e3d6f02	0.18499377
58	0x3d2fba4c	0.042902276
59	0x3dc77c44	0.09740499
60	0xbcac0ba2	-0.02100164
61	0x3e9ec89d	0.3101243
62	0xbdb2387d	-0.087021805
63	0x3e312351	0.17298628
64	0x3d9f16ca	0.077680185
65	0xbe0d7f9d	-0.13818212
66	0xbd2585ba	-0.040410735
67	0x3c32b641	0.0109077105
68	0x3d9d9959	0.07695264
69	0x3d772402	0.060337074
70	0x3df58540	0.11988306
71	0xbe9b345d	-0.30313388
72	0xbc21f920	-0.009886056
73	0xbc9ce129	-0.019150333
74	0x3dd0a1ce	0.10187112
75	0x3df1ad64	0.1180065
76	0x3d0273f4	0.031848863
77	0xbdd054eb	-0.10172447
78	0xbdb9b24a	-0.09067209
79	0xbdf626b1	-0.120190986
80	0xbe234ff4	-0.15948468
81	0xbe1cb39c	-0.1530289
82	0xbdbff3ae	-0.0937265
83	0x3e563c5a	0.2092146
84	0xbdcf65cc	-0.10126838
85	0xbdc86ea8	-0.09786731
86	0x3dfa5d06	0.12224774
87	0xbe0ec718	-0.13943136
88	0xbdd186c4	-0.10230783
89	0x3e85d807	0.26141378
90	0x3dc79564	0.09745291
91	0xbdddcbba	-0.108298734
92	0x3c5cf980	0.01348722
93	0xbded44ba	-0.11585374
94	0x3d567502	0.05235768
95	0x3dec8722	0.11549212
96	0x3e0a0dd4	0.13481838
97	0xbe58354c	-0.21114081
98	0xbe24d9ae	-0.16098663
99	0xbdfcc382	-0.12341978
100	0x3e1e3457	0.15449654
101	0xbdd842aa	-0.1055959
102	0xbd9aaf13	-0.07552924
103	0xbd14154c	-0.036153123
104	0xbd470da4	-0.048596993
105	0xbd95ad6c	-0.07308468
106	0x3e45cb98	0.19315946
107	0xbd3a1a36	-0.045435153
108	0x3c8be831	0.01707849
109	0xbd243167	-0.040086176
110	0xbd8c9909	-0.06865127
111	0xbd49a3b9	-0.049228404
112	0xbcb163f0	-0.0216541
113	0xbe545c0e	-0.20738241
114	0x3bbc94a0	0.005755022
115	0xbd3d21ec	-0.04617493
116	0xbdb3347a	-0.087502435
117	0xbdf3489c	-0.118790835
118	0x3d9f3cb2	0.077752486
119	0x3c8873d0	0.016656786
120	0xbe271a88	-0.16318715
121	0xbcd8b6af	-0.026454298
122	0x3b3c7405	0.0028755676
123	0xbd38e268	-0.045137793
124	0x3d22dbfb	0.03976057
125	0xbe84a282	-0.25905234
126	0x3e80d6a6	0.25163764
127	0xbea35a4c	-0.3190483

router_head.bias f4 [2]
0	0xbe1b924e	-0.1519253
1	0xbd3be88f	-0.045876082

experts.0.fc1.weight f4 [256, 6]
0	0xbea3ddc0	-0.3200512
1	0x3b1c69f8	0.0023866873
2	0x3e67cb48	0.2263614
3	0x3ddd8f93	0.108184
4	0x3e32bac7	0.17454062
5	0x3d4a83f1	0.049442235
6	0xbbf029c6	-0.0073291985
7	0xbebd19c7	-0.3693373
8	0x3ebad886	0.3649332
9	0x3ecad3d8	0.3961475
10	0xba3232bb	-0.00067977206
11	0x3d9914a2	0.074746385
12	0x3d9bded3	0.0761086
13	0x3ecea617	0.40361091
14	0xba9ac09b	-0.0011806668
15	0xbd8a61c6	-0.0675693
16	0xbe6405fe	-0.22267911
17	0x3dd75dea	0.105159596
18	0x3e40c98c	0.18826884
19	0xbeb11497	-0.3458602
20	0x3e0d8360	0.13819647
21	0x3dd1c800	0.10243225
22	0x3e39f255	0.18158849
23	0x3e437deb	0.19091003
24	0xbddb8632	-0.10718955
25	0x3d5cd296	0.053911768
26	0xbe92da90	-0.28682375
27	0x3e7c89e2	0.24661973
28	0xbeaf5992	-0.34248024
29	0xbeb71142	-0.35755354
30	0xbe9b1246	-0.3028738
31	0xbe6a94da	-0.22908345
32	0x3c7d704a	0.015468666
33	0x3e89220f	0.26783797
34	0xbd5a421c	-0.053285703
35	0x3e95814e	0.29200214
36	0xbd89988f	-0.06718551
37	0x3eb185ae	0.34672302
38	0x3e90941f	0.28238007
39	0x3e84cf09	0.25939205
40	0x3e2bf1ff	0.16791533
41	0xbe8c3c0f	-0.2738957
42	0x3eccd4db	0.40006146
43	0xbec6ef0b	-0.3885425
44	0xbe9286a5	-0.2861835
45	0xbe7ca077	-0.24670587
46	0xbddca2d0	-0.107732415
47	0x3e35918b	0.17731301
48	0x3dac651a	0.08417721
49	0xbeb38d14	-0.35068572
50	0x3eca48ed	0.39508763
51	0x3ec3ebcb	0.38265833
52	0x3e4d080d	0.20022602
53	0xbecc7403	-0.3993226
54	0x3e698a4e	0.22806665
55	0x3dee8e3f	0.11648225
56	0xbd4eba40	-0.05047059
57	0xbeaf1aea	-0.3420022
58	0x3eb11688	0.34587502
59	0xbdf9f0cf	-0.12204134
60	0xbea8d3b2	-0.3297401
61	0x3ea13727	0.3148739
62	0x3e22ded6	0.15905318
63	0x3df90e73	0.12160959
64	0x3e87dafd	0.26534262
65	0x3e118777	0.14211832
66	0xbdb5f8c8	-0.08885342
67	0xbe5846f9	-0.21120824
68	0x3ebea746	0.37236995
69	0x3cceae16	0.025229495
70	0xbeb7f924	-0.35932267
71	0xbe677981	-0.22604944
72	0xbe9d82ce	-0.3076386
73	0x3d1aa4f9	0.037754986
74	0x3e97ffe7	0.29687425
75	0x3e7a92a2	0.24469998
76	0x3dde2fa6	0.10848932
77	0x3e0a53c2	0.13508514
78	0xbe460349	-0.1933719
79	0x3ec3a466	0.38211364
80	0x3e1f70b1	0.15570332
81	0xbe83bea3	-0.25731382
82	0xbe8b3ff3	-0.27197227
83	0xbebb427b	-0.36574158
84	0xbdeddeee	-0.11614786
85	0x3e98e291	0.29860356
86	0x3cc459e1	0.023968639
87	0xbe462117	-0.1934856
88	0x3de8bc8c	0.113640875
89	0xbe9116dd	-0.28337756
90	0x3df84d11	0.12124074
91	0x3e8eb67c	0.278736
92	0x3e4b4068	0.19848788
93	0xbdfe9110	-0.12430012
94	0xbe0e3e0e	-0.1389086
95	0x3e2e403b	0.1701669
96	0x3e7a4ea7	0.24444066
97	0xbdcce2e6	-0.10004215
98	0xba7289ab	-0.00092520815
99	0xbd3c985d	-0.046043742
100	0xbd448654	-0.047979668
101	0xbeb97d52	-0.36228424
102	0xbeac6587	-0.3367121
103	0x3eb28853	0.34869632
104	0xbe4ad803	-0.19808964
105	0x3e9ac9bd	0.3023204
106	0x3e81f0f4	0.25379145
107	0xbd815c6e	-0.06316458
108	0xbe4a3658	-0.19747293
109	0x3c5e1440	0.013554633
110	0xbd90f01b	-0.070770465
111	0xbe7806df	-0.24221371
112	0x3ecb2c71	0.39682344
113	0xbd0416cd	-0.032248307
114	0xbd808b23	-0.06276538
115	0xbe8e4374	-0.27785838
116	0x3d84b8e3	0.06480577
117	0x3d69c0d9	0.05706868
118	0x3ece652c	0.40311563
119	0xbe020bb8	-0.12699783
120	0x3e6ba4cc	0.23012084
121	0x3ca1da52	0.019757424
122	0x3e5d78fa	0.2162818
123	0x3c05f320	0.008175641
124	0xbd8cd357	-0.068762474
125	0x3e241161	0.16022255
126	0xbe3a352a	-0.18184343
127	0x3e7d55c0	0.24739742
128	0xbeaf1299	-0.34193876
129	0xbe95d772	-0.29265934
130	0x3ec72457	0.38894913
131	0xbe1d8822	-0.15383962
132	0xbea6336c	-0.32461107
133	0xbe98cce6	-0.29843825
134	0x3eca891e	0.39557737
135	0xbd6b1868	-0.057396322
136	0xbeb00ab9	-0.3438318
137	0xbd724671	-0.05914921
138	0xbe4b3f82	-0.19848445
139	0xbe8be5b3	-0.27323684
140	0xbe4be1d6	-0.19910368
141	0x3e9f1bc6	0.31075877
142	0x3e2a4708	0.16628659
143	0x3e758c38	0.2397927
144	0x3d0a037e	0.033694737
145	0xbe2ec658	-0.1706785
146	0xbe2a9e3b	-0.16661923
147	0xbe8c495c	-0.2739972
148	0xbe9703ae	-0.29494995
149	0xbeb4385d	-0.35199252
150	0x3d93ec9c	0.07222864
151	0x3e5cb9f9	0.21555318
152	0x3eab73f0	0.3348689
153	0xbc13984c	-0.009008478
154	0xbd6f599b	-0.058435064
155	0xbd055d7e	-0.032559864
156	0x3e24b5c3	0.16084962
157	0xbd846e99	-0.06466407
158	0xbe12e460	-0.1434493
159	0xbde65fe8	-0.112487614
160	0xbecc2f73	-0.3987995
161	0xbea0f92c	-0.31440103
162	0xbe326950	-0.17422986
163	0x3d275824	0.04085554
164	0xbe82802c	-0.25488412
165	0x3e1fad18	0.15593374
166	0xbe65191f	-0.22372864
167	0x3ecac45f	0.39602944
168	0xbeb8b9cd	-0.36079255
169	0x3e691a31	0.22763897
170	0xbe590e3b	-0.21196835
171	0xbe143a69	-0.14475407
172	0xbec32c4b	-0.3811973
173	0xbec1b8a5	-0.37836185
174	0xbec5bc61	-0.38620284
175	0xbc159943	-0.009130779
176	0x3ebfbd52	0.37449127
177	0x3e402752	0.18765
178	0x3e832456	0.2561366
179	0x3db9175c	0.090376586
180	0xbe218544	-0.15773493
181	0xbe22cf4b	-0.15899388
182	0xbdf85dca	-0.12127264
183	0xbec349a4	-0.3814212
184	0x3e65ca22	0.22440389
185	0xbdf888bc	-0.12135455
186	0xbe6cf20f	-0.23139213
187	0x3dcf9f82	0.101378456
188	0xba15acd3	-0.0005709652
189	0x3e626b5c	0.22111267
190	0xbe8962b2	-0.2683311
191	0x3ecf5455	0.40494028
192	0xbe26687e	-0.16250798
193	0x3e1df483	0.15425305
194	0x3ebe21ef	0.37135264
195	0xbcc25034	-0.023719884
196	0xbeb7d38d	-0.35903588
197	0xbeca62bc	-0.39528453
198	0x3ecdcec5	0.40196815
199	0xbec45b9f	-0.3835115
200	0xbe1cbddc	-0.153068
201	0x3e8ea03e	0.2785663
202	0xbea25176	-0.31702775
203	0x3ec2c107	0.38037893
204	0x3d2264ff	0.0396471
205	0x3e01c81b	0.1267399
206	0x3d8372b1	0.0641836
207	0x3d3b6b8a	0.045756854
208	0x3e6b2c36	0.22966084
209	0xbeb4f9c3	-0.35346803
210	0x3db57c85	0.08861641
211	0xbe3d465d	-0.18483873
212	0x3ec5cded	0.3863367
213	0x3eade701	0.33965304
214	0xbe227476	-0.15864739
215	0x3e6984f4	0.22804624
216	0xbd8e5ffa	-0.069519
217	0x3e5c9737	0.21542059
218	0xbdec7ba7	-0.11547022
219	0xbe74a321	-0.23890354
220	0x3e305fe8	0.17224085
221	0x3e4efd88	0.20213902
222	0x3ebc256b	0.36747298
223	0x3e049cc8	0.12950432
224	0xbe3a1d56	-0.18175253
225	0x3dd778cc	0.10521087
226	0x3cd170b2	0.025566433
227	0x3eb64288	0.35597634
228	0x3e2bd138	0.1677903
229	0x3eb26f64	0.3485061
230	0x3cfadf8d	0.030624175
231	0xbe9e4da9	-0.30918625
232	0xbe85aeaf	-0.26109836
233	0x3ebce354	0.36892188
234	0x3ebaef00	0.36510468
235	0x3df9aadc	0.12190792
236	0xbe958753	-0.29204807
237	0x3e97fa05	0.29682937
238	0x3e2bd569	0.16780628
239	0xbea5a84b	-0.3235496
240	0x3df3afaa	0.1189874
241	0x3ec96163	0.39332113
242	0xbe8a39a5	-0.26997104
243	0x3d059583	0.03261329
244	0x3df22eaa	0.11825307
245	0xbe161451	-0.14656188
246	0x3e89959f	0.26871964
247	0x3eb9e1da	0.36305124
248	0x3ecb7919	0.39740828
249	0xbebb15c1	-0.36540034
250	0x3cba2e7b	0.022727242
251	0x3eaa9e64	0.33323967
252	0x3eb20749	0.34771183
253	0xbdda1d0e	-0.10650073
254	0x3e89a39a	0.2688263
255	0x3e9ba3f7	0.30398533

experts.0.fc1.bias f4 [256]
0	0x3e1828c1	0.14859296
1	0xbe2a7716	-0.1664699
2	0xbeb46b13	-0.3523794
3	0xbe2c04a2	-0.16798642
4	0xbecc929c	-0.39955604
5	0x3da813b1	0.08206881
6	0x3d01832c	0.031619236
7	0x3ec10588	0.37699533
8	0xbe67ac3c	-0.22624296
9	0xbe5833fc	-0.2111358
10	0x3dcab21e	0.098972544
11	0xbddaf54c	-0.10691318
12	0x3ea3271d	0.3186578
13	0x3d7e61ba	0.062104918
14	0xbc11561e	-0.00887063
15	0xbe2063ab	-0.1566302
16	0x3e7c9659	0.24666728
17	0xbe432d29	-0.19060196
18	0x3e281a69	0.16416325
19	0x3e868b1e	0.26278013
20	0xbea33034	-0.31872714
21	0xbeb933a5	-0.36172214
22	0xbe6c0fe0	-0.23052931
23	0x3e4a37fd	0.1974792
24	0xbe66976b	-0.22518699
25	0x3d23477e	0.039863102
26	0x3d7c7a6f	0.0616402
27	0x3daea2ac	0.08527121
28	0xbe552cc9	-0.20817865
29	0x3c7236a9	0.01478354
30	0x3e90d736	0.28289193
31	0x3e57b7c7	0.21066199
32	0x3d9f1bdc	0.07768986
33	0xbea5fa44	-0.324175
34	0x3e459280	0.19294167
35	0xbe24c0ad	-0.16089125
36	0x3e92490b	0.28571352
37	0x3e2e9b8d	0.17051525
38	0xbd98dadd	-0.0746362
39	0x3e200a7e	0.15629002
40	0xbe2c31a0	-0.16815805
41	0x3d90507b	0.070466004
42	0xbca6a18d	-0.020340705
43	0x3bd44791	0.006478258
44	0x3e12cc01	0.14335634
45	0x3ecae684	0.39628994
46	0xbe3885b9	-0.18019761
47	0x3ecc574d	0.39910355
48	0xbd996e42	-0.07491733
49	0x3ec6cdc5	0.38828865
50	0x3dbd4b46	0.09242873
51	0x3d04704b	0.032333653
52	0xbe0a3e40	-0.13500309
53	0xbe5c81b2	-0.2153385
54	0xbecd8e69	-0.40147713
55	0xbe6330c4	-0.22186571
56	0xbd1145fc	-0.035467133
57	0x3eb0b019	0.34509352
58	0x3e63ab1e	0.22233245
59	0x3d91c6ec	0.071180195
60	0xbeca7af5	-0.39546934
61	0x3e927184	0.2860223
62	0x3e3870ff	0.18011855
63	0xbe3be185	-0.18347748
64	0x3e28d2ab	0.16486613
65	0xbeae4c4b	-0.34042582
66	0xbe51bb47	-0.20481597
67	0xbdfc5083	-0.12320044
68	0xbebd4ac5	-0.36971107
69	0xbccc4ef0	-0.024939984
70	0x3dab3739	0.08360142
71	0x3df35ddb	0.11883136
72	0x3ec2d6bb	0.3805445
73	0x3e731d3f	0.23741625
74	0xbebed078	-0.37268424
75	0xbe033819	-0.12814368
76	0x3e6bdefc	0.2303428
77	0xbec867c0	-0.39141655
78	0xbcced517	-0.025248094
79	0x3e1e7e79	0.15477933
80	0xbe8b543a	-0.27212697
81	0x3eb388f0	0.35065413
82	0xbe8a20fc	-0.2697829
83	0xbe986348	-0.29763246
84	0xbe9ee7d7	-0.31036255
85	0xbd927439	-0.07151074
86	0x3e0a92cb	0.1353256
87	0x3dee5c6d	0.116387226
88	0xbe4d31f2	-0.20038584
89	0x3eb751b9	0.35804537
90	0xbe607c53	-0.21922426
91	0x3ea402c2	0.32033354
92	0x3e0c014d	0.13672371
93	0xbe06e3f0	-0.13172889
94	0x3e9a640f	0.30154464
95	0x3e0a9d33	0.13536529
96	0xbeb1ba4f	-0.34712455
97	0x3e545f21	0.20739414
98	0x3ec56e0a	0.38560516
99	0xbe9c1d0f	-0.3049092
100	0xbdb044a8	-0.08606845
101	0xbea7db1a	-0.3278435
102	0x3e8b7e11	0.2724462
103	0x3e5dcc07	0.21659862
104	0x3e9879a4	0.29780304
105	0x3dece357	0.11566799
106	0xbd8c55f9	-0.068523355
107	0xbd2124b2	-0.039341636
108	0xbe9bbd31	-0.3041778
109	0x3e847945	0.2587377
110	0xbe27b717	-0.16378437
111	0x3d398a5f	0.045297977
112	0x3c6ad3b6	0.014332702
113	0x3dfcc0b4	0.12341443
114	0xbea715d2	-0.32633835
115	0xbd846e44	-0.06466344
116	0x3e40dcc6	0.18834218
117	0xbe9a8071	-0.30176118
118	0xbe3424fc	-0.17592233
119	0xbe6631ac	-0.22479886
120	0xbef0bf69	-0.47021034
121	0x3ecb42c6	0.39699382
122	0x3eb497c6	0.35272044
123	0x3e82ddbb	0.25559792
124	0xbead0cb1	-0.33798745
125	0xbb742efb	-0.0037259448
126	0x3d998962	0.07496907
127	0x3e397022	0.18109182
128	0x3da86669	0.08222658
129	0xbe7fecb1	-0.24992634
130	0x3c4ebb46	0.012617892
131	0xbea9379a	-0.33050233
132	0x3e529474	0.20564443
133	0x3e83a965	0.25715175
134	0xbe156e85	-0.14592941
135	0xbeb62b29	-0.35579804
136	0x3b78c1d6	0.0037957332
137	0x3e5600be	0.2089872
138	0xbe8e5df1	-0.27806047
139	0x3e2f1a60	0.17099905
140	0x3e9257ff	0.2858276
141	0xbeacc378	-0.3374288
142	0x3e312270	0.17298293
143	0x3e3d0f7f	0.18462943
144	0xbe569aea	-0.20957533
145	0x3eaf6e24	0.34263718
146	0xbe490a52	-0.19632843
147	0x3e9ede95	0.31029192
148	0xbea0136a	-0.31264812
149	0x3ea5a731	0.3235412
150	0xbdbbfd75	-0.091792025
151	0xbeb7cfee	-0.35900825
152	0x3e604a93	0.21903448
153	0xbd074972	-0.033029027
154	0x3dec266e	0.115307674
155	0x3e4094c8	0.18806756
156	0x3d3921d8	0.04519829
157	0x3e05858f	0.1303923
158	0xbeb02d92	-0.34409767
159	0xbeb8b40b	-0.36074862
160	0xbe444f7b	-0.19170944
161	0xbe5a9195	-0.21344598
162	0xbec546bb	-0.38530526
163	0xbcd835fd	-0.026392931
164	0xbd04ac45	-0.03239085
165	0xbdb71a20	-0.0894053
166	0xbc97a06a	-0.018509109
167	0x3e48e3d8	0.19618165
168	0xbe1b2033	-0.15149002
169	0x3cd7631e	0.02629238
170	0xbd155e11	-0.03646666
171	0x3e49df39	0.19714059
172	0xbd3457fd	-0.044029225
173	0x3e148bad	0.14506407
174	0xbe233986	-0.15939912
175	0x3ea22d83	0.31675348
176	0x3d8a40d0	0.06750643
177	0x3d8de5f6	0.06928627
178	0x3e4b59e9	0.19858517
179	0xbed08431	-0.40725854
180	0x3e38b98f	0.18039535
181	0x3ea71948	0.32636476
182	0x3e7c065b	0.246118
183	0x3e874d3b	0.2642611
184	0xbea7e661	-0.32792953
185	0x3eb4eb25	0.3533565
186	0x3dbaef1f	0.0912764
187	0xbecc28f1	-0.39874986
188	0x3ebc5f3b	0.36791405
189	0x3ea31c6c	0.31857622
190	0xbd85637f	-0.06513118
191	0x3eccf7c7	0.4003279
192	0x3cdbc739	0.026828395
193	0x3ea80327	0.32814905
194	0xbeb8c5e7	-0.36088488
195	0xbec2a7aa	-0.38018543
196	0x3de7dd20	0.11321473
197	0xbb79a7b1	-0.0038094337
198	0xbeb09cba	-0.34494573
199	0xbe6a69dc	-0.22891945
200	0x3e6a5450	0.22883725
201	0x3e85407b	0.26025757
202	0xbe9e8927	-0.30964014
203	0xbe3c744f	-0.18403743
204	0x3b1b97f8	0.0023741703
205	0xbafe098b	-0.0019381506
206	0xbe99bce1	-0.30026916
207	0x3e9b7f65	0.30370632
208	0xbe91644c	-0.28396833
209	0x3e94e836	0.29083413
210	0xbe8148ef	-0.25250956
211	0xbecfad7b	-0.40562043
212	0x3dd050ca	0.10171659
213	0xbe47fb80	-0.19529533
214	0x3e8ce9a5	0.27522007
215	0xbe0a8746	-0.13528165
216	0x3d24b598	0.040212244
217	0x3e9b96de	0.3038854
218	0xbe87c0cd	-0.26514283
219	0xbe2cafe6	-0.16863975
220	0x3e8e51ae	0.27796692
221	0x3eb091a7	0.34486124
222	0x3d94eb29	0.07271416
223	0x3ea0af8d	0.31383935
224	0x3e7d4abd	0.24735542
225	0x3e6bfaf1	0.23044945
226	0xbc883cbc	-0.016630523
227	0x3ec9cf36	0.39415902
228	0xbe05ea14	-0.13077575
229	0x3ce3a4bb	0.02778851
230	0xbdf92cbd	-0.12166736
231	0xbd0165d3	-0.031591248
232	0x3e7b3979	0.24533643
233	0x3e9e788f	0.30951354
234	0x3d7830d1	0.06059343
235	0x3e894416	0.26809758
236	0x3e930e68	0.2872193
237	0x3e4baab6	0.1988934
238	0xbde3db69	-0.111258335
239	0x3e73ea37	0.23819815
240	0x3eaeae43	0.34117326
241	0x3eace9f3	0.3377224
242	0x3dd8a3f2	0.10578145
243	0x3e9a418a	0.30128127
244	0xbe91329d	-0.28358927
245	0x3d9d924a	0.07693918
246	0xbeb7a4c2	-0.35867888
247	0x3e567c2e	0.20945808
248	0x3c99889e	0.018741902
249	0xbd9dbbf6	-0.07701866
250	0x3e853f64	0.26024926
251	0xbd80f6f4	-0.062971026
252	0x3e2a36c8	0.1662246
253	0x3e60625e	0.21912524
254	0xbe4f710f	-0.20257972
255	0xbeb4cd36	-0.35312814

experts.0.fc2.weight f4 [256, 256]
0	0x3ba18f19	0.0049303886
1	0xbd1c2802	-0.038124092
2	0xbd0f9300	-0.0350523
3	0x3cf3a77a	0.029742945
4	0x3c72f1c0	0.0148281455
5	0xbc646417	-0.013939879
6	0xbcc31f5b	-0.023818662
7	0xbd3d5178	-0.046220273
8	0xbcd8e779	-0.026477562
9	0x3b8345b0	0.00400611
10	0xbd1a84df	-0.037724372
11	0xbd831161	-0.06399799
12	0xbd7ab55f	-0.061208125
13	0xbd716ada	-0.058939792
14	0xbceb83a4	-0.028749295
15	0x3c8d9740	0.017284036
16	0xbcea2298	-0.028580949
17	0x3d24e1b2	0.040254302
18	0x3d0c1a72	0.034204908
19	0xbd46fe01	-0.04858208
20	0x3c653dc1	0.013991774
21	0xbcdc819c	-0.026917271
22	0x3d558bd6	0.05213531
23	0x3d423a99	0.047419164
24	0x3cead6a4	0.028666802
25	0xbd064175	-0.03277727
26	0x3c1411a0	0.009037405
27	0xbd24a6bb	-0.04019807
28	0x3c195128	0.009357728
29	0x3d7aa064	0.061188117
30	0xbc457150	-0.012050942
31	0xbd178c25	-0.036998887
32	0xbcf71ec4	-0.030166037
33	0xbd1e53e8	-0.038654238
34	0x3cff3bc4	0.031156428
35	0xbd17e1b8	-0.037080497
36	0x3d333132	0.04374809
37	0x3d10c707	0.035346057
38	0x3d1b3d8b	0.03790049
39	0xbb53b68f	-0.0032304858
40	0xbc6a7b9e	-0.014311699
41	0x3cb978fc	0.022640698
42	0xbc1f0c8f	-0.009707584
43	0x3ccdc2d4	0.025117315
44	0x3c6bee1a	0.01440003
45	0x3ca7683c	0.020435445
46	0xbcdadd38	-0.026716813
47	0x3d208a88	0.039194614
48	0xbc4467e8	-0.011987664
49	0x3d1176fa	0.035513856
50	0xbb95c16e	-0.0045701778
51	0xbd79fccd	-0.061032105
52	0xbbb620e0	-0.005558118
53	0xbca27e28	-0.019835547
54	0xbcfdda34	-0.030987836
55	0xbb1c20b2	-0.00238232
56	0xbcc88583	-0.024477726
57	0x3bacba0a	0.005271201
58	0xbc9ffaf4	-0.019528843
59	0xbd1ed66c	-0.038778707
60	0x3cb501d7	0.022095604
61	0xbd5067bc	-0.05088018
62	0xbdcf6a2a	-0.10127671
63	0xbc1fb0cb	-0.009746741
64	0xbba8686a	-0.0051394003
65	0xbd6ff1e5	-0.058580298
66	0x3cfe880f	0.031070737
67	0x3ba90410	0.005157955
68	0x3ccec11a	0.025238562
69	0xba21ae80	-0.0006167665
70	0xbc5f81b0	-0.01364176
71	0xbcb42e48	-0.021994725
72	0xbbdb32a6	-0.0066893874
73	0xbd48091f	-0.048836824
74	0x3cdbb4f1	0.026819678
75	0x3c9186f8	0.017764553
76	0x3d37a250	0.044832528
77	0xbd6dfb76	-0.05810114
78	0xbbd55620	-0.006510511
79	0xbcc653d8	-0.024209902
80	0x3ab4b758	0.0013787551
81	0x3c201b76	0.009772172
82	0xbc1d791b	-0.009611393
83	0xbba70689	-0.0050972146
84	0xbc271778	-0.0101984665
85	0x3c791298	0.015202187
86	0xbd0cb82a	-0.03435532
87	0xbc099a8f	-0.008398666
88	0x3cfe11c0	0.031014323
89	0x3d2bb893	0.04192407
90	0x3bf39e71	0.007434659
91	0xbbe0f830	-0.0068655238
92	0x3c320c5e	0.010867206
93	0x3cebb7f0	0.028774232
94	0x3c42c8a7	0.01188866
95	0xbd14f86e	-0.036369734
96	0xbd49bb78	-0.04925105
97	0x3cf1fd96	0.029539865
98	0xbce5955a	-0.028025318
99	0x3cbe8c74	0.023260333
100	0xbd5bf68a	-0.053701915
101	0x3d094abe	0.033518545
102	0x3cda17b9	0.02662264
103	0xbc4a1310	-0.012333646
104	0xbd430812	-0.04761512
105	0xbbf048a7	-0.0073328796
106	0x3d116ae0	0.035502315
107	0x3d4259d2	0.04744894
108	0xbb17c160	-0.0023156032
109	0xbba09b75	-0.0049013444
110	0x3d520060	0.05126989
111	0x3c341203	0.010990622
112	0x3d70396b	0.058648508
113	0x3d6797de	0.056541316
114	0xbd2733bb	-0.04082082
115	0xbd347cfc	-0.044064507
116	0xbca9f0dc	-0.020744734
117	0xbc1c93e0	-0.0095567405
118	0x3d6357b2	0.055503555
119	0xbd408e4e	-0.047010712
120	0xbe003043	-0.1251841
121	0x3d3f49bf	0.04670119
122	0x3b80bec0	0.003928989
123	0xbd57ab55	-0.05265363
124	0xbd3f7454	-0.0467418
125	0x3c1847f0	0.009294495
126	0x3c9423ac	0.018083416
127	0x3c6de0c8	0.014518924
128	0x3d1f4c8e	0.038891368
129	0x3d1fca53	0.03901131
130	0xbd60ba18	-0.054864973
131	0x3cf2824e	0.02960315
132	0x3d205171	0.03914017
133	0xbd014ae2	-0.031565554
134	0xbd1ea7a7	-0.038734104
135	0xbd6811de	-0.056657664
136	0xbd7c94b8	-0.061665267
137	0x3d060647	0.03272083
138	0x3c936586	0.017992746
139	0xbd0a5ef7	-0.03378197
140	0xbd64267e	-0.05570077
141	0xbd6d9122	-0.057999738
142	0xbdd088e1	-0.101823576
143	0x3ca8833c	0.02057039
144	0x3c2aae84	0.010417584
145	0xbba95160	-0.0051671714
146	0x3cd10250	0.025513798
147	0x3bddf410	0.0067734793
148	0x3cd3beac	0.025847755
149	0x3c7ef1ba	0.015560562
150	0xbd03e2b6	-0.03219863
151	0xbcec617d	-0.02885508
152	0x3c7a2a9e	0.01526895
153	0x3c8377d7	0.016048355
154	0x3d34bff4	0.044128373
155	0xbd3d5d36	-0.04623147
156	0x3cfb8ef7	0.03070782
157	0xbd6ad650	-0.05733329
158	0x3baf78a0	0.005354956
159	0xbd4e3c2a	-0.050350346
160	0xbcfbd3e4	-0.030740686
161	0xbd125340	-0.035723925
162	0x3d65d806	0.05611422
163	0xbdd1bfbd	-0.10241649
164	0xbce31304	-0.027719028
165	0xbb78b61d	-0.0037950345
166	0xbd5b7df1	-0.053586904
167	0xbd51be72	-0.051207013
168	0xbd019d1c	-0.03164397
169	0x3bbed42f	0.005823634
170	0xbd667084	-0.056259647
171	0xbc552560	-0.013009399
172	0x3c0d4ff2	0.0086250175
173	0x394ac08a	0.00019335948
174	0xbac8e610	-0.0015327353
175	0x3c297150	0.010341957
176	0x3d7a8b0d	0.061167765
177	0xbd59aa84	-0.053141132
178	0xbd3755a2	-0.0447594
179	0x3d0706ba	0.0329654
180	0x3c9cd3e0	0.019143999
181	0x3d552e6c	0.052046224
182	0x3d4a8c6b	0.04945032
183	0xbd3cbaef	-0.04607671
184	0xbc689790	-0.014196292
185	0xbd668346	-0.056277536
186	0x3cce5a64	0.025189586
187	0x3d19d9ca	0.037561215
188	0xbd4b6b0f	-0.049662646
189	0xbd100535	-0.035161216
190	0x3d08bc9e	0.033383004
191	0x3c797918	0.015226625
192	0xbd24d655	-0.040243465
193	0x372e6b78	1.039623e-05
194	0xbd2a2916	-0.04154309
195	0x3cbcc13a	0.023041356
196	0x3c2b35a0	0.010449797
197	0x3c8b777e	0.017024752
198	0xbb0540a6	-0.0020332723
199	0x3b5eb500	0.0033982396
200	0xbd3de232	-0.046358295
201	0x3d6ef8b8	0.058342665
202	0xbb279620	-0.002557166
203	0x3a801183	0.0009770844
204	0x3bb919b0	0.005648814
205	0xbd708f30	-0.058730304
206	0x3c72dde7	0.014823413
207	0x3d57290f	0.05252939
208	0x3d102bd1	0.035198037
209	0x3c150c4d	0.009097171
210	0x3c94a380	0.01814437
211	0x3c35efc0	0.011104524
212	0x39289000	0.00016075373
213	0x3ce033e0	0.027368486
214	0x3ca8a7f8	0.020587906
215	0x3c9b1ed4	0.018935598
216	0xbd190832	-0.03736133
217	0xbbf98340	-0.007614523
218	0x3d1f9cb2	0.038967796
219	0x3d291794	0.04128225
220	0xbd10209c	-0.03518735
221	0x3ca019dc	0.01954358
222	0xbd29971e	-0.041403882
223	0x3c856f6c	0.016288482
224	0x3cb2b674	0.021815516
225	0xbd185735	-0.037192542
226	0x3d3f083e	0.04663872
227	0x3d36c9b8	0.044625968
228	0x3d367e8f	0.04455429
229	0x3c8c68a4	0.01713974
230	0x3ccbdaa4	0.02488453
231	0xba86ced3	-0.0010285027
232	0xbd079aba	-0.033106543
233	0x3c9beda0	0.019034207
234	0xbcdb1514	-0.02674345
235	0x3c8671dc	0.016411714
236	0xbd088de4	-0.033338442
237	0xbce2f494	-0.027704515
238	0xbd49abd0	-0.04923612
239	0xbc8a0ee0	-0.016852796
240	0x3d17cd3b	0.037060957
241	0x3c9f2e68	0.019431308
242	0xbba5b800	-0.005057335
243	0x3d227cac	0.039669678
244	0x3d362586	0.04446938
245	0xbce63965	-0.02810354
246	0xbd3d789a	-0.046257593
247	0x3d46c568	0.048528105
248	0xbd683296	-0.056688868
249	0xbd4aeb12	-0.049540587
250	0xbd51ff7c	-0.05126904
251	0xbd2a6563	-0.041600596
252	0xbd2d9155	-0.042374928
253	0x3a0d5caf	0.0005392534
254	0xbce2348d	-0.027612949
255	0x3d417ede	0.04724013

experts.0.fc2.bias f4 [256]
0	0xbb7b8a6f	-0.0038382073
1	0xbb13a3b6	-0.0022528
2	0x3d5e5e00	0.054288864
3	0xbd5e5be8	-0.054286867
4	0x3becc8c0	0.0072260797
5	0xbac28080	-0.0014839321
6	0xbbeede80	-0.0072897077
7	0xbd0d0067	-0.03442421
8	0x3c843230	0.016137213
9	0x3d5d5f20	0.054045796
10	0x3b5dad00	0.003382504
11	0xbd301312	-0.042986937
12	0xbd34353a	-0.043996073
13	0xbd27adb4	-0.04093714
14	0xbccbe5a0	-0.024889767
15	0xbd29ec22	-0.04148496
16	0xbc7a31ed	-0.015270692
17	0x3cbab4ed	0.02279135
18	0xbd48ac52	-0.048992462
19	0xbd395582	-0.045247562
20	0xbcd535f3	-0.026026702
21	0x3d504f79	0.05085704
22	0xbb65108b	-0.0034952487
23	0x3cf3b139	0.029747592
24	0xbc9a0308	-0.018800274
25	0x3d7b9aec	0.061427042
26	0xbd50984d	-0.050926495
27	0xbd59aa29	-0.053140793
28	0x3d7ae8d6	0.061257206
29	0x3be35f70	0.0069388673
30	0x3d1ad74e	0.037802987
31	0xbb836470	-0.004009776
32	0xbd660257	-0.056154575
33	0x3d325214	0.043535307
34	0xbb5a5ef6	-0.0033320761
35	0x3d78d8fd	0.06075381
36	0xbca34d04	-0.019934185
37	0x3d2f1feb	0.04275505
38	0xbd11fe42	-0.03564287
39	0x3d4a6530	0.049412906
40	0xbcadd8be	-0.021221515
41	0xbcf88574	-0.030337073
42	0x3d3b0168	0.045655638
43	0xbd2e968e	-0.04262405
44	0xbb96b90c	-0.004599696
45	0xbc99f9a3	-0.018795794
46	0xbd11fcb6	-0.035641395
47	0x3ca34028	0.019928053
48	0xb908e800	-0.00013056397
49	0xbc30a5e0	-0.010781735
50	0x3d017be2	0.031612284
51	0x3d4aed02	0.049542435
52	0x3d596e83	0.053083908
53	0x3c15814d	0.009125066
54	0x3b994668	0.0046775825
55	0xbc2e0931	-0.010622309
56	0xbbe35185	-0.006937208
57	0xbd556a0a	-0.05210308
58	0xbcbce70c	-0.02305939
59	0x3d6b8008	0.057495147
60	0xbd0e56a2	-0.03475059
61	0x3cdfe820	0.027332366
62	0x3d6bfb14	0.057612494
63	0xbd311d4c	-0.04324083
64	0xbc2b12d0	-0.010441497
65	0x3c705e58	0.014670931
66	0x3c8653b4	0.016397335
67	0xbca6db10	-0.020368129
68	0xbd0c7f04	-0.03430082
69	0xbd6f1da2	-0.05837787
70	0x3d57d9f5	0.052698094
71	0xbce1821a	-0.027527858
72	0xbd67e69e	-0.056616418
73	0x3d039e7a	0.032133557
74	0x3c83c7a4	0.016086407
75	0x3d78e368	0.060763747
76	0x3d0d0f99	0.034438703
77	0x3d17421b	0.036928277
78	0x3d34048e	0.043949656
79	0xbd9b9ce2	-0.075982824
80	0xbd65adf1	-0.056074087
81	0xbb9fd07d	-0.0048771487
82	0x3c472f18	0.012157224
83	0x3d76440a	0.06012348
84	0x3cc78ea8	0.024360016
85	0xbd3a1a14	-0.045435026
86	0x3d6948da	0.056954242
87	0xbc6f22a8	-0.014595665
88	0xbd0ccd80	-0.034375668
89	0xbd6f1c84	-0.058376804
90	0xbd169dd4	-0.03677161
91	0x3cf1e866	0.029529762
92	0x3ceabc52	0.028654251
93	0x396c8ee3	0.00022559943
94	0xbd588ba6	-0.052867554
95	0xbb9a9f28	-0.00471868
96	0x3d5e51d4	0.054277256
97	0xbd123e9a	-0.035704233
98	0x3d5798ac	0.052635834
99	0x3d0e4f1a	0.034743406
100	0x3c717b58	0.01473888
101	0xbcc8bcdf	-0.024504123
102	0x3cb2e724	0.021838732
103	0xbd4b6dbc	-0.049665198
104	0xbd180c7e	-0.03712129
105	0x3d498604	0.049200073
106	0xbc778f0d	-0.01510979
107	0x3d3e8b9f	0.04651987
108	0xbc62b151	-0.013836221
109	0x3d4910e5	0.049088378
110	0xbbba8b7b	-0.005692897
111	0x3c346668	0.011010744
112	0x3cdfd8ef	0.027325122
113	0xbd33997f	-0.043847557
114	0x3cc5d0c7	0.024147404
115	0x3c9501d8	0.018189356
116	0x3d6004b8	0.054692
117	0x3d4fda8a	0.050745524
118	0x3ce27c10	0.027647048
119	0x3a853aaa	0.0010164578
120	0x3c471898	0.01215186
121	0x3c03f666	0.008054351
122	0x3d044fdd	0.032302726
123	0xbd1066ef	-0.035254415
124	0x3cde969b	0.027171424
125	0x3d23e1b5	0.040010173
126	0xbbd3f0e0	-0.0064679235
127	0xbd62d850	-0.055382073
128	0xbc428587	-0.011872656
129	0x3b979882	0.0046263346
130	0xbbaa00eb	-0.0051880977
131	0x3cf2b822	0.029628817
132	0x3d0ecf06	0.0348654
133	0xbbc20535	-0.005921031
134	0x3d5c401e	0.053772084
135	0xbc6b6fe8	-0.014369942
136	0xbd2d0116	-0.042237364
137	0x3b50297b	0.0031763006
138	0x3d816ecf	0.06319963
139	0x3c087356	0.0083282795
140	0x3d4f722d	0.050645996
141	0xbd53cfda	-0.051711895
142	0x3cbb1c7c	0.02284073
143	0x3d63a178	0.05557391
144	0x3d4e2676	0.050329648
145	0xbd5b62a8	-0.053560883
146	0x3b88a0b7	0.0041695493
147	0x3ce20ee7	0.027594997
148	0xbd6c94ee	-0.057759218
149	0x3d2a94ba	0.041645743
150	0xbd474f49	-0.048659597
151	0xbd3a81e3	-0.045534026
152	0x3cd1f623	0.025630062
153	0x3cc7d5ad	0.02439388
154	0x3ca62094	0.020279206
155	0x3c613800	0.013746262
156	0xbd71775c	-0.05895172
157	0x3c9fb7ca	0.019496817
158	0x3d048a3f	0.032358404
159	0xbb913cb0	-0.0044322833
160	0x3c3bc987	0.011461622
161	0xbcf4b40a	-0.029871006
162	0xbd32f91f	-0.04369461
163	0x3cfdc3da	0.030977178
164	0x3cc59f72	0.024123881
165	0xbd0d98e6	-0.034569643
166	0x3d416058	0.04721102
167	0xbd29c427	-0.04144683
168	0xbcab5356	-0.020913761
169	0x3d2a024a	0.04150609
170	0xbcdf2cf0	-0.027243108
171	0x3c763118	0.015026353
172	0x3d1c4be5	0.038158316
173	0xbd279589	-0.040914092
174	0x3c06bab4	0.008223224
175	0x3d591f37	0.053008284
176	0x3d40614c	0.04696779
177	0x3cf49a77	0.02985881
178	0xbd46867e	-0.048468105
179	0x3ce0ee3e	0.027457353
180	0xbd690770	-0.05689186
181	0xbbd3e90b	-0.00646699
182	0xbc8daf1c	-0.017295413
183	0x3d1e06de	0.038580768
184	0xbd34545d	-0.044025768
185	0x3bdab852	0.0066748047
186	0x3d1afd7d	0.0378394
187	0x3c888da8	0.01666911
188	0xbd0c35d4	-0.034231022
189	0xbc92d236	-0.017922502
190	0xba83c340	-0.0010052696
191	0x3d2fb0cc	0.042893216
192	0xbd509fb8	-0.05093357
193	0x3b6835e0	0.0035432503
194	0xbd51f0d0	-0.051255047
195	0x3cea8b65	0.028630922
196	0x3c8977ed	0.016780818
197	0xbb8cff8b	-0.004302924
198	0x3d47c0b3	0.048767757
199	0x3b8573e0	0.0040726513
200	0xbd14d638	-0.036337107
201	0xbc9ba8f4	-0.019001462
202	0xbd44fd95	-0.048093397
203	0x3c1c4f32	0.009540366
204	0x3cf9f633	0.030512905
205	0x3d34801b	0.044067483
206	0x3d1994d3	0.037495445
207	0x3d05b355	0.032641727
208	0x3cab25d4	0.020892061
209	0x3c6fe0b8	0.0146409795
210	0x3b1cdc9d	0.0023935207
211	0xbd4928c3	-0.04911114
212	0xbc777674	-0.015103925
213	0x3d6bbc80	0.057552814
214	0xbd5d8048	-0.054077417
215	0xbcff52a3	-0.031167334
216	0x3cde28c2	0.027119044
217	0x3d6a53d8	0.057208866
218	0x3bcddf9c	0.00628276
219	0x3c23df97	0.010002038
220	0xbd5d0ed8	-0.053969234
221	0x3d57d054	0.05268891
222	0xbd655410	-0.05598837
223	0xbc8094f9	-0.015696036
224	0xbb486040	-0.0030574948
225	0xbccd28fd	-0.025043959
226	0xbc947d64	-0.018126197
227	0xbd1effc0	-0.03881812
228	0x3d3677a5	0.044547696
229	0xbcd8fd70	-0.026488036
230	0xbc9adbc4	-0.01890362
231	0xbd7db4de	-0.061940067
232	0xbd2af2e2	-0.041735537
233	0xbd617962	-0.0550474
234	0x3bf86760	0.0075806826
235	0xbca42120	-0.020035326
236	0x3d097f57	0.033568706
237	0x3d46ae28	0.048505932
238	0xbd7bb27a	-0.061449505
239	0xbd139444	-0.03603007
240	0xbd32f55e	-0.04369103
241	0xbd3c9c19	-0.046047304
242	0x3cccb020	0.024986327
243	0x3b7935f5	0.0038026546
244	0xbc3af7db	-0.011411632
245	0x3d3fa8bb	0.046791773
246	0xbd7d773c	-0.06188129
247	0xbd37f0b6	-0.044907294
248	0x3d1f4f4e	0.03889399
249	0x3bb0cc08	0.005395416
250	0x3d07a536	0.03311654
251	0x3bf522c3	0.0074809506
252	0xbba34c50	-0.0049834624
253	0xbd14993d	-0.036278952
254	0x3b12c8a3	0.002239742
255	0xbd171156	-0.036881767
