outputs/router_rule/ppo/winter20251128-144701/models/hac_model.pth (torch, 869122 bytes, 27 tensors)

router_backbone.0.weight f4 [128, 6]
0	0x3e993a57	0.29927322
1	0x3ec2ea6d	0.38069478
2	0xbe0f2545	-0.13979061
3	0x3ebbc999	0.36677244
4	0xbdd52527	-0.10407477
5	0x3d85ca35	0.065327086
6	0xbe4b8726	-0.19875774
7	0x3e7582e6	0.23975715
8	0x3eb8434b	0.3598884
9	0xbe995863	-0.29950246
10	0x3eb5ae9f	0.35484788
11	0x3d9c7b85	0.07640747
12	0x3ea747e2	0.3267203
13	0x3dad49f8	0.08461374
14	0x3e5c6606	0.21523294
15	0xbd1488e5	-0.036263365
16	0x3eadd7ac	0.33953607
17	0x3da7effc	0.0820007
18	0xbe3ef00b	-0.18646257
19	0x3e438e63	0.19097285
20	0xbe400e16	-0.18755373
21	0x3c167d4d	0.0091851475
22	0xbe001cee	-0.12511036
23	0x3e9c8338	0.30568862
24	0xbea4ff23	-0.32225904
25	0xbe40b941	-0.18820669
26	0xbdec1767	-0.11527901
27	0xbe7b5c16	-0.24546847
28	0x3d1dd378	0.03853175
29	0xbece72a2	-0.40321833
30	0x3ec27eec	0.3798746
31	0xbe8e029d	-0.2773637
32	0x3ea1716c	0.31531847
33	0x3db3c55c	0.08777878
34	0xbdcdadd5	-0.100429215
35	0x3e918c54	0.28427374
36	0x3d824e40	0.06362581
37	0x3ea8e20f	0.3298497
38	0x3d36cd81	0.044629578
39	0xbe03d730	-0.12875056
40	0x3de0a4f8	0.10968965
41	0xbde2bb29	-0.11070854
42	0x3e2ff01c	0.17181438
43	0x3eba9ed8	0.36449313
44	0x3e71a7d8	0.23599184
45	0xbe36c223	-0.17847495
46	0x3e7152c6	0.23566732
47	0x3d959950	0.07304633
48	0x3e623f75	0.2209452
49	0xbe721141	-0.23639394
50	0xbec33c3d	-0.38131896
51	0xbe0a4ef7	-0.13506685
52	0xbe94cf96	-0.29064626
53	0x3eb706d2	0.3574739
54	0x3df0d223	0.117588304
55	0x3e635a25	0.22202356
56	0x3df2b63f	0.11851167
57	0x3c90380f	0.017604856
58	0x3eb6ab70	0.3567767
59	0xbe7f62fc	-0.24940103
60	0x3cd292f1	0.025704833
61	0xbe8eaaac	-0.27864587
62	0x3e00e7c8	0.12588418
63	0xbe0ff7bd	-0.14059348
64	0x3e00189f	0.12509392
65	0xbdae3158	-0.08505505
66	0x3ead5cb1	0.3385978
67	0xbe77c6de	-0.24196956
68	0xbe79526c	-0.24347848
69	0xbe795646	-0.24349317
70	0x3ebc011d	0.367196
71	0x3e0b507c	0.13604921
72	0x3ec921f6	0.39283723
73	0xbeac8078	-0.33691764
74	0xbecf5337	-0.40493175
75	0xbea38839	-0.31939867
76	0xbe8c9b8a	-0.27462417
77	0x3e295355	0.16535695
78	0x3e15b139	0.14618386
79	0x3eadaeb3	0.33922347
80	0xbe57e3c3	-0.21082978
81	0xbe8e7e58	-0.27830768
82	0x3e5dce64	0.21660763
83	0xbe28f9e7	-0.1650158
84	0x3e7db8e4	0.24777561
85	0xbdc667c1	-0.09687758
86	0x3e6f2444	0.23353678
87	0xbea2677f	-0.31719586
88	0xbe52f78a	-0.20602241
89	0x3dfee7a9	0.124465294
90	0x3dbe585a	0.092941955
91	0xbd14ce87	-0.036329772
92	0x3e779f03	0.24181752
93	0x3e977c45	0.29586998
94	0xbe88042f	-0.26565692
95	0xbe40001d	-0.18750043
96	0x3ebf6500	0.37381744
97	0xbe0d0ff9	-0.13775624
98	0xbe14344a	-0.14473072
99	0xbeca3fea	-0.39501888
100	0xbe6f6714	-0.23379165
101	0x3dd0dbe6	0.10198192
102	0xbd5cb78e	-0.05388599
103	0xbe97ba1a	-0.29634172
104	0x3c1ce54e	0.009576155
105	0xbe8ec7a3	-0.27886686
106	0xbeb155a4	-0.3463565
107	0xbe6633d4	-0.22480708
108	0xbeb726fe	-0.35771936
109	0xbe524997	-0.20535885
110	0x3ec4c538	0.38431716
111	0x3daf75dd	0.085674025
112	0x3e137a28	0.14402068
113	0xbeba894f	-0.36432883
114	0xbe8947ea	-0.2681268
115	0xbe0b262e	-0.13588783
116	0x3d82bda0	0.06383824
117	0xbeb7ec85	-0.35922638
118	0xbe341ff7	-0.17590319
119	0xbe7a456b	-0.24440543
120	0x3a944a32	0.0011313616
121	0xbe1b8e6e	-0.15191051
122	0xbce7c02d	-0.028289879
123	0xbe8da3ea	-0.2766412
124	0xbe8f78f4	-0.28021967
125	0xbe73e392	-0.2381728
126	0xbe070692	-0.131861
127	0xbe947731	-0.28997186
128	0x3ebf832e	0.3740477
129	0xbd4ae707	-0.04953673
130	0x3ec282ab	0.37990317
131	0x3e2124e4	0.15736729
132	0xbeb1000a	-0.34570342
133	0x3e90a6c0	0.2825222
134	0xbde60be9	-0.112327404
135	0xbe203f7f	-0.15649222
136	0xbead8102	-0.33887488
137	0xbecfcd75	-0.4058644
138	0x3def3708	0.11680418
139	0xbdb6a3a8	-0.08917934
140	0x3e22c14d	0.15894051
141	0xbeab89a3	-0.33503446
142	0x3e9b2f53	0.30309543
143	0xbe996f28	-0.29967618
144	0xbd91dcd4	-0.07122198
145	0x3e16c084	0.14721876
146	0x3e59adbe	0.21257684
147	0x3eb1ba86	0.3471262
148	0x3ecca663	0.39970693
149	0xbe97aa17	-0.29621956
150	0x3dd26ac8	0.10274273
151	0xbe33d003	-0.17559819
152	0xbd373eff	-0.044737812
153	0xbe9c73a6	-0.30556983
154	0x3ebe63f9	0.37185648
155	0xbe9969a2	-0.29963404
156	0x3e5f6ce4	0.21818882
157	0x3e12eb03	0.14347462
158	0x3e07d8bc	0.13266271
159	0xbe6203df	-0.22071789
160	0x3ebdfded	0.37107792
161	0x3db7bb4f	0.08971273
162	0x3d9138e9	0.07090933
163	0xbeb1b056	-0.34704846
164	0x3e33854a	0.17531314
165	0xbd654036	-0.05596944
166	0xbe38d172	-0.18048647
167	0x3eb612ad	0.35561123
168	0x3dba67e4	0.09101847
169	0xbe674b8e	-0.22587416
170	0xbe5396e9	-0.20663036
171	0xbc9fb67a	-0.019496191
172	0x3e696bbd	0.22795005
173	0xbdd5a661	-0.10432125
174	0xbe6bee1b	-0.23040049
175	0xbd91f66a	-0.07127078
176	0xbea1e549	-0.31620243
177	0x3e2a0bfc	0.16606134
178	0x3eb17c80	0.34665298
179	0xbeb5d9a7	-0.35517618
180	0x3ddeaf2f	0.10873257
181	0x3e6d1273	0.23151569
182	0x3dca0729	0.09864647
183	0xbdf8bdee	-0.12145601
184	0x3e7237a6	0.2365404
185	0x3e736a02	0.23770908
186	0x3e1cc9e2	0.15311387
187	0xbe07b854	-0.1325391
188	0xbdaf06fa	-0.085462525
189	0x3d07f8ef	0.033196386
190	0xbdbe17bf	-0.09281873
191	0xbe107894	-0.14108497
192	0x3e859be9	0.26095513
193	0x3eb3a267	0.3508484
194	0xbd258aba	-0.040415503
195	0xbdbb32d0	-0.09140551
196	0x3bc33544	0.0059572775
197	0xbcc7afbb	-0.024375787
198	0x3dc9018e	0.0981475
199	0x3dea4d1e	0.1144049
200	0xbebdd8c0	-0.3707943
201	0xbe1a465d	-0.15065904
202	0x3eb00648	0.34379792
203	0x3e22da1d	0.15903516
204	0xbca65742	-0.02030528
205	0xbe7c0ae1	-0.24613525
206	0xbe7fc349	-0.24976839
207	0xbebb3c6a	-0.3656953
208	0xbe084473	-0.13307361
209	0x3e0d2d0c	0.13786715
210	0x3e853494	0.26016676
211	0x3e4102c7	0.18848716
212	0xbebb1c8d	-0.3654522
213	0xbe7dbe2b	-0.24779575
214	0xbd88319f	-0.066500895
215	0x3ec90d27	0.39267847
216	0x3da45d03	0.08025553
217	0xbd8f9dc2	-0.07012512
218	0x3e426c7b	0.18986695
219	0xbe07ab4f	-0.13248943
220	0xbe71c6d6	-0.23611006
221	0x3ea4ff3c	0.32225978
222	0xbe28f927	-0.16501294
223	0xbc159d61	-0.00913176
224	0xbed16337	-0.40896007
225	0x3e95db41	0.2926884
226	0x3eb01949	0.3439429
227	0x3e3c74b0	0.18403888
228	0xbe8ce2e4	-0.27516854
229	0xbebfbf69	-0.37450722
230	0xbeb65a24	-0.35615647
231	0x3e990c19	0.29892042
232	0x3e44ffea	0.19238248
233	0x3eae8221	0.34083655
234	0x3e5b0079	0.21386899
235	0x3dd39bc5	0.10332445
236	0xbb830060	-0.0039978474
237	0xbe9ef69e	-0.3104753
238	0xbeb315d0	-0.3497758
239	0xbec3826f	-0.3818545
240	0x3e2b21da	0.16712132
241	0xbe4d3f51	-0.20043685
242	0xbda8440a	-0.082161024
243	0xbe70967c	-0.23494905
244	0xbd985b13	-0.07439246
245	0xbe931e26	-0.2873394
246	0xbe87d2c8	-0.26528
247	0x3e4da926	0.20084056
248	0xbdfae5b4	-0.12250844
249	0x3e8a5098	0.27014613
250	0xbdd12142	-0.102114215
251	0xbe8ac194	-0.27100813
252	0xbd9384ef	-0.072030894
253	0xbe4aa598	-0.19789732
254	0xbdffcba4	-0.12490013
255	0xbec6fd36	-0.3886506

router_backbone.0.bias f4 [128]
0	0xbe8bee50	-0.27330256
1	0x3ece977f	0.40349957
2	0x3e379edf	0.17931698
3	0x3e574eb2	0.21026114
4	0xbe7a1dc4	-0.24425417
5	0xbe145618	-0.14485967
6	0xbd7c6c59	-0.061626766
7	0xbd98e790	-0.07466042
8	0xbe83a32d	-0.2571043
9	0x3d968d97	0.07351225
10	0x3d2631f4	0.040574983
11	0xbd53bbd8	-0.051692814
12	0x3d67d16c	0.056596205
13	0xbe25b162	-0.16180947
14	0x3dd9983b	0.10624739
15	0x3e3ea332	0.18616942
16	0xbe5c3387	-0.21504031
17	0xbecf4351	-0.40481046
18	0x3e70e818	0.23526037
19	0x3dc77053	0.09738221
20	0xbe549d01	-0.20763017
21	0x3ed8d312	0.42348534
22	0xbe3d0f82	-0.18462947
23	0x3e8d3f29	0.2758725
24	0x3e721d63	0.23644023
25	0xbeaf3f27	-0.3422787
26	0x3e86cec3	0.26329622
27	0xbebd148b	-0.36929736
28	0xbe679a91	-0.22617556
29	0xbd0d27b4	-0.034461692
30	0xbe80d003	-0.251587
31	0x3ebfe543	0.374796
32	0xbda7b401	-0.0818863
33	0x3e260b2f	0.16215204
34	0xbebaa3a6	-0.3645298
35	0x3e6e4999	0.23270263
36	0xbdce054c	-0.10059604
37	0xbe8c0473	-0.27347144
38	0x3d67cb3d	0.056590308
39	0x3e4a8706	0.1977807
40	0x3eb4e355	0.3532969
41	0xbe5ff12a	-0.2186934
42	0xbe4db8ed	-0.20090075
43	0x3da0bfe3	0.078490995
44	0x3de2ccaa	0.11074193
45	0x3e188681	0.14895059
46	0x3e65748a	0.22407737
47	0xbd89e35d	-0.06732819
48	0x3e6840fa	0.22681037
49	0x3e9a1c6a	0.30099803
50	0xbd997753	-0.074934624
51	0x3ea56690	0.3230481
52	0x3e4c9aa7	0.1998087
53	0x3ec464fc	0.38358295
54	0xbe6d9096	-0.23199686
55	0xbe4e6f5c	-0.20159668
56	0xbdf1bf34	-0.11804047
57	0x3ca9a5c3	0.020708924
58	0x3e6eecfa	0.23332587
59	0xbe46e1d2	-0.19422081
60	0x3e573c73	0.21019153
61	0xbde448a5	-0.11146668
62	0x3e7c8bae	0.24662659
63	0x3c27eb8c	0.01024903
64	0xbeb71f58	-0.357661
65	0xbe479317	-0.19489704
66	0xbe8b7c6d	-0.27243367
67	0x3e4f55d4	0.20247585
68	0xbe8c28fb	-0.27375016
69	0xbb2fff42	-0.0026855026
70	0x3db48c40	0.08815813
71	0xbe458205	-0.1928788
72	0x3e156822	0.14590505
73	0xbed200c1	-0.410162
74	0xbe9f7670	-0.31145048
75	0xbec22182	-0.3791619
76	0xbdfce629	-0.12348587
77	0xbe184b0d	-0.1487238
78	0x3d10372c	0.035208866
79	0xbd9a9b09	-0.07549102
80	0x3e5b6469	0.21425022
81	0x3ec54f69	0.38537148
82	0x3e20a29a	0.15687028
83	0xbdfd3744	-0.12364057
84	0xbec3b9ec	-0.38227785
85	0x3e176acb	0.14786832
86	0xbe2e0d7f	-0.16997336
87	0x3e54bbdd	0.20774789
88	0x3e9171c5	0.28407112
89	0x3e43a5f8	0.19106281
90	0x3ebdce93	0.37071666
91	0x3ec1de94	0.37865126
92	0x3db108be	0.086442456
93	0xbe935a76	-0.28779954
94	0x3ebabffa	0.36474591
95	0xbe31dc22	-0.1736913
96	0xbe457735	-0.19283755
97	0x3eb9f833	0.36322173
98	0x3ea94916	0.33063573
99	0x3dfca060	0.123352766
100	0x3cd1a34d	0.025590563
101	0xbeb7a955	-0.35871378
102	0xbc591b26	-0.013251102
103	0x3ec87ac7	0.39156172
104	0x3e01800e	0.12646505
105	0x3d82f161	0.063936956
106	0xbdad9d8f	-0.084773175
107	0xbe11cea1	-0.14238979
108	0x3e792a42	0.24332526
109	0x3d6720ca	0.056427754
110	0x3e8f61ea	0.2800439
111	0xbd93fcba	-0.07225938
112	0x3e315169	0.17316212
113	0x3e4b398b	0.1984617
114	0x3d8553a7	0.06510096
115	0x3e85015f	0.2597761
116	0x3e8c486a	0.27398998
117	0x3ec1bf98	0.37841487
118	0x3eac6879	0.33673456
119	0xbdd5c93b	-0.10438772
120	0xbe9fbec1	-0.3120022
121	0x3d98da31	0.07463492
122	0x3cdb6a0a	0.026783962
123	0xbdb0b0a4	-0.086274415
124	0xbd81f3e4	-0.063453466
125	0x3c9d4b92	0.019201074
126	0x3e9e7f7b	0.30956635
127	0x3e1f77ae	0.15572998

router_backbone.2.weight f4 [64, 128]
0	0xbd008ed1	-0.0313862
1	0xbd14e11c	-0.036347494
2	0xbcb34de1	-0.021887721
3	0xbd0bedd4	-0.034162357
4	0x3da2c6d7	0.07948082
5	0x3d3fc089	0.046814475
6	0x3da374c0	0.07981253
7	0x3993fec8	0.00028227852
8	0x3c92067b	0.017825356
9	0x3cfb159e	0.030649956
10	0xbdab582b	-0.08366426
11	0x3c0150b5	0.007892777
12	0xbbc1bbf0	-0.0059122965
13	0xbd4afa7b	-0.049555283
14	0xbd8c7623	-0.0685847
15	0x3da04075	0.07824794
16	0x3d932e40	0.07186556
17	0x3d27cb28	0.04096523
18	0x3dacbcd7	0.08434456
19	0xbd12eb0b	-0.035868686
20	0xbc7a2112	-0.015266674
21	0x3d091317	0.03346547
22	0xbc6f460d	-0.014604104
23	0xbc8e16d5	-0.017344872
24	0xbd959fa4	-0.0730584
25	0x3cc28812	0.023746524
26	0xbd5aca31	-0.05341548
27	0x3b52a7da	0.0032143504
28	0x3db07d4b	0.08617648
29	0xbcdee1d1	-0.027207287
30	0xbce43924	-0.027859278
31	0x3d5a6c2e	0.053325824
32	0xbd051acd	-0.032496262
33	0xbbf8ba42	-0.007590563
34	0x3da90654	0.0825316
35	0xbd146d25	-0.0362369
36	0xbd8180ca	-0.06323393
37	0xbd4a9cd8	-0.049465984
38	0xbcc8bf4e	-0.024505284
39	0xbd2bc972	-0.04194016
40	0xbd3bdf94	-0.045867518
41	0x3d123e58	0.035703987
42	0x3c76189b	0.015020515
43	0xbce7bfd4	-0.028289713
44	0xbd8ca2d0	-0.068669915
45	0xbce3fb9f	-0.027829943
46	0xbd18cb64	-0.037303343
47	0xbceba0e4	-0.028763242
48	0xbda34d3c	-0.07973716
49	0x3c9bfcc0	0.019041419
50	0xbd84ffca	-0.064941004
51	0xbd8cfa4b	-0.06883677
52	0xbd93e618	-0.07221621
53	0x3d171be9	0.03689185
54	0xbd59f4fa	-0.053212143
55	0xbd156e88	-0.036482364
56	0x3d8de3ec	0.06928238
57	0x3d403ac6	0.04693105
58	0x3d4f96fc	0.0506811
59	0xbdabe109	-0.083925314
60	0xbd81cf16	-0.06338327
61	0xbd08ac70	-0.033367574
62	0x3d958a26	0.0730174
63	0x3c142595	0.009042163
64	0xbd876244	-0.066105396
65	0x3a1116e8	0.00055347243
66	0xbd8c97aa	-0.06864865
67	0xbc9ea513	-0.019365823
68	0xbcc71a6c	-0.024304591
69	0x3d9cb395	0.0765144
70	0x3ce045fa	0.027377117
71	0xbc7c8430	-0.015412375
72	0x3c74a28c	0.014931332
73	0xbcd10424	-0.02551467
74	0x3d0e3ec0	0.03472781
75	0x3d0f359c	0.034963235
76	0x3cc272ba	0.023736347
77	0xbd0d1d44	-0.034451738
78	0x3d9a6fd0	0.07540858
79	0xbc5111ee	-0.012760622
80	0xbd0cf29c	-0.034411058
81	0x3d62bffa	0.055358864
82	0x3d938a80	0.07204151
83	0x3db424a6	0.08796053
84	0x3cd68392	0.026185784
85	0xbcf6d562	-0.030131046
86	0x3d37e065	0.044891734
87	0x3d9b4e6d	0.07583318
88	0xbdb18cc9	-0.08669431
89	0xbc33684f	-0.010950162
90	0xbd76e5db	-0.0602778
91	0x3c86f05a	0.01647203
92	0x3d15bbd4	0.03655608
93	0xbc9595eb	-0.018259963
94	0xbbf24c06	-0.0073943166
95	0x3d22f51f	0.039784547
96	0xbc736415	-0.014855404
97	0xbd98042e	-0.07422672
98	0x3d90d70f	0.07072269
99	0xbd363825	-0.044487137
100	0xbc1f1795	-0.009710212
101	0x3c089964	0.008337352
102	0xbbae0f21	-0.005311862
103	0xbdaa4848	-0.08314568
104	0x3d261a73	0.040552568
105	0xbd24730a	-0.040148772
106	0xbd3bc65b	-0.045843463
107	0x3cacfe46	0.02111734
108	0xbd3cef2a	-0.046126522
109	0xbd2751d5	-0.040849525
110	0xbcf3fa52	-0.029782448
111	0xbd080283	-0.03320552
112	0xbd17336f	-0.036914285
113	0xbcc345ff	-0.023837088
114	0x3cbc2b8f	0.02296999
115	0xbd927bed	-0.07152543
116	0xbd5b2287	-0.053499725
117	0x3aa90ba4	0.0012897146
118	0x3c496464	0.012292001
119	0x3d47f384	0.04881622
120	0xbd7e4fd7	-0.06208786
121	0x3ce71f8f	0.02821329
122	0x3d4dc771	0.05023903
123	0x3d490691	0.049078528
124	0xbda89af5	-0.08232681
125	0xbd0a27cd	-0.033729363
126	0xbd9b9916	-0.07597558
127	0xbd651a2a	-0.055933155
128	0x3d284cb4	0.041088775
129	0xbc583cb1	-0.013198064
130	0x3d2f51d4	0.042802647
131	0xbd6954e6	-0.05696573
132	0x3c5c0fba	0.013431484
133	0xbd7c6293	-0.061617445
134	0x3d34faf0	0.044184625
135	0xbd1e591e	-0.038659208
136	0xbcbc10d3	-0.022957241
137	0xbdd192d9	-0.10233087
138	0x399916b0	0.00029199338
139	0x3dabdfd0	0.08392298
140	0x3d2fb9c5	0.042901773
141	0xbd412997	-0.047158804
142	0x3a9bce7b	0.0011887097
143	0xbc94a8e9	-0.018146949
144	0xbd91bbe7	-0.07115918
145	0x3d8def87	0.06930452
146	0xbbf832c8	-0.007574413
147	0x3c987d11	0.018614324
148	0xbd1233a3	-0.035693776
149	0xbd23adea	-0.03996078
150	0x3c6ec91d	0.014574316
151	0x3d05d983	0.03267814
152	0x3c3a2157	0.011360488
153	0xbd2e7b95	-0.042598326
154	0x3dafc053	0.08581605
155	0xbc88b4a9	-0.016687708
156	0xbd5db7cb	-0.054130357
157	0xbd4de7f4	-0.050270036
158	0x3dba31f9	0.09091563
159	0xbc06b4d1	-0.008221821
160	0xbc449420	-0.011998206
161	0xbd16aaaa	-0.03678385
162	0xbcbdd044	-0.023170598
163	0xbda12848	-0.07869011
164	0xbd859498	-0.06522483
165	0x3d32039a	0.043460466
166	0x3d8a72b1	0.06760157
167	0x3dacbf30	0.084349036
168	0xbd82af7e	-0.06381129
169	0x3d20d49f	0.03926527
170	0xbd6016ff	-0.05470943
171	0x3d57fa56	0.052728973
172	0x3d829d83	0.06377699
173	0x3d769c4a	0.060207643
174	0x3d8257dc	0.06364414
175	0x3d7530e4	0.05986108
176	0x3ae17db9	0.0017203606
177	0x3d2659b4	0.04061289
178	0xbcdb57a4	-0.026775189
179	0x3cf76ec2	0.03020418
180	0xbd13d57c	-0.036092266
181	0x3b08f2e7	0.0020896734
182	0xbd9d8e2f	-0.07693135
183	0xbcbd53ed	-0.023111308
184	0xbd3e62e7	-0.04648104
185	0xbcf43f11	-0.029815229
186	0xbd83fe84	-0.064450294
187	0xbdae8b9d	-0.08522723
188	0xb9121a22	-0.0001393338
189	0x3d487d2a	0.04894749
190	0x3da4dcfe	0.080499634
191	0x3d594799	0.053046796
192	0xbd3ba87e	-0.045814984
193	0xbdc488b8	-0.095963895
194	0x3d183381	0.037158493
195	0x3d4adaf6	0.049525224
196	0xbd9b6843	-0.07588246
197	0x3cbc9fe8	0.023025468
198	0x3d886f6b	0.06661876
199	0xbb52163c	-0.003205671
200	0xbd7c30f6	-0.06157013
201	0x3d84044d	0.06446133
202	0x3cf1b5fb	0.02950572
203	0x3d500ffa	0.050796486
204	0xbd74d76d	-0.05977576
205	0x3d52afd1	0.051437203
206	0xbd8c518e	-0.06851493
207	0x3db31e1b	0.087459765
208	0xbd40857e	-0.047002308
209	0x3d38cb17	0.045115557
210	0x3c45a168	0.012062408
211	0x3cad6c1a	0.02116971
212	0xbc5e14ee	-0.013554795
213	0x3d14b3bc	0.03630422
214	0xbd31f40a	-0.043445624
215	0xbdaaa005	-0.083313026
216	0xbcec560e	-0.028849628
217	0x3d7cbdb6	0.06170436
218	0xbcff1c5a	-0.031141449
219	0x3d078f2a	0.033095516
220	0xbd05daf2	-0.032679506
221	0x3d6d8755	0.05799039
222	0x3d58ad36	0.05289956
223	0x3cbb4064	0.022857852
224	0xbd390f6f	-0.045180734
225	0xbda53cc9	-0.080682345
226	0xbba1f938	-0.0049430393
227	0xbd54648e	-0.05185371
228	0x3d94d53d	0.072672345
229	0xbdbecbe6	-0.09316234
230	0x3cdee03b	0.02720653
231	0x3db475f1	0.08811558
232	0x3d142bd5	0.036174614
233	0x3cb28516	0.021791976
234	0xbdae2aca	-0.08504255
235	0x3dae1f0b	0.08502015
236	0xbc77b40e	-0.015118612
237	0xbdb0fdac	-0.08642134
238	0x3da211ba	0.07913537
239	0xbd13531c	-0.03596793
240	0xbc6d3a77	-0.014479271
241	0x3d9488b6	0.07252638
242	0xbd7af728	-0.061270863
243	0xbd90a0b0	-0.07061899
244	0x3bc74a48	0.006081853
245	0xbc41d757	-0.011831126
246	0x3c3f69a9	0.011682906
247	0xbd97d266	-0.07413177
248	0xbbb8476b	-0.005623748
249	0xbd21052d	-0.039311577
250	0xbd548865	-0.05188789
251	0xbdb54228	-0.08850509
252	0x3d3a993e	0.0455563
253	0x3c8b7bd5	0.017026821
254	0xbda9e581	-0.082957275
255	0x3d7c12da	0.061541416

router_backbone.2.bias f4 [64]
0	0xbb66b3db	-0.0035202417
1	0xbd5b0cfc	-0.05347918
2	0x3d2cc135	0.042176444
3	0x3d7c8a42	0.06165529
4	0xbc43ea13	-0.011957663
5	0xbd1bb833	-0.038017463
6	0xbc6d92d2	-0.014500337
7	0xbdb076cf	-0.08616411
8	0xbd41c4de	-0.047306888
9	0xbdc76130	-0.09735334
10	0xbbff9278	-0.007799443
11	0xbcd3dcf5	-0.025862196
12	0x3daaf8e9	0.08348257
13	0xbd9877b4	-0.074447066
14	0xbd7998d5	-0.060936768
15	0xbd7b49f3	-0.06134982
16	0x3c8916f2	0.016734574
17	0x3cb10686	0.021609556
18	0x3d8247ae	0.06361328
19	0x3def3e50	0.11681807
20	0xbcee2dfe	-0.029074665
21	0x3ca9fe44	0.020751126
22	0x3d092cb6	0.033489905
23	0x3d0b0ae5	0.033945937
24	0x3d0416bb	0.03224824
25	0x3da1561f	0.078777544
26	0x3dbf8880	0.09352207
27	0x3d96b16d	0.0735806
28	0x3b93f75b	0.004515571
29	0x3d403826	0.046928547
30	0xbd936390	-0.071967244
31	0xbc981015	-0.018562356
32	0x3aaa600d	0.0012998596
33	0xbd0a57fc	-0.033775315
34	0xbba1fba6	-0.004943329
35	0xbda7a757	-0.081862144
36	0xbcb80f6b	-0.02246829
37	0xbc676ea7	-0.014125503
38	0x3d4048a1	0.046944264
39	0x3d80416e	0.0626248
40	0xbd79ce55	-0.06098779
41	0x3cb0aa87	0.021565689
42	0x3d9300fc	0.07177922
43	0xbd907d6c	-0.07055172
44	0x3c8ac300	0.016938686
45	0xbd8141ce	-0.063113794
46	0x3d0afa72	0.03393025
47	0xbd517179	-0.051133607
48	0xbccaa171	-0.024735184
49	0xbd6a27aa	-0.057166733
50	0x3d9c9f24	0.07647541
51	0x3c8acbdb	0.016942909
52	0xbdaf9e9b	-0.085751735
53	0x3c3740d2	0.011184888
54	0x3d456d49	0.048199926
55	0xbad00c27	-0.0015872762
56	0xbd87fa58	-0.06639546
57	0xbcd6624a	-0.026169915
58	0xbdba128f	-0.09085571
59	0xbd06b363	-0.03288592
60	0x3b5f4103	0.003406585
61	0xbd86cf05	-0.065824546
62	0xbd4b485d	-0.049629558
63	0xbd683b28	-0.05669704

router_head.weight f4 [2, 64]
0	0xbdbb0192	-0.09131159
1	0xba803345	-0.0009780905
2	0x3d1b9df3	0.03799243
3	0x3db0c71b	0.08631726
4	0x3decead8	0.115682304
5	0x3d58483b	0.05280326
6	0xbdba66b1	-0.09101618
7	0xbc9c2667	-0.01906128
8	0xbd8376d4	-0.06419149
9	0x3d8a2d96	0.06746976
10	0x3d2ab334	0.041674808
11	0x3c9a9ea3	0.018874472
12	0xbde24c5a	-0.11049719
13	0x3dcdb32a	0.100439385
14	0xbde16014	-0.110046536
15	0x3d76f8ad	0.06029575
16	0xbe0595f5	-0.13045485
17	0x3dba3ed5	0.090940155
18	0xbd97c49e	-0.074105486
19	0xbdf4c411	-0.11951459
20	0x3d733c34	0.059383586
21	0x3de2f96c	0.1108273
22	0xbce586c0	-0.028018355
23	0x3d3d3985	0.046197433
24	0x3de397ee	0.11112963
25	0xbdff2524	-0.12458256
26	0x3d063ad8	0.03277096
27	0x3cebb3c8	0.02877225
28	0xbd91a934	-0.07112351
29	0x3d8aff55	0.06786982
30	0x3dd3a129	0.10333473
31	0x3dc4daec	0.096120685
32	0xbdd8517e	-0.105624184
33	0x3dddbc55	0.10826937
34	0x3dc9c3a8	0.098517716
35	0x3d577a1a	0.05260668
36	0xbd1754b9	-0.036946032
37	0x3dc20759	0.09474058
38	0xbdc7bdbe	-0.09752987
39	0xbd9b895a	-0.07594557
40	0x3d8c2c1f	0.06844353
41	0x3daac288	0.08337885
42	0xbd296d00	-0.041363716
43	0x3ddac1a7	0.106814675
44	0x3d5a155f	0.053243037
45	0x3d5f743e	0.054554217
46	0x3d9ea42e	0.077461585
47	0x3dfb08d6	0.12257545
48	0x3db30adc	0.08742306
49	0x3e03c620	0.12868547
50	0x3c4108f0	0.011781916
51	0x3dc396ef	0.09550273
52	0x3d8991ae	0.06717239
53	0xbd7bca60	-0.061472297
54	0x3d8f1286	0.06985955
55	0xbccf4bfc	-0.025304787
56	0xbd43c37e	-0.047793858
57	0x3db9d751	0.090742715
58	0x3cbed758	0.023296043
59	0x3dc77c44	0.09740499
60	0x3cc30603	0.023806578
61	0x3d1fb183	0.038987648
62	0x3d4c172e	0.049826793
63	0xbd02fb28	-0.031977803
64	0x3d9f16ca	0.077680185
65	0xbd759bee	-0.05996316
66	0xbc2c662f	-0.010522409
67	0x3b801e1a	0.0039098384
68	0x3dc3d71a	0.09562512
69	0x3d8a7cbd	0.06762073
70	0x3e1ee921	0.15518619
71	0xbd846ea3	-0.06466415
72	0xbc21f920	-0.009886056
73	0xbb350df1	-0.0027626718
74	0x3dd0a1ce	0.10187112
75	0x3e2082bb	0.1567487
76	0x3d6dd473	0.058063935
77	0xbdd503fe	-0.10401152
78	0xbdb9b24a	-0.09067209
79	0x3cd01812	0.025402103
80	0xbdb5a77b	-0.08869835
81	0xbd1f07f9	-0.038825963
82	0xbdbff3ae	-0.0937265
83	0x3db0d457	0.086342506
84	0xbc655632	-0.013997601
85	0xbdc86ea8	-0.09786731
86	0x3dce0adb	0.10060664
87	0xbdd670de	-0.104707465
88	0xbc132dc0	-0.008983076
89	0x3e12cb44	0.14335352
90	0x3da54edf	0.08071684
91	0xbdddcbba	-0.108298734
92	0x3c5cf980	0.01348722
93	0xbc48ac7d	-0.012248156
94	0x3d8266dc	0.06367275
95	0x3dec8722	0.11549212
96	0x3dfa8fb4	0.122344404
97	0xbc1e6ea8	-0.009669937
98	0x3d8383ff	0.06421661
99	0xbe02e5aa	-0.12782922
100	0x3df23e21	0.118282564
101	0x3d8b00a7	0.06787234
102	0xbd923cb8	-0.071404874
103	0xbd14154c	-0.036153123
104	0xbd45d2e4	-0.048296824
105	0xbd95ad6c	-0.07308468
106	0x3da45a57	0.080250435
107	0xbce7e419	-0.028307008
108	0x3d843cb0	0.06456888
109	0xbd00975e	-0.031394355
110	0x3df7c338	0.12097782
111	0xbd476f5f	-0.048690196
112	0xbcb163f0	-0.0216541
113	0xbd868940	-0.06569147
114	0x3bbc94a0	0.005755022
115	0xbd3294df	-0.043599006
116	0xbdb3cf66	-0.087797925
117	0xbdf3489c	-0.118790835
118	0x3d9f3cb2	0.077752486
119	0x3d5260dc	0.051361904
120	0xbd9b0c64	-0.07570723
121	0x3d8ad8ef	0.06779658
122	0x3cb82c17	0.022481961
123	0xbd38e268	-0.045137793
124	0xbba5656e	-0.0050474918
125	0x3c45fe8a	0.012084613
126	0x3deb1654	0.11478868
127	0xbde9a55d	-0.11408494

router_head.bias f4 [2]
0	0xbdf9e026	-0.12200956
1	0xbd9b38d6	-0.075792

experts.0.fc1.weight f4 [256, 6]
0	0xbea124ef	-0.3147349
1	0x3d38dd34	0.04513283
2	0x3e5db415	0.21650727
3	0x3ddc11e0	0.10745597
4	0x3e433f7c	0.19067186
5	0x3d7e9f47	0.062163617
6	0x3b9b33a8	0.0047363825
7	0xbeaab952	-0.33344513
8	0x3eb1b510	0.34708452
9	0x3ecb03d5	0.3965136
10	0x3b515910	0.0031943955
11	0x3d982da7	0.074305825
12	0x3db86883	0.09004309
13	0x3ed51d05	0.41623703
14	0x3ca1130f	0.019662408
15	0xbd4fb335	-0.050708015
16	0xbe4eb63b	-0.20186703
17	0x3e00f7ee	0.12594578
18	0x3e5121bf	0.2042303
19	0xbe9a8d19	-0.30185774
20	0x3e15e36b	0.14637534
21	0x3dd0e3d3	0.10199704
22	0x3e4c5897	0.1995567
23	0x3e51e4c7	0.20497428
24	0xbdcb34dd	-0.09922192
25	0x3dc4b05c	0.096039504
26	0xbe9814e9	-0.29703453
27	0x3e7d026a	0.24707952
28	0xbea6e0c0	-0.32593346
29	0xbeb2d9fe	-0.3493194
30	0xbe930cd5	-0.28720728
31	0xbe3efd6c	-0.1865136
32	0x3c2707d9	0.010194742
33	0x3e892fd0	0.2679429
34	0xbd09b10e	-0.033616118
35	0x3e9dc148	0.30811524
36	0xbd5866df	-0.05283248
37	0x3ec6b537	0.3881013
38	0x3e8a8ad4	0.27059042
39	0x3e86a44f	0.26297233
40	0x3e3bcc65	0.18339689
41	0xbe872c45	-0.26400962
42	0x3eccd4db	0.40006146
43	0xbec6ef0b	-0.3885425
44	0xbe9286a5	-0.2861835
45	0xbe7ca077	-0.24670587
46	0xbddca2d0	-0.107732415
47	0x3e35918b	0.17731301
48	0x3da9d15c	0.08291885
49	0xbec7f255	-0.39052072
50	0x3ed215c7	0.4103224
51	0x3ec42929	0.38312653
52	0x3e3f469f	0.18679284
53	0xbed03986	-0.40668887
54	0x3e698a4e	0.22806665
55	0x3dee8e3f	0.11648225
56	0xbd4eba40	-0.05047059
57	0xbeaf1aea	-0.3420022
58	0x3eb11688	0.34587502
59	0xbdf9f0cf	-0.12204134
60	0xbe9e299a	-0.30891114
61	0x3eb7c457	0.35891983
62	0x3e359e61	0.17736198
63	0x3df5c1c6	0.1199985
64	0x3e90af95	0.28258958
65	0x3e25028c	0.16114253
66	0xbdb5f8c8	-0.08885342
67	0xbd916376	-0.07099049
68	0x3ebeb90e	0.3725056
69	0xbc62ac5f	-0.013835042
70	0xbea46311	-0.32106832
71	0xbe762035	-0.24035724
72	0xbe943ab6	-0.28951043
73	0x3da6b81b	0.08140584
74	0x3e97213a	0.29517537
75	0x3e7ba811	0.24575831
76	0x3e05ec4d	0.13078423
77	0x3e203418	0.15644872
78	0xbe460349	-0.1933719
79	0x3ec3a466	0.38211364
80	0x3e1f70b1	0.15570332
81	0xbe83bea3	-0.25731382
82	0xbe8b3ff3	-0.27197227
83	0xbebb427b	-0.36574158
84	0xbdeddeee	-0.11614786
85	0x3e98e291	0.29860356
86	0x3cc459e1	0.023968639
87	0xbe462117	-0.1934856
88	0x3de8bc8c	0.113640875
89	0xbe9116dd	-0.28337756
90	0x3e0ad48e	0.13557646
91	0x3e9849c3	0.29743776
92	0x3e5b2d0e	0.21403906
93	0xbddd9589	-0.10819537
94	0xbdfaf793	-0.12254252
95	0x3e3ee188	0.18640721
96	0x3e7a4ea7	0.24444066
97	0xbdcce2e6	-0.10004215
98	0xba7289ab	-0.00092520815
99	0xbd3c985d	-0.046043742
100	0xbd448654	-0.047979668
101	0xbeb97d52	-0.36228424
102	0xbea1a7a4	-0.31573212
103	0x3ec8caa7	0.3921711
104	0xbe4f2935	-0.20230563
105	0x3e9a9137	0.30188915
106	0x3e8bea17	0.27327034
107	0xbd3403ed	-0.043949056
108	0xbe4a3658	-0.19747293
109	0x3c5e1440	0.013554633
110	0xbd90f01b	-0.070770465
111	0xbe7806df	-0.24221371
112	0x3ecb2c71	0.39682344
113	0xbd0416cd	-0.032248307
114	0xbd3688a8	-0.04456392
115	0xbe7c8967	-0.2466179
116	0x3db2053b	0.08692404
117	0x3d6f430f	0.05841356
118	0x3ed9ce65	0.4254028
119	0xbdd43a38	-0.10362667
120	0x3e7885e4	0.24269825
121	0x3d2a2347	0.04153755
122	0x3e75ff65	0.24023207
123	0x3be57d00	0.0070034266
124	0xbd48007d	-0.04882859
125	0x3e373e65	0.17894895
126	0xbe3a352a	-0.18184343
127	0x3e7d55c0	0.24739742
128	0xbeaf1299	-0.34193876
129	0xbe95d772	-0.29265934
130	0x3ec72457	0.38894913
131	0xbe1d8822	-0.15383962
132	0xbea6336c	-0.32461107
133	0xbe98cce6	-0.29843825
134	0x3ec81062	0.39075
135	0xbd7e9a4f	-0.06215888
136	0xbeb28873	-0.34869727
137	0xbd848582	-0.06470777
138	0xbe4e9aaf	-0.20176195
139	0xbe6fe6be	-0.23427865
140	0xbe56a644	-0.20961863
141	0x3e9e5e8f	0.30931517
142	0x3e37d00e	0.1795046
143	0x3e7c3034	0.24627763
144	0x3d0a037e	0.033694737
145	0xbe2ec658	-0.1706785
146	0xbe2a9e3b	-0.16661923
147	0xbe8c495c	-0.2739972
148	0xbe9703ae	-0.29494995
149	0xbeb4385d	-0.35199252
150	0x3d656471	0.05600399
151	0x3e631a7f	0.22178076
152	0x3ead0356	0.33791608
153	0xbc2ba7d6	-0.010477027
154	0xbd2a4168	-0.041566283
155	0xbcdd4222	-0.027009074
156	0x3e24b5c3	0.16084962
157	0xbd846e99	-0.06466407
158	0xbe12e460	-0.1434493
159	0xbde65fe8	-0.112487614
160	0xbecc2f73	-0.3987995
161	0xbea0f92c	-0.31440103
162	0xbe2e9116	-0.17047533
163	0x3da40ef4	0.080106646
164	0xbe852a52	-0.2600885
165	0x3e1f49aa	0.15555444
166	0xbe526d1b	-0.20549433
167	0x3ed46ebd	0.41490737
168	0xbeb8b9cd	-0.36079255
169	0x3e691a31	0.22763897
170	0xbe590e3b	-0.21196835
171	0xbe143a69	-0.14475407
172	0xbec32c4b	-0.3811973
173	0xbec1b8a5	-0.37836185
174	0xbebc3b95	-0.36764207
175	0x3d0be82a	0.034156956
176	0x3ebc9495	0.3683211
177	0x3e3fb73f	0.18722247
178	0x3e8dcc41	0.27694896
179	0x3ddf4620	0.10902047
180	0xbe218544	-0.15773493
181	0xbe22cf4b	-0.15899388
182	0xbdf85dca	-0.12127264
183	0xbec349a4	-0.3814212
184	0x3e65ca22	0.22440389
185	0xbdf888bc	-0.12135455
186	0xbe63d42d	-0.22248907
187	0x3e0bfaa0	0.13669825
188	0xbc80f084	-0.015739687
189	0x3e631d9b	0.22179262
190	0xbe8381d5	-0.2568499
191	0x3ed322a3	0.41237363
192	0xbe26687e	-0.16250798
193	0x3e1df483	0.15425305
194	0x3ebc431f	0.3676996
195	0xbcbb0fd0	-0.022834688
196	0xbeb340b9	-0.35010317
197	0xbec6f172	-0.38856083
198	0x3ed84256	0.4223811
199	0xbead5d17	-0.33860084
200	0xbe23a29e	-0.15980002
201	0x3e8f8032	0.28027493
202	0xbe98beed	-0.29833165
203	0x3ecaf3c2	0.39639097
204	0x3d2352f0	0.039874017
205	0x3e1bf5d3	0.15230493
206	0x3daf9add	0.0857446
207	0x3d3efc13	0.046627115
208	0x3e7f58ec	0.24936265
209	0xbeaaadec	-0.33335817
210	0x3dce7df9	0.10082621
211	0xbe11c353	-0.14234667
212	0x3ece3e93	0.40282115
213	0x3ead145c	0.33804595
214	0xbe0ee43c	-0.13954252
215	0x3e7cc876	0.24685845
216	0xbd8e5ffa	-0.069519
217	0x3e5c9737	0.21542059
218	0xbdec7ba7	-0.11547022
219	0xbe74a321	-0.23890354
220	0x3e305fe8	0.17224085
221	0x3e4efd88	0.20213902
222	0x3ec5a5d0	0.38603067
223	0x3e31cc9e	0.17363212
224	0xbe421c9c	-0.18956226
225	0x3dd8fd4c	0.105951875
226	0x3d335427	0.043781426
227	0x3ebdde1a	0.37083513
228	0x3e2b8292	0.16749027
229	0x3eb2480d	0.34820595
230	0x3cf869dc	0.030323915
231	0xbe9e7500	-0.3094864
232	0xbe85d5e0	-0.26139736
233	0x3ebcbbfd	0.36862174
234	0x3ec05fcc	0.37573087
235	0x3e1f6437	0.15565573
236	0xbea77c39	-0.32711962
237	0x3e939462	0.28824145
238	0x3e2ba166	0.16760787
239	0xbea829af	-0.32844302
240	0x3df3b6e1	0.11900116
241	0x3ed4b6de	0.41545767
242	0xbe8136f0	-0.25237226
243	0x3cfca736	0.030841451
244	0x3e0aeccc	0.13566893
245	0xbe080f26	-0.13287029
246	0x3e89959f	0.26871964
247	0x3eb9e1da	0.36305124
248	0x3ecdb39e	0.401761
249	0xbeb8d28e	-0.3609814
250	0x3cdde4df	0.027086673
251	0x3eace67e	0.33769602
252	0x3eb8b250	0.36073542
253	0xbd835ad2	-0.06413807
254	0x3e84bb4a	0.2592414
255	0x3e9d1c3b	0.306856

experts.0.fc1.bias f4 [256]
0	0x3e2afb55	0.16697438
1	0xbe25cd26	-0.16191539
2	0xbea9d710	-0.33171892
3	0xbe17c559	-0.14821376
4	0xbec2c9c2	-0.38044554
5	0x3dd4b2f8	0.10385698
6	0x3d498095	0.04919489
7	0x3ec10588	0.37699533
8	0xbe786cde	-0.2426028
9	0xbe5833fc	-0.2111358
10	0x3df0fa14	0.117664486
11	0xbdaf4477	-0.085579805
12	0x3eaf514f	0.3424172
13	0x3d7e61ba	0.062104918
14	0xbc11561e	-0.00887063
15	0xbe0fb024	-0.14032036
16	0x3e7c9659	0.24666728
17	0xbe2dcef4	-0.16973478
18	0x3e281a69	0.16416325
19	0x3e92cebf	0.2867336
20	0xbe986d7b	-0.29771027
21	0xbeb933a5	-0.36172214
22	0xbe713d8c	-0.23558635
23	0x3e5a1fa3	0.21301131
24	0xbe66976b	-0.22518699
25	0x3d65b142	0.05607725
26	0x3d7c7a6f	0.0616402
27	0x3dd5f5a3	0.10447242
28	0xbe552cc9	-0.20817865
29	0x3d1a20d1	0.037628952
30	0x3e90d736	0.28289193
31	0x3e658f3e	0.22417924
32	0x3daed2fe	0.08536337
33	0xbe9b77c3	-0.30364808
34	0x3e5b89b5	0.2143925
35	0xbe0f8425	-0.14015253
36	0x3e92490b	0.28571352
37	0x3e42f8f2	0.19040278
38	0xbd997843	-0.07493641
39	0x3e2296cb	0.15877835
40	0xbe17918f	-0.1480162
41	0x3d99702d	0.07492099
42	0xbb06b864	-0.0020556683
43	0x3bd44791	0.006478258
44	0x3e0c2bda	0.13688603
45	0x3ed310fb	0.41223893
46	0xbe3885b9	-0.18019761
47	0x3ed3c92c	0.4136442
48	0xbd996e42	-0.07491733
49	0x3ec6cdc5	0.38828865
50	0x3deaf98b	0.11473378
51	0x3d597db6	0.053098403
52	0xbdee91d8	-0.11648911
53	0xbe59f440	-0.2128458
54	0xbecd8e69	-0.40147713
55	0xbe7af3bf	-0.24507044
56	0xbcc05c4b	-0.023481509
57	0x3ebb3e52	0.36570984
58	0x3e4f7ffa	0.20263663
59	0x3d91c6ec	0.071180195
60	0xbed58f64	-0.4171096
61	0x3e9c162a	0.3048566
62	0x3e917218	0.2840736
63	0xbe3e0f0c	-0.18560427
64	0x3e3a44a4	0.18190247
65	0xbea6a2fa	-0.32546216
66	0xbe455d8c	-0.19273967
67	0xbdfc5083	-0.12320044
68	0xbeb2e069	-0.34936836
69	0xbccc4ef0	-0.024939984
70	0x3dab3739	0.08360142
71	0x3df35ddb	0.11883136
72	0x3eb873de	0.360259
73	0x3e82f8e6	0.2558052
74	0xbeb45878	-0.35223746
75	0xbe033819	-0.12814368
76	0x3e80f5f8	0.2518766
77	0xbec89f31	-0.39183953
78	0xbcced517	-0.025248094
79	0x3e328fa4	0.17437607
80	0xbe81da00	-0.25361633
81	0x3ebcd27f	0.36879346
82	0xbe781de8	-0.24230158
83	0xbe8ddff7	-0.27709934
84	0xbea9914b	-0.33118662
85	0xbd927439	-0.07151074
86	0x3e0a0e55	0.1348203
87	0x3dcfde61	0.10149837
88	0xbe64007d	-0.22265811
89	0x3ec1e5c0	0.37870598
90	0xbe4e4c8f	-0.20146392
91	0x3ea868a7	0.32892343
92	0x3e191921	0.14950992
93	0xbe06e3f0	-0.13172889
94	0x3ea0408b	0.31299242
95	0x3e0a9d33	0.13536529
96	0xbeb1ba4f	-0.34712455
97	0x3e68be43	0.22728829
98	0x3ebbd81a	0.3668831
99	0xbe9c4d7d	-0.3052787
100	0xbdb044a8	-0.08606845
101	0xbea4a9b1	-0.32160714
102	0x3e9a6a2b	0.30159125
103	0x3e5dcc07	0.21659862
104	0x3ea32808	0.3186648
105	0x3e08e2fc	0.13367838
106	0xbd5d9410	-0.05409628
107	0xbc90dd91	-0.017683776
108	0xbe9bbd31	-0.3041778
109	0x3e84a650	0.25908136
110	0xbe27b717	-0.16378437
111	0x3d87a1e0	0.06622672
112	0x3d14d39b	0.036334615
113	0x3dfcc0b4	0.12341443
114	0xbe9b3b8e	-0.30318874
115	0xbd846e44	-0.06466344
116	0x3e40dcc6	0.18834218
117	0xbe9a8071	-0.30176118
118	0xbe1a9e6f	-0.150995
119	0xbe63c244	-0.22242075
120	0xbeaa946f	-0.3331637
121	0x3ed81caf	0.42209384
122	0x3eb497c6	0.35272044
123	0x3e8f4428	0.27981687
124	0xbead41e3	-0.3383933
125	0xbb742efb	-0.0037259448
126	0x3d998962	0.07496907
127	0x3e397022	0.18109182
128	0x3da86669	0.08222658
129	0xbe6920fb	-0.22766487
130	0x3cfd3d5e	0.030913051
131	0xbeaaa468	-0.33328557
132	0x3e637da4	0.22215897
133	0x3e83a965	0.25715175
134	0xbe004066	-0.12524566
135	0xbead922f	-0.33900592
136	0xba6e8820	-0.00090992637
137	0x3e6c0494	0.23048621
138	0xbe850b26	-0.25985068
139	0x3e1fe5d4	0.15615016
140	0x3e9030f8	0.2816236
141	0xbea6821c	-0.3252114
142	0x3e6f4051	0.23364379
143	0x3e3d0f7f	0.18462943
144	0xbe46be6d	-0.19408579
145	0x3eaf6e24	0.34263718
146	0xbe490a52	-0.19632843
147	0x3e9ede95	0.31029192
148	0xbe9c2bc0	-0.3050213
149	0x3eaf28b9	0.34210756
150	0xbdbbfd75	-0.091792025
151	0xbeadf4e0	-0.33975887
152	0x3e73b251	0.23798491
153	0xbc34fad8	-0.011046134
154	0x3dec266e	0.115307674
155	0x3e4094c8	0.18806756
156	0x3d86953d	0.06571434
157	0x3e05858f	0.1303923
158	0xbeb02d92	-0.34409767
159	0xbeb5f133	-0.35535583
160	0xbe444f7b	-0.19170944
161	0xbe5a9195	-0.21344598
162	0xbebdd32c	-0.37075174
163	0x3d713e4c	0.0588973
164	0xbd04ac45	-0.03239085
165	0xbd8b6054	-0.068054825
166	0x3c2c3811	0.010511414
167	0x3e48e3d8	0.19618165
168	0xbe1b2033	-0.15149002
169	0x3ab7e3b7	0.0014029656
170	0xbd155e11	-0.03646666
171	0x3e49df39	0.19714059
172	0xbcf6a1a9	-0.030106382
173	0x3e1c94b3	0.15291099
174	0xbe15925b	-0.14606611
175	0x3ead1c75	0.33810773
176	0x3dc24d5d	0.09487412
177	0x3db4f783	0.088362716
178	0x3e63e834	0.22256547
179	0xbed1b4de	-0.40958303
180	0x3e38b98f	0.18039535
181	0x3eac3854	0.33636725
182	0x3e884277	0.2661321
183	0x3e8e81c5	0.2783338
184	0xbea7e661	-0.32792953
185	0x3eb4eb25	0.3533565
186	0x3dbaef1f	0.0912764
187	0xbec0971b	-0.37615284
188	0x3ec4e239	0.38453844
189	0x3ead37be	0.3383159
190	0xbd85637f	-0.06513118
191	0x3eccf7c7	0.4003279
192	0x3d41c8a1	0.047310475
193	0x3eadb4b9	0.33926943
194	0xbeb8c5e7	-0.36088488
195	0xbeb704ee	-0.3574595
196	0x3e05f6e2	0.1308246
197	0x3c46b1c8	0.012127347
198	0xbea3cf31	-0.31994012
199	0xbe6a69dc	-0.22891945
200	0x3e6a5450	0.22883725
201	0x3e85407b	0.26025757
202	0xbe9715ef	-0.29508922
203	0xbe2c38fc	-0.16818613
204	0x3b1b97f8	0.0023741703
205	0xbc63e0f0	-0.01390861
206	0xbe8118b5	-0.25214162
207	0x3ea5f9cb	0.3241714
208	0xbe854b42	-0.2603398
209	0x3ea4dffe	0.32202142
210	0xbe8148ef	-0.25250956
211	0xbecfad7b	-0.40562043
212	0x3dd050ca	0.10171659
213	0xbe47fb80	-0.19529533
214	0x3e8ce9a5	0.27522007
215	0xbde7a823	-0.113113664
216	0x3d22ec89	0.03977636
217	0x3e9b96de	0.3038854
218	0xbe87c0cd	-0.26514283
219	0xbe1f2983	-0.15543179
220	0x3e8e51ae	0.27796692
221	0x3ebb36a4	0.36565125
222	0x3dbcf165	0.0922573
223	0x3ea0af8d	0.31383935
224	0x3e76a12e	0.24084923
225	0x3e6f26dc	0.23354667
226	0x3bd1ef91	0.0064067324
227	0x3ec9cf36	0.39415902
228	0xbde8beb7	-0.11364501
229	0x3ce3a4bb	0.02778851
230	0xbdd55296	-0.10416143
231	0xbca6e02f	-0.020370571
232	0x3e7b3979	0.24533643
233	0x3e9e788f	0.30951354
234	0x3d96b6b8	0.073590696
235	0x3e9607a6	0.2930271
236	0x3e9c4053	0.30517825
237	0x3e60c89c	0.21951526
238	0xbde3db69	-0.111258335
239	0x3e73ea37	0.23819815
240	0x3ebad3be	0.3648967
241	0x3eace9f3	0.3377224
242	0x3dd8a3f2	0.10578145
243	0x3e9a418a	0.30128127
244	0xbe983750	-0.297297
245	0x3dce7445	0.100807704
246	0xbeb7a4c2	-0.35867888
247	0x3e5174a4	0.20454651
248	0x3c99889e	0.018741902
249	0xbcfa7bde	-0.030576643
250	0x3e853f64	0.26024926
251	0xbd3bd1c6	-0.045854352
252	0x3e18e0e2	0.14929536
253	0x3e788242	0.2426844
254	0xbe3c7e58	-0.18407571
255	0xbea8f9a3	-0.33002958

experts.0.fc2.weight f4 [256, 256]
0	0x3c8dc509	0.017305868
1	0xbd1399ba	-0.036035277
2	0xbc887bb3	-0.016660547
3	0x3d31a30f	0.043368395
4	0x3c9113de	0.017709669
5	0xbc363e5f	-0.011123269
6	0xbca3c9d0	-0.019993693
7	0xbd3d5178	-0.046220273
8	0xbcc90502	-0.02453852
9	0x3b8345b0	0.00400611
10	0xbccef7d6	-0.025264662
11	0xbd9cc670	-0.076550364
12	0xbd6cebcf	-0.057842072
13	0xbd716ada	-0.058939792
14	0xbceb83a4	-0.028749295
15	0x3d0d8492	0.034550257
16	0xbcea2298	-0.028580949
17	0x3d33f593	0.04393537
18	0x3d0c1a72	0.034204908
19	0xbd30796b	-0.043084543
20	0x3ca1bcbf	0.019743321
21	0xbcdc819c	-0.026917271
22	0x3d7055cd	0.058675576
23	0x3d4cc247	0.049989965
24	0x3cead6a4	0.028666802
25	0xbd42c4ce	-0.04755097
26	0x3c1411a0	0.009037405
27	0xbd05286a	-0.032509245
28	0x3c195128	0.009357728
29	0x3d8a0304	0.067388564
30	0xbc457150	-0.012050942
31	0xbd07e857	-0.03318056
32	0xbcb08fe4	-0.021552987
33	0xbd136b46	-0.035990976
34	0x3d2a63ba	0.041599013
35	0xbd0e16a2	-0.034689553
36	0x3d333132	0.04374809
37	0x3d44982d	0.04799669
38	0x3d1a02bc	0.037600264
39	0xb9af0934	-0.00033385458
40	0x3c9cfebf	0.019164441
41	0x3d04e00d	0.032440234
42	0xbbdeca4b	-0.0067990175
43	0x3ccdc2d4	0.025117315
44	0x3cb3c6cc	0.02194538
45	0x3cfe4009	0.031036394
46	0xbcdadd38	-0.026716813
47	0x3d63f8ce	0.0556572
48	0xbc4467e8	-0.011987664
49	0x3d1176fa	0.035513856
50	0x3c45fc12	0.012084024
51	0xbd08c08a	-0.033386745
52	0xbb248842	-0.002510563
53	0xbcb6271a	-0.022235442
54	0xbcfdda34	-0.030987836
55	0xb966b290	-0.00022001029
56	0xbc433b04	-0.011915926
57	0x3cb1318f	0.021630077
58	0xbc402c89	-0.011729368
59	0xbd1ed66c	-0.038778707
60	0x3cd2b86c	0.025722705
61	0xbcfa1460	-0.030527294
62	0xbd2ab64d	-0.04167776
63	0xbc43df8b	-0.011955152
64	0xb9c69b4e	-0.00037881214
65	0xbd1aa49c	-0.03775464
66	0x3d0d5d90	0.034513056
67	0x3ba90410	0.005157955
68	0x3d032f00	0.032027245
69	0xba21ae80	-0.0006167665
70	0xbc5f81b0	-0.01364176
71	0xbcb42e48	-0.021994725
72	0xbb5deb59	-0.0033862202
73	0xbd41b40b	-0.047290843
74	0x3cf66f94	0.030082501
75	0x3c9186f8	0.017764553
76	0x3d400d22	0.046887524
77	0xbd6f25bc	-0.058385596
78	0xbbd55620	-0.006510511
79	0xbc119565	-0.008885716
80	0x3b8b709d	0.004255368
81	0x3c7b0d90	0.015323058
82	0x3c3d28c5	0.011545365
83	0x3bc27845	0.0059347474
84	0xbb92c217	-0.0044787037
85	0x3c791298	0.015202187
86	0xbce94a9f	-0.028477965
87	0xbb93d719	-0.0045117256
88	0x3d09416b	0.033509653
89	0x3d80573e	0.0626664
90	0x3ccc4090	0.02493313
91	0x3bb3bab2	0.0054849023
92	0x3cd6b569	0.02620955
93	0x3cebb7f0	0.028774232
94	0x3ce04af4	0.02737949
95	0xbd14f86e	-0.036369734
96	0xbd49bb78	-0.04925105
97	0x3d3cfa27	0.046137
98	0xbcae0357	-0.021241827
99	0x3cd1bb18	0.025601909
100	0xbd5bf68a	-0.053701915
101	0x3d14fddc	0.03637491
102	0x3d782e3e	0.060590975
103	0xbc4a1310	-0.012333646
104	0xbcf1d660	-0.029521167
105	0xbb9d819c	-0.0048067104
106	0x3d1ab5e4	0.03777112
107	0x3d4bf5af	0.04979485
108	0xbb17c160	-0.0023156032
109	0xbba97ac0	-0.0051721036
110	0x3d520060	0.05126989
111	0x3c915f0e	0.01774552
112	0x3d80121b	0.06253453
113	0x3d6797de	0.056541316
114	0xbd1d4680	-0.038397312
115	0xbd347cfc	-0.044064507
116	0xbca9f0dc	-0.020744734
117	0xbc1c93e0	-0.0095567405
118	0x3d81dcda	0.06340952
119	0xbd358d97	-0.044324484
120	0x3ca56649	0.020190375
121	0x3d7b54d4	0.061360195
122	0x3b80bec0	0.003928989
123	0xbd4f69df	-0.050638076
124	0xbd414636	-0.0471861
125	0x3c1847f0	0.009294495
126	0x3c9423ac	0.018083416
127	0x3c6de0c8	0.014518924
128	0x3d1f4c8e	0.038891368
129	0x3d3c726d	0.046007562
130	0xbd36a787	-0.04459336
131	0x3d1f622c	0.038911983
132	0x3d3693c2	0.044574507
133	0xbd014ae2	-0.031565554
134	0xbc969ac7	-0.01838435
135	0xbd0e4f2a	-0.034743465
136	0xbd6a95a3	-0.05727161
137	0x3d1cde8c	0.038298175
138	0x3ca46417	0.020067258
139	0xbd00b4a1	-0.03142226
140	0xbd491d1e	-0.049100034
141	0xbd629118	-0.055314153
142	0x3d6d8e7a	0.057997204
143	0x3ca8833c	0.02057039
144	0x3cdce3f3	0.026964163
145	0xbba95160	-0.0051671714
146	0x3cd10250	0.025513798
147	0x3bddf410	0.0067734793
148	0x3cf34e9b	0.029700568
149	0x3cb14faa	0.021644432
150	0xbd03e2b6	-0.03219863
151	0xbc0622f8	-0.008187048
152	0x3cb46af6	0.02202366
153	0x3d015b31	0.031581108
154	0x3d34bff4	0.044128373
155	0xbd3d5d36	-0.04623147
156	0x3d298848	0.041389734
157	0xbd6ad650	-0.05733329
158	0x3baf78a0	0.005354956
159	0xbd201222	-0.039079793
160	0xbcfbd3e4	-0.030740686
161	0xbd125340	-0.035723925
162	0x3d940bae	0.0722879
163	0x3d83ab1d	0.06429122
164	0xbce31304	-0.027719028
165	0x3b4c9fa8	0.0031223092
166	0xbcfc29ed	-0.03078171
167	0xbd51be72	-0.051207013
168	0xbd019d1c	-0.03164397
169	0x3c0837f1	0.008314119
170	0xbd667084	-0.056259647
171	0xbc552560	-0.013009399
172	0x3c680b8d	0.01416291
173	0x3b66f880	0.0035243332
174	0x3c7036cc	0.014661502
175	0x3c8b656b	0.017016133
176	0x3d89fe6c	0.0673798
177	0xbd14bab7	-0.036310878
178	0xbcdb179e	-0.02674466
179	0x3d0b42e1	0.033999328
180	0x3c9cd3e0	0.019143999
181	0x3d627df4	0.0552959
182	0x3d63810c	0.05554299
183	0xbcf97f5b	-0.030456236
184	0xbc689790	-0.014196292
185	0xbd668346	-0.056277536
186	0x3cce5a64	0.025189586
187	0x3d2ff338	0.04295656
188	0xbd41c297	-0.047304716
189	0xbcc4fa57	-0.024045153
190	0x3d08bc9e	0.033383004
191	0x3c797918	0.015226625
192	0xbce29376	-0.027658205
193	0x3c1268d1	0.008936123
194	0xbd2a2916	-0.04154309
195	0x3d24d6d0	0.040243924
196	0x3c979b3d	0.01850664
197	0x3ca25fab	0.019821009
198	0x3c34c1f5	0.011032571
199	0x3b5eb500	0.0033982396
200	0xbd3de232	-0.046358295
201	0x3d6ef8b8	0.058342665
202	0x3c5e66b9	0.013574296
203	0x3b94a369	0.0045360816
204	0x3bb919b0	0.005648814
205	0xbd65a9dd	-0.056070197
206	0x3d7bda80	0.061487675
207	0x3d862e66	0.065518185
208	0x3d2c5dad	0.042081524
209	0x3cd1f064	0.025627322
210	0x3c94a380	0.01814437
211	0x3c35efc0	0.011104524
212	0x39289000	0.00016075373
213	0x3ce033e0	0.027368486
214	0x3ca8a7f8	0.020587906
215	0x3ce76af9	0.02824925
216	0xbd0eb811	-0.03484351
217	0xbbf98340	-0.007614523
218	0x3d1f9cb2	0.038967796
219	0x3d6b2453	0.05740769
220	0xbd10209c	-0.03518735
221	0x3d1cc009	0.038269076
222	0xbcf42eba	-0.029807437
223	0x3c856f6c	0.016288482
224	0x3cc45261	0.023965063
225	0xbcb7ceb0	-0.022437423
226	0x3d559673	0.052145433
227	0x3d36c9b8	0.044625968
228	0x3d79dcfe	0.06100177
229	0x3c8c68a4	0.01713974
230	0x3d185db5	0.03719874
231	0x3c9ca141	0.01911986
232	0xbd079aba	-0.033106543
233	0x3c9beda0	0.019034207
234	0xbc430520	-0.011903077
235	0x3cb1d9dc	0.021710329
236	0xbc33018b	-0.010925661
237	0xbc3b1abc	-0.011419948
238	0xbd49abd0	-0.04923612
239	0xbc8a0ee0	-0.016852796
240	0x3d5f1f16	0.054473005
241	0x3c9f2e68	0.019431308
242	0xbba5b800	-0.005057335
243	0x3d227cac	0.039669678
244	0x3d3fabbc	0.046794638
245	0xbc11c913	-0.0088980375
246	0xbd3d789a	-0.046257593
247	0x3d6c01ba	0.057618834
248	0xbd683296	-0.056688868
249	0xbb474bd5	-0.003041019
250	0xbd51ff7c	-0.05126904
251	0xbc07c38e	-0.00828637
252	0xbd224f30	-0.0396263
253	0x3cdce1cd	0.026963139
254	0xbc7d91cf	-0.015476658
255	0x3d8d16a5	0.06889085

experts.0.fc2.bias f4 [256]
0	0x3c83fa68	0.016110614
1	0xbacd3e2a	-0.0015658785
2	0x3d5ab9df	0.053399917
3	0xbd717231	-0.058946792
4	0x3becc8c0	0.0072260797
5	0xbac28080	-0.0014839321
6	0xbbeede80	-0.0072897077
7	0xbd16fba9	-0.036861096
8	0x3c77e88a	0.015131125
9	0x3d5d5f20	0.054045796
10	0x3b5dad00	0.003382504
11	0xbd5de9bf	-0.054177996
12	0xbcd13fd0	-0.025543123
13	0xbd27adb4	-0.04093714
14	0xbccbe5a0	-0.024889767
15	0xbcd01142	-0.025398854
16	0xbc8031a4	-0.01564867
17	0x3d3129da	0.043252803
18	0xbd48ac52	-0.048992462
19	0xbcfed4c7	-0.03110732
20	0xbce09701	-0.027415754
21	0x3d8c25f8	0.068431795
22	0x3ba0be9f	0.0049055363
23	0x3c20341d	0.00977805
24	0xbc9a0308	-0.018800274
25	0x3d7a5754	0.06111844
26	0xbd560857	-0.052254047
27	0xbd0654df	-0.032795783
28	0x3d7ae8d6	0.061257206
29	0x3be35f70	0.0069388673
30	0x3d1ad74e	0.037802987
31	0xbb836470	-0.004009776
32	0xbd660258	-0.05615458
33	0x3d325214	0.043535307
34	0x3c8ccf42	0.017188672
35	0x3d72bc05	0.05926134
36	0xbc977eec	-0.018493138
37	0x3d7bfac2	0.06151844
38	0xbd11fe42	-0.03564287
39	0x3d4a6530	0.049412906
40	0xbcfbb748	-0.030727044
41	0xbc203226	-0.009777581
42	0x3d879b9e	0.066214785
43	0xbd2e968e	-0.04262405
44	0xbbbd867e	-0.005783855
45	0x3a1ad524	0.0005906394
46	0xbccdc8ed	-0.025120223
47	0x3ca34028	0.019928053
48	0xb908e800	-0.00013056397
49	0xbc30a5e0	-0.010781735
50	0x3d017be2	0.031612284
51	0x3d8cc6c9	0.06873853
52	0x3d8ff439	0.07029004
53	0x3cbf8ac3	0.023381596
54	0x3cdcdb7e	0.02696013
55	0xbc4610aa	-0.012088934
56	0x3c42effa	0.011898035
57	0xbd91b55a	-0.07114668
58	0xbcbce70c	-0.02305939
59	0x3d6b8008	0.057495147
60	0xbd09b1b7	-0.033616748
61	0x3cdfe820	0.027332366
62	0x3d9f9daa	0.07793744
63	0xbcc61ac5	-0.024182687
64	0xbc2b12d0	-0.010441497
65	0x3c705e58	0.014670931
66	0x3c8653b4	0.016397335
67	0xbca6db10	-0.020368129
68	0xbd0c7f04	-0.03430082
69	0xbd6f1da2	-0.05837787
70	0x3d52e97d	0.051492203
71	0xbcf1ba56	-0.029507797
72	0xbd67e69e	-0.056616418
73	0x3d039e7a	0.032133557
74	0x3c83c7a4	0.016086407
75	0x3d78e368	0.060763747
76	0x3d60d7f8	0.054893464
77	0x3d5ef5f1	0.054433767
78	0x3d340fcc	0.043960378
79	0xbd5d073d	-0.05396198
80	0xbd18001b	-0.037109476
81	0xbc1743c2	-0.009232463
82	0x3c472f18	0.012157224
83	0x3d3c6832	0.045997806
84	0x3cc78ea8	0.024360016
85	0xbd4c31d7	-0.04985222
86	0x3d6a396a	0.05718366
87	0xbc6f22a8	-0.014595665
88	0xbd2f0352	-0.042727776
89	0xbd6f1c84	-0.058376804
90	0xbd169dd4	-0.03677161
91	0x3ccdad4c	0.025107048
92	0x3ce0992b	0.027416786
93	0x3c81f241	0.015862586
94	0xbd0a2a43	-0.03373171
95	0x3c610904	0.01373506
96	0x3d9db9a5	0.077014245
97	0xbd31d022	-0.04341138
98	0x3d5140c0	0.05108714
99	0x3cfd7520	0.030939639
100	0x3d06f7d0	0.032951176
101	0xbcc9ceda	-0.024634767
102	0x3d27453f	0.040837523
103	0xbd08c7a3	-0.033393513
104	0xbca7263a	-0.02040397
105	0x3d8debba	0.06929727
106	0xbc871e7e	-0.016494032
107	0x3d4e4544	0.050359026
108	0xbd0bd5dd	-0.034139503
109	0x3d43a662	0.047766097
110	0xbc0c737d	-0.008572456
111	0x3c346668	0.011010744
112	0x3bdd6242	0.006756098
113	0xbce55ef3	-0.027999377
114	0x3d30669f	0.043066617
115	0x3c9501d8	0.018189356
116	0x3d61ceb6	0.055128776
117	0x3d8bbaad	0.06822715
118	0x3ce27c10	0.027647048
119	0xbb717870	-0.0036845468
120	0x3c471898	0.01215186
121	0x3ce9a5c7	0.028521432
122	0x3d038f6d	0.032119203
123	0xbd25e904	-0.040505424
124	0x3c195f42	0.00936109
125	0x3d71c401	0.059024815
126	0xbbd3f0e0	-0.0064679235
127	0xbd62d850	-0.055382073
128	0x3c0b16b5	0.0084893005
129	0x3b0a84ae	0.0021136212
130	0x3cb3c122	0.021942679
131	0x3d479fc1	0.048736338
132	0x3d61009a	0.054932214
133	0xbbd7c30a	-0.0065845298
134	0x3d5c401e	0.053772084
135	0xbc6b6fe8	-0.014369942
136	0xbd91e7aa	-0.071242645
137	0x3a8847ee	0.0010397413
138	0x3da5887a	0.080826715
139	0xbae4af92	-0.0017447344
140	0x3d6ab7d2	0.05730421
141	0xbd53cfda	-0.051711895
142	0x3cbb1c7c	0.02284073
143	0x3d5fe072	0.054657407
144	0x3d4e2676	0.050329648
145	0xbd5fdc0c	-0.054653212
146	0x3c47d88c	0.012197625
147	0x3d3ed9b8	0.04659435
148	0xbd6cdd50	-0.057828248
149	0x3d1cc9b0	0.03827828
150	0xbce589e1	-0.028019847
151	0xbd4a6250	-0.049410164
152	0x3d32b0b0	0.043625534
153	0x3d37d1f6	0.04487797
154	0x3ca62094	0.020279206
155	0x3d027e69	0.031858835
156	0xbd71775c	-0.05895172
157	0x3ca401bc	0.020020358
158	0x3d58272e	0.05277174
159	0xbb913cb0	-0.0044322833
160	0x3cb723c9	0.02235593
161	0xbc19a795	-0.009378334
162	0xbd66fcf6	-0.056393586
163	0x3cf3af60	0.029746711
164	0x3cb5d318	0.022195384
165	0xbd0d98e6	-0.034569643
166	0x3d416058	0.04721102
167	0xbd2cafcd	-0.042159844
168	0xbcb5acda	-0.022177149
169	0x3d2a024a	0.04150609
170	0xbce82cca	-0.02834167
171	0x3c763118	0.015026353
172	0x3d06426e	0.032778196
173	0xbcb95fce	-0.022628691
174	0x3bb77838	0.005599048
175	0x3d0fc7bf	0.035102602
176	0x3d40614c	0.04696779
177	0x3ce9c0d7	0.028534336
178	0xbd46867e	-0.048468105
179	0x3cdaf8dd	0.026729995
180	0xbd6b8e4b	-0.057508748
181	0xbc134f3d	-0.00899106
182	0xbc8daf1c	-0.017295413
183	0x3d1e06de	0.038580768
184	0xbd327f8c	-0.04357867
185	0xbc5d4455	-0.013505061
186	0x3d0df905	0.03466131
187	0x3c8a68ce	0.016895678
188	0xbc8ea23d	-0.017411346
189	0xbca52cf5	-0.020163039
190	0xba83c340	-0.0010052696
191	0x3d2fb0cc	0.042893216
192	0xbcfc5684	-0.030802973
193	0x3a9d1d4e	0.0011986883
194	0xbd093315	-0.03349598
195	0x3d4c9517	0.04994687
196	0x3d13830c	0.036013648
197	0x3c73921e	0.01486638
198	0x3d8e05ec	0.06934723
199	0x3b8573e0	0.0040726513
200	0xbd14d638	-0.036337107
201	0x3addc613	0.0016919993
202	0xbce173f5	-0.027521113
203	0x3ceae94f	0.028675703
204	0x3d51610a	0.051117934
205	0x3d826288	0.063664496
206	0x3d5bac8e	0.053631358
207	0x3d01e543	0.03171278
208	0x3cab25d4	0.020892061
209	0x3c6fe0b8	0.0146409795
210	0xbc8b17e2	-0.016979162
211	0xbcfe21cb	-0.031021973
212	0x3b4ff544	0.0031731883
213	0x3d52e8b0	0.05149144
214	0xbd5d8048	-0.054077417
215	0xbc4b540b	-0.012410174
216	0x3d2e4fe9	0.042556677
217	0x3d6a53d8	0.057208866
218	0x3a0040ac	0.00048924494
219	0xbadf706b	-0.0017047053
220	0xbd5d0ed8	-0.053969234
221	0x3d3cac19	0.046062563
222	0xbd16a4a4	-0.036778107
223	0xbc86faf9	-0.016477095
224	0xbb486040	-0.0030574948
225	0xbc3c373f	-0.011487781
226	0xbc947d64	-0.018126197
227	0xbca48612	-0.020083461
228	0x3ce2ae0c	0.027670883
229	0xbcebf960	-0.028805435
230	0xbccc5999	-0.024945067
231	0xbd7db4de	-0.061940067
232	0xbd307993	-0.043084692
233	0x3ba6036d	0.0050663264
234	0x3bf86760	0.0075806826
235	0xbcb5a74e	-0.022174504
236	0x3d5587e2	0.05213154
237	0x3d46ae28	0.048505932
238	0xbd7bb27a	-0.061449505
239	0xbc671556	-0.014104208
240	0xbd32f55e	-0.04369103
241	0xbcc675fe	-0.024226185
242	0x3c07ed43	0.008296314
243	0x3b6824fe	0.003542244
244	0x3c05c7d7	0.008165321
245	0x3d8a05a4	0.06739357
246	0xbd7d773c	-0.06188129
247	0xbd37f0b6	-0.044907294
248	0x3d1f4f4e	0.03889399
249	0x3c0da2a8	0.008644737
250	0x3d06c40f	0.03290182
251	0x3cce428b	0.025178215
252	0xbbc8250b	-0.0061079315
253	0xbcde881e	-0.027164515
254	0x3c9efd55	0.019407908
255	0xbc6cc924	-0.014452253
