outputs/router_rule/ppo/winter20251201-143352/models/hac_model.pth (torch, 869122 bytes, 27 tensors)

router_backbone.0.weight f4 [128, 6]
0.27876642 0.37582585 -0.05503079 0.37391725 -0.09773791 0.06828334 -0.19875774 0.23975715
0.3598884 -0.29950246 0.35484788 0.07640747 0.30225953 0.055289246 0.1970968 -0.057348333
0.3150942 0.060656164 -0.19127795 0.10427071 -0.18838196 -0.0480585 -0.16609757 0.27057025
-0.32225904 -0.18820669 -0.11527901 -0.24546847 0.03853175 -0.40321833 0.3372396 -0.30312496
0.34479755 0.06662774 -0.13980213 0.24669911 0.06362581 0.3298497 0.044629578 -0.12875056
0.10968965 -0.11070854 0.17181438 0.36449313 0.23599184 -0.17847495 0.23566732 0.07304633
0.20682082 -0.24939224 -0.4045853 -0.15817468 -0.31362998 0.33453652 0.117588304 0.16910197
0.12883286 -0.007391548 0.31923246 -0.29036564 0.025704833 -0.27864587 0.12588418 -0.14059348
0.12509392 -0.08505505 0.3385978 -0.24196956 -0.24347848 -0.24349317 0.367196 0.13604921
0.39283723 -0.33691764 -0.40493175 -0.31939867 -0.27462417 0.16535695 0.14618386 0.33922347
-0.21082978 -0.27830768 0.21660763 -0.1650158 0.24777561 -0.09687758 0.23353678 -0.31719586
-0.20602241 0.124465294 0.05684735 -0.06511901 0.27282253 0.27648252 -0.30243567 -0.22458246
0.37381744 -0.13775624 -0.14473072 -0.39501888 -0.23379165 0.10198192 -0.05388599 -0.29634172
0.009576155 -0.27886686 -0.3463565 -0.22480708 -0.32781532 -0.3015178 0.37606364 0.07832274
0.132335 -0.3729772 -0.2681268 -0.13588783 0.06383824 -0.35922638 -0.17590319 -0.24440543
0.0011313616 -0.15191051 -0.028289879 -0.2766412 -0.28021967 -0.2381728 -0.14039531 -0.32262367
0.3420523 -0.08134652 0.3508187 0.12684579 -0.34570342 0.2825222 -0.112327404 -0.15649222
-0.33887488 -0.4058644 0.11680418 -0.08917934 0.15894051 -0.33503446 0.30309543 -0.29967618
-0.10643997 0.13328776 0.25382063 0.3304337 0.36739495 -0.33793378 0.10274273 -0.17559819
-0.044737812 -0.30556983 0.37185648 -0.29963404 0.21818882 0.14347462 0.13266271 -0.22071789
0.37107792 0.08971273 0.05321051 -0.35977736 0.17164747 -0.061040338 -0.18671156 0.3509216
0.09101847 -0.22587416 -0.20663036 -0.019496191 0.22795005 -0.10432125 -0.21115814 -0.17949735
-0.35153693 0.13902871 0.30812085 -0.361332 0.094153516 0.21119796 0.073706135 -0.1457462
0.21267684 0.2141898 0.18968055 -0.12196692 -0.15547997 0.044067893 -0.06624545 -0.10590957
0.26095513 0.35114852 -0.040115897 -0.091105275 0.006221118 -0.02407555 0.0981475 0.1144049
-0.3707943 -0.15065904 0.34379792 0.15903516 -0.02030528 -0.24613525 -0.24976839 -0.3656953
-0.13307361 0.13786715 0.26030797 0.18848716 -0.3613385 -0.24598622 -0.06491298 0.39444417
0.059726648 -0.10524598 0.16924241 -0.15507542 -0.26374418 0.2983981 -0.21863025 -0.03290356
-0.3646212 0.27386302 0.305318 0.13685377 -0.2506616 -0.44741857 -0.36479002 0.3062974
0.20444712 0.35087126 0.21386899 0.10332445 -0.0039978474 -0.3104753 -0.3497758 -0.3818545
0.16712132 -0.20043685 -0.082161024 -0.23494905 -0.07439246 -0.2873394 -0.30428833 0.18477644
-0.08091506 0.2508596 -0.13939148 -0.30934644 -0.072030894 -0.19789732 -0.12490013 -0.3886506
00000000: 79ba 8e3e 3f6c c03e f767 61bd 1572 bf3e
00000010: d02a c8bd 23d8 8b3d 2687 4bbe e682 753e
00000020: 4b43 b83e 6358 99be 9fae b53e 857b 9c3d
00000030: c3c1 9a3e fa76 623d bed3 493e 16e6 6abd
00000040: 0754 a13e 9972 783d 5ede 43be e28b d53d
00000050: 33e7 40be fdd8 44bd 7b15 2abe 2f88 8a3e
00000060: 23ff a4be 41b9 40be 6717 ecbd 165c 7bbe
00000070: 78d3 1d3d a272 cebe abaa ac3e 3233 9bbe
00000080: 4e89 b03e 2074 883d 4a28 0fbe b19e 7c3e
00000090: 404e 823d 0fe2 a83e 81cd 363d 30d7 03be
000000a0: f8a4 e03d 29bb e2bd 1cf0 2f3e d89e ba3e
000000b0: d8a7 713e 23c2 36be c652 713e 5099 953d
000000c0: d6c8 533e ae60 7fbe ce25 cfbe 8bf8 21be
000000d0: 1c94 a0be 5f48 ab3e 23d2 f03d 1129 2d3e
000000e0: c3ec 033e cc34 f2bb 7072 a33e ceaa 94be
000000f0: f192 d23c acaa 8ebe c8e7 003e bdf7 0fbe
00000100: 9f18 003e 5831 aebd b15c ad3e dec6 77be
00000110: 6c52 79be 4656 79be 1d01 bc3e 7c50 0b3e
00000120: f621 c93e 7880 acbe 3753 cfbe 3988 a3be
00000130: 8a9b 8cbe 5553 293e 39b1 153e b3ae ad3e
00000140: c3e3 57be 587e 8ebe 64ce 5d3e e7f9 28be
00000150: e4b8 7d3e c167 c6bd 4424 6f3e 7f67 a2be
00000160: 8af7 52be a9e7 fe3d c4d8 683d 1e5d 85bd
00000170: 65af 8b3e 1e8f 8d3e d9d8 9abe f2f8 65be
00000180: 0065 bf3e f90f 0dbe 4a34 14be ea3f cabe
00000190: 1467 6fbe e6db d03d 8eb7 5cbd 1aba 97be
000001a0: 4ee5 1c3c a3c7 8ebe a455 b1be d433 66be
000001b0: 69d7 a7be 8b60 9abe 6a8b c03e ac67 a03d
000001c0: d482 073e def6 bebe ea47 89be 2e26 0bbe
000001d0: a0bd 823d 85ec b7be f71f 34be 6b45 7abe
000001e0: 324a 943a 6e8e 1bbe 2dc0 e7bc eaa3 8dbe
000001f0: f478 8fbe 92e3 73be cac3 0fbe ee2e a5be
00000200: 7b21 af3e 0199 a6bd 829e b33e dde3 013e
00000210: 0a00 b1be c0a6 903e e90b e6bd 7f3f 20be
00000220: 0281 adbe 75cd cfbe 0837 ef3d a8a3 b6bd
00000230: 4dc1 223e a389 abbe 532f 9b3e 286f 99be
00000240: 33fd d9bd 967c 083e c7f4 813e 9b2e a93e
00000250: 311b bc3e a805 adbe c86a d23d 03d0 33be
00000260: ff3e 37bd a673 9cbe f963 be3e a269 99be
00000270: e46c 5f3e 03eb 123e bcd8 073e df03 62be
00000280: edfd bd3e 4fbb b73d 44f3 593d bd34 b8be
00000290: 5bc4 2f3e 6f05 7abd 5131 3fbe ffab b33e
000002a0: e467 ba3d 8e4b 67be e996 53be 7ab6 9fbc
000002b0: bd6b 693e 61a6 d5bd d739 58be 27ce 37be
000002c0: a6fc b3be 8b5d 0e3e 04c2 9d3e 8200 b9be
000002d0: 8fd3 c03d 4744 583e 3ef3 963d 7e3e 15be
000002e0: f5c7 593e 9254 5b3e 9e3b 423e cbc9 f9bd
000002f0: 2436 1fbe 8980 343d b2ab 87bd 1ee7 d8bd
00000300: e99b 853e bdc9 b33e 9150 24bd 6795 babd
00000310: 85da cb3b 163a c5bc 8e01 c93d 1e4d ea3d
00000320: c0d8 bdbe 5d46 1abe 4806 b03e 1dda 223e
00000330: 4257 a6bc e10a 7cbe 49c3 7fbe 6a3c bbbe
00000340: 7344 08be 0c2d 0d3e 1647 853e c702 413e
00000350: 5c01 b9be d0e3 7bbe 19f1 84bd 96f4 c93e
00000360: eea3 743d 348b d7bd e24d 2d3e 17cc 1ebe
00000370: 7a09 87be a3c7 983e 9ce0 5fbe e2c5 06bd
00000380: a1af babe c637 8c3e a452 9c3e 6523 0c3e
00000390: b856 80be 0c14 e5be c2c5 babe 03d3 9c3e
000003a0: 965a 513e 66a5 b33e 7900 5b3e c59b d33d
000003b0: 6000 83bb 9ef6 9ebe d015 b3be 6f82 c3be
000003c0: da21 2b3e 513f 4dbe 0a44 a8bd 7c96 70be
000003d0: 135b 98bd 261e 93be aecb 9bbe 0936 3d3e
000003e0: ccb6 a5bd ab70 803e a4bc 0ebe a862 9ebe
000003f0: ef84 93bd 98a5 4abe a4cb ffbd 36fd c6be

router_backbone.0.bias f4 [128]
-0.26389706 0.40349957 0.15639758 0.16354206 -0.24425417 -0.18016721 -0.061626766 -0.07466042
-0.2802263 0.03335038 0.040574983 -0.051692814 0.056596205 -0.16180947 0.10624739 0.15309083
-0.21504031 -0.40481046 0.21476783 0.09738221 -0.20763017 0.3930298 -0.18462947 0.2758725
0.20811164 -0.3422787 0.26329622 -0.37507656 -0.22617556 -0.07461853 -0.27555093 0.39900556
-0.08158787 0.16215204 -0.3645298 0.23453546 -0.1264127 -0.30947194 0.06152049 0.1977807
0.3532969 -0.25053322 -0.20090075 0.078490995 0.11074193 0.15797171 0.22407737 -0.09296742
0.22681037 0.30099803 -0.10619006 0.2892704 0.2011946 0.35969684 -0.23199686 -0.20159668
-0.11804047 0.020708924 0.24700455 -0.22913557 0.20566154 -0.14317381 0.24662659 -0.019038253
-0.357661 -0.2266821 -0.29586765 0.20247585 -0.27375016 -0.034383684 0.09017725 -0.22539108
0.11613587 -0.397365 -0.2888361 -0.36866733 -0.12348587 -0.1487238 0.05981345 -0.07549102
0.19000773 0.37607887 0.14811224 -0.16148576 -0.38227785 0.14786832 -0.20973694 0.20774789
0.27337945 0.1572768 0.38508174 0.388202 0.086442456 -0.29551288 0.36474591 -0.1910341
-0.19283755 0.3397648 0.3184635 0.123352766 0.025590563 -0.34413365 -0.03325237 0.39186177
0.10519563 0.036954023 -0.084773175 -0.14238979 0.24332526 0.024722615 0.26088747 -0.07225938
0.17962274 0.16632955 0.06510096 0.25468817 0.25763592 0.37841487 0.3125905 -0.10438772
-0.34706596 0.07463492 -0.0044770613 -0.104682654 -0.0680629 0.019201074 0.2995013 0.12622537
00000000: 841d 87be 7f97 ce3e b026 203e 9277 273e
00000010: c41d 7abe c17d 38be 596c 7cbd 90e7 98bd
00000020: d279 8fbe 689a 083d f431 263d d8bb 53bd
00000030: 6cd1 673d 62b1 25be 3b98 d93d d8c3 1c3e
00000040: 8733 5cbe 5143 cfbe 19ec 5b3e 5370 c73d
00000050: 019d 54be 343b c93e 820f 3dbe 293f 8d3e
00000060: 381b 553e 273f afbe c3ce 863e 090a c0be
00000070: 919a 67be 9ad1 98bd 0315 8dbe 754a cc3e
00000080: 8b17 a7bd 2f0b 263e a6a3 babe 102a 703e
00000090: 5572 01be 1b73 9ebe e9fc 7b3d 0687 4a3e
000000a0: 55e3 b43e e445 80be edb8 4dbe e3bf a03d
000000b0: aacc e23d 56c3 213e 8a74 653e b465 bebd
000000c0: fa40 683e 6a1c 9a3e 2d7a d9bd 401b 943e
000000d0: f505 4e3e 2f2a b83e 9690 6dbe 5c6f 4ebe
000000e0: 34bf f1bd c3a5 a93c c3ee 7c3e 84a2 6abe
000000f0: f098 523e 289c 12be ae8b 7c3e 1cf6 9bbc
00000100: 581f b7be 5a1f 68be f77b 97be d455 4f3e
00000110: fb28 8cbe e8d5 0cbd daae b83d ebcc 66be
00000120: a5d8 ed3d 6d73 cbbe 53e2 93be f7c1 bcbe
00000130: 29e6 fcbd 0d4b 18be f3fe 743d 099b 9abd
00000140: 6391 423e 698d c03e bcaa 173e 865c 25be
00000150: ecb9 c3be cb6a 173e 48c5 56be ddbb 543e
00000160: 64f8 8b3e 2b0d 213e 6f29 c53e 6ac2 c63e
00000170: be08 b13d 774d 97be fabf ba3e 719e 43be
00000180: 3577 45be a7f5 ad3e a60d a33e 60a0 fc3d
00000190: 4da3 d13c 4932 b0be a333 08bd 1ba2 c83e
000001a0: ce70 d73d 1a5d 173d 8f9d adbd a1ce 11be
000001b0: 422a 793e 1587 ca3c 0b93 853e bafc 93bd
000001c0: 06ef 373e 4b52 2a3e a753 853d 7d66 823e
000001d0: dbe8 833e 98bf c13e dd0b a03e 3bc9 d5bd
000001e0: a1b2 b1be 31da 983d 50b4 92bb dc63 d6bd
000001f0: 9064 8bbd 924b 9d3c 3c58 993e 3941 013e

router_backbone.2.weight f4 [64, 128]
-0.0313862 -0.036347494 -0.021887721 -0.034162357 0.07948082 0.046814475 0.07981253 0.00028227852
0.017825356 0.030649956 -0.08366426 0.007892777 -0.0059122965 -0.049555283 -0.0685847 0.07824794
0.07186556 0.04096523 0.08434456 -0.035868686 -0.015266674 0.03346547 -0.014604104 -0.017344872
-0.0730584 0.023746524 -0.05341548 0.0032143504 0.08617648 -0.027207287 -0.027859278 0.053325824
-0.032496262 -0.007590563 0.0825316 -0.0362369 -0.06323393 -0.049465984 -0.024505284 -0.04194016
-0.045867518 0.035703987 0.015020515 -0.028289713 -0.068669915 -0.027829943 -0.037303343 -0.028763242
-0.07973716 0.019041419 -0.064941004 -0.06883677 -0.07221621 0.03689185 -0.053212143 -0.036482364
0.06928238 0.04693105 0.0506811 -0.083925314 -0.06338327 -0.033367574 0.0730174 0.009042163
-0.066105396 0.00055347243 -0.06864865 -0.019365823 -0.024304591 0.0765144 0.027377117 -0.015412375
0.014931332 -0.02551467 0.03472781 0.034963235 0.023736347 -0.034451738 0.07540858 -0.012760622
-0.034411058 0.055358864 0.07204151 0.08796053 0.026185784 -0.030131046 0.044891734 0.07583318
-0.08669431 -0.010950162 -0.0602778 0.01647203 0.03655608 -0.018259963 -0.0073943166 0.039784547
-0.014855404 -0.07422672 0.07072269 -0.044487137 -0.009710212 0.008337352 -0.005311862 -0.08314568
0.040552568 -0.040148772 -0.045843463 0.02111734 -0.046126522 -0.040849525 -0.029782448 -0.03320552
-0.036914285 -0.023837088 0.02296999 -0.07152543 -0.053499725 0.0012897146 0.012292001 0.04881622
-0.06208786 0.02821329 0.05023903 0.049078528 -0.08232681 -0.033729363 -0.07597558 -0.055933155
0.05121366 -0.013198064 0.03784525 -0.051628552 0.013431484 -0.05164559 0.044184625 -0.038659208
-0.02170439 -0.07691084 0.00029199338 0.08392298 0.042901773 -0.047158804 0.0011887097 -0.008424463
-0.07115918 0.06930452 -0.0014324699 0.018614324 -0.035693776 -0.041046575 0.014574316 0.03267814
0.021016201 -0.042598326 0.08581605 -0.012709889 -0.054130357 -0.03911407 0.08724346 0.003013697
-0.012297334 -0.03678385 -0.023170598 -0.07412084 -0.06983658 0.054475218 0.07855056 0.084349036
-0.06381129 0.049363732 -0.05470943 0.052728973 0.06377699 0.070095874 0.06364414 0.05570843
0.0017203606 0.04061289 -0.031230869 0.042632118 -0.026878778 -0.0010696704 -0.07693135 -0.023111308
-0.04648104 -0.029815229 -0.054424252 -0.120231286 0.018888768 0.074272186 0.080499634 0.051668562
-0.045814984 -0.08653191 0.033754904 0.049525224 -0.07588246 0.033684306 0.07745115 0.008154303
-0.050914176 0.07493537 0.039915837 0.06351189 -0.05977576 0.051437203 -0.059295114 0.087459765
-0.03450048 0.05497547 0.024657212 0.023723666 -0.013554795 0.03630422 -0.055622727 -0.083313026
-0.03353566 0.079592556 -0.02046796 0.028115112 -0.032679506 0.067472026 0.05289956 0.034036007
-0.045180734 -0.07110167 0.0050745416 -0.05185371 0.072672345 -0.08353255 0.004760213 0.08781537
0.046837263 0.03177436 -0.08504255 0.08502015 -0.015118612 -0.08229458 0.08998405 -0.03596793
-0.003996175 0.08137683 -0.061270863 -0.060562957 0.016341768 -0.011831126 0.02130069 -0.07413177
0.004400139 -0.039311577 -0.0423136 -0.07906304 0.046564903 0.017026821 -0.07258308 0.07242325
00000000: d18e 00bd 1ce1 14bd e14d b3bc d4ed 0bbd
00000010: d7c6 a23d 89c0 3f3d c074 a33d c8fe 9339
00000020: 7b06 923c 9e15 fb3c 2b58 abbd b550 013c
00000030: f0bb c1bb 7bfa 4abd 2376 8cbd 7540 a03d
00000040: 402e 933d 28cb 273d d7bc ac3d 0beb 12bd
00000050: 1221 7abc 1713 093d 0d46 6fbc d516 8ebc
00000060: a49f 95bd 1288 c23c 31ca 5abd daa7 523b
00000070: 4b7d b03d d1e1 debc 2439 e4bc 2e6c 5a3d
00000080: cd1a 05bd 42ba f8bb 5406 a93d 256d 14bd
00000090: ca80 81bd d89c 4abd 4ebf c8bc 72c9 2bbd
000000a0: 94df 3bbd 583e 123d 9b18 763c d4bf e7bc
000000b0: d0a2 8cbd 9ffb e3bc 64cb 18bd e4a0 ebbc
000000c0: 3c4d a3bd c0fc 9b3c caff 84bd 4bfa 8cbd
000000d0: 18e6 93bd e91b 173d faf4 59bd 886e 15bd
000000e0: ece3 8d3d c63a 403d fc96 4f3d 09e1 abbd
000000f0: 16cf 81bd 70ac 08bd 268a 953d 9525 143c
00000100: 4462 87bd e816 113a aa97 8cbd 13a5 9ebc
00000110: 6c1a c7bc 95b3 9c3d fa45 e03c 3084 7cbc
00000120: 8ca2 743c 2404 d1bc c03e 0e3d 9c35 0f3d
00000130: ba72 c23c 441d 0dbd d06f 9a3d ee11 51bc
00000140: 9cf2 0cbd fabf 623d 808a 933d a624 b43d
00000150: 9283 d63c 62d5 f6bc 65e0 373d 6d4e 9b3d
00000160: c98c b1bd 4f68 33bc dbe5 76bd 5af0 863c
00000170: d4bb 153d eb95 95bc 064c f2bb 1ff5 223d
00000180: 1564 73bc 2e04 98bd 0fd7 903d 2538 36bd
00000190: 9517 1fbc 6499 083c 210f aebb 4848 aabd
000001a0: 731a 263d 0a73 24bd 5bc6 3bbd 46fe ac3c
000001b0: 2aef 3cbd d551 27bd 52fa f3bc 8302 08bd
000001c0: 6f33 17bd ff45 c3bc 8f2b bc3c ed7b 92bd
000001d0: 8722 5bbd a40b a93a 6464 493c 84f3 473d
000001e0: d74f 7ebd 8f1f e73c 71c7 4d3d 9106 493d
000001f0: f59a a8bd cd27 0abd 1699 9bbd 2a1a 65bd
00000200: 6ac5 513d b13c 58bc 9f03 1b3d 7678 53bd
00000210: ba0f 5c3c 548a 53bd f0fa 343d 1e59 1ebd
00000220: 68cd b1bc 6e83 9dbd b016 9939 d0df ab3d
00000230: c5b9 2f3d 9729 41bd 7bce 9b3a c206 0abc
00000240: e7bb 91bd 87ef 8d3d b7c1 bbba 117d 983c
00000250: a333 12bd 7420 28bd 1dc9 6e3c 83d9 053d
00000260: 2b2a ac3c 957b 2ebd 53c0 af3d 233d 50bc
00000270: cbb7 5dbd 1336 20bd b3ac b23d 7281 453b
00000280: c27a 49bc aaaa 16bd 44d0 bdbc abcc 97bd
00000290: 7b06 8fbd 6821 5f3d 1edf a03d 30bf ac3d
000002a0: 7eaf 82bd a031 4a3d ff16 60bd 56fa 573d
000002b0: 839d 823d 6d8e 8f3d dc57 823d 862e 643d
000002c0: b97d e13a b459 263d e1d7 ffbc 049f 2e3d
000002d0: e230 dcbc 2f34 8cba 2f8e 9dbd ed53 bdbc
000002e0: e762 3ebd 113f f4bc f7eb 5ebd d23b f6bd
000002f0: 9ebc 9a3c 041c 983d fedc a43d 6aa2 533d
00000300: 7ea8 3bbd a437 b1bd 9542 0a3d f6da 4a3d
00000310: 4368 9bbd 8ef8 093d b59e 9e3d a099 053c
00000320: 628b 50bd b777 993d ca7e 233d 8612 823d
00000330: 6dd7 74bd d1af 523d 6fdf 72bd 1b1e b33d
00000340: 6050 0dbd f52d 613d ecfd c93c 2258 c23c
00000350: ee14 5ebc bcb3 143d a8d4 63bd 05a0 aabd
00000360: b05c 09bd 6c01 a33d 6cac a7bc aa51 e63c
00000370: f2da 05bd c62e 8a3d 36ad 583d 5769 0b3d
00000380: 6f0f 39bd c19d 91bd 5748 a63b 8e64 54bd
00000390: 3dd5 943d 1d13 abbd 90fb 9b3b 8bd8 b33d
000003a0: 6ed8 3f3d d525 023d ca2a aebd 0b1f ae3d
000003b0: 0eb4 77bc 108a a8bd 8f49 b83d 1c53 13bd
000003c0: 58f2 82bb e5a8 a63d 28f7 7abd dd10 78bd
000003d0: 2cdf 853c 57d7 41bc c97e ae3c 66d2 97bd
000003e0: 0b2f 903b 2d05 21bd 0751 2dbd ceeb a1bd
000003f0: d7ba 3e3d d57b 8b3c 70a6 94bd a452 943d

router_backbone.2.bias f4 [64]
-0.0035202417 -0.041241 0.06156186 0.060075283 0.010472794 -0.053336762 -0.04615057 -0.07745689
-0.047306888 -0.077103764 -0.007799443 -0.06277224 0.050594356 -0.071219675 -0.060936768 -0.05259432
-0.02100798 0.036426187 0.06361328 0.088527925 -0.019247722 0.020751126 0.0043883794 0.050592028
0.043384057 0.05144592 0.05844863 0.0735806 0.004515571 0.06369817 -0.047813695 -0.018562356
-0.026528912 -0.024600057 0.006997197 -0.08268313 -0.051793665 -0.0065704705 0.01971088 0.0626248
-0.060687616 0.021565689 0.040752575 -0.045318797 0.016961604 -0.044479553 -0.00034489768 -0.048313703
-0.024735184 -0.03326754 0.07647541 0.021563282 -0.08605195 0.011184888 0.048199926 -0.038934126
-0.050973665 -0.015506807 -0.07618788 -0.03288592 0.012529853 -0.06573107 -0.08320796 -0.053081006
00000000: dbb3 66bb 53ec 28bd 4a28 7c3d 8011 763d
00000010: 1596 2b3c a677 5abd 6108 3dbd b8a1 9ebd
00000020: dec4 41bd 94e8 9dbd 7892 ffbb bb8e 80bd
00000030: 073c 4f3d 9fdb 91bd d598 79bd 246d 57bd
00000040: ed18 acbc a033 153d ae47 823d 214e b53d
00000050: 66ad 9dbc 44fe a93c 65cc 8f3b 9639 4f3d
00000060: 7bb3 313d f5b8 523d d567 6f3d 6db1 963d
00000070: 5bf7 933b 3074 823d 4bd8 43bd 1510 98bc
00000080: 2953 d9bc 0f86 c9bc be48 e53b c655 a9bd
00000090: 9825 54bd 1a4d d7bb b678 a13c 6e41 803d
000000a0: 9493 78bd 87aa b03c 2cec 263d 34a0 39bd
000000b0: 10f3 8a3c 3130 36bd 62d3 b4b9 97e4 45bd
000000c0: 71a1 cabc 8b43 08bd 249f 9c3d 7ba5 b03c
000000d0: 013c b0bd d240 373c 496d 453d 6479 1fbd
000000e0: c3c9 50bd 4310 7ebc 6408 9cbd 63b3 06bd
000000f0: 034a 4d3c 039e 86bd ef68 aabd 786b 59bd

router_head.weight f4 [2, 64]
-0.09131159 0.0075786235 0.0478618 0.07874082 0.1269547 0.06695312 -0.056018624 -0.007995259
-0.06419149 0.07711834 0.041674808 0.057616606 -0.08414003 0.09782774 -0.110046536 0.065406136
-0.106460765 0.09648991 -0.074105486 -0.14919731 0.06265584 0.1108273 -0.0085075665 0.054621864
0.11712131 -0.11722556 0.051199395 0.02877225 -0.07112351 0.073292404 0.11313907 0.096120685
-0.089043476 0.11611835 0.107027076 0.047922816 -0.015712792 0.09692355 -0.07923504 -0.07594557
0.06874369 0.08337885 -0.062477037 0.11692502 0.068537824 0.06336841 0.10357554 0.123303145
0.08742306 0.10160308 0.011781916 0.09817705 0.06687216 -0.061472297 0.06985955 0.009019501
-0.03990085 0.09493199 0.034747653 0.09740499 0.024410462 0.037523746 0.013553272 -0.031678494
0.077680185 -0.06851982 -0.02039172 0.011486325 0.084352754 0.053470787 0.12018852 -0.07573013
-0.009886056 -0.012411269 0.10187112 0.1180065 0.03170697 -0.10139989 -0.09067209 0.020291857
-0.112692475 -0.04437563 -0.0937265 0.11602514 -0.017269785 -0.09786731 0.08109598 -0.11313197
-0.014974817 0.13599622 0.062288556 -0.108298734 0.01348722 -0.017670726 0.0538684 0.11549212
0.105763696 -0.017518805 0.055707272 -0.12314532 0.09704947 0.06568936 -0.08969971 -0.036153123
-0.048596993 -0.07308468 0.10136366 -0.038417183 0.049274076 -0.040208533 0.09486386 -0.049417883
-0.0216541 -0.038609006 0.005755022 -0.0462734 -0.08749769 -0.118790835 0.077752486 0.01703771
-0.083600275 0.063607305 0.01103034 -0.045137793 -0.005651409 0.013548506 0.15106234 -0.11438429
00000000: 9201 bbbd 1a56 f83b bc0a 443d de42 a13d
00000010: 6a00 023e b81e 893d c973 65bd 8cfe 02bc
00000020: d476 83bd 38f0 9d3d 34b3 2a3d 64ff 6b3d
00000030: 9c51 acbd e959 c83d 1460 e1bd a7f3 853d
00000040: 1a08 dabd 809c c53d 9ec4 97bd 2ec7 18be
00000050: b451 803d 6cf9 e23d 5263 0bbc 2dbb 5f3d
00000060: 4cdd ef3d f413 f0bd 75b6 513d c8b3 eb3c
00000070: 34a9 91bd 541a 963d 75b5 e73d ecda c43d
00000080: 6d5c b6bd 75cf ed3d 0331 db3d b74a 443d
00000090: 1db8 80bc db7f c63d fb45 a2bd 5a89 9bbd
000000a0: 7ec9 8c3d 88c2 aa3d ece7 7fbd 6376 ef3d
000000b0: 8f5d 8c3d 4cc7 813d 6a1f d43d 5c86 fc3d
000000c0: dc0a b33d 4715 d03d f008 413c 0d11 c93d
000000d0: 45f4 883d 60ca 7bbd 8612 8f3d 87c6 133c
000000e0: 136f 23bd b46b c23d 8e53 0e3d 447c c73d
000000f0: 73f8 c73c 80b2 193d 8b0e 5e3c 4fc1 01bd
00000100: ca16 9f3d 1f54 8cbd 890c a7bc 2431 3c3c
00000110: 23c1 ac3d 2f04 5b3d 6625 f63d 6618 9bbd
00000120: 20f9 21bc a358 4bbc cea1 d03d 64ad f13d
00000130: 2bdf 013d bfaa cfbd 4ab2 b9bd 1c3b a63c
00000140: 50cb e6bd 38c3 35bd aef3 bfbd 979e ed3d
00000150: 5d79 8dbc a86e c8bd a615 a63d bcb1 e7bd
00000160: ef58 75bc 9842 0b3e 4922 7f3d bacb ddbd
00000170: 80f9 5c3c 33c2 90bc 1da5 5c3d 2287 ec3d
00000180: a39a d83d 9983 8fbc 4f2d 643d 9d33 fcbd
00000190: dfc1 c63d 2588 863d 7bb4 b7bd 4c15 14bd
000001a0: a40d 47bd 6cad 95bd c097 cf3d 565b 1dbd
000001b0: 9dd3 493d b4b1 24bd fc47 c23d 686a 4abd
000001c0: f063 b1bc 7a24 1ebd a094 bc3b 2d89 3dbd
000001d0: fd31 b3bd 9c48 f3bd b23c 9f3d ab92 8b3c
000001e0: 9f36 abbd 8c44 823d 99b8 343c 68e2 38bd
000001f0: 742f b9bb 8efa 5d3c 16b0 1a3e 5042 eabd

router_head.bias f4 [2]
-0.09518266 -0.1026189
00000000: 20ef c2bd dc29 d2bd

experts.0.fc1.weight f4 [256, 6]
-0.32009664 0.0028771425 0.22700246 0.10701283 0.17327167 0.049417906 -0.007267127 -0.36954272
0.36470288 0.3948535 -0.0020268355 0.0740555 0.07598069 0.40373528 -0.0007061826 -0.06737264
-0.2223613 0.10559693 0.1884869 -0.34488395 0.13935116 0.101662174 0.18078585 0.19108869
-0.10688493 0.054966427 -0.28574443 0.24604079 -0.34318563 -0.35785806 -0.30276293 -0.22808155
0.016736483 0.26760814 -0.054088525 0.29285726 -0.06713273 0.346462 0.28206605 0.25813055
0.16696705 -0.27467924 0.40006146 -0.3885425 -0.2861835 -0.24670587 -0.107732415 0.17731301
0.08424226 -0.35105306 0.3944668 0.3834613 0.20163922 -0.39961264 0.22806665 0.11648225
-0.05047059 -0.3420022 0.34587502 -0.12204134 -0.32972693 0.31540036 0.15962383 0.12048293
0.26415884 0.1425208 -0.08885342 -0.071290724 0.33721736 -0.013681699 -0.34130478 -0.28241226
-0.30775374 0.03872181 0.29822463 0.24391857 0.10768145 0.13576129 -0.1933719 0.38211364
0.15570332 -0.25731382 -0.27197227 -0.36574158 -0.11614786 0.29860356 0.023968639 -0.1934856
0.113640875 -0.28337756 0.121156946 0.27847654 0.19796908 -0.12477733 -0.13939358 0.1696805
0.24444066 -0.10004215 -0.00092520815 -0.046043742 -0.047979668 -0.36228424 -0.3367391 0.349708
-0.19689457 0.30155438 0.25298572 -0.062397487 -0.19747293 0.013554633 -0.070770465 -0.24221371
0.39682344 -0.032248307 -0.06276538 -0.27688375 0.06609901 0.0562793 0.402282 -0.12636404
0.2300426 0.020102093 0.21703015 0.007455878 -0.07008902 0.16032493 -0.18184343 0.24739742
-0.34193876 -0.29265934 0.38894913 -0.15383962 -0.32461107 -0.29843825 0.39557737 -0.057396322
-0.3438318 -0.05914921 -0.19862288 -0.27354735 -0.19947504 0.30951768 0.16497652 0.23883496
0.033694737 -0.1706785 -0.16661923 -0.2739972 -0.29494995 -0.35199252 0.07212512 0.21451986
0.33344585 -0.010067355 -0.05918696 -0.033634067 0.16084962 -0.06466407 -0.1434493 -0.112487614
-0.3987995 -0.31440103 -0.17428294 0.039854065 -0.2561163 0.1566533 -0.22297652 0.39528304
-0.36079255 0.22763897 -0.21196835 -0.14475407 -0.3811973 -0.37836185 -0.3862235 -0.008141449
0.37572625 0.18688762 0.25532407 0.09110932 -0.15773493 -0.15899388 -0.12127264 -0.3814212
0.22440389 -0.12135455 -0.23143758 0.1009894 -0.00028981207 0.22172107 -0.2676523 0.4052631
-0.16250798 0.15425305 0.37135255 -0.023727491 -0.3590359 -0.39528468 0.40191582 -0.38252947
-0.15174372 0.2781493 -0.31783772 0.3812208 0.0396471 0.12719557 0.064360745 0.04519074
0.22942081 -0.35343564 0.0886611 -0.18446502 0.38667357 0.33831146 -0.16006821 0.22732002
-0.069519 0.21542059 -0.11547022 -0.23890354 0.17224085 0.20213902 0.3678174 0.12908058
-0.1824763 0.10400208 0.024272177 0.35485604 0.16749027 0.34820595 0.030323915 -0.3094864
-0.26139736 0.36862174 0.36539814 0.12267711 -0.29164478 0.29801556 0.16905111 -0.3224265
0.11868716 0.39378512 -0.2693427 0.031325903 0.11693696 -0.1466386 0.26871964 0.36305124
0.39740828 -0.36540034 0.022727242 0.33323967 0.34789798 -0.10546318 0.27014914 0.30441406
00000000: b5e3 a3be 718e 3c3b 5573 683e 8b29 db3d
00000010: 216e 313e 6e6a 4a3d 1421 eebb b434 bdbe
00000020: 56ba ba3e 3d2a ca3e a8d4 04bb 69aa 973d
00000030: c49b 9b3d 64b6 ce3e 1d1f 39ba abfa 89bd
00000040: aeb2 63be 3443 d83d b602 413e a194 b0be
00000050: 12b2 0e3e 4234 d03d ed1f 393e c1ac 433e
00000060: 7ce6 dabd 7a24 613d 184d 92be 1ef2 7b3e
00000070: 07b6 afbe 2c39 b7be be03 9bbe 368e 69be
00000080: f31a 893c ef03 893e ee8b 5dbd 63f1 953e
00000090: e27c 89bd 7863 b13e f66a 903e b029 843e
000000a0: 69f9 2a3e c2a2 8cbe dbd4 cc3e 0bef c6be
000000b0: a586 92be 77a0 7cbe d0a2 dcbd 8b91 353e
000000c0: 3587 ac3d 3abd b3be 8df7 c93e 0a55 c43e
000000d0: 837a 4e3e 079a ccbe 4e8a 693e 3f8e ee3d
000000e0: 40ba 4ebd ea1a afbe 8816 b13e cff0 f9bd
000000f0: f8d1 a8be 287c a13e 6e74 233e c1bf f63d
00000100: d43f 873e f9f0 113e c8f8 b5bd df00 92bd
00000110: c1a7 ac3e 3429 60bc 80bf aebe 5798 90be
00000120: e691 9dbe c39a 1e3d e6b0 983e cac5 793e
00000130: 1888 dc3d 0205 0b3e 4903 46be 66a4 c33e
00000140: b170 1f3e a3be 83be f33f 8bbe 7b42 bbbe
00000150: eede edbd 91e2 983e e159 c43c 1721 46be
00000160: 8cbc e83d dd16 91be 2221 f83d 7a94 8e3e
00000170: 68b8 4a3e 428b ffbd 31bd 0ebe bac0 2d3e
00000180: a74e 7a3e e6e2 ccbd ab89 72ba 5d98 3cbd
00000190: 5486 44bd 527d b9be 1169 acbe ed0c b33e
000001a0: bb9e 49be 5665 9a3e 5887 813e 8294 7fbd
000001b0: 5836 4abe 4014 5e3c 1bf0 90bd df06 78be
000001c0: 712c cb3e cd16 04bd 238b 80bd b5c3 8dbe
000001d0: eb5e 873d 2085 663d e8f7 cd3e 9365 01be
000001e0: 4a90 6b3e 25ad a43c 273d 5e3e 7050 f43b
000001f0: d58a 8fbd 382c 243e 2a35 3abe c055 7d3e
00000200: 9912 afbe 72d7 95be 5724 c73e 2288 1dbe
00000210: 6c33 a6be e6cc 98be 1e89 ca3e 6818 6bbd
00000220: b90a b0be 7146 72bd cc63 4bbe 660e 8cbe
00000230: 2f43 4cbe 1a79 9e3e 9bef 283e 2791 743e
00000240: 7e03 0a3d 58c6 2ebe 3b9e 2abe 5c49 8cbe
00000250: ae03 97be 5d38 b4be 56b6 933d 18ab 5b3e
00000260: 6ab9 aa3e 8cf1 24bc 076e 72bd e0c3 09bd
00000270: c3b5 243e 996e 84bd 60e4 12be e85f e6bd
00000280: 732f ccbe 2cf9 a0be 3a77 32be 043e 233d
00000290: ad21 83be b969 203e f553 64be 8a62 ca3e
000002a0: cdb9 b8be 311a 693e 3b0e 59be 693a 14be
000002b0: 4b2c c3be a5b8 c1be 16bf c5be b663 05bc
000002c0: 315f c03e 785f 3f3e d6b9 823e 8697 ba3d
000002d0: 4485 21be 4bcf 22be ca5d f8bd a449 c3be
000002e0: 22ca 653e bc88 f8bd f9fd 6cbe 88d3 ce3d
000002f0: ebf1 97b9 d90a 633e b909 89be a57e cf3e
00000300: 7e68 26be 83f4 1d3e ec21 be3e 2860 c2bc
00000310: 8ed3 b7be c162 cabe e9c7 cd3e e7da c3be
00000320: b562 1bbe 9669 8e3e a0bb a2be 5f2f c33e
00000330: ff64 223d 8e3f 023e 91cf 833d ed19 393d
00000340: 4aed 6a3e 84f5 b4be f393 b53d 66e4 3cbe
00000350: 14fa c53e 2937 ad3e ece8 23be 94c6 683e
00000360: fa5f 8ebd 3797 5c3e a77b ecbd 21a3 74be
00000370: e85f 303e 88fd 4e3e 9052 bc3e b32d 043e
00000380: 11db 3abe 0bff d43d 72d6 c63c b1af b53e
00000390: 9282 2b3e 0d48 b23e dc69 f83c 0075 9ebe
000003a0: e0d5 85be fdbb bc3e 7715 bb3e 233e fb3d
000003b0: 7752 95be 7f95 983e bc1b 2d3e 1615 a5be
000003c0: 4112 f33d 349e c93e 49e7 89be 974f 003d
000003d0: a57c ef3d 6e28 16be 9f95 893e dae1 b93e
000003e0: 1979 cb3e c115 bbbe 7b2e ba3c 649e aa3e
000003f0: af1f b23e 14fd d7bd fd50 8a3e 29dc 9b3e

experts.0.fc1.bias f4 [256]
0.14732486 -0.16780816 -0.35213584 -0.16878466 -0.4002102 0.08126949 0.030619565 0.37699533
-0.22482134 -0.2111358 0.09778076 -0.1075725 0.3178507 0.062104918 -0.00887063 -0.15710725
0.24666728 -0.19140041 0.16416325 0.26196164 -0.31993315 -0.36172214 -0.23052931 0.19619115
-0.22518699 0.03889099 0.0616402 0.086008936 -0.20817865 0.01397439 0.28289193 0.21132165
0.07768975 -0.32496995 0.1923702 -0.16226076 0.28571352 0.1692543 -0.07493641 0.1575167
-0.16946435 0.070466004 -0.020670572 0.006478258 0.14427508 0.3978825 -0.18019761 0.3983599
-0.07491733 0.38828865 0.091605395 0.032991663 -0.13623244 -0.21522121 -0.40147713 -0.22254159
-0.03625162 0.34375116 0.22122252 0.071180195 -0.39480802 0.28731495 0.28136024 -0.18355839
0.16564974 -0.33984855 -0.20610596 -0.12320044 -0.37047094 -0.024939984 0.08360142 0.11883136
0.38175106 0.23607408 -0.37322956 -0.12814368 0.22901824 -0.39183953 -0.025248094 0.15477939
-0.27344337 0.34989706 -0.2688475 -0.29917905 -0.30959803 -0.07151074 0.13602988 0.11789613
-0.20141608 0.3573663 -0.21907854 0.32033354 0.1368315 -0.13172889 0.30163375 0.13536529
-0.34712455 0.20736223 0.38579667 -0.30568165 -0.08606845 -0.32913557 0.27340624 0.21659862
0.29735103 0.11496297 -0.06761919 -0.04013482 -0.3041778 0.25908136 -0.16378437 0.04450408
0.013583983 0.12341443 -0.32764962 -0.06466344 0.18834218 -0.30176118 -0.1756783 -0.22449878
-0.34512365 0.39829287 0.35272044 0.25612357 -0.3388239 -0.0037259448 0.07496907 0.18109182
0.08222658 -0.2505341 0.01264398 -0.3304046 0.20503111 0.25715175 -0.14619365 -0.35704973
0.0034964615 0.2090089 -0.27885476 0.17205514 0.2846266 -0.33872446 0.22607408 0.18462943
-0.21039262 0.34263718 -0.19632843 0.31029192 -0.31262827 0.32171202 -0.091792025 -0.36032587
0.21775709 -0.03373896 0.115307674 0.18806756 0.043889724 0.1303923 -0.34409767 -0.36044818
-0.19170944 -0.21344598 -0.3851093 0.06404193 -0.03239085 -0.090209335 -0.019271104 0.19618165
-0.15149002 0.025490994 -0.03646666 0.19714059 -0.04373127 0.14634982 -0.1595455 0.31594637
0.06901365 0.06918308 0.19735429 -0.40725854 0.18039535 0.3276696 0.24479857 0.26480034
-0.32792953 0.3533565 0.0912764 -0.3982211 0.36911765 0.31804484 -0.06513118 0.4003279
0.02600462 0.32773778 -0.36088488 -0.380914 0.11404511 -0.0027536284 -0.3462563 -0.22891945
0.22883725 0.26025757 -0.30964014 -0.18281905 0.0023741703 -0.00082140154 -0.29923064 0.30221638
-0.28476247 0.2901307 -0.25250956 -0.40562043 0.10171659 -0.19529533 0.27522007 -0.13565214
0.03928159 0.3038854 -0.26514283 -0.1684945 0.27796692 0.34407762 0.07145663 0.31383935
0.24666509 0.23025069 -0.016394496 0.39415902 -0.12948154 0.02778851 -0.12293013 -0.030892538
0.24533643 0.30951354 0.060548376 0.2680795 0.2864708 0.19813202 -0.111258335 0.23819815
0.34298885 0.3377224 0.10578145 0.30128127 -0.28233308 0.07762517 -0.35867888 0.20920473
0.018741902 -0.060523525 0.26024926 -0.0621921 0.16698842 0.21994044 -0.20222132 -0.3539495
00000000: 54dc 163e e7d5 2bbe 264b b4be e3d5 2cbe
00000010: 5ae8 ccbe 9e70 a63d e2d5 fa3c 8805 c13e
00000020: 9137 66be fc33 58be 4741 c83d f94e dcbd
00000030: 54bd a23e ba61 7e3d 1e56 11bc b9e0 20be
00000040: 5996 7c3e 78fe 43be 691a 283e d61f 863e
00000050: 47ce a3be a533 b9be e00f 6cbe 55e6 483e
00000060: 6b97 66be 294c 1f3d 6f7a 7c3d 7425 b03d
00000070: c92c 55be d7f4 643c 36d7 903e b464 583e
00000080: ce1b 9f3d 7662 a6be b2fc 443e af27 26be
00000090: 0b49 923e 0051 2d3e 4378 99bd 0f4c 213e
000000a0: 1088 2dbe 7b50 903d 5555 a9bc 9147 d43b
000000b0: d9bc 133e 41b7 cb3e b985 38be d4f5 cb3e
000000c0: 426e 99bd c5cd c63e 9c9b bb3d 4422 073d
000000d0: 8480 0bbe f362 5cbe 698e cdbe f1e1 63be
000000e0: 947c 14bd 2700 b03e 2888 623e ecc6 913d
000000f0: 4724 cabe f21a 933e 730e 903e bbf6 3bbe
00000100: 16a0 293e a100 aebe 710d 53be 8350 fcbd
00000110: 5eae bdbe f04e ccbc 3937 ab3d db5d f33d
00000120: e074 c33e 67bd 713e f217 bfbe 1938 03be
00000130: c283 6a3e 319f c8be 17d5 cebc 7d7e 1e3e
00000140: c500 8cbe b525 b33e 61a6 89be ff2d 99be
00000150: a283 9ebe 3974 92bd 6b4b 0b3e 8773 f13d
00000160: 0440 4ebe b7f8 b63e 2056 60be c202 a43e
00000170: 8f1d 0c3e f0e3 06be bd6f 9a3e 339d 0a3e
00000180: 4fba b1be c456 543e 2487 c53e 4e82 9cbe
00000190: a844 b0bd 7584 a8be e7fb 8b3e 07cc 5d3e
000001a0: 653e 983e b571 eb3d ee7b 8abd 6964 24bd
000001b0: 31bd 9bbe 50a6 843e 17b7 27be e949 363d
000001c0: 5b8f 5e3c b4c0 fc3d b1c1 a7be 446e 84bd
000001d0: c6dc 403e 7180 9abe 03e5 33be 02e3 65be
000001e0: 0cb4 b0be 0bed cb3e c697 b43e a122 833e
000001f0: 547a adbe fb2e 74bb 6289 993d 2270 393e
00000200: 6966 a83d 0146 80be b228 4f3c cb2a a9be
00000210: adf3 513e 65a9 833e cab3 15be 39cf b6be
00000220: e424 653b 6e06 563e 0dc6 8ebe 392f 303e
00000230: 94ba 913e 4b6d adbe f77f 673e 7f0f 3d3e
00000240: 2a71 57be 246e af3e 520a 49be 95de 9e3e
00000250: d010 a0be 70b7 a43e 75fd bbbd a27c b8be
00000260: b7fb 5e3e dd31 0abd 6e26 ec3d c894 403e
00000270: b6c5 333d 8f85 053e 922d b0be aa8c b8be
00000280: 7b4f 44be 9591 5abe 0c2d c5be 6a28 833d
00000290: 45ac 04bd acbf b8bd 6fde 9dbc d8e3 483e
000002a0: 3320 1bbe 7dd2 d03c 115e 15bd 39df 493e
000002b0: 8f1f 33bd badc 153e e55f 23be b9c3 a13e
000002c0: 0757 8d3d dcaf 8d3d 3e17 4a3e 3184 d0be
000002d0: 8fb9 383e 4fc4 a73e 7aac 7a3e e993 873e
000002e0: 61e6 a7be 25eb b43e 1fef ba3d a3e3 cbbe
000002f0: fdfc bc3e c6d6 a23e 7f63 85bd c7f7 cc3e
00000300: a407 d53c 3fcd a73e e7c5 b8be 2907 c3be
00000310: 7c90 e93d 3876 34bb 8148 b1be dc69 6abe
00000320: 5054 6a3e 7b40 853e 2789 9ebe eb34 3bbe
00000330: f897 1b3b 5353 57ba c234 99be 1bbc 9a3e
00000340: 63cc 91be 038c 943e ef48 81be 7bad cfbe
00000350: ca50 d03d 80fb 47be a5e9 8c3e 65e8 0abe
00000360: bce5 203d de96 9b3e cdc0 87be d289 2cbe
00000370: ae51 8e3e f12a b03e db57 923d 8daf a03e
00000380: c695 7c3e d6c6 6b3e c04d 86bc 36cf c93e
00000390: cf96 04be bba4 e33c cbc2 fbbd 5912 fdbc
000003a0: 7939 7b3e 8f78 9e3e 9301 783d b741 893e
000003b0: 4dac 923e 1fe3 4a3e 69db e3bd 37ea 733e
000003c0: 3c9c af3e f3e9 ac3e f2a3 d83d 8a41 9a3e
000003d0: f68d 90be f2f9 9e3d c2a4 b7be c439 563e
000003e0: 9e88 993c 84e7 77bd 643f 853e 25bd 7ebd
000003f0: 03ff 2a3e 1138 613e 1b13 4fbe de38 b5be

experts.0.fc2.weight f4 [256, 256]
0.005281784 -0.038519703 -0.03514691 0.029133067 0.014551597 -0.014189949 -0.023022085 -0.046220273
-0.027007997 0.00400611 -0.0368132 -0.057042167 -0.060852528 -0.058939792 -0.028749295 0.017054012
-0.028580949 0.04098881 0.034204908 -0.04920101 0.015087457 -0.026917271 0.05213531 0.047059253
0.028666802 -0.031599507 0.009037405 -0.039704695 0.009357728 0.061485946 -0.012050942 -0.03624261
-0.030166073 -0.039091527 0.03136088 -0.03716383 0.04374809 0.03618767 0.037600264 -0.0032975383
-0.01334743 0.022640698 -0.009636058 0.025117315 0.014182782 0.02143582 -0.026716813 0.038447928
-0.011987664 0.035513856 -0.0035555924 -0.06172458 -0.005625121 -0.020115614 -0.030987836 -0.0027454204
-0.024179563 0.0045966436 -0.018752493 -0.038778707 0.02264437 -0.051486105 -0.048095096 -0.009972315
-0.005742192 -0.058763556 0.031461246 0.005157955 0.02605614 -0.0006167665 -0.01364176 -0.021994725
-0.005882479 -0.04941739 0.027147904 0.017764553 0.04439728 -0.058385596 -0.006510511 -0.02420991
0.0016421656 0.009243147 -0.009013608 -0.0053735073 -0.010619229 0.015202187 -0.03446515 -0.0075429673
0.030591518 0.041782536 0.007290326 -0.0068655238 0.010771344 0.028774232 0.011797157 -0.036369734
-0.04925105 0.029296754 -0.027169086 0.023106001 -0.053701915 0.033881135 0.025976762 -0.012333646
-0.047555953 -0.007356621 0.03509306 0.046930723 -0.0023156032 -0.0051721036 0.05126989 0.010590555
0.0593831 0.056541316 -0.04088351 -0.044064507 -0.020744734 -0.0095567405 0.05628682 -0.04671052
0.02757512 0.047657788 0.003928989 -0.052704 -0.04718469 0.009294495 0.018083416 0.014518924
0.038891368 0.039855182 -0.054760806 0.029493675 0.03851901 -0.031565554 -0.038694564 -0.056424834
-0.061365873 0.032355472 0.017468013 -0.03425072 -0.05617152 -0.058401823 0.05640801 0.02057039
0.010518217 -0.0051671714 0.025513798 0.0067734793 0.026680522 0.015646309 -0.03219863 -0.029512562
0.016161524 0.015536897 0.044128373 -0.04623147 0.030058376 -0.05733329 0.005354956 -0.050524414
-0.030740686 -0.035723925 0.0560605 0.055327132 -0.027719028 -0.0029211722 -0.052679718 -0.051207013
-0.03164397 0.0057802727 -0.056259647 -0.013009399 0.0089118695 0.00040346902 -0.0016775867 0.010947416
0.06152115 -0.053106133 -0.045389757 0.0329654 0.019143999 0.052804828 0.049443267 -0.046719342
-0.014196292 -0.056277536 0.025189586 0.03700278 -0.049877763 -0.034323625 0.033383004 0.015226625
-0.03936977 -0.00061036856 -0.04154309 0.023934767 0.011276061 0.016673744 -0.0032498247 0.0033982396
-0.046358295 0.058342665 -0.002557166 0.0014437939 0.005648814 -0.05908916 0.016197449 0.05350341
0.036061533 0.008399605 0.01814437 0.011104524 0.00016075373 0.027368486 0.020587906 0.019998401
-0.037987866 -0.007614523 0.038967796 0.040842794 -0.03518735 0.020099178 -0.04200317 0.016288482
0.021391727 -0.037408315 0.04609187 0.044625968 0.04458636 0.01713974 0.025423229 -0.0014520084
-0.033106543 0.019034207 -0.026743796 0.015821062 -0.032375805 -0.026768066 -0.04923612 -0.016852796
0.037403166 0.019431308 -0.005057335 0.039669678 0.044307448 -0.027068652 -0.046257593 0.04842933
-0.056688868 -0.048705053 -0.05126904 -0.040598683 -0.042592883 0.0015941466 -0.027679749 0.047799647
00000000: d112 ad3b d6c6 1dbd 35f6 0fbd 78a8 ee3c
00000010: d269 6e3c f67c 68bc d098 bcbc 7851 3dbd
00000020: e03f ddbc b045 833b 70c9 16bd 0ca5 69bd
00000030: 8040 79bd da6a 71bd a483 ebbc dbb4 8b3c
00000040: 9822 eabc e2e3 273d 721a 0c3d 0087 49bd
00000050: 6231 773c 9c81 dcbc d68b 553d 34c1 403d
00000060: a4d6 ea3c 7c6e 01bd a011 143c 64a1 22bd
00000070: 2851 193c b0d8 7b3d 5071 45bc 2273 14bd
00000080: d71e f7bc 701e 20bd 4474 003d 1a39 18bd
00000090: 3231 333d 8639 143d bc02 1a3d 831b 58bb
000000a0: 2eaf 5abc fc78 b93c 8ee0 1dbc d4c2 cd3c
000000b0: e65e 683c 2c9a af3c 38dd dabc 937b 1d3d
000000c0: e867 44bc fa76 113d f104 69bb ead2 7cbd
000000d0: ef52 b8bb 80c9 a4bc 34da fdbc 83ec 33bb
000000e0: 3814 c6bc 719f 963b d49e 99bc 6cd6 1ebd
000000f0: b080 b93c 18e3 52bd 5dff 44bd ec62 23bc
00000100: ff28 bcbb 0eb2 70bd 82dd 003d 1004 a93b
00000110: b073 d53c 80ae 21ba b081 5fbc 482e b4bc
00000120: cfc1 c0bb e469 4abd 4865 de3c f886 913c
00000130: ecd9 353d bc25 6fbd 2056 d5bb dc53 c6bc
00000140: ef3d d73a 9270 173c d0ad 13bc 3f14 b0bb
00000150: 46fc 2dbc 9812 793c 542b 0dbd ff2a f7bb
00000160: 109b fa3c 2a24 2b3d b0e3 ee3b 30f8 e0bb
00000170: 4b7a 303c f0b7 eb3c dd48 413c 6ef8 14bd
00000180: 78bb 49bd bfff ef3c b491 debc cc48 bd3c
00000190: 8af6 5bbd f2c6 0a3d 38cd d43c 1013 4abc
000001a0: 08ca 42bd cf0f f1bb bebd 0f3d 6e3a 403d
000001b0: 60c1 17bb c07a a9bb 6000 523d 0284 2d3c
000001c0: b23b 733d de97 673d 7875 27bd fc7c 34bd
000001d0: dcf0 a9bc e093 1cbc 028d 663d 8853 3fbd
000001e0: 38e5 e13c d034 433d c0be 803b 26e0 57bd
000001f0: bc44 41bd f047 183c ac23 943c c8e0 6d3c
00000200: 8e4c 1f3d 303f 233d de4c 60bd b89c f13c
00000210: 1cc6 1d3d e24a 01bd 317e 1ebd ba1d 67bd
00000220: c85a 7bbd 2c87 043d 1419 8f3c 7c4a 0cbd
00000230: 1c14 66bd c036 6fbd 160c 673d 3c83 a83c
00000240: 9a54 2c3c 6051 a9bb 5002 d13c 10f4 dd3b
00000250: 1c91 da3c b02c 803c b6e2 03bd 54c4 f1bc
00000260: 2c65 843c 788e 7e3c f4bf 343d 365d 3dbd
00000270: fc3c f63c 50d6 6abd a078 af3b b0f2 4ebd
00000280: e4d3 fbbc 4053 12bd b29f 653d b49e 623d
00000290: 0413 e3bc 2371 3fbb b0c6 57bd 72be 51bd
000002a0: 1c9d 01bd 7168 bd3b 8470 66bd 6025 55bc
000002b0: 1703 123c b288 d339 78e2 dbba ca5c 333c
000002c0: 9afd 7b3d d185 59bd 9cea 39bd ba06 073d
000002d0: e0d3 9c3c e049 583d 0685 4a3d c85c 3fbd
000002e0: 9097 68bc 4683 66bd 645a ce3c 3a90 173d
000002f0: a04c 4cbd ee96 0cbd 9ebc 083d 1879 793c
00000300: 3242 21bd 2401 20ba 1629 2abd d812 c43c
00000310: 3abf 383c 6097 883c 03fb 54bb 00b5 5e3b
00000320: 32e2 3dbd b8f8 6e3d 2096 27bb af3d bd3a
00000330: b019 b93b 7a07 72bd 83b0 843c 6426 5b3d
00000340: 42b5 133d 7f9e 093c 80a3 943c c0ef 353c
00000350: 0090 2839 e033 e03c f8a7 a83c b0d3 a33c
00000360: 2a99 1bbd 4083 f9bb b29c 1f3d c64a 273d
00000370: 9c20 10bd 08a7 a43c 840b 2cbd 6c6f 853c
00000380: b43d af3c 7639 19bd d4ca 3c3d b8c9 363d
00000390: 30a0 363d a468 8c3c 6044 d03c 5151 beba
000003a0: ba9a 07bd a0ed 9b3c ce15 dbbc 2c9b 813c
000003b0: 7e9c 04bd b448 dbbc d0ab 49bd e00e 8abc
000003c0: 1034 193d 682e 9f3c 00b8 a5bb ac7c 223d
000003d0: ba7b 353d 14bf ddbc 9a78 3dbd d55d 463d
000003e0: 9632 68bd f37e 47bd 7cff 51bd ce4a 26bd
000003f0: e075 2ebd aff2 d03a a4c0 e2bc 90c9 433d

experts.0.fc2.bias f4 [256]
-0.004538029 -0.0010772365 0.05437325 -0.053472362 0.0072260797 -0.0014839321 -0.0072897077 -0.03306403
0.016136428 0.054045796 0.003382504 -0.041662253 -0.04403846 -0.04093714 -0.024889767 -0.042748883
-0.01527073 0.02198413 -0.048992462 -0.046568662 -0.025727853 0.050265655 -0.0027053796 0.03053388
-0.018800274 0.061565764 -0.051208682 -0.053933367 0.061257206 0.0069388673 0.037802987 -0.004009776
-0.056154545 0.043535307 -0.0041882987 0.061482802 -0.018842146 0.041513167 -0.03564287 0.049412906
-0.020444721 -0.031113252 0.044875503 -0.04262405 -0.0037874049 -0.0195859 -0.03645984 0.019928053
-0.00013056397 -0.010781735 0.031612284 0.048189625 0.052990913 0.00944793 0.0057109226 -0.0109168645
-0.0077172583 -0.050785713 -0.02305939 0.057495147 -0.0355794 0.027332366 0.056825258 -0.044558503
-0.010441497 0.014670931 0.016397335 -0.020368129 -0.03430082 -0.05837787 0.053980827 -0.026387364
-0.056616418 0.032133557 0.016086407 0.060763747 0.033617318 0.035617 0.044635605 -0.05040653
-0.056018528 -0.0035633154 0.012157224 0.061429888 0.024360016 -0.04608634 0.057455905 -0.014595665
-0.033597477 -0.058376804 -0.03677161 0.030857027 0.02944792 -0.0010833199 -0.053670995 -0.006047987
0.055101886 -0.03488808 0.05344683 0.03340826 0.0134305265 -0.024395615 0.020517863 -0.050978564
-0.038425803 0.048395395 -0.01505809 0.045465387 -0.013062933 0.050246716 -0.007626152 0.011010744
0.028144404 -0.044679843 0.023329534 0.018189356 0.05473843 0.049426936 0.027647048 0.0018410851
0.01215186 0.0073166643 0.032236036 -0.036168315 0.028495394 0.038702004 -0.0064679235 -0.055382073
-0.012660323 0.005966023 0.019096024 0.028289557 0.03409169 -0.0057528005 0.053772084 -0.014369942
-0.04090192 0.003422308 0.061873637 0.009608151 0.04992037 -0.051711895 0.02284073 0.05621592
0.050329648 -0.052939747 0.004855163 0.031948414 -0.05807863 0.04178605 -0.04945238 -0.044204444
0.02439969 0.023585267 0.020279206 0.012422999 -0.05895172 0.018803962 0.031544767 -0.0044322833
0.010630505 -0.030682012 -0.043167427 0.029746711 0.024008552 -0.034569643 0.04721102 -0.04142978
-0.019567437 0.04150609 -0.026165172 0.015026353 0.03948196 -0.042218536 0.00884057 0.05431409
0.04696779 0.035921387 -0.048468105 0.026536055 -0.056749232 -0.0056562726 -0.017295413 0.038580768
-0.04357867 0.00745999 0.03757053 0.01666911 -0.035545945 -0.017821409 -0.0010052696 0.042893216
-0.051718533 0.0035434337 -0.052600004 0.028651316 0.01726126 -0.003070966 0.047922976 0.0040726513
-0.036337107 -0.019001462 -0.048831537 0.008192448 0.029705845 0.04325237 0.038517937 0.03253356
0.020892061 0.0146409795 0.0031330518 -0.04991906 -0.016429603 0.058214515 -0.054077417 -0.03248612
0.025813796 0.057208866 0.007077358 0.010816714 -0.053969234 0.053304985 -0.056779377 -0.014863325
-0.0030574948 -0.026376642 -0.018126197 -0.04014256 0.045842834 -0.026618155 -0.018144436 -0.061940067
-0.041765615 -0.015417827 0.0075806826 -0.021401607 0.03278155 0.048505932 -0.061449505 -0.036074985
-0.04369103 -0.046120554 0.026266798 0.004567501 -0.012169911 0.04598868 -0.06188129 -0.044907294
0.03889399 0.0052951286 0.03392151 0.007006489 -0.0048402925 -0.037593506 0.0009605311 -0.036248434
00000000: bfb3 94bb 0f32 8dba 7cb6 5e3d d605 5bbd
00000010: c0c8 ec3b 8080 c2ba 80de eebb 266e 07bd
00000020: 8b30 843c 205f 5d3d 00ad 5d3b 0aa6 2abd
00000030: ac61 34bd b4ad 27bd a0e5 cbbc 7419 2fbd
00000040: 1532 7abc 1018 b43c 52ac 48bd c8be 3ebd
00000050: 38c3 d2bc 5ce3 4d3d bd4c 31bb 3022 fa3c
00000060: 0803 9abc 622c 7c3d 32c0 51bd 3ce9 5cbd
00000070: d6e8 7a3d 705f e33b 4ed7 1a3d 7064 83bb
00000080: 4f02 66bd 1452 323d ff3d 89bb 64d5 7b3d
00000090: d85a 9abc b609 2a3d 42fe 11bd 3065 4a3d
000000a0: b07b a7bc 38e1 febc 60cf 373d 8e96 2ebd
000000b0: 1c36 78bb 9c72 a0bc ea56 15bd 2840 a33c
000000c0: 00e8 08b9 e0a5 30bc e27b 013d 7c62 453d
000000d0: 000d 593d 7ecb 1a3c b122 bb3b a6dc 32bc
000000e0: 0ee1 fcbb ae04 50bd 0ce7 bcbc 0880 6b3d
000000f0: b4bb 11bd 20e8 df3c 9ac1 683d fa82 36bd
00000100: d012 2bbc 585e 703c b453 863c 10db a6bc
00000110: 047f 0cbd a21d 6fbd 001b 5d3d 502a d8bc
00000120: 9ee6 67bd 7a9e 033d a4c7 833c 68e3 783d
00000130: 50b2 093d 22e3 113d d3d3 363d 1477 4ebd
00000140: af73 65bd 8386 69bb 182f 473c e89d 7b3d
00000150: a88e c73c 08c5 3cbd e256 6b3d a822 6fbc
00000160: 829d 09bd 841c 6fbd d49d 16bd e0c7 fc3c
00000170: c43c f13c 2ffe 8dba 1ed6 5bbd 312e c6bb
00000180: 84b2 613d cee6 0ebd 10eb 5a3d 1ad7 083d
00000190: b60b 5c3c 50d9 c7bc 1415 a83c e6ce 50bd
000001a0: 6064 1dbd 403a 463d 35b6 76bc ea39 3a3d
000001b0: ea05 56bc 80cf 4d3d cde4 f9bb 6866 343c
000001c0: 188f e63c 3602 37bd 941d bf3c d801 953c
000001d0: 6735 603d e673 4a3d 107c e23c 9150 f13a
000001e0: 9818 473c a1c0 ef3b ef09 043d 3a25 14bd
000001f0: 2c6f e93c fe85 1e3d e0f0 d3bb 50d8 62bd
00000200: 3e6d 4fbc a17e c33b 446f 9c3c 80bf e73c
00000210: baa3 0b3d fd81 bcbb 1e40 5c3d e86f 6bbc
00000220: c688 27bd cd48 603b 366f 7d3d 826b 1d3c
00000230: 4d79 4c3d dacf 53bd 7c1c bb3c aa42 663d
00000240: 7626 4e3d 59d7 58bd 0f18 9f3b 57dc 023d
00000250: dce3 6dbd d927 2b3d 948e 4abd b80f 35bd
00000260: dce1 c73c e435 c13c 9420 a63c d689 4b3c
00000270: 5c77 71bd c40a 9a3c 1635 013d b03c 91bb
00000280: 922b 2e3c d858 fbbc 54d0 30bd 60af f33c
00000290: 95ad c43c e698 0dbd 5860 413d 46b2 29bd
000002a0: e44b a0bc 4a02 2a3d 5858 d6bc 1831 763c
000002b0: d6b7 213d 58ed 2cbd 0ad8 103c 7478 5e3d
000002c0: 4c61 403d 4e22 133d 7e86 46bd 2462 d93c
000002d0: e271 68bd 4158 b9bb 1caf 8dbc de06 1e3d
000002e0: 8c7f 32bd ef72 f43b 8ee3 193d a88d 883c
000002f0: a098 11bd 34fe 91bc 40c3 83ba ccb0 2f3d
00000300: d0d6 53bd f438 683b 1a73 57bd 2ab6 ea3c
00000310: 7c67 8d3c 4342 49bb e24a 443d e073 853b
00000320: 38d6 14bd f4a8 9bbc 9403 48bd 9e39 063c
00000330: ac59 f33c 6629 313d fcc4 1d3d e941 053d
00000340: d425 ab3c b8e0 6f3c e353 4d3b ee77 4cbd
00000350: 6097 86bc 5872 6e3d 4880 5dbd 2a10 05bd
00000360: 7477 d33c d853 6a3d 2fe9 e73b 9638 313c
00000370: d80e 5dbd 5456 5a3d 7e91 68bd 4e85 73bc
00000380: 4060 48bb d413 d8bc 647d 94bc 866c 24bd
00000390: b2c5 3b3d 510e dabc a4a3 94bc deb4 7dbd
000003a0: 6c12 2bbd 0e9b 7cbc 6067 f83b 6c52 afbc
000003b0: f245 063d 28ae 463d 7ab2 7bbd 5dc3 13bd
000003c0: 5ef5 32bd e8e8 3cbd 782d d73c faaa 953b
000003d0: 4e64 47bc a05e 3c3d 3c77 7dbd b6f0 37bd
000003e0: 4e4f 1f3d c282 ad3b 48f1 0a3d b196 e53b
000003f0: 519b 9ebb a6fb 19bd 27cc 7b3a 3d79 14bd
