outputs/fix_demand_rule/A2C_router/summer20251105-025943/models/policyA_actor.pth (torch, 278792 bytes, 8 tensors)

fc1.weight f4 [256, 5]
0	0x3ead53e9	0.3385308
1	0x3ebb6153	0.3659769
2	0xbded41c5	-0.1158481
3	0x3ed188ac	0.40924585
4	0xbdd28520	-0.10279298
5	0x3daa74d3	0.08323064
6	0xbe70938d	-0.23493786
7	0x3e7c2eaf	0.24627183
8	0x3ec9719a	0.39344484
9	0xbeb54e34	-0.35411227
10	0x3ecb4e9c	0.39708412
11	0x3dc863a2	0.097846285
12	0x3eafc4df	0.34329888
13	0x3d72bc17	0.059261408
14	0x3e6a9163	0.22907023
15	0xbd8c52e6	-0.06851749
16	0x3eb63040	0.35583687
17	0x3d9d6191	0.07684625
18	0xbe4a57b7	-0.19760023
19	0x3e0013a4	0.12507492
20	0xbe4b36f7	-0.19845186
21	0xbd4eb876	-0.050468884
22	0xbe268034	-0.16259843
23	0x3e97b514	0.2963034
24	0xbeaf2779	-0.34209803
25	0xbe539bd7	-0.20664917
26	0xbe1a4e8b	-0.15069024
27	0xbe942da1	-0.28941062
28	0x3d2a40c8	0.041565686
29	0xbeed6a65	-0.46370235
30	0x3ecb91bc	0.39759624
31	0xbebc0520	-0.3672266
32	0x3eb554f6	0.35416383
33	0x3d9a435c	0.07532379
34	0xbe079368	-0.13239825
35	0x3e886790	0.26641512
36	0x3d85d5de	0.065349326
37	0x3eb2f4dc	0.34952438
38	0x3d4480b0	0.04797429
39	0xbe150e3a	-0.14556208
40	0x3df10acd	0.11769638
41	0xbdfa1737	-0.12211459
42	0x3e423436	0.1896523
43	0x3ecd282c	0.4006971
44	0x3e84d5e7	0.25944445
45	0xbe4eb52e	-0.20186302
46	0x3e8afaa6	0.27144355
47	0x3da051e7	0.07828122
48	0x3e68d783	0.22738461
49	0xbe8661aa	-0.26246387
50	0xbee120a2	-0.4397021
51	0xbe33056c	-0.17482537
52	0xbeb3f797	-0.35149834
53	0x3ebb7351	0.36611417
54	0x3de5e682	0.112256065
55	0x3e407d2e	0.18797752
56	0x3e28b672	0.16475847
57	0x3c3f43cd	0.01167388
58	0x3eb358ed	0.35028782
59	0xbe972b52	-0.29525238
60	0x3ce6ac18	0.028158233
61	0xbe9c4895	-0.30524126
62	0x3e0d3573	0.1378992
63	0xbe1db570	-0.15401244
64	0x3e0c5284	0.13703352
65	0xbdbed18f	-0.09317314
66	0x3ebde89c	0.3709153
67	0xbe87b684	-0.26506436
68	0xbe888f2b	-0.26671728
69	0xbe889147	-0.26673338
70	0x3ecdf2cd	0.40224305
71	0x3e189c7b	0.14903443
72	0x3edc546c	0.4303316
73	0xbebcf75e	-0.36907476
74	0xbee31cfb	-0.44358048
75	0xbeb00052	-0.34375244
76	0xbe92eb7f	-0.28695294
77	0x3e54b5a2	0.20772412
78	0x3e249143	0.16071038
79	0x3ecb66fc	0.39727008
80	0xbe6c7ecc	-0.23095244
81	0xbe9c1806	-0.30487078
82	0x3e72f9fd	0.23728175
83	0xbe391aa7	-0.18076573
84	0x3e8af82a	0.2714246
85	0xbdd95793	-0.106124066
86	0x3e82fbb8	0.2558267
87	0xbeb1e7ac	-0.34747064
88	0xbe671a4b	-0.22568624
89	0x3e0b9dff	0.1363449
90	0x3dc9c3e4	0.09851816
91	0xbdea35c1	-0.11436034
92	0x3e8f52e8	0.2799294
93	0x3e9b794f	0.3036599
94	0xbea4b574	-0.32169688
95	0xbe747bb2	-0.23875311
96	0x3ed1a985	0.40949646
97	0xbe1a86af	-0.1509044
98	0xbe225980	-0.15854454
99	0xbedd8dab	-0.43272147
100	0xbe832050	-0.2561059
101	0x3de4cb25	0.11171559
102	0xbd71c88b	-0.059029143
103	0xbea63564	-0.3246261
104	0x3c2bdee3	0.010490152
105	0xbe9c6850	-0.30548334
106	0xbec2429f	-0.37941453
107	0xbe7c2c95	-0.24626382
108	0xbec86677	-0.39140674
109	0xbe91cbca	-0.2847579
110	0x3ee4e241	0.44703868
111	0x3dacfd45	0.08446745
112	0x3e0d1ee8	0.13781321
113	0xbed58f53	-0.4171091
114	0xbe96623a	-0.29371816
115	0xbe186e24	-0.14885765
116	0x3d8f3823	0.06993129
117	0xbec97a82	-0.3935128
118	0xbe455120	-0.19269228
119	0xbe891443	-0.2677327
120	0x3aa2717f	0.0012393444
121	0xbe2a6748	-0.16640961
122	0xbcfddec2	-0.030990008
123	0xbe9b28be	-0.3030452
124	0xbe9d2a8d	-0.30696526
125	0xbe84e2d7	-0.25954315
126	0xbe049b40	-0.12949848
127	0xbead1dca	-0.3381179
128	0x3ec08815	0.37603822
129	0xbd889bb3	-0.06670322
130	0x3eca2cdb	0.39487347
131	0x3e2a9483	0.16658215
132	0xbeb55bb1	-0.35421517
133	0x3e9f42e3	0.31105718
134	0xbdc23ede	-0.09484647
135	0xbe23b58b	-0.15987222
136	0xbeba7765	-0.36419216
137	0xbed8ef32	-0.42369992
138	0x3e03ee2e	0.12883827
139	0xbda73ac9	-0.08165509
140	0x3e324a0c	0.17411059
141	0xbebbe8fa	-0.36701185
142	0x3ea9ff1a	0.3320244
143	0xbea81429	-0.3282788
144	0xbd9e267f	-0.07722186
145	0x3dd446ad	0.10365043
146	0x3e7c6951	0.2464955
147	0x3ebdfb60	0.37105846
148	0x3ed0f9cd	0.40815583
149	0xbeae5f11	-0.34056905
150	0x3de6801a	0.11254902
151	0xbe44f98a	-0.19235817
152	0xbd48bc6b	-0.049007814
153	0xbeab6261	-0.33473495
154	0x3ed08ff7	0.40734836
155	0xbea800b1	-0.32813028
156	0x3e829559	0.25504568
157	0x3e2c9f2b	0.16857593
158	0x3e1474e8	0.14497721
159	0xbe698d00	-0.22807693
160	0x3ed0202d	0.40649548
161	0x3dc94499	0.09827537
162	0x3d6ba423	0.05752958
163	0xbec9c8ac	-0.39410913
164	0x3e403da2	0.18773511
165	0xbd90e0ca	-0.07074125
166	0xbe519714	-0.20467788
167	0x3ecb1261	0.3966246
168	0x3dcca7e6	0.099929616
169	0xbe7560af	-0.23962663
170	0xbe67c8df	-0.2263522
171	0xbcaef4e3	-0.021357005
172	0x3e7fb321	0.24970676
173	0xbdea0ab0	-0.1142782
174	0xbe82a57e	-0.25516886
175	0xbe2159ad	-0.15756865
176	0xbeac44b1	-0.33646157
177	0x3e12b782	0.14327815
178	0x3eb17095	0.34656206
179	0xbed97089	-0.4246867
180	0x3dc71a92	0.09721865
181	0x3e736028	0.2376715
182	0x3d98f1a5	0.07467965
183	0xbe1f43b8	-0.15553176
184	0x3e6f566a	0.23372808
185	0x3e83d493	0.2574812
186	0x3e411ee5	0.18859442
187	0xbd693303	-0.056933414
188	0xbdd63399	-0.1045906
189	0x3d8eabbe	0.06966351
190	0xbd9c42ec	-0.07629952
191	0xbe093157	-0.13397728
192	0x3e96f833	0.29486236
193	0x3ec47063	0.38366994
194	0xbcf4dc6d	-0.029890263
195	0xbdc68870	-0.09693992
196	0x3c0dbaf5	0.008650531
197	0xbc4fcc32	-0.012682961
198	0x3dddd74b	0.108320795
199	0x3e0cbafc	0.13743204
200	0xbecf44c3	-0.4048215
201	0xbe2b61b5	-0.16736491
202	0x3ec26a83	0.37971887
203	0x3e31915c	0.17340606
204	0xbc484430	-0.012223288
205	0xbe8a0ca2	-0.26962763
206	0xbe8c164a	-0.27360755
207	0xbecd1b54	-0.40059912
208	0xbe1545ff	-0.14577483
209	0x3e1aa689	0.1510259
210	0x3e924b25	0.28572956
211	0x3e5402f9	0.20704259
212	0xbeca1c6d	-0.39474812
213	0xbe8967e1	-0.26837066
214	0xbd8f6275	-0.07001201
215	0x3edad5e0	0.427413
216	0x3d7008ac	0.05860202
217	0xbdfcb9fb	-0.123401605
218	0x3e3dd6c1	0.18538953
219	0xbe3744da	-0.17897359
220	0xbe94344d	-0.28946152
221	0x3ea71fef	0.3264155
222	0xbe503aac	-0.20334882
223	0xbdb79b2f	-0.08965146
224	0xbee3c89f	-0.44489
225	0x3e993ec2	0.29930693
226	0x3ead7a68	0.3388245
227	0x3e26e5da	0.16298619
228	0xbe9fa83f	-0.3118305
229	0xbee1fba2	-0.44137293
230	0xbeb75dd8	-0.35813785
231	0x3eb68596	0.35648793
232	0x3e6a9e90	0.2291205
233	0x3ec0f8d0	0.3768983
234	0x3e83822d	0.25685254
235	0x3de7ce32	0.113186255
236	0xbb8f8141	-0.004379422
237	0xbeae22b8	-0.34010863
238	0xbec42d92	-0.38316017
239	0xbed62b80	-0.41830063
240	0x3e3b7749	0.18307222
241	0xbe60d651	-0.21956755
242	0xbdb8536f	-0.09000289
243	0xbe83c67f	-0.25737378
244	0xbda6e5b9	-0.08149285
245	0xbe9b3d33	-0.3032013
246	0xbe941a7e	-0.28926462
247	0x3e3d954b	0.18513982
248	0xbdcfcaf3	-0.10146131
249	0x3e9fca94	0.31209242
250	0xbe12e9cf	-0.14347003
251	0xbea7f7a5	-0.32806125
252	0xbda19969	-0.07890589
253	0xbe5dfd0d	-0.21678562
254	0xbe0c1ade	-0.13682124
255	0xbed5bacb	-0.41744074

fc1.bias f4 [256]
0	0xbeb106b4	-0.34575427
1	0xbe0e255a	-0.13881436
2	0xbcf3715e	-0.029717144
3	0xbe735faa	-0.23766962
4	0xbe9e295a	-0.30890924
5	0x3e8e2097	0.2775924
6	0x3ea1635d	0.3152112
7	0xbed6c7bf	-0.4194927
8	0x3e16ebac	0.14738339
9	0x3e464ed9	0.19366015
10	0x3ed05f91	0.4069791
11	0x3e909bc1	0.2824383
12	0x3ed280ec	0.41113985
13	0xbe15ed53	-0.14641313
14	0x3ea05ead	0.31322232
15	0x3ec7d76c	0.3903154
16	0xbed839d9	-0.42231634
17	0xbeb7cc67	-0.35898134
18	0x3dde62ab	0.10858663
19	0x3e7a0e64	0.24419552
20	0xbe638390	-0.22218156
21	0x3d49be2f	0.04925364
22	0xba2a3156	-0.0006492337
23	0x3de7d1d5	0.11319319
24	0xbe7613d5	-0.24031003
25	0x3e8d030c	0.27541387
26	0x3ea73636	0.32658547
27	0xbe933d35	-0.28757635
28	0x3b8df65d	0.0043323473
29	0x3c6918b9	0.014227086
30	0x3e130dcc	0.14360732
31	0x3edb56b7	0.42839596
32	0x3e064c8d	0.1311514
33	0xbdb0278e	-0.086012945
34	0x3ecda605	0.40165725
35	0xbe45285c	-0.19253677
36	0xbe012c55	-0.12614568
37	0x3d566840	0.052345514
38	0xbea6e9c1	-0.32600215
39	0x3d8b1591	0.06791223
40	0xbe95a2e2	-0.29225832
41	0x3d3c5872	0.045982786
42	0x3d31d0e5	0.043412108
43	0x3d49c8f4	0.04926391
44	0xbec1179c	-0.37713325
45	0xbed979ad	-0.42475644
46	0x3e6b34a3	0.22969298
47	0x3ec45ddb	0.38352856
48	0xbecb2f44	-0.39684498
49	0x3e502ee6	0.2033039
50	0xbea88d5e	-0.32920355
51	0x3d515281	0.051104072
52	0x3ed2b21c	0.41151512
53	0x3eb3d6ef	0.3512492
54	0xbe993237	-0.29921123
55	0x3e965d34	0.29367983
56	0x3e6f3185	0.23358734
57	0xba5c63f9	-0.0008407231
58	0x3eddd008	0.43322778
59	0xbe35e294	-0.17762214
60	0xbdd52496	-0.10407369
61	0xbe64e6fe	-0.22353742
62	0x3db767e2	0.08955361
63	0x3e192ff3	0.14959697
64	0x3c472da4	0.012156878
65	0xbe80d433	-0.25161895
66	0xbe4e26fa	-0.20132056
67	0x3e1bc590	0.15212083
68	0xbec8c517	-0.39212868
69	0xbd8ea2e1	-0.069646604
70	0xbd13336e	-0.03593772
71	0xbe38685e	-0.18008563
72	0x3e1b0e61	0.15142204
73	0x3cec2187	0.02882458
74	0x3eab007b	0.33398804
75	0xbd54a193	-0.0519119
76	0xbe862dfe	-0.26206964
77	0x3e9595da	0.2921589
78	0x3dae8600	0.08521652
79	0xbddf17ac	-0.10893187
80	0xbe8b9ed0	-0.27269602
81	0x3dd6ace0	0.10482192
82	0xbece6b89	-0.40316418
83	0x3df139da	0.117786124
84	0x3e725b10	0.2366755
85	0xbec8db05	-0.392296
86	0xbea01380	-0.31264877
87	0xbea34baa	-0.31893665
88	0x3ecdfca5	0.40231815
89	0x3ebccb7a	0.3687399
90	0x3d5b78c2	0.05358196
91	0x3ee0b5c4	0.43888676
92	0xbe1917ea	-0.14950529
93	0xbeec207a	-0.46118528
94	0x3e2fcb01	0.17167284
95	0x3e223c72	0.1584337
96	0x3eee3ef0	0.46532393
97	0xbbf739e6	-0.007544744
98	0x3ebaab85	0.36458984
99	0x3e8c5a35	0.27412573
100	0x3e9c175e	0.30486578
101	0xbee337b6	-0.44378442
102	0x3ebc8cc8	0.36826158
103	0xbecdd7ec	-0.40203798
104	0x3ecc50e6	0.3990547
105	0x3c068874	0.008211244
106	0xbebdf06b	-0.37097487
107	0x3dfeb40d	0.12436686
108	0xbd93047a	-0.07178588
109	0xbecfeb74	-0.40609324
110	0xbe08ba52	-0.13352326
111	0x3d8df77b	0.06931969
112	0x3eb255cb	0.3483108
113	0xbe0cc952	-0.13748673
114	0x3e93bf9a	0.28857118
115	0x3d656458	0.0560039
116	0x3b5d5573	0.0033772856
117	0x3d99d7e6	0.075118825
118	0xbe884421	-0.26614478
119	0xbec8b7be	-0.39202684
120	0xbe0fe465	-0.1405197
121	0xbedd4834	-0.4321915
122	0xbe3bcf72	-0.18340853
123	0x3c6306f6	0.01385664
124	0xbe96cdd1	-0.294539
125	0xbe3df458	-0.18550241
126	0xbdd10acf	-0.1020714
127	0xbd53072e	-0.05152052
128	0xbe8a1d26	-0.26975363
129	0x3cb009d3	0.02148906
130	0xbd1d97f6	-0.038475
131	0x3e0f2c05	0.13981636
132	0x3d14c83e	0.03632378
133	0xbe7ed495	-0.24885781
134	0xbe355c32	-0.17710951
135	0xbba8e6d9	-0.0051544723
136	0xbe89839c	-0.26858222
137	0x3d0f66c2	0.035010107
138	0xbd0b55ac	-0.03401725
139	0x3e400370	0.18751311
140	0x3dd8c2b6	0.10584013
141	0x3eab5c22	0.3346873
142	0xbc718ae2	-0.014742585
143	0xbe9dcac4	-0.3081876
144	0x3e5ab8c0	0.21359539
145	0xbe9abfb6	-0.3022439
146	0xbd12939d	-0.035785306
147	0xbdff0bdb	-0.12453433
148	0xbe4394b7	-0.19099699
149	0xbe296ed4	-0.16546184
150	0x3edb6632	0.42851406
151	0x3e8313ce	0.25601047
152	0x3dfdd40d	0.12393961
153	0x3ed772e4	0.42079842
154	0xbecf802d	-0.40527478
155	0x3d4336a9	0.04765955
156	0x3e9b7280	0.30360794
157	0x3e9fd7c7	0.31219313
158	0xbeb63ab4	-0.35591662
159	0x3e22fa7c	0.15915865
160	0xbe740356	-0.23829398
161	0xbad4d58d	-0.001623796
162	0xbd9e1b40	-0.07720041
163	0xbeb6fa5d	-0.35737887
164	0xbed1c34d	-0.40969315
165	0xbe8953a9	-0.2682164
166	0x3e4fcd7f	0.20293234
167	0x3e6f1439	0.23347558
168	0xbec72719	-0.38897017
169	0xbe125602	-0.14290622
170	0x3d0a6e59	0.033796642
171	0xbed1b568	-0.40958714
172	0x3e81041d	0.2519845
173	0x3ed8fa1e	0.42378324
174	0x3dc68fd7	0.09695404
175	0xbeb6a544	-0.35672963
176	0x3df7b10b	0.12094315
177	0x3e2a479f	0.16628884
178	0x3ec31e02	0.38108832
179	0xbe73a8e0	-0.2379489
180	0xbec39a1e	-0.3820352
181	0x3e508d60	0.2036643
182	0x3d627e84	0.055296436
183	0xbe15360d	-0.145714
184	0xbe2e1151	-0.16998793
185	0xbe6c1fe4	-0.2305904
186	0x3eb95a6e	0.36201805
187	0xbd52513e	-0.05134701
188	0x3ea5231f	0.32253358
189	0x3ecc649b	0.39920506
190	0x3cf949d6	0.030430716
191	0x3da8bfb6	0.08239691
192	0xbcf981ba	-0.030457366
193	0x3ea68ac7	0.32527754
194	0xbec7c22c	-0.3901533
195	0x3e2d75a0	0.16939402
196	0xbd3e86b6	-0.04651519
197	0x3e379601	0.17928316
198	0xbb028a7c	-0.001991897
199	0xbe298fe8	-0.16558802
200	0xbce378e4	-0.027767606
201	0x3e7749b6	0.24149212
202	0xbe91927a	-0.28432065
203	0xbe8763cc	-0.26443326
204	0xbdcd2826	-0.10017423
205	0xbe0e2c48	-0.1388408
206	0x3e33e640	0.17568302
207	0x3ea542f8	0.32277656
208	0xbd6766b3	-0.056494426
209	0x3ee60c6f	0.4493136
210	0xbe386b35	-0.18009646
211	0xbe807d94	-0.25095809
212	0xbe359ee7	-0.17736398
213	0xbea9ad87	-0.33140203
214	0xbe9488a3	-0.29010496
215	0xbecc04d1	-0.39847425
216	0xbecaef30	-0.3963561
217	0x3e00da3f	0.12583254
218	0x3e98dc9e	0.29855818
219	0x3ee00e5f	0.43760964
220	0x3eb85148	0.35999513
221	0xbc153c7e	-0.009108661
222	0x3d8e7098	0.06955069
223	0xbe8fb465	-0.28067318
224	0x3e31018e	0.1728575
225	0xbee5070c	-0.4473194
226	0x3e580045	0.21093853
227	0x3da7fd34	0.082025915
228	0x3e0cba9e	0.13743064
229	0x3e344cb0	0.17607379
230	0xbe3c43fe	-0.18385312
231	0x3ec4d4c7	0.38443586
232	0x3e6b3c37	0.22972189
233	0x3e966950	0.29377222
234	0x3d9b4d83	0.075831436
235	0x3e9a6057	0.30151626
236	0x3e9a196c	0.3009752
237	0x3e6afe27	0.22948514
238	0x3eae6cbc	0.34067333
239	0xbda61f71	-0.08111466
240	0x3e95f9a9	0.29292038
241	0x3dfe1521	0.12406374
242	0x3e80ace7	0.25131914
243	0x3ee5de89	0.44896343
244	0x3dcf646a	0.10126574
245	0xbe1fd298	-0.15607679
246	0xbcbc8dfe	-0.023016926
247	0x3e125088	0.14288533
248	0x3dd388ee	0.10328852
249	0xbdfa31d9	-0.12216539
250	0x3eb367a4	0.3504001
251	0x3e9555bc	0.29166973
252	0xbe86dc71	-0.26340058
253	0xbcfbef31	-0.030753704
254	0xbcd5b3bf	-0.026086686
255	0xbe8846c6	-0.26616496

fc2.weight f4 [256, 256]
0	0x3c11da65	0.008902167
1	0xbca373ab	-0.019952616
2	0xbc9541b7	-0.018219812
3	0xbbff33f3	-0.0077881753
4	0xbcbd7982	-0.023129229
5	0x3d110612	0.03540618
6	0x3d2666e9	0.040625487
7	0x3da17ad5	0.078847565
8	0x3c892a82	0.016743902
9	0x3c615119	0.013752245
10	0x3ccd9757	0.025096579
11	0x3c27e246	0.010246819
12	0xbd48e6c8	-0.049048215
13	0xbd1762f2	-0.036959596
14	0xbc7817e0	-0.015142411
15	0x3c1bd951	0.0095122615
16	0x3cc0e0b8	0.023544654
17	0x3cc5250c	0.024065517
18	0x3d481171	0.04884476
19	0x3c507560	0.012723297
20	0xbcaebdfc	-0.021330826
21	0xbd4084cc	-0.047001645
22	0xbd3b7f44	-0.045775667
23	0xbd18eb1c	-0.037333593
24	0x3c9a6bc8	0.018850222
25	0x3d078a2e	0.033090763
26	0x3d5e60a9	0.0542914
27	0xbb24cf6c	-0.0025148047
28	0xbba18d60	-0.0049301833
29	0xbc9b4abc	-0.018956535
30	0xb96f7800	-0.0002283752
31	0x3ceaec82	0.028677229
32	0xbab3fd80	-0.0013732165
33	0x3ca6e65a	0.020373512
34	0x3c01ba48	0.007917948
35	0x3cb69ec8	0.02229251
36	0xbbf6a7ec	-0.007527342
37	0xbcc05a06	-0.023480427
38	0x3c6848a5	0.014177476
39	0x3bcfa5c8	0.0063369013
40	0xbc9fe263	-0.01951713
41	0x3cd70564	0.026247688
42	0x391fa0bf	0.00015223304
43	0xbb9ee766	-0.004849362
44	0xbcf7d9d4	-0.030255236
45	0xbc06b938	-0.0082228705
46	0xbd59f931	-0.053216163
47	0x3c68f338	0.014218144
48	0x3a75de80	0.00093791634
49	0x3d9d7219	0.07687778
50	0x3b843d80	0.0040356517
51	0x3b9fb80a	0.004874234
52	0x3cabd8c7	0.02097739
53	0x3d453a7f	0.04815149
54	0xbcf6b81b	-0.030117085
55	0x3d3dc9fa	0.046335198
56	0x3c7a6e58	0.015285097
57	0xbd2e2cd8	-0.042523235
58	0x3cb2458c	0.021761678
59	0xbd198822	-0.037483342
60	0xbca12af4	-0.019673802
61	0xbd0513b3	-0.03248949
62	0xbd2d2fb0	-0.042281806
63	0x3d497d8e	0.049192004
64	0xbd685c5b	-0.056728702
65	0x3d0000fc	0.03125094
66	0xbd66672e	-0.056250744
67	0xbbf94100	-0.0076066256
68	0x3b744b60	0.0037276372
69	0x3d35fe3c	0.04443191
70	0xbcbd3c5d	-0.023100073
71	0x3c9bdd36	0.01902638
72	0xbc5a4df4	-0.01332425
73	0x3d16a064	0.036774054
74	0x3c7395c1	0.014867247
75	0x3cbaf1a2	0.022820298
76	0xbd1d7181	-0.038438324
77	0xbd35f3fa	-0.044422127
78	0x3d619c1b	0.055080514
79	0xbce7848e	-0.02826145
80	0x3bca8e95	0.006181548
81	0xbbf79000	-0.007555008
82	0x3d85f32f	0.06540524
83	0xbc5d4ce0	-0.013507098
84	0xbd44ef69	-0.04807988
85	0xbc81ca9c	-0.015843682
86	0x3d007b0d	0.03136735
87	0x3cca398b	0.024685642
88	0x3d53fd03	0.051754963
89	0xbc608406	-0.013703352
90	0x3d3ebcb7	0.04656669
91	0xbd2828c9	-0.04105452
92	0x3cc61cf8	0.024183735
93	0x3ce6559d	0.028116995
94	0x3d2e6ca1	0.042584065
95	0xbd12cd1c	-0.03584014
96	0x3ac8b3b2	0.0015312342
97	0x3c760f16	0.015018245
98	0xbcdc949a	-0.026926327
99	0xbd4ba4a4	-0.04971756
100	0xbd782134	-0.06057854
101	0x3b64a680	0.003488928
102	0x3d1ef910	0.038811743
103	0x3c81e557	0.015856428
104	0x3b7cfc59	0.003860256
105	0x3d10005a	0.035156585
106	0xbd22d0e6	-0.039750002
107	0x3bd7e990	0.006589122
108	0x3aa82dec	0.0012831069
109	0xbcffc124	-0.031220026
110	0x3d5b7877	0.05358168
111	0xbd45843f	-0.048221823
112	0x3c1610c0	0.009159267
113	0xbd60f34e	-0.054919533
114	0x3be9ba2a	0.007132788
115	0xbce3836c	-0.027772628
116	0x3ca2c2fc	0.019868366
117	0xbd570c60	-0.052502036
118	0x3d69f3e9	0.057117376
119	0xbd51f44e	-0.051258378
120	0x3d19c342	0.037539728
121	0xbd426795	-0.047462065
122	0x3d06a54d	0.032872487
123	0xbcba3d83	-0.02273441
124	0xb918ac00	-0.00014559925
125	0xbc3ae230	-0.011406466
126	0x3d2332ad	0.03984325
127	0x3ca7cbe8	0.020482972
128	0xbd6623e0	-0.056186557
129	0x3bbc4b50	0.0057462826
130	0xbd0131d3	-0.031541657
131	0x3d56c44f	0.05243331
132	0x3c224997	0.0099052405
133	0xbc883177	-0.01662515
134	0xbd047083	-0.032333862
135	0x3cb137d0	0.021633059
136	0xbce58602	-0.028018001
137	0x3cf2d280	0.02964139
138	0x3d0b448d	0.034000922
139	0x3d31f444	0.04344584
140	0x3c85c0f8	0.016327366
141	0xbd60182c	-0.054710552
142	0x3d38252a	0.044957317
143	0xbc09defd	-0.008414981
144	0xbc99e88c	-0.018787645
145	0xbbdc08f0	-0.0067149326
146	0x3d378305	0.044802684
147	0x3d4217d9	0.047386024
148	0x3c15e7ef	0.009149536
149	0x3cf44d40	0.029821992
150	0xbd263d91	-0.040586058
151	0x391ad000	0.0001476407
152	0xbd627aa0	-0.055292726
153	0x3cb0adc2	0.02156723
154	0xbd366316	-0.04452809
155	0xbd3661ae	-0.04452675
156	0x3d6bf7a6	0.057609223
157	0x3d84b743	0.06480267
158	0xbd19b288	-0.037523776
159	0xbd0e1532	-0.034688182
160	0x3bee0c5e	0.007264658
161	0x3cc4dfac	0.024032436
162	0xbc29f2a0	-0.010372788
163	0xbc721a96	-0.014776846
164	0xbced02fa	-0.028932083
165	0x3cd7f25e	0.026360687
166	0x3d7ad1ac	0.061235115
167	0xbc4fd400	-0.012684822
168	0x3cf17de8	0.029478982
169	0x3cf94435	0.030428031
170	0x3d8706c2	0.06593086
171	0xbbe9e644	-0.0071380455
172	0x3b0103e0	0.0019686148
173	0x3d818549	0.0632425
174	0x3d665daf	0.056241687
175	0x3d7bdd59	0.06149039
176	0xbc9300ad	-0.017944658
177	0x3ce35921	0.02775246
178	0x3d758a74	0.059946492
179	0xbd2dc6e2	-0.042425998
180	0x3cf6e3d0	0.030137926
181	0xbc86a0de	-0.01643413
182	0x3d267de0	0.040647388
183	0xbce5f400	-0.02807045
184	0x3caf64d0	0.021410376
185	0x3d192ae4	0.03739442
186	0xbd6a86a4	-0.05725731
187	0xbd10ee5b	-0.035383563
188	0xbd031e7e	-0.0320115
189	0x3d2433ea	0.04008857
190	0x3d297a2b	0.041376274
191	0xbd31ebaf	-0.043437656
192	0x3c434388	0.011917956
193	0xbc82c788	-0.015964285
194	0xbcbf30ba	-0.023338664
195	0x3d5b64ab	0.0535628
196	0x3cf109c4	0.029423602
197	0xbbf79882	-0.007556022
198	0x3c16bc00	0.009200096
199	0x3c466838	0.012109809
200	0x3d02c5e6	0.031927012
201	0xbcaf3f28	-0.02139242
202	0xbd58dd69	-0.05294553
203	0x3d26b29d	0.040697683
204	0x3c0998f8	0.008398287
205	0x3d312111	0.043244425
206	0xbcc1e8dc	-0.023670606
207	0x3d4406a1	0.047857884
208	0x3d6d9498	0.05800304
209	0x3d616fc7	0.05503824
210	0x3c9d2f9f	0.019187747
211	0x3d7bdfc0	0.06149268
212	0xba0af7fa	-0.00053012336
213	0x3c524b2c	0.012835305
214	0x3d726716	0.05918034
215	0x3d78ce3e	0.060743563
216	0xbcd82d3c	-0.026388757
217	0x3d7c1b2b	0.061549347
218	0x3cbf6453	0.023363268
219	0xbb9f3f44	-0.004859837
220	0x3d5dea45	0.054178495
221	0xbcf2bbc8	-0.029630557
222	0x3d22865c	0.039678916
223	0x3d7b7f00	0.061400414
224	0xbd309052	-0.043106385
225	0xbd177cac	-0.03698413
226	0xbd7dac8c	-0.06193213
227	0xbc384810	-0.01124765
228	0xbd688008	-0.056762725
229	0xbcb23b02	-0.021756653
230	0x3d1302a9	0.03589121
231	0x3d41af19	0.047286127
232	0x3d0cec11	0.034404818
233	0x3d0e19c8	0.034692556
234	0x3d2e899a	0.042611696
235	0xbd1f907c	-0.03895615
236	0xbd4b4340	-0.04962468
237	0x3c9e5cfd	0.01933145
238	0x3d7317dc	0.059348926
239	0x3b66a0e0	0.0035191104
240	0xbbc59048	-0.0060291626
241	0xbd2e6ba5	-0.042583127
242	0xbd0228e7	-0.03177729
243	0xbd45d8ec	-0.048302576
244	0x3d4cf89a	0.050041772
245	0xbac5be83	-0.0015086684
246	0xbd59a797	-0.05313834
247	0x3cbeb752	0.023280773
248	0x3d110f29	0.03541485
249	0xbbfd0710	-0.007721789
250	0x3cb7470c	0.022372745
251	0x3d513ee5	0.05108537
252	0xbd50f59a	-0.051015474
253	0xbd478a5a	-0.048715927
254	0x3bc1ed88	0.0059182085
255	0xbd48a9c2	-0.04899002

fc2.bias f4 [256]
0	0x3d0db739	0.034598563
1	0xbc4ae6b0	-0.012384102
2	0x3b5f3339	0.003405763
3	0xbb8725c0	-0.004124373
4	0x3c82c360	0.015962303
5	0xbc0b6983	-0.008509043
6	0x3d198196	0.0374771
7	0x3ce6bf90	0.028167516
8	0xbd0bc30c	-0.034121558
9	0xbc91f7c4	-0.01781834
10	0xbca71238	-0.02039443
11	0xbd3ed9fe	-0.046594612
12	0xbd61434e	-0.054995827
13	0x3c66222e	0.014046235
14	0x3cccb830	0.024990171
15	0xbcc2a4ff	-0.023760317
16	0xbd07b5ae	-0.033132248
17	0x3d6d3be4	0.057918444
18	0x3d3eb460	0.046558738
19	0x3cf99977	0.030468686
20	0x3d196794	0.037452295
21	0x3d8fb040	0.07016039
22	0xbbae33b0	-0.00531622
23	0x3d303308	0.043017417
24	0x3d5333d0	0.051563084
25	0x3d7b0dce	0.061292462
26	0x3ce0e695	0.0274537
27	0xbc12b9fa	-0.008955473
28	0x3c5b5ecc	0.013389301
29	0xbbc2943d	-0.0059380815
30	0x3ce210e7	0.02759595
31	0x3d500c41	0.050792936
32	0xbb7cf600	-0.0038598776
33	0x3d6625c0	0.056188345
34	0x3c94b3de	0.018152174
35	0x3b44b21d	0.003001339
36	0x3b58fdc5	0.0033110243
37	0xbbcfa4cf	-0.0063367854
38	0x3d41d23d	0.04731964
39	0x3c4e37ec	0.012586575
40	0x3d806f3e	0.06271218
41	0x3c70aa98	0.01468911
42	0x3bf9e622	0.007626311
43	0x3d61e6a2	0.05515159
44	0x3cf76397	0.030198855
45	0x3bc0d5f0	0.0058848783
46	0x3ae9a800	0.0017826557
47	0x3caf5395	0.02140216
48	0x3cda3e34	0.026640989
49	0x3c1bd713	0.009511727
50	0xbc36324a	-0.011120388
51	0x3cb206e0	0.021731794
52	0xbccb27c1	-0.02479923
53	0xbc707832	-0.014677094
54	0x3d879318	0.06619853
55	0xbd1932a8	-0.037401825
56	0x3c32164c	0.010869574
57	0x3d5bcb35	0.05366059
58	0xbcacee23	-0.021109646
59	0x3b22940d	0.0024807483
60	0x3d4a786d	0.049431253
61	0xbd1d842f	-0.03845614
62	0x3d512f50	0.05107051
63	0x3da3fb14	0.08006874
64	0x3c3efd68	0.011657096
65	0xbcc1f492	-0.02367619
66	0xbd51819a	-0.05114899
67	0x3d2b11a6	0.041764878
68	0x3bb52de5	0.0055291527
69	0x3d65d4aa	0.056111015
70	0x3c743524	0.014905248
71	0xbca71dae	-0.020399895
72	0xbc6cdc65	-0.014456843
73	0x3c3ab1cf	0.011394932
74	0x3ca8585e	0.02054995
75	0x3da5d784	0.08097747
76	0x3d172dc9	0.0369089
77	0x3d5de520	0.05417359
78	0xbbafddde	-0.005367025
79	0xbd4b6bca	-0.049663343
80	0xbb22c4f7	-0.0024836638
81	0x3d2574d9	0.040394638
82	0x3cc50086	0.024048101
83	0xbd3d07c9	-0.046150003
84	0x3d28b67a	0.04118965
85	0x3c5b79f1	0.013395772
86	0x3cf6e948	0.030140534
87	0x3d5afd40	0.053464174
88	0x3db24b22	0.08705737
89	0x3cf1b3bb	0.029504647
90	0x3cc7571e	0.024333533
91	0xbd2c02b8	-0.04199478
92	0x3d29cd31	0.04145545
93	0xbbe2cda9	-0.0069214893
94	0x3d1ab3da	0.037769176
95	0xbbc81265	-0.0061057084
96	0xbd6dfcfa	-0.058102585
97	0x3c12b740	0.008954823
98	0xbd524b7f	-0.05134153
99	0x3caeac99	0.021322535
100	0x3c699c40	0.014258444
101	0xbd74674e	-0.05966883
102	0x3d088683	0.033331405
103	0xb9c4d741	-0.0003754441
104	0xbc68a57d	-0.014199612
105	0x3cb7e6c7	0.02244891
106	0x3ce5c2d4	0.028047003
107	0x3d7a7ef7	0.06115624
108	0xba6ee3e0	-0.00091129355
109	0x3be86825	0.007092493
110	0x3d383e7c	0.044981465
111	0x3d8c4e6b	0.068508945
112	0xbd652ace	-0.055949025
113	0xbd33a414	-0.04385765
114	0xbcd4ef50	-0.02599302
115	0x3cd29318	0.025704905
116	0x3d37b676	0.044851743
117	0xbcef678f	-0.029224185
118	0xbd84a788	-0.064772666
119	0x3c6dfb9b	0.014525319
120	0xbbd176e5	-0.006392347
121	0x3cd48f28	0.025947168
122	0xbce9dc55	-0.028547445
123	0xb9bd8a00	-0.00036151707
124	0xbd8b0508	-0.06788069
125	0xbd81a92b	-0.06331094
126	0x3cd1f268	0.025628284
127	0xbccb852b	-0.024843773
128	0xbd06b802	-0.032890327
129	0x3cfa56f1	0.030559035
130	0xbbbba1f0	-0.0057260916
131	0x3d35dc04	0.044399276
132	0xbb00bb0a	-0.0019642734
133	0x3da0e32b	0.07855829
134	0x3c45bdd4	0.012069184
135	0xbd898549	-0.06714875
136	0xbda63470	-0.081154704
137	0xbd877fe1	-0.06616188
138	0x3d9f60c2	0.07782127
139	0x3d15ff9f	0.036620732
140	0x3d1b79e3	0.037958037
141	0x3d8887c6	0.06666522
142	0x3d097387	0.03355744
143	0x3c8e4eaa	0.017371494
144	0x3b9fd168	0.004877258
145	0xbc8ee0ad	-0.017441118
146	0x3d1468ea	0.036232866
147	0x3d355eff	0.04428005
148	0x3cfa933c	0.030587785
149	0xbc772f15	-0.015086909
150	0xbd7fbefb	-0.062437993
151	0xbd7712dc	-0.06032072
152	0xbd3baaa0	-0.045817018
153	0x3d79cf24	0.06098856
154	0xbbb68953	-0.0055705695
155	0xbd9719ef	-0.07377993
156	0x3cefe242	0.029282693
157	0x3cb6fc18	0.022337005
158	0xba2745ac	-0.00063809264
159	0xbd475b76	-0.04867121
160	0xbc20b979	-0.009809845
161	0x3d87c054	0.066284806
162	0x3d289165	0.041154284
163	0x3caae5f3	0.020861601
164	0x3d3e6111	0.04647929
165	0xbcf247d8	-0.029575273
166	0xbb0bf9e7	-0.002135867
167	0x3c7c12d0	0.015385345
168	0x3d865aa0	0.06560254
169	0x3cbb7b3b	0.02288591
170	0xbbb329c2	-0.0054676244
171	0xbbb643ee	-0.005562297
172	0x3cd36c88	0.025808588
173	0x3c843270	0.016137332
174	0x3d092a46	0.03348758
175	0x3c1b4036	0.009475758
176	0xbd377556	-0.044789635
177	0x3c69b549	0.014264413
178	0xbd5f0842	-0.054451235
179	0x3ccaba14	0.024746932
180	0xbc21b7b8	-0.009870462
181	0xbd376a6a	-0.04477922
182	0xbd3bc0d0	-0.045838177
183	0x3c857947	0.016293181
184	0x3d606cb9	0.054791186
185	0xbdab1db9	-0.083552785
186	0x3c1b28b8	0.009470157
187	0x3d1e0eac	0.03858821
188	0x3c49b14d	0.012310338
189	0xbc9c3eb5	-0.01907287
190	0x3d3e2f3b	0.04643176
191	0x3c328248	0.010895319
192	0x3d47c227	0.048769142
193	0x3d80f638	0.062969625
194	0xbcce850c	-0.025209926
195	0x3d5e373b	0.05425189
196	0xbd9533d1	-0.07285274
197	0xbd73c67d	-0.059515465
198	0xbd77da32	-0.06051082
199	0x3d554978	0.05207202
200	0x3d01fa0f	0.031732615
201	0xbbabc47b	-0.005241928
202	0x3d4e6a47	0.050394323
203	0x3c922de0	0.01784414
204	0xbce9ff41	-0.028564097
205	0xbca3f071	-0.020012112
206	0xbd26fc28	-0.04076782
207	0x3cd5df20	0.02610737
208	0x3ca30943	0.019901877
209	0xbbb262d0	-0.0054439083
210	0xbc1baa56	-0.0095010605
211	0xbd1b551c	-0.037922964
212	0xbd2e23d3	-0.042514633
213	0xbd337635	-0.043813903
214	0x3d98f9b8	0.07469505
215	0xbd046656	-0.032324158
216	0x3c4b8b24	0.01242331
217	0x3c4d3e6b	0.012527089
218	0xbcf3ee6c	-0.029776774
219	0x3cb1e99b	0.021717837
220	0x3ceb4024	0.028717108
221	0x3d674d5f	0.05647027
222	0x3cdcef09	0.02696945
223	0x3db053a9	0.08609707
224	0x3d09d006	0.033645652
225	0xbc960f31	-0.01831779
226	0xbb21465c	-0.0024608588
227	0x3ce99849	0.028514998
228	0x3d15a353	0.03653271
229	0xbd600c94	-0.054699495
230	0x3d21fe0a	0.03954891
231	0xbc09436d	-0.008377892
232	0x3d73b03c	0.059494242
233	0xbd164251	-0.036684338
234	0x3d1b61fc	0.037935242
235	0x3cce52bb	0.025185933
236	0x3d7e0596	0.062017046
237	0xb9732a00	-0.00023189932
238	0x3c66683b	0.014062936
239	0xbcd25c23	-0.0256787
240	0xbd0f4553	-0.034978222
241	0x3c8d99c5	0.017285237
242	0xbc3f2686	-0.0116669
243	0xbd05c5c6	-0.032659315
244	0xbd596839	-0.05307791
245	0xbcc75dc9	-0.024336712
246	0x3d14760a	0.036245383
247	0x3d272c3a	0.040813662
248	0x3d4cdd05	0.05001547
249	0xbd7610ca	-0.060074605
250	0xbcc4f301	-0.024041655
251	0x3d47efff	0.048812862
252	0xbda028e5	-0.078203
253	0x3ce6dd58	0.028181717
254	0xbcf798ab	-0.030224165
255	0xbd436027	-0.04769912

mean_layer.weight f4 [3, 256]
0	0xbd4c7555	-0.049916584
1	0x3ba3d840	0.0050001442
2	0xbceaa81c	-0.028644614
3	0x3c452318	0.012032293
4	0xbd5358ea	-0.051598467
5	0x3cefcbf9	0.029272066
6	0x3d70e881	0.058815483
7	0x3cf102b7	0.02942024
8	0xbca6ca79	-0.020360218
9	0xbd7f9cae	-0.06240528
10	0x3d0d0d02	0.034436233
11	0x3d10aa1a	0.03531847
12	0xbce73ddc	-0.028227739
13	0x3d023923	0.03179277
14	0x3c3f2c9e	0.011668352
15	0xbcab69a3	-0.020924395
16	0x3d189d04	0.037259117
17	0x3cffa7e8	0.031207994
18	0x3c846d1c	0.016165309
19	0xbd17d6e3	-0.037070166
20	0xbc281b94	-0.010260481
21	0x3d59c2a5	0.053164143
22	0xb9207a00	-0.00015304238
23	0xbd7ba178	-0.061433285
24	0x3b012ba0	0.001970984
25	0xbcbe5db8	-0.023238048
26	0x3ca9222e	0.020646181
27	0xbd2b5cda	-0.041836597
28	0xbc7d93fe	-0.015477179
29	0xbd507cbd	-0.05090021
30	0xbd6e33d0	-0.05815488
31	0xbd231a34	-0.03981991
32	0xbd1ec587	-0.038762596
33	0x3c680ab8	0.014162712
34	0x3cd3cdc8	0.02585496
35	0x3d0071d5	0.03135856
36	0xbd1b448a	-0.03790716
37	0xbd20b71c	-0.039237127
38	0x3c9dc98d	0.019261146
39	0xbd0259d2	-0.03182394
40	0xbd43de9a	-0.04781971
41	0x3c375810	0.011190429
42	0x3cda84e5	0.026674697
43	0x3b960260	0.00457792
44	0xbd6c4908	-0.057686836
45	0x3c9e4478	0.019319758
46	0x3ce67db8	0.02813612
47	0xbc02ac9f	-0.007975726
48	0xbd08f000	-0.033432007
49	0xba9366bf	-0.0011245831
50	0x3c50e547	0.0127499765
51	0xbd22c371	-0.03973717
52	0xbced2990	-0.028950483
53	0xbd166468	-0.03671685
54	0xbc880f55	-0.016608873
55	0x3cc87ce4	0.024473615
56	0xbcd9b278	-0.026574358
57	0x3b4edb0a	0.0031563663
58	0xbd1cecb9	-0.038311694
59	0xbcc533d2	-0.024072561
60	0x39a08d4e	0.00030622858
61	0x3ce4403b	0.027862659
62	0x3d2ca678	0.042150944
63	0xbd714a61	-0.058908824
64	0xbb32f2a0	-0.002730526
65	0xbc844151	-0.016144427
66	0x3d2e0840	0.042488337
67	0xbcd27fac	-0.025695644
68	0xbccce03b	-0.025009265
69	0xbd269fec	-0.040679857
70	0x3d09b087	0.033615615
71	0xbca0a0ca	-0.01960792
72	0x3adeb2a4	0.0016990495
73	0xbcf5fa82	-0.030026678
74	0xbd383e37	-0.044981208
75	0xbd5da848	-0.054115564
76	0xbb5eea92	-0.0034014327
77	0x3b8b4b80	0.0042509437
78	0x3b24303a	0.002505316
79	0x3d5d09e0	0.053964496
80	0xbd01ec36	-0.03171941
81	0xbce5cf57	-0.028052969
82	0x3b1c9174	0.0023890408
83	0x3d377e58	0.044798225
84	0x3d1bc110	0.038025916
85	0x3cf2dd8f	0.029646663
86	0xbd5ab5d4	-0.05339606
87	0x3c9805bf	0.018557427
88	0xbd7a73c5	-0.061145563
89	0x3c88a2c6	0.016679179
90	0xbd59d384	-0.053180233
91	0x3d589e97	0.052885618
92	0x3d3ae8cf	0.04563218
93	0x3ca32ee8	0.019919828
94	0x3bec1fa0	0.0072059184
95	0xbd5db9c9	-0.054132257
96	0xbcac680c	-0.021045707
97	0xba9471c0	-0.0011325404
98	0xbc42ee60	-0.011897653
99	0xbd823f8a	-0.06359775
100	0xbd1c3352	-0.03813488
101	0xbcfb8914	-0.030705012
102	0x3cffa542	0.03120673
103	0x3c41f655	0.011838515
104	0xbd0b6a2a	-0.034036793
105	0x3cd7e4be	0.02635419
106	0xbd4bf2aa	-0.04979197
107	0x3c46dbf4	0.012137402
108	0x3d286cdd	0.041119445
109	0xbc145bb0	-0.009055063
110	0x3ba404fc	0.005005477
111	0xbcb57626	-0.022151064
112	0xbc721649	-0.014775821
113	0xbd0ddd18	-0.03463468
114	0x3c45e178	0.012077682
115	0xbcdcaa63	-0.026936715
116	0xbc8dd0c8	-0.017311469
117	0xbd6b662d	-0.05747049
118	0x3cdbea86	0.026845228
119	0xbd69143d	-0.056904066
120	0xbd096bd9	-0.033550117
121	0x3cc131c2	0.023583297
122	0x3d618fab	0.055068653
123	0xbd4750ac	-0.04866092
124	0xbd8160cb	-0.0631729
125	0x3ce0fd33	0.027464485
126	0xbcbf393c	-0.023342721
127	0x3cd39729	0.025828915
128	0x3d712319	0.058871362
129	0x3d70df73	0.058806848
130	0x3be6e480	0.0070462823
131	0xbcdf8cb6	-0.027288776
132	0xbcad7b53	-0.02117697
133	0x38cab29d	9.66538e-05
134	0x3c83444c	0.016023777
135	0x3d2c31fd	0.04203986
136	0x3d33dff3	0.043914746
137	0x3c126a2e	0.008936448
138	0xbc9e0583	-0.019289738
139	0x3d792bf4	0.060832933
140	0xbd23cb63	-0.039988887
141	0xbd6f34c6	-0.058399938
142	0x3a773963	0.00094308535
143	0x3ced0f0e	0.028937843
144	0x3b8b533a	0.0042518647
145	0xbc5a68a5	-0.013330613
146	0x3d1870ec	0.037217066
147	0xbd494ce4	-0.049145594
148	0x3b88ac30	0.004170917
149	0x3d24978e	0.040183596
150	0xbc4a3c4c	-0.012343477
151	0x3d64a3c8	0.055820256
152	0xbcfccbd5	-0.030858913
153	0xbd2fa175	-0.042878587
154	0x3d5ff373	0.05467553
155	0x3c20e052	0.009819107
156	0xbd54e56c	-0.051976606
157	0xbcc1b7f0	-0.023647279
158	0x3cc930e9	0.024559455
159	0xbca255d0	-0.01981631
160	0x3d5906a5	0.052984852
161	0xbd8deafc	-0.06929585
162	0x3d7328e1	0.059365157
163	0xbd0041bc	-0.03131269
164	0xbd9213e8	-0.07132703
165	0xbd2fadcc	-0.042890355
166	0x3d1f54ed	0.03889935
167	0xbc9638d0	-0.018337637
168	0xbd6f385d	-0.05840336
169	0x3d72b291	0.059252325
170	0x3d34292a	0.04398457
171	0x3d424529	0.047429238
172	0xbd2e6b5e	-0.042582862
173	0xbd17d8be	-0.037071936
174	0x3d3eb0ca	0.046555318
175	0x3d51973d	0.051169623
176	0xbc32ee66	-0.010921096
177	0xbd1a4304	-0.037661567
178	0x3cf1ec84	0.029531725
179	0xb9513a00	-0.000199534
180	0x3d153b90	0.036433756
181	0xbd7ccf30	-0.061721027
182	0xbd0e8265	-0.034792323
183	0x3d586edf	0.05284011
184	0xbbdfd129	-0.0068303538
185	0x3d62a11e	0.055329435
186	0x3b8af248	0.004240308
187	0x3ce231e3	0.027611678
188	0x3cda8846	0.026676308
189	0x3b30df35	0.002698851
190	0x3d2502f1	0.04028601
191	0x3b0b6140	0.0021267682
192	0x3d2a97ed	0.041648794
193	0xbd0cf955	-0.03441747
194	0x3d2b853d	0.041875113
195	0xbd0ff80b	-0.03514866
196	0xbca85867	-0.020549966
197	0xbc2dd659	-0.0106101865
198	0xbc8b37a4	-0.016994305
199	0x3ce845cc	0.028353594
200	0xbd627a41	-0.05529237
201	0xbb9f98ec	-0.0048705246
202	0x3c438cc4	0.011935417
203	0x3d26c566	0.040715598
204	0x3c86e9f8	0.016468987
205	0xbd4d932c	-0.050189182
206	0x3cb1a91c	0.021687083
207	0x3c607b00	0.0137012005
208	0xba56d3b4	-0.00081949984
209	0xbd29751c	-0.04137145
210	0xbd09cc68	-0.033642203
211	0xbcaedc38	-0.021345243
212	0xbcb7d96c	-0.022442542
213	0xbd3c046d	-0.04590266
214	0xbd626b7e	-0.055278294
215	0x3ce5de00	0.02805996
216	0x3b8b9c90	0.004260607
217	0x3cff0619	0.031130837
218	0xbd04a768	-0.032386214
219	0x3ce4e7f7	0.02794264
220	0x3cb1c7f4	0.02170179
221	0xbd293f35	-0.041320045
222	0xbad88e8b	-0.0016521973
223	0xbd1a73c8	-0.037708074
224	0x3ac8a700	0.0015308559
225	0x3ce62e97	0.028098388
226	0xbd0a5f34	-0.0337822
227	0x3d2c2813	0.042030405
228	0x39049370	0.00012643426
229	0xbce6e8d3	-0.028187191
230	0x3ba5aec0	0.005056232
231	0xbb98a61d	-0.004658474
232	0xbc30c138	-0.010788254
233	0xbc215640	-0.009847224
234	0xbd707864	-0.058708563
235	0xbd530ebd	-0.051527727
236	0x3b8f21c0	0.004368037
237	0xbc9ac854	-0.018894352
238	0x3ca1528f	0.019692687
239	0x3ba42426	0.005009192
240	0x3c20f1bf	0.009823262
241	0x3d5e10c0	0.054215193
242	0xbd0f500f	-0.03498846
243	0xb90abbf9	-0.00013230731
244	0x3cfc6bc3	0.030813104
245	0xbd8524bf	-0.065011494
246	0x3c9c8fa0	0.019111454
247	0x3cea2dac	0.028586231
248	0xbb03471b	-0.0020031396
249	0xbd30dc7e	-0.043179028
250	0x3d990f48	0.07473618
251	0xbc8beb57	-0.017079992
252	0x3d46067f	0.04834604
253	0xbd104fa6	-0.03523221
254	0xbd1a541b	-0.037677865
255	0x3d222c97	0.039593305

mean_layer.bias f4 [3]
0	0x3bda5c4f	0.006663836
1	0x3ba52fa6	0.0050410805
2	0xbcdd54ea	-0.02701803

log_std_layer.weight f4 [3, 256]
0	0x3c8ab95c	0.01693409
1	0x3c836eac	0.016043983
2	0x3d6f48c0	0.05841899
3	0xbd7a3690	-0.06108719
4	0xbc97b1b8	-0.01851736
5	0xbd426a6c	-0.047464773
6	0xbd32665a	-0.04355464
7	0xbd4167de	-0.047218196
8	0xbd11bf7f	-0.035583016
9	0x3b911a4a	0.0044281827
10	0x3d0ecf76	0.03486582
11	0xbd4202ee	-0.047366075
12	0x3d3bb94e	0.045831017
13	0x3d41cc0c	0.047313735
14	0xbcd8cc63	-0.026464647
15	0xbd0bdf38	-0.034148425
16	0xbd3e5034	-0.046463206
17	0x3d7f9f34	0.062407687
18	0x3d02e268	0.0319542
19	0xbcf2688c	-0.029590867
20	0x3cc84afd	0.02444982
21	0xbd3e9b6b	-0.046534937
22	0xbd2ae2c0	-0.041720152
23	0x3d0b0093	0.033936094
24	0xbc482e40	-0.012218058
25	0x3d786940	0.06064725
26	0xbbdd752b	-0.0067583523
27	0xbd6e17a2	-0.058128007
28	0x3b91e99a	0.0044528963
29	0xbbbea113	-0.0058175414
30	0x3d39d603	0.045370113
31	0xbc870b44	-0.016484864
32	0xbcbbfbf1	-0.022947283
33	0x3c9ccea4	0.019141503
34	0x3d856471	0.06513298
35	0x3d41689b	0.0472189
36	0xbd2e01f7	-0.042482343
37	0xbc5172c2	-0.012783708
38	0xbd06c165	-0.03289928
39	0xbc6a205b	-0.014289941
40	0x3bed9d38	0.007251408
41	0xbc608588	-0.013703711
42	0x3ce35224	0.027749129
43	0x3d421b0c	0.047389075
44	0xbb918797	-0.0044412124
45	0xbbbd7d10	-0.005782731
46	0x3d2da982	0.042397983
47	0x3ba1121b	0.0049154884
48	0xbbde2ab3	-0.0067799925
49	0x3ba3caf1	0.0049985577
50	0xbc974bc9	-0.018468754
51	0xbd01c335	-0.031680305
52	0x3ce9bcad	0.02853235
53	0xbca1b214	-0.019738235
54	0xbd64946a	-0.0558056
55	0xbd7ab87e	-0.0612111
56	0x3d7cf9b3	0.06176157
57	0xbd382aed	-0.044962812
58	0xbc2d95bc	-0.0105947815
59	0xbc9ec9f3	-0.019383406
60	0xbd6e5664	-0.058187857
61	0x3cda0f90	0.026618749
62	0x3d69882a	0.05701462
63	0x3c4df2e8	0.01257012
64	0xbcd60cfc	-0.026129238
65	0xbd397e6e	-0.04528659
66	0xbd099030	-0.033584774
67	0x3c8245ac	0.015902363
68	0xbb27110a	-0.0025492334
69	0xbce19bbc	-0.02754008
70	0xbd0f1c13	-0.034938883
71	0x3c2957dd	0.01033589
72	0x3d436fd6	0.047714077
73	0x3d1b3e20	0.037901044
74	0x3d029a88	0.031885654
75	0x3c656677	0.01400148
76	0xbd5756bc	-0.05257295
77	0xbd5b78f6	-0.053582154
78	0x3d555aeb	0.05208866
79	0x3cf761f6	0.030198079
80	0x3c8332fd	0.016015524
81	0xbd047e2a	-0.032346882
82	0x3c7c6699	0.015405321
83	0xbd13d9ed	-0.036096502
84	0xbcdfb9dc	-0.027310304
85	0xbd1efeb1	-0.03881711
86	0xbcdc1148	-0.02686371
87	0x3bc479f9	0.0059959856
88	0xbcde586a	-0.027141768
89	0xbcfaf9d9	-0.030636715
90	0xbaf78578	-0.0018884381
91	0xbd807ae7	-0.06273442
92	0x3d79a92a	0.060952343
93	0x3bdcb711	0.0067356904
94	0x3c942248	0.018082753
95	0xbc83e1af	-0.016098825
96	0xbd497882	-0.04918719
97	0xbd731a02	-0.059350975
98	0x3d49393e	0.049126856
99	0x3d0d8906	0.034554504
100	0x3d095c60	0.03353536
101	0xbcb52d2c	-0.022116266
102	0x3d6fc7a9	0.05854002
103	0x3d4a8016	0.04943856
104	0xbc5407af	-0.012941285
105	0xbd252597	-0.04031905
106	0xbd5c8a1e	-0.053842656
107	0xbcb55671	-0.022135945
108	0xbc7b691b	-0.015344883
109	0x3db0e03c	0.08636519
110	0xbd24650f	-0.04013544
111	0xbc018ae4	-0.007906649
112	0x3d77f054	0.06053193
113	0x3d7e72af	0.06212109
114	0x3d582d1a	0.052777387
115	0x3d0d47b4	0.03449221
116	0xbc721f80	-0.014778018
117	0x3d119b55	0.035548527
118	0xb90d22ac	-0.00013459724
119	0x3ab40a4d	0.001373598
120	0xbd243fc9	-0.040099893
121	0xbc1c5819	-0.0095424885
122	0x3d2ee2a4	0.04269661
123	0xbd186d18	-0.037213415
124	0x3d65ec2f	0.056133445
125	0x3c33991c	0.010961797
126	0x3ceaa474	0.02864287
127	0xbd19d741	-0.037558798
128	0x3d19b200	0.03752327
129	0x3b503b3b	0.0031773585
130	0x3c2f7548	0.010709114
131	0x3cba235c	0.022721939
132	0x3d38b7d4	0.045097187
133	0xbd17d91c	-0.037072286
134	0xbd6438ea	-0.05571834
135	0x3d5fbbf6	0.054622613
136	0x3ccb99aa	0.024853546
137	0x3cee63f9	0.029100405
138	0xb9b713a5	-0.00034919116
139	0x3c9b153c	0.018931024
140	0xbd207313	-0.039172243
141	0xbd5d41e2	-0.05401791
142	0x3c9f9e18	0.019484565
143	0x3d007c70	0.031368673
144	0xbcd4d593	-0.025980746
145	0x3d1a8e1e	0.03773319
146	0x3d243112	0.04008586
147	0xbc89f262	-0.01683921
148	0xbce8d33c	-0.028421037
149	0x3cfef0c9	0.031120675
150	0x3cd23d1e	0.025663909
151	0x3d2faa20	0.042886853
152	0x3d537c96	0.051632486
153	0x3c33c253	0.0109716235
154	0x3d4fb37e	0.050708286
155	0x3cfbf29c	0.030755334
156	0x3c782177	0.015144697
157	0xbd1a8a00	-0.037729263
158	0x3d0be98d	0.03415828
159	0xbd233970	-0.0398497
160	0xbd156fe5	-0.036483664
161	0x3bb65ca4	0.005565243
162	0xbc1a6679	-0.009423845
163	0xbd03f889	-0.032219443
164	0xbcb9140f	-0.022592572
165	0x3d2eb412	0.042652197
166	0xbd7678fc	-0.060173973
167	0x3bac5b90	0.0052599385
168	0xbafb3755	-0.001916627
169	0x3ad427aa	0.0016186137
170	0x389e9030	7.560884e-05
171	0x3ce294a7	0.027658774
172	0x3d083354	0.033252075
173	0xbc8e7990	-0.01739195
174	0x3d202777	0.039100137
175	0xbbdffcbd	-0.0068355487
176	0x3c2d5137	0.010578445
177	0x3c9d3831	0.019191833
178	0xbd784c3e	-0.060619585
179	0xbd6d858c	-0.05798869
180	0xbcd10660	-0.025515735
181	0x3ca445cd	0.020052815
182	0x3c53ae9c	0.012920048
183	0x3c4f1e87	0.012641556
184	0xbc50efae	-0.012752457
185	0x3a5624c4	0.00081689307
186	0xbd6202b2	-0.05517835
187	0x3ccb81cd	0.024842167
188	0xbca0681a	-0.01958089
189	0x3d7bcab2	0.061472602
190	0xbc69c5ee	-0.0142683815
191	0xbd733612	-0.059377737
192	0x3c55ce19	0.013049626
193	0x3d081880	0.03322649
194	0x3c847e98	0.016173646
195	0x3c952492	0.018205915
196	0x3d5e2362	0.054232962
197	0x3d059beb	0.032619398
198	0x3d786bdc	0.060649738
199	0xbd2e8f57	-0.04261717
200	0x3d752c14	0.05985649
201	0xbd26f6a1	-0.040762547
202	0xbd2da8a5	-0.04239716
203	0xbd835a75	-0.06413738
204	0x3d29d0c1	0.04145885
205	0xbd2f7b20	-0.04284203
206	0xbcc6e4c8	-0.024279013
207	0xbcc26b08	-0.023732677
208	0x3d0010da	0.03126607
209	0xbbc337c0	-0.0059575737
210	0xbba2b600	-0.0049655437
211	0x3c9d69ac	0.019215427
212	0xbd065653	-0.03279717
213	0xbd1480d3	-0.03625567
214	0xbcedd86e	-0.029033866
215	0xbcef8f78	-0.029243216
216	0x3c25f84f	0.010130002
217	0xbd3bb43d	-0.045826185
218	0x3d0b25a2	0.033971436
219	0x3d640144	0.05566527
220	0xbb8b8080	-0.0042572618
221	0xbcf42ba8	-0.029805973
222	0x3ac8b971	0.0015314055
223	0xbcb533a6	-0.022119354
224	0xbd7024f6	-0.058629
225	0xbd085aa2	-0.03328956
226	0xbd31910e	-0.043351226
227	0x3ac29b20	0.0014847256
228	0xbd286973	-0.04111619
229	0x3c28ee01	0.010310651
230	0xbd70d810	-0.058799803
231	0xbcf27f75	-0.029601792
232	0xbd4c49ce	-0.049875073
233	0x3cb4e9e9	0.022084193
234	0xbd07d8ed	-0.03316586
235	0x3d74e713	0.059790682
236	0xbbc00620	-0.005860105
237	0xbd0bb324	-0.03410639
238	0xbc1d0968	-0.009584762
239	0x3d6287d8	0.055305332
240	0xbd6524b6	-0.055943213
241	0xbce9df0c	-0.02854874
242	0x3d5ab5de	0.0533961
243	0xbb74b581	-0.003733963
244	0xbc70d4ce	-0.014699174
245	0x3c86084a	0.016361374
246	0x3cfe52c8	0.031045333
247	0xbcd33ac0	-0.02578485
248	0x3d7799d2	0.06044943
249	0x3c7e67c0	0.015527666
250	0x3bcafd60	0.0061947554
251	0x3b4033e1	0.0029327797
252	0xbc34fed2	-0.011047082
253	0x3b057ad1	0.0020367394
254	0xbd02f3a4	-0.031970635
255	0xbc2e2459	-0.010628783

log_std_layer.bias f4 [3]
0	0xbd0a9f54	-0.033843353
1	0xbccd518c	-0.025063299
2	0x3d3a9d83	0.04556037
