outputs/fix_demand_rule/A2C_router/summer20251105-025943/models/policyB_actor.pth (torch, 276744 bytes, 8 tensors)

fc1.weight f4 [256, 5]
000000 bf b2 b8 be e5 14 99 3d 43 fb ab be 76 c5 cb 3e
       -0.36073872 0.074746884 -0.33590135 0.39799088
000010 03 53 f9 bd 6a 72 5d be 60 a0 e2 be 00 20 aa be
       -0.12174036 -0.21625677 -0.4426298 -0.3322754
000020 ea 01 8d be 30 c2 dd 3e a0 b8 8c 3d a8 86 1d bd
       -0.27540523 0.43312216 0.06871152 -0.038458496
000030 38 3f d6 bd 0b cd c6 3d b2 70 f2 3d 68 1d e2 3e
       -0.10461277 0.097070776 0.11837901 0.4416306
000040 dd 40 7a 3c 73 be aa be 37 51 aa be 1f f4 9b be
       0.015274254 -0.33348426 -0.33265087 -0.30459687
000050 a8 6f a3 3e a8 8b 52 be 3f 54 5e 3d 7b c2 e4 3e
       0.31921124 -0.20561087 0.054279562 0.44679627
000060 67 bc d0 be 6a b5 64 be e9 4b 8f be 91 ac a6 be
       -0.4076874 -0.22334829 -0.27987602 -0.32553533
000070 87 9f 88 be 8e 52 e3 be ae 52 a1 3e b6 02 c2 be
       -0.2668421 -0.44398922 0.31508392 -0.37892693
000080 bb 6c 66 3e cf 5c 2c 3e 45 b2 a2 be 5b 2a 16 bc
       0.22502415 0.16832279 -0.31776634 -0.009165372
000090 e8 95 e1 bd f6 4c 5a 3e bf 39 7f bb b4 27 91 3e
       -0.110149205 0.21318421 -0.0038944331 0.28350604
0000a0 2c 49 10 be b4 e7 9c 3e a4 26 11 3d 7c 99 4a be
       -0.14090413 0.30645525 0.03543724 -0.19785112
0000b0 2d 6c 9c bc 20 1d db 3e 94 0f 35 3e 10 f0 9c be
       -0.019094551 0.42795658 0.17681724 -0.30651903
0000c0 ad 17 39 bb 19 ec ce be 3f 6e ea 3d 43 a3 d1 3e
       -0.0028242872 -0.40414503 0.11446809 0.4094487
0000d0 b3 9f d2 be 47 82 71 bc 61 2c 6d bd f7 3b 84 3d
       -0.41137466 -0.014740533 -0.05790365 0.0645675
0000e0 e4 4f 4d 3e 9d 39 f6 bd b6 fc 79 bd 9d c1 b1 3d
       0.20050007 -0.120227076 -0.06103202 0.08679507
0000f0 f3 3b 93 be 78 c3 e3 3e 41 84 84 be 92 90 35 be
       -0.28756675 0.44485068 -0.25882152 -0.1773093
000100 b7 20 b6 be 44 c8 37 be 8e 32 c3 be 9f 85 97 3e
       -0.35571834 -0.17947489 -0.38124508 0.29594132
000110 1a 9e 63 be 9b 0c e4 be c5 f1 d9 3e 99 2a 33 3d
       -0.2222828 -0.44540867 0.42567268 0.043741796
000120 dd 99 da 3e 4d 91 cb be 94 91 91 3d ba 18 5f be
       0.42695513 -0.39759293 0.07107845 -0.21786776
000130 e0 ed c9 be 01 03 bb 3e 9d 00 d8 be 9a c7 0c 3d
       -0.39439297 0.3652573 -0.42187968 0.034370042
000140 0e 8c e2 be bc 36 1c bc 00 31 66 3d cf f4 57 be
       -0.44247478 -0.009534534 0.056199074 -0.21089481
000150 d5 e3 9c 3d 72 2a d3 be 07 f8 d2 bd cc a7 d7 be
       0.07660643 -0.4124332 -0.10301214 -0.42120206
000160 35 6a 43 3b 28 90 dd be 11 7c ce be c2 24 0a bd
       0.0029817943 -0.43274045 -0.4032903 -0.03372646
000170 9f 4d 47 be 8b a5 14 be 90 d5 a2 3c a4 e9 d1 3d
       -0.19463204 -0.14516275 0.019877225 0.102496415
000180 1e f4 1c be 58 69 a3 be bc 41 91 bd 78 91 c7 be
       -0.15327498 -0.31916308 -0.07092616 -0.3897817
000190 02 f3 d7 3e 8d 30 03 3e c8 2e ef 3d 36 de c6 be
       0.42177588 0.1281149 0.11678845 -0.38841408
0001a0 59 6e 97 3d 3c ff 03 3c 0a 22 99 3e 6c 94 0b bd
       0.07394094 0.008056458 0.29908782 -0.034077093
0001b0 6c 00 8b bd 90 a4 d7 be bc e5 cf be 1b 95 82 3e
       -0.0678719 -0.4211774 -0.4060496 0.25504383
0001c0 78 d4 8b be cd a9 60 3e e5 e5 72 be 8f 26 b5 3e
       -0.27310538 0.21939774 -0.2372051 0.3538098
0001d0 bb 76 80 be fc 0a b3 3e bb 97 4b 3d 08 5b 80 be
       -0.25090584 0.34969318 0.04970525 -0.2506945
0001e0 0b 43 5d 3e 57 d9 c1 3e 2d 57 19 3e fd 19 a8 be
       0.21607606 0.3786113 0.14974661 -0.32832327
0001f0 43 98 c9 bd 6b 45 bd 3e 4b 4d 77 bc c3 85 6d 3e
       -0.09843495 0.36967024 -0.015094112 0.23195557
000200 95 f6 51 3e 71 43 94 3e a6 da 32 3e c9 e1 a1 3d
       0.2050422 0.28957704 0.1746622 0.07904393
000210 d4 44 5a 3e 83 2d 40 3e 29 77 e2 3e 63 3c 5f 3d
       0.21315318 0.18767361 0.44231537 0.05450095
000220 8f 5c af bd b5 6c 01 3e 05 8c c0 be 31 b7 89 be
       -0.08562576 0.12639125 -0.37606826 -0.26897576
000230 98 92 1e 3d 55 39 67 be 90 b3 42 be a5 c5 ed bd
       0.03871402 -0.22580464 -0.1901381 -0.11609963
000240 84 81 a6 3d e0 c9 01 be 13 29 ce bd 0f 24 31 be
       0.08130172 -0.12674665 -0.10066428 -0.17298912
000250 16 d8 5d be 54 b1 e9 bd fd 10 50 be 90 98 73 3c
       -0.21664461 -0.11410776 -0.2031898 0.014867917
000260 b6 59 0c 3e 1d 61 a5 3d f0 86 a4 3d 33 4f 8d be
       0.13706097 0.080751635 0.0803355 -0.27599487
000270 57 1c 9c 3d 6c bb 0a be 63 c2 04 3d b8 88 c0 3e
       0.07622593 -0.13548058 0.032411944 0.37604308
000280 e3 dd ab 3e a3 2b 7f 3d ef 2c fd bc 22 0b b2 be
       0.33567724 0.062297475 -0.030905215 -0.3477412
000290 45 44 7a 3e 23 eb 5e 3c 5f 73 04 3e 84 88 9a 3c
       0.24440105 0.013605866 0.12934636 0.018863924
0002a0 1c 77 c4 be b2 cf b4 be 95 1e c8 be 93 56 71 3e
       -0.38372123 -0.3531471 -0.39085832 0.23568182
0002b0 8a a3 b2 be b3 06 ba 3e ed 22 89 be 33 24 b0 be
       -0.34890395 0.36333236 -0.2678446 -0.34402618
0002c0 6f 58 c9 3e 26 b7 46 bd 00 60 2c be 15 40 2b be
       0.39325282 -0.048514508 -0.16833496 -0.16723664
0002d0 a1 11 00 3e 5a c8 93 3e ed 0b 85 be 75 76 30 be
       0.12506725 0.28863794 -0.2598566 -0.17232688
0002e0 45 7e 9b be c5 64 be 3e 2c 77 df 3e e3 8f c1 be
       -0.30369774 0.37186256 0.43645608 -0.3780509
0002f0 e4 e8 a8 be 17 a5 da be d6 b0 00 3e 92 22 80 3e
       -0.3299018 -0.4270408 0.12567458 0.25026375
000300 f9 2d 4d 3d 44 d7 c7 3e 53 cb 88 bd 29 b9 78 3e
       0.05009267 0.39031422 -0.06679406 0.24289383
000310 81 5d cb 3e 51 f7 cd be 86 a3 9c 3e 76 ab 1b 3e
       0.39719775 -0.4022775 0.30593508 0.15202126
000320 60 72 a8 be 8c 55 d7 3e 54 1c ac be f7 4c 31 3e
       -0.3289976 0.42057455 -0.33615363 0.17314516
000330 92 8c 2c 3c 9f 92 16 3e a7 a7 4d 3d 94 ca 83 bc
       0.010531561 0.14704369 0.050208714 -0.016087808
000340 a2 89 2a 3e 2e 91 d2 3e 6c 28 88 3e 41 0a 9d be
       0.16654065 0.41126388 0.2659334 -0.30671886
000350 ec 06 84 3d b8 13 c0 3e b2 0b 60 3e 3e 0c ce be
       0.06446633 0.37515044 0.21879461 -0.40243715
000360 40 35 e6 bc a9 45 80 3e 99 ab 95 3e 30 54 9a 3c
       -0.028101563 0.25053146 0.2923248 0.018838972
000370 95 69 3b 3e f8 20 9d be 9e a6 af 3e 8b 85 c3 3e
       0.18301995 -0.30689216 0.34306806 0.38187823
000380 f1 77 29 be 0b ac af 3d 58 7b 66 3e aa c3 90 be
       -0.1654966 0.085777365 0.2250799 -0.2827428
000390 fe 3b cc 3d 18 8f ae 3e 7f a1 01 3d d7 64 b1 3e
       0.0997238 0.34093547 0.031648155 0.34647247
0003a0 12 11 42 be 13 38 ad 3e 76 87 80 be 79 04 b7 3e
       -0.18951824 0.33831844 -0.25103348 0.357456
0003b0 e7 00 e1 be d3 99 9e 3c b4 41 9a be 01 92 48 be
       -0.43946 0.019360458 -0.30128253 -0.19586946
0003c0 df da 9e be e1 51 14 3d 41 bd 06 3c a4 0a ab 3e
       -0.3102636 0.0362109 0.008223833 0.33406556
0003d0 ec 67 14 bd 56 44 b5 be 93 be 98 3e d9 3f b3 be
       -0.03623192 -0.354037 0.29832897 -0.3500965
0003e0 cd 6c 3c 3e 38 00 84 3e 6b 03 99 be 24 62 2a 3d
       0.18400879 0.25781417 -0.2988542 0.0415975
0003f0 9b ce 0e 3e e2 b0 a6 be 63 4a 35 3e 95 7e b5 be
       0.13946001 -0.32556826 0.17704158 -0.35448137

fc1.bias f4 [256]
000000 4f 5f 3a 3e 68 07 e2 3e 64 42 3c be f1 37 08 3e
       0.1820042 0.44146276 -0.18384701 0.1330259
000010 bf 64 dc 3e de 27 d3 3e 54 a7 dc 3e 50 d7 c1 3e
       0.43045613 0.41241354 0.4309641 0.37859583
000020 a0 01 b1 be 55 bf 18 be c4 25 dc 3c 59 ff 19 3d
       -0.34571552 -0.14916737 0.026873477 0.037597034
000030 a9 d0 c0 be 77 38 1b be 50 cc 1c 3e fe 2a 7f 3e
       -0.37659195 -0.15158258 0.15312314 0.24918744
000040 87 b4 52 3e 61 02 c8 3e d2 29 ac be 64 98 e3 bd
       0.20576678 0.39064315 -0.33625656 -0.111130506
000050 ef 95 ae be c6 c0 b6 be 71 66 aa bc 2d 7c 0a be
       -0.34098765 -0.3569395 -0.020800801 -0.13523932
000060 22 c2 aa bd fe a7 15 be 12 8d de 3e f8 bc 45 be
       -0.08337809 -0.14614865 0.43467003 -0.19310367
000070 43 b8 83 3e fb 5c de bd 1c 49 84 3e 0a fd b9 be
       0.25726518 -0.10857578 0.25837028 -0.36325866
000080 f0 da bc be 24 96 c1 3e 10 44 e0 be 0b 08 64 be
       -0.36885786 0.3780986 -0.43801928 -0.22268693
000090 0a ed 61 be 0a 4f 7f 3e 22 ac 1b be f8 05 d6 be
       -0.2206308 0.24932495 -0.15202382 -0.4180143
0000a0 8c 4c 5a 3e 18 81 5d 3e 83 c5 f1 3c 89 9f cd be
       0.21318263 0.21631277 0.029513126 -0.40160778
0000b0 e4 70 89 be 7a b0 bc 3e 78 ea b1 bd 0b 20 c2 bd
       -0.2684394 0.3685339 -0.086872995 -0.09478768
0000c0 7c f6 98 3e bc 65 52 3d 85 54 63 be 11 73 aa bd
       0.29875553 0.051366553 -0.2220021 -0.083227284
0000d0 1e 33 35 3d 88 02 9b 3e c7 79 6d be 15 c9 9b be
       0.044238202 0.3027537 -0.23190986 -0.3042685
0000e0 53 21 9c 3e 0e c1 c6 3e f2 8d 9f 3d 89 db 71 be
       0.30494174 0.38819164 0.07790746 -0.23618902
0000f0 35 46 2d be 37 73 d2 3e 27 ab 6a be 97 ed c2 be
       -0.16921313 0.41103527 -0.22916852 -0.38071892
000100 a9 f7 91 3e a5 f0 73 bc fe 63 a8 3c d5 fd 6b be
       0.28509262 -0.014888917 0.020555492 -0.23046048
000110 00 16 dd be 5b 05 0e be 1f 20 77 3e b4 ee fb 3d
       -0.43180847 -0.1386923 0.24133347 0.123013884
000120 77 5b 97 3e cc 4e b8 be 91 fc f2 3d 4c d0 93 be
       0.2956197 -0.35997617 0.118645795 -0.28869855
000130 f9 c4 be be 95 01 48 bd 4c 71 46 3e 77 d7 24 be
       -0.37259653 -0.048829634 0.19379157 -0.16097818
000140 59 47 31 be bd 9c fe 3d 00 de 26 bd cd 39 40 be
       -0.17312373 0.12432239 -0.04073906 -0.18772049
000150 aa 9f 9e bc 0b 6b 2c be 40 01 bb 3e 3c 29 8e be
       -0.019363243 -0.16837709 0.3652439 -0.27765834
000160 f0 0d 59 be 4d fe cd be 56 14 e0 be 04 3f a0 3e
       -0.21196723 -0.4023308 -0.43765515 0.31298077
000170 4d 9d 9b 3e 5d 3b b5 3d 99 7b cf be 93 ea 9b 3e
       0.30393448 0.08849213 -0.40523985 0.30452403
000180 97 8e ae 3e c5 f0 92 bd ae 82 4b be 8f 01 c2 3e
       0.34093162 -0.071748294 -0.19874069 0.37891814
000190 71 e7 7c be f1 8c f5 3d 43 af 99 3e 24 08 b5 be
       -0.24697663 0.11989773 0.30016527 -0.35357773
0001a0 8a 3c ab bd ec ff af 3e f3 44 34 be 16 03 cd bc
       -0.08361156 0.3437494 -0.17604427 -0.025025886
0001b0 2c a0 51 bc 0a e3 92 3e 30 67 87 be 3a 94 f8 3d
       -0.012794536 0.28688842 -0.26445913 0.12137647
0001c0 1b 06 7f be ad be d0 3e 7f cd d3 3e 4b a2 06 3d
       -0.24904673 0.40770474 0.4136772 0.03286962
0001d0 71 7d e2 3e 00 4e 93 bd 19 65 7c be 62 dd 4f be
       0.4423633 -0.07192612 -0.2464794 -0.20299295
0001e0 29 fe aa bb 25 e2 1b be 90 48 58 bd 28 46 ba be
       -0.0052182865 -0.15222986 -0.052803576 -0.3638165
0001f0 81 e5 d1 be 14 44 a5 3c e8 7c 9f 3e 87 de c1 be
       -0.4099541 0.020174064 0.31149983 -0.37865087
000200 b1 11 48 3e 9a 5e c1 3e 54 26 78 3e a0 59 0a be
       0.19537999 0.37767488 0.24233371 -0.13510752
000210 99 37 c8 bd 96 0d 84 be 2b 1a e5 be a9 04 b2 be
       -0.097762294 -0.25791615 -0.44746527 -0.3476918
000220 a2 68 cd be 60 93 38 be 33 55 b6 be 5e 06 e2 be
       -0.4011889 -0.18024969 -0.35611877 -0.44145483
000230 fc aa 51 3e 8b 70 a0 bb fd 88 43 3e f2 38 a1 3e
       0.20475382 -0.0048962287 0.19095226 0.31488758
000240 71 c3 44 3e 9f 32 db 3d 51 5d 1e be 56 0a c9 3e
       0.1921518 0.107030146 -0.15465285 0.39265698
000250 bb 8b df be 4b 95 3d bd 3f 52 47 3d 3a 2e 23 3d
       -0.43661293 -0.046284955 0.04866242 0.039839007
000260 85 08 b9 3e 56 8c 94 bd 8c 5b 43 be 46 21 80 bd
       0.36139312 -0.072533295 -0.19077891 -0.062563464
000270 1c f2 a3 3e 3f 1c de be a6 a8 00 3c 06 3b 7b 3e
       0.32020652 -0.43380925 0.007852709 0.24534234
000280 5d 27 9d 3e ba 2c c1 3e 4e ce 4d be 32 ac be 3e
       0.30694094 0.37729436 -0.2009823 0.3724075
000290 a1 3c c2 be 5e e9 5c 3e 2b 31 cd 3e ea 0d 2b bd
       -0.3793688 0.21573398 0.40076575 -0.041761316
0002a0 21 c1 b6 bd 3d 18 14 3e a3 cb 4f 3e 51 ac b5 be
       -0.08923555 0.14462371 0.20292525 -0.3548303
0002b0 b0 91 16 3d 8a 50 19 be 90 47 73 bd 59 58 17 bc
       0.036760032 -0.1497213 -0.05939442 -0.009237372
0002c0 bb b9 23 be cd ec 62 3e ac 12 70 be be fa 72 be
       -0.1598882 0.22160645 -0.23444623 -0.23728463
0002d0 2f 11 d3 be 0f b1 c1 bd e5 17 cc be a5 a1 7e be
       -0.41224048 -0.09457599 -0.3986198 -0.2486635
0002e0 11 31 60 3e 71 3b d5 3e 76 b2 2e be df 0c dd 3d
       0.21893717 0.41646913 -0.17060265 0.107934706
0002f0 c3 0d a6 3e 0e cb 32 be 9c 22 9c bd ff 19 93 bd
       0.32432374 -0.17460272 -0.07623789 -0.07182693
000300 ac cf 97 3d cf f5 8a bc c0 a3 da 3e 6b f4 a3 be
       0.07412657 -0.016962914 0.42703056 -0.32022414
000310 25 bc 34 3e d8 9e 41 be 17 37 98 be c6 68 cc bd
       0.17649896 -0.1890825 -0.2972953 -0.099809214
000320 89 40 27 3e a8 eb c5 be 5e 95 88 ba 6c d5 b0 be
       0.16333212 -0.38656354 -0.0010420491 -0.34537828
000330 4e 4b 7a 3e 49 ce b0 bd f3 17 c0 3d 39 55 99 bd
       0.24442789 -0.08633096 0.09379568 -0.07486958
000340 5a 0c 5b be b5 04 5c 3d db aa 9b be ee ea ab 3e
       -0.2139143 0.053715426 -0.3040379 0.33577675
000350 dd 2c ab 3e 5d a0 b0 be cc 78 cc 3e 39 4f c1 3e
       0.33432665 -0.34497347 0.3993591 0.37755755
000360 34 3d 98 be d6 29 2f 3e 76 0a 2d 3e ad 66 5a 3e
       -0.29734194 0.17105803 0.16898522 0.2132823
000370 d0 f3 e4 3d 8f a3 af be b7 14 d7 bd fd f2 a8 be
       0.11179316 -0.34304473 -0.10501998 -0.32997885
000380 d8 ab c2 be fe 8e a5 be 83 28 0a be ab 2e 6a 3d
       -0.3802173 -0.32335657 -0.13492016 0.057173412
000390 4b 94 81 be 4d 5d cc 3e 49 c6 ba 3e 80 14 c1 3e
       -0.2530845 0.39914933 0.36479405 0.37710953
0003a0 3d 6c 8b be b4 c5 79 3e be 9b b9 3e 7a 98 fa 3c
       -0.27231017 0.24391824 0.36251634 0.030590285
0003b0 00 8b db 3e d9 79 aa 3e 40 f0 22 bd 72 de 9b 3e
       0.42879486 0.33296087 -0.0397799 0.3044315
0003c0 cf 89 d7 3e bb 40 9f be 59 37 50 3e 38 f6 96 be
       0.42097327 -0.31104073 0.20333613 -0.29484725
0003d0 28 dd ce 3e 68 6e f6 3d 80 ab 87 bd c2 20 c6 be
       0.40403104 0.12032777 -0.06624508 -0.38696867
0003e0 bc 6c 9c be f0 3f 5c 3e a1 54 fd bc 0f ae c3 be
       -0.30551708 0.21508765 -0.030924143 -0.38218734
0003f0 87 63 d3 ba 40 da 3e be c4 30 b1 3e 91 be d4 be
       -0.0016127684 -0.18637943 0.34607518 -0.4155164

fc2.weight f4 [256, 256]
000000 b0 28 31 3d 78 62 9c bc d8 26 33 3d 4c 7a e0 3c
       0.043251693 -0.019089922 0.043738216 0.027402066
000010 c6 f4 3e 3d a8 8d a7 3c 88 1f bb bc d8 87 51 bd
       0.046620153 0.02045329 -0.022842184 -0.05115494
000020 08 cc 59 bc 40 96 84 3b e0 5b 44 bb 94 2b 96 3c
       -0.013293274 0.0040462315 -0.0029961988 0.018331327
000030 90 76 43 bd 48 b5 5c 3d 00 54 81 bc 70 bc 64 3d
       -0.047720492 0.05388382 -0.015787125 0.05584377
000040 28 7b d7 bc f0 f4 34 3c 60 a1 a9 3b 2c 03 4a bd
       -0.026303843 0.011044726 0.005176708 -0.04931943
000050 36 63 4a bd 40 5a e1 bc d8 3a fb bc 68 b0 92 bc
       -0.04941102 -0.027508855 -0.030667707 -0.017906383
000060 44 d3 e6 bc 40 9b 84 ba c0 e9 e8 bb d0 83 07 bc
       -0.028176911 -0.0010117069 -0.0071079433 -0.008271173
000070 78 9e fc bc f8 ab 7c bc 0c 5e 6f bd c0 7d 36 3d
       -0.030837283 -0.01542186 -0.0584393 0.04455352
000080 70 12 c4 3b 2e 73 49 3d cc 32 1f 3d 24 ff f8 3c
       0.0059836432 0.04918211 0.038866803 0.030395098
000090 da d4 51 3d c0 df 28 bc 38 6c 46 bc ac 2d 63 bd
       0.05122838 -0.010307252 -0.012110762 -0.055463478
0000a0 80 e2 81 bc 9c 43 1e bd 58 9a 77 bd 66 38 65 bd
       -0.015855074 -0.038638696 -0.060449928 -0.05596199
0000b0 9e db 5e bd a8 2a a1 bc d4 0c cd bc ac 2d 9d bc
       -0.054408662 -0.01967366 -0.025030531 -0.019186817
0000c0 4a 4b 59 bd 30 6d 51 bc ee 37 55 bd 44 93 c3 3c
       -0.053050317 -0.01278238 -0.05205529 0.023873933
0000d0 ae 2f 67 3d 84 d5 11 3d 06 5b 76 3d c6 97 27 bd
       0.056441955 0.035604015 0.0601454 -0.040916227
0000e0 58 34 49 bd 58 bb 2c bc 6c 61 cb 3c e0 34 b7 bc
       -0.049122185 -0.010542713 0.024826728 -0.02236408
0000f0 d6 e2 09 3d 50 c2 2a 3d 30 f4 6b bd 10 17 e9 bb
       0.033663593 0.041689217 -0.057605922 -0.007113345
000100 6e 77 12 3d 90 67 e8 3c 88 c4 78 3d cc 75 a2 bc
       0.03575843 0.028369695 0.0607343 -0.01983156
000110 66 db 05 3d 34 10 d6 3c 5c c5 3d 3d 78 58 39 3c
       0.032679938 0.026130773 0.046330795 0.0113125965
000120 34 0d 2a bd b0 2e 6e bc f4 e6 a7 bc 04 2a 5d bd
       -0.041516498 -0.014537498 -0.02049587 -0.053995147
000130 90 4e b6 3c 68 d4 6a 3c b0 97 12 bd a8 7e f5 bc
       0.022254258 0.014332868 -0.03578919 -0.029967621
000140 70 b9 47 bd 70 d9 cd 3b b0 5d 75 bc 4a c0 60 bd
       -0.04876083 0.006282024 -0.01497595 -0.05487088
000150 70 1f 60 bc 48 5f d5 3c 2c 7c db 3c a4 d1 42 bd
       -0.01367937 0.02604641 0.026792608 -0.04756321
000160 c2 5c 17 3d 58 c4 72 3c 04 a1 2e 3d c6 d8 3d bd
       0.036953695 0.01481732 0.042634025 -0.04634931
000170 20 97 13 3b c0 ad 14 3b a6 66 35 bd 9c 8e 1e bd
       0.0022520497 0.002268657 -0.044287346 -0.03871022
000180 f0 64 04 bc c8 47 f7 bc 50 19 71 3c d6 cc 1f bd
       -0.008080706 -0.030185595 0.014715508 -0.039013706
000190 e0 6b 88 bc 28 35 49 bc 20 a5 76 bc d0 9e 42 bc
       -0.016653001 -0.01228074 -0.015054017 -0.011878684
0001a0 cc 01 0a 3d 34 2c 67 bd 60 58 27 bd 7a d5 51 bd
       0.03369312 -0.05643864 -0.040855765 -0.051228978
0001b0 90 5f 2b bd 0c f7 ff 3c 18 54 bb 3c 04 f8 9b 3c
       -0.041839182 0.03124573 0.022867247 0.019039162
0001c0 6a 10 48 3d 90 a6 88 3c 92 1f 54 3d a2 cf 46 3d
       0.04884378 0.016680986 0.05178792 0.048537858
0001d0 60 b3 25 3b 8c 5f 04 bd a6 ac 05 bd 08 59 eb bc
       0.0025283918 -0.032317683 -0.032635354 -0.028728977
0001e0 78 69 db bc 78 b2 e8 bc e4 4e 7e 3d a0 8b 5b 3b
       -0.02678369 -0.028405413 0.062086955 0.003349997
0001f0 b0 cc cf bc 8e e3 0e bd b0 3d 7e 3d 30 2a 99 3c
       -0.025366157 -0.03488498 0.06207055 0.018696874
000200 18 ed db 3c 0a 5f 1f 3d a6 71 15 3d a8 e9 0c bd
       0.026846454 0.038908996 0.036485337 -0.03440252
000210 08 c1 3a 3d b6 c6 57 bd a8 22 24 bc ce 69 5f 3d
       0.045594245 -0.05267974 -0.010018028 0.054544263
000220 a0 df b2 bc 44 dd f3 3c b8 de 53 3c c8 89 df bc
       -0.021835148 0.029768594 0.012931518 -0.027287379
000230 8e 65 03 3d 98 1e 1a 3d b4 58 5e bd f0 02 b8 3b
       0.032079272 0.037626833 -0.054283813 0.0056155846
000240 66 b0 2a 3d 8a ef 16 bd 50 cc 05 bd 2c 46 00 3d
       0.041672133 -0.036849536 -0.03266555 0.03131692
000250 78 54 07 bd 9a 89 3a bd 60 15 3f bb dc 75 75 3d
       -0.03303954 -0.045541383 -0.0029157028 0.059926853
000260 54 3c d4 3c d0 83 77 bd 94 4e 7a bd 20 b1 b8 bb
       0.025907673 -0.06042844 -0.061110094 -0.0056363493
000270 82 af 14 bd 00 36 12 bc f4 07 d6 bc 66 ee 4e 3d
       -0.03630019 -0.008924007 -0.02612684 0.050520323
000280 e8 c4 23 3d 10 46 f0 bb d0 d8 a5 3c ce 23 75 bd
       0.039982706 -0.007332571 0.020244986 -0.0598486
000290 74 b6 85 bc 9c 4d 4f 3d e0 45 ac bb 36 e0 25 bd
       -0.016322352 0.050611123 -0.005257353 -0.040497027
0002a0 b4 b5 14 3d 1a 6c 6b 3d 08 6d 00 3c 14 b7 95 bc
       0.036306098 0.05747614 0.007838495 -0.018275775
0002b0 60 1a d3 3c 96 eb 5a bd e0 af a1 3b 34 d3 08 3d
       0.025769413 -0.05344733 0.004934296 0.033404544
0002c0 50 80 81 3c 5e f7 51 3d bc 1b 38 bd 34 45 92 bc
       0.015808254 0.0512613 -0.044948325 -0.017855264
0002d0 76 9c 7c bd 78 a8 e6 bc 32 49 07 3d 14 98 67 bd
       -0.06167265 -0.028156504 0.03302879 -0.056541517
0002e0 00 b9 48 ba 08 b0 14 3d 4e 50 51 bd 80 d5 d3 bc
       -0.00076569617 0.03630069 -0.051101975 -0.02585864
0002f0 80 46 f9 bb 10 cb 25 bd 60 a2 7f bd 98 9d 16 3c
       -0.007607281 -0.04047686 -0.062410712 0.009192847
000300 ac 2a d5 3c b4 b3 c6 bc d2 65 15 3d 20 d9 23 bb
       0.026021324 -0.024255611 0.036474057 -0.0025001243
000310 82 ca 0b 3d 14 6b 3d bd 0e 44 38 3d a4 36 34 3d
       0.034128673 -0.046244696 0.044986777 0.04399742
000320 82 1f 6b bd c8 b2 49 bd 44 49 93 bc 38 04 68 bc
       -0.057403095 -0.049242765 -0.017979272 -0.014161162
000330 24 fd 2f 3d 80 57 d1 bb 70 a4 f0 3b 40 2a e4 bc
       0.042966023 -0.0063886046 0.007343821 -0.027852178
000340 e4 3f 6b bd f8 90 51 bc 0c d5 e8 3c 7c 0a 34 3d
       -0.057433978 -0.012790911 0.028421901 0.04395531
000350 68 a1 a1 3c b6 a8 5d bd a4 15 1a bd d0 4b 95 bc
       0.019730285 -0.054115973 -0.037618294 -0.018224627
000360 7c 17 9c 3c 88 31 bc 3c 1a b0 2b bd 78 ab 54 3c
       0.019054167 0.022972837 -0.04191599 0.012980334
000370 a6 b5 66 bd ba 69 42 bd 12 30 09 3d 60 5b a1 3b
       -0.056325577 -0.04746411 0.03349311 0.004924223
000380 60 e1 fa 3b 2c 32 69 3d 7a 07 24 bd 54 c1 fb bc
       0.0076562613 0.056932613 -0.040046193 -0.030731834
000390 00 42 68 3a 06 04 7b 3d c6 bc 6b bd 30 27 28 bd
       0.00088599324 0.061283134 -0.057553075 -0.041052997
0003a0 98 fd 25 3c c0 61 60 3d 44 6c 86 bc 64 84 ea bc
       0.010131262 0.05478072 -0.016409047 -0.028627582
0003b0 18 27 7b 3d d4 51 80 3c de 43 23 bd 3e 23 2a 3d
       0.06131658 0.015664019 -0.039859645 0.041537516
0003c0 40 a3 60 3d e4 6c 92 3c f4 69 8f 3c 30 0c 94 bb
       0.054843187 0.017874189 0.017506577 -0.0045180544
0003d0 18 5b c2 3c 1a 9f 60 3d 32 73 31 bd 44 1e aa bc
       0.023725078 0.05483923 -0.04332275 -0.020766385
0003e0 98 5f 5e bc 24 bc 86 3c 30 73 2e bd 74 4f 33 3d
       -0.013572596 0.016447134 -0.04259032 0.043776944
0003f0 1a a4 3f bd a0 8d 93 bb 38 06 5d bd 68 f5 60 3c
       -0.04678736 -0.004502967 -0.05396101 0.013730384

fc2.bias f4 [256]
000000 80 96 51 bc 1d b1 46 bd 38 70 44 3d 44 71 ce 3c
       -0.01279223 -0.048508752 0.047958583 0.025200494
000010 f4 aa 55 bd 15 20 2d 3d 9e 47 09 bd 2f 69 c4 3c
       -0.052164987 0.042266924 -0.033515565 0.023975937
000020 80 ff 61 bd 43 c7 6c bd 83 4d 2d bd 75 77 36 bd
       -0.055175304 -0.05780722 -0.04231025 -0.044547517
000030 c1 6d 4b 3c b4 a3 00 bc 4f c0 13 bc dc ba 9b 3a
       0.012416304 -0.00785153 -0.009018018 0.001188125
000040 63 6e 61 bc 05 1d d6 bc 06 c1 58 bd a1 ff 0b 3c
       -0.013759228 -0.026136884 -0.052918456 0.008544833
000050 32 cc af bc 85 c7 ef 3c 52 db 30 3d fa 3d c5 3c
       -0.021459673 0.029269943 0.04317791 0.024077404
000060 54 db 8b 3c e4 9e 8e 3c 34 f6 f3 3c a8 fd 5d 3d
       0.017072357 0.01740975 0.029780485 0.054196984
000070 9a 16 3f 3d af a3 a2 3b 34 cc 4c bc a6 45 7e bd
       0.046652414 0.0049633603 -0.012499858 -0.06207814
000080 c8 14 79 3c 23 48 25 3d 42 6a 99 3b 80 24 0e 3a
       0.015202709 0.040351998 0.0046818564 0.0005422309
000090 ec 42 4f 3d 04 7d 26 3d 1e 91 14 bd a0 d3 41 bc
       0.05060093 0.040646568 -0.036271207 -0.0118302405
0000a0 0b 1d 76 3d 78 8d 4d bd d2 07 08 3d f2 95 22 bd
       0.06008629 -0.050183743 0.033210583 -0.03969378
0000b0 43 d9 00 3d 2c 37 62 bd 09 cb 0f bd 97 f4 68 bd
       0.031457197 -0.055228397 -0.03510574 -0.056873884
0000c0 a4 ea 81 bd 38 da fc ba ea 13 ef 3c d4 e2 5f bd
       -0.06343582 -0.0019291108 0.0291843 -0.05465968
0000d0 00 01 50 bd 73 2a 59 bd cc b2 5a 3d ff 65 1d bc
       -0.050782204 -0.053019 0.05339317 -0.009606837
0000e0 c1 bf e0 bc d1 6d 19 bd a1 0c 34 bd 46 f6 69 3c
       -0.027435185 -0.037458245 -0.043957356 0.014279908
0000f0 8c b5 bb 3c 34 38 75 3d ec 79 b2 3c 2a 00 e9 bc
       0.022913717 0.059868053 0.021786653 -0.028442461
000100 6e e5 47 bd 5b ef 25 bc c4 3f e1 3c fa 33 04 3d
       -0.048802786 -0.010127868 0.027496226 0.03227613
000110 5b d7 59 bd 56 02 0f bd fe 44 db 3c b0 ae 52 3c
       -0.053183895 -0.034914337 0.026766296 0.012859032
000120 40 d6 ee bb e0 8d ae 3b d6 d6 25 bd 9f 7b 87 3c
       -0.007288724 0.0053269714 -0.040488087 0.01653844
000130 2a ec af ba 0b d4 2a 3c 39 7e 78 bd 40 e1 bd 3a
       -0.0013421823 0.010426532 -0.06066725 0.0014486685
000140 f6 d6 8e 3b 32 f8 42 bd 2c 3c 04 3d b5 46 5e 3d
       0.0043591214 -0.04759998 0.032283947 0.05426665
000150 2c 1e 75 3d 6c cb 7e 3c 8e 61 c0 3b 70 01 99 3b
       0.059843227 0.015551429 0.0058710044 0.004669361
000160 cd cc 34 bd 1e b3 23 3d 03 55 36 bd 10 f4 05 bd
       -0.044140626 0.03996574 -0.044514667 -0.03270346
000170 e0 ed 6c bd 99 a6 e4 bc 8e 95 99 3b 95 e6 78 bd
       -0.057844043 -0.027911471 0.0046870178 -0.060766775
000180 cc 49 21 bc 67 f6 b7 3c f8 1b ad 3c a0 86 57 bd
       -0.009844255 0.022456361 0.0211315 -0.052618623
000190 99 fd 8e bb 63 46 84 bc fa 41 aa bc 6a 8f 55 3d
       -0.0043637273 -0.016146844 -0.020783413 0.052138723
0001a0 8a 07 35 3d 10 d4 46 bd b5 3f 30 3d d7 29 89 3c
       0.044196643 -0.048542082 0.043029506 0.016743584
0001b0 56 93 1b bd df a5 87 bc 44 9f ad bc 4d c2 0c bd
       -0.037982307 -0.016558586 -0.021194108 -0.034364987
0001c0 c0 70 32 bc 58 95 3b bc 4c 72 b3 bc 3d 29 22 bb
       -0.0108911395 -0.011449181 -0.021905087 -0.0024743818
0001d0 6c 7f c6 3c 5c 4a 21 bc a5 a4 d8 bb ea 48 4a bd
       0.024230681 -0.009844389 -0.006611424 -0.049385943
0001e0 1e b6 f5 3c 21 31 8e 3c 18 4d d8 bc a7 d6 be 3c
       0.029994067 0.01735741 -0.026403949 0.023295714
0001f0 3a 2b be 3c 94 54 92 3c 11 92 7b 3d 04 49 f0 3c
       0.023213971 0.017862596 0.061418597 0.029331692
000200 5c 45 67 3d fe 1c 3c 3d 20 15 a3 bb 4c c7 10 3d
       0.05646263 0.045926087 -0.0049768835 0.035346314
000210 04 e1 61 3d c7 2c 66 3d 88 75 49 bd 75 d2 a8 bc
       0.055146232 0.056195047 -0.049184352 -0.020608166
000220 6f 77 1d 3d 9c d2 cb bb a2 81 50 3d 3b bf ee bc
       0.03844398 -0.006220175 0.050904877 -0.02914392
000230 d7 0c 70 3b a9 ce 66 3d cd bf 48 bd 50 12 3a bd
       0.0036628747 0.05634943 -0.04901104 -0.04542762
000240 d9 c1 c4 bc bb 34 ea 3c ad 7e 8e 3c 88 d4 9a bc
       -0.024018215 0.028589597 0.017394388 -0.01890017
000250 f1 f7 5d 3c 8e 9e 91 3c 91 f8 77 bc cd 21 39 bd
       0.013547883 0.0177758 -0.015134946 -0.04519825
000260 2d 44 f0 3c ff 1f 2e 3d 51 6b 3b bd 4a 22 62 bd
       0.029329384 0.042510983 -0.04575664 -0.05520848
000270 9d 26 7a 3a 30 2c e0 3c 00 28 67 3d f0 f1 75 bc
       0.0009542497 0.02736482 0.05643463 -0.015011296
000280 e3 fe 61 3c a3 23 9e 3c bd 70 f4 3b 0f 68 c2 bc
       0.01379368 0.019304102 0.0074597285 -0.02373126
000290 b5 a3 46 bd c8 52 6f bd 1c d9 44 3d 6f 63 82 3c
       -0.048495967 -0.058428556 0.048058614 0.015916554
0002a0 bb 50 41 3d 51 b8 07 bc ac 0a 31 bd bd 25 c6 bb
       0.04719613 -0.008283691 -0.043223068 -0.006046979
0002b0 e3 d8 d9 bc 5c 01 91 bc a4 77 72 bd 4e b9 66 3c
       -0.026592677 -0.017700844 -0.05919613 0.014082266
0002c0 de f8 0c 3c c0 06 18 3d 49 74 2d 3d f5 b5 2f 3d
       0.008604256 0.037115812 0.042347226 0.042898137
0002d0 63 1c 38 3c 30 80 4e 3d 16 c3 56 3d fb 03 0c bd
       0.011237237 0.050415218 0.052432142 -0.034183484
0002e0 60 23 30 bd c7 ff 1e 3d c5 91 c2 bc a1 18 2b bd
       -0.043002486 0.038818147 -0.023751149 -0.041771535
0002f0 f6 61 54 3d 96 29 15 3d 22 d0 52 3d 3a 2b 1b bd
       0.051851235 0.036416613 0.051468022 -0.03788302
000300 ee 6b a3 3c 6a 6b 46 bd 64 0c c3 3c 9c 22 80 bd
       0.019948926 -0.04844228 0.02380962 -0.06256601
000310 fc 2e 35 3d a8 8b 33 3c 2e 1a 76 3d 78 95 3c 3c
       0.04423426 0.01095859 0.06008356 0.0115102455
000320 98 af 17 bc c6 cf 53 3b 55 3c 60 3d 40 d0 15 bd
       -0.009258173 0.0032319888 0.054745037 -0.036575556
000330 b6 72 16 bd 52 d4 73 bd d1 b9 15 3d c0 be 79 bc
       -0.03673049 -0.059528656 0.03655416 -0.015243232
000340 c4 7a d6 bc a9 8e 95 bc 23 88 24 bd 99 a1 06 3d
       -0.026181586 -0.018256502 -0.040168893 0.032868955
000350 d7 53 55 3d a6 b1 03 bd b1 7f 80 bd 77 01 bc 3c
       0.05208191 -0.03215184 -0.06274355 0.022949917
000360 cb a2 15 bc bb d7 f1 bc 8a 1b dc 3c 7c 4d 5b bd
       -0.009133051 -0.029521814 0.0268686 -0.05354069
000370 7d f2 16 3d 54 07 ef bb 49 82 f0 3c 58 08 4a bd
       0.03685235 -0.0072945748 0.029359 -0.049324363
000380 aa 51 f1 3b 60 13 38 bd 3e 86 2f 3d 13 fe 9f 3b
       0.0073644714 -0.044940352 0.042852633 0.004882583
000390 15 27 ee bc 18 44 ea 3c 9a 01 57 3d 10 b3 99 bc
       -0.02907137 0.028596923 0.05249176 -0.018762141
0003a0 63 2d 2f bc 52 d8 0e 3d 33 52 1a bd 23 4b 61 bd
       -0.010691973 0.034874268 -0.037676048 -0.055003297
0003b0 b0 a4 d0 3b 1e a8 7a 3d f2 93 ac 3c 31 d0 17 bd
       0.0063672885 0.061195485 0.02106664 -0.03706378
0003c0 d8 aa 0b 3d 3c ab 59 bd 20 91 0f 3c ba 34 58 bd
       0.034098476 -0.053141817 0.008762628 -0.05278466
0003d0 30 44 99 bc f5 38 35 bd 0b 7a 9c 3c 67 d2 32 bc
       -0.018709272 -0.04424377 0.019101163 -0.010914422
0003e0 3a 45 b6 bb 03 68 7e 3d 1c 29 8b 3c 5e 33 3a 3d
       -0.0055624517 0.062110912 0.016987376 0.045459144
0003f0 f0 26 72 bd 1c 00 50 3d d0 fa 36 3d 4e b4 10 3b
       -0.059119165 0.050781354 0.044672787 0.0022080126

mean_layer.weight f4 [2, 256]
000000 b0 e4 91 3b ba ac 47 3d 45 e3 56 bd 31 5c 17 bd
       0.0044523105 0.04874871 -0.052462835 -0.036953155
000010 93 1e 15 3c 5b 6c 40 bb ac f0 79 3d e7 e3 78 3d
       0.009101528 -0.002936146 0.06102054 0.06076422
000020 e0 47 1d bb f3 d6 1a bd ba f8 b6 3c e5 fa 1f 3d
       -0.002399914 -0.037802648 0.022335399 0.03905763
000030 62 d9 45 3c 3c 48 17 3d 45 90 43 3b ab 9b 55 bc
       0.012075754 0.036934122 0.002984063 -0.013037602
000040 c5 63 90 3c 4f 4e 2f bc 10 cc 02 bd 5b 70 47 bd
       0.017625699 -0.010699823 -0.03193289 -0.048691135
000050 0e dd 52 bd e3 b6 47 bd 1f f8 9e 3b a2 b2 f3 bc
       -0.051480345 -0.0487584 0.0048513557 -0.029748265
000060 46 32 7b 3d 84 ce 47 bd 90 6c 56 3c 72 37 0b 3d
       0.06132724 -0.048780933 0.013087407 0.033988424
000070 81 23 a4 3a 6a 1d ee bb c8 81 03 bd 03 4b 54 3d
       0.0012522788 -0.00726669 -0.03210619 0.05182935
000080 fe d7 66 3d 4d a7 8d bc 3b b1 76 bd 20 2c 50 bd
       0.05635833 -0.01729169 -0.060227614 -0.05082333
000090 90 a7 32 bd d1 42 ae 3c 7a 3a 11 3d 3a 3e 32 3d
       -0.04361683 0.021272095 0.03545616 0.043516375
0000a0 99 8d 20 bc 55 ac 74 3a 12 97 5a 3d ef f9 51 3d
       -0.0097993845 0.0009333541 0.053366728 0.051263746
0000b0 3b 5c bf bc 6d ca 60 bc 23 70 a3 3c f6 5d f6 bc
       -0.023359409 -0.013720137 0.019950932 -0.030074101
0000c0 3e b7 71 3a ef 52 5c 3d 35 20 35 bd f8 06 e0 bc
       0.00092207256 0.05379003 -0.04422017 -0.027347073
0000d0 dc 47 48 bc b3 70 a1 bc 80 c0 6a 3c 43 7d ce 3b
       -0.012224164 -0.01970706 0.014328122 0.0063015535
0000e0 27 80 61 bc 57 50 55 3b e2 24 cb bc 81 02 ed bc
       -0.013763464 0.0032549107 -0.02479786 -0.028931858
0000f0 c0 46 5a 3d 5c 18 80 3c 6c a5 0c 3d 2b 3c 38 3d
       0.05329013 0.015636615 0.034337446 0.044979256
000100 dc a3 2d bd c9 8e 46 3d 94 25 c6 bc 4d 11 34 3c
       -0.042392597 0.048476014 -0.02418784 0.010990453
000110 28 d2 a3 3c fe 25 d8 3c 5b 99 10 bd 88 ce 31 bc
       0.019997671 0.026385304 -0.0353025 -0.010852464
000120 c0 ae 71 3c e0 6c ad 3b 88 0d 2f 3d 59 ea 72 3d
       0.014751136 0.00529252 0.042737514 0.059305523
000130 21 01 83 bc c2 e0 6f 3c 97 4f 49 3c 82 94 5d 3d
       -0.01599175 0.014640989 0.012287042 0.054096706
000140 aa 2b dd 3c b2 11 6d bd e0 47 30 bd 2e 47 5b bd
       0.02699836 -0.057878204 -0.043037295 -0.05353468
000150 97 18 98 bb 32 c4 45 bd 1f b0 28 bc bc e3 97 bc
       -0.004641603 -0.04828281 -0.010295897 -0.01854121
000160 69 54 89 3c 10 3d 4c bd f9 d3 9b bb c0 71 bd 3b
       0.016763883 -0.04986292 -0.0047554937 0.0057813823
000170 16 d2 10 bd 1c 6c d7 3c 63 cc 52 bd 77 3f 6a bc
       -0.035356604 0.026296668 -0.05146445 -0.014297358
000180 b6 56 3a 3d 8c 74 c8 3c 44 a1 e4 bb b0 4b fc 3b
       0.04549285 0.024469636 -0.006977232 0.0076994523
000190 48 da 32 3d f1 ed 3b 3d d8 b6 1d 3d d7 23 47 bd
       0.0436652 0.045881215 0.03850445 -0.048618164
0001a0 a7 f5 79 3d c8 23 80 3d bb d7 03 3d 4b ff 6b 3c
       0.061025288 0.06256825 0.03218816 0.014404128
0001b0 32 2c 6d bd 34 dc b2 3b a2 5a 2f 3d d1 c7 30 3c
       -0.057903476 0.005458379 0.042811044 0.010789827
0001c0 8c 88 d6 3c 72 1d 0b 3d 26 4b 06 3d c5 56 31 bd
       0.026188157 0.033963628 0.03278651 -0.04329564
0001d0 10 84 fc 3b 20 68 b1 3b 36 e1 00 3d a0 1b 15 3c
       0.0077061728 0.005414024 0.031464778 0.009100825
0001e0 2e 7e 05 3d 2c 8f 83 bc 9f d3 6a 3d 76 d2 27 bd
       0.032591037 -0.01605948 0.057330724 -0.040972196
0001f0 c0 8c b7 bc 7e 37 4f 3d 1c 3d 78 ba 86 2b 43 3d
       -0.022405982 0.05059003 -0.0009469555 0.04764893
000200 a2 e8 2a 3d 02 d4 00 bd c4 43 b7 3c 3f 74 9d bc
       0.041725762 -0.031452186 0.02237118 -0.01922047
000210 9a 0b 8c bc 9c 24 41 bc 38 f1 62 bd 0a 4f cc bc
       -0.017095376 -0.0117885135 -0.055405825 -0.024940033
000220 84 28 5a bc 45 91 5c 3d 0e e7 8c 3c 53 c8 7c bd
       -0.013315324 0.053849477 0.01720002 -0.06171448
000230 04 f5 96 bc 28 a0 40 3d b7 de 32 3d 09 97 b6 ba
       -0.01842738 0.047027737 0.04366943 -0.001393051
000240 9c 6e d2 3a de f1 75 bd 15 44 f5 3c 86 39 35 bd
       0.0016054693 -0.060045116 0.02993969 -0.04424431
000250 78 e3 67 bd f1 16 8c 3c 93 85 2f 3d b9 70 02 ba
       -0.056613415 0.017100783 0.042851996 -0.00049759034
000260 2e bd 49 bc 51 cf 79 3d d9 16 47 bc f2 0b 28 bd
       -0.01231317 0.060988728 -0.012151443 -0.041027017
000270 77 e9 47 3c d8 6c 39 bd 0d ad 55 3d 1e 65 9a bc
       0.012201658 -0.045269817 0.052166987 -0.018847045
000280 d8 9e d6 bc a5 67 8b ba e0 79 70 3d dd 69 da bc
       -0.02619879 -0.0010635747 0.05870998 -0.026661808
000290 2c 74 57 3c bf 77 bc 3c 71 81 55 bd e4 b3 8a 3b
       0.013150256 0.023006318 -0.052125398 0.0042328704
0002a0 9a ed be 3c 9f a0 3c 3d c2 3f 8c bd d3 c2 17 3d
       0.023306657 0.046051618 -0.06848098 0.037051033
0002b0 2b b8 c3 3b d4 72 5c 3d 3d 78 05 bd b7 8e 7f bd
       0.0059728823 0.053820446 -0.03258537 -0.062391963
0002c0 1b 19 42 bd 33 f0 ec bc ff 07 c5 3c 84 eb 55 bd
       -0.047387224 -0.02892313 0.024051664 -0.05222656
0002d0 91 d0 6f 3d 7c 2d bc bc 16 de 26 3d 09 c2 da bc
       0.058548514 -0.022970907 0.04073914 -0.026703851
0002e0 5d 8e 40 bd 36 76 26 bd e5 a8 4e 3d 69 d0 0f bd
       -0.04701077 -0.04064008 0.05045404 -0.035110865
0002f0 a8 52 64 bc 3d d2 ac 3c 45 de 9e 3c 0a 77 0d bd
       -0.013935722 0.021096343 0.019393096 -0.034537353
000300 06 ab 14 bd bf d3 d7 ba ff 72 82 bd 65 be e4 3c
       -0.036295913 -0.0016466303 -0.0636959 0.027922818
000310 c3 38 59 bd 5e 0d 1f 3d 18 c2 48 bd be 57 4b bd
       -0.053032648 0.038831107 -0.049013227 -0.049644224
000320 56 93 28 3d d3 c1 2b 3d e3 4f 51 bb dc bf 51 3d
       0.041156135 0.041932892 -0.0031938485 0.051208362
000330 a0 14 ae 3c be 4a fb bc ae 17 c6 bc f0 fc 60 3c
       0.02125007 -0.030675288 -0.024181213 0.01373218
000340 42 0e 28 3d 33 eb e8 3c 34 68 d9 3c c3 09 59 3d
       0.041029222 0.028432464 0.026538946 0.052987825
000350 4a ac 15 3d 65 b4 55 3d c1 0e a2 3c ff 0f ab 3c
       0.03654126 0.05217399 0.019782426 0.020881651
000360 8b 5f 74 3d b6 b5 94 3c 79 d5 fd 3c 19 01 05 bb
       0.05966143 0.018153053 0.03098558 -0.0020294844
000370 53 6e f7 bb c0 8b 09 3d f2 1a 36 bd 61 a1 dd 3c
       -0.0075509935 0.03358054 -0.04445929 0.02705449
000380 db fa 09 bb 0e 7c 62 3d 40 bc 8b 39 53 95 ca 3b
       -0.0021054063 0.05529409 0.00026652403 0.0061823516
000390 6e bf 00 bd 9c 49 cd 3c aa 8c dd 3b 18 d0 a4 3c
       -0.03143256 0.025059514 0.006761153 0.020118758
0003a0 7a 1f 3e 3d c3 76 a6 bb 27 a1 31 bd 41 0b f4 bc
       0.046416737 -0.0050800755 -0.043366577 -0.029790523
0003b0 40 78 4b 3d 00 b2 9c b9 f9 36 a8 ba 86 a7 4a bc
       0.049675226 -0.0002988726 -0.0012833766 -0.012369042
0003c0 e5 50 3c bc 9a 03 21 3d 8e 84 22 bd 02 88 63 3b
       -0.011493896 0.039310075 -0.039677195 0.0034718518
0003d0 06 e7 52 3d ed e7 84 bc 28 50 ae 3c 47 b8 26 3d
       0.051489852 -0.016223872 0.021278456 0.040703084
0003e0 d5 15 b5 3c 51 ed 03 bc 40 53 fb 3a 7b 70 57 3d
       0.022105137 -0.008052186 0.0019174591 0.052597504
0003f0 70 0d e6 3c 45 1e 88 bd 60 69 76 bc fa c6 f4 3c
       0.02808258 -0.066463985 -0.015039772 0.029880036

mean_layer.bias f4 [2]
000000 5b 88 7e bd a0 18 35 3d
       -0.062141757 0.044212937

log_std_layer.weight f4 [2, 256]
000000 de 68 38 bd b1 5d 1f bd 7b 8a e5 3c e5 19 79 3c
       -0.045021884 -0.03890771 0.028020134 0.015203928
000010 fd 3a 57 bd d8 25 e9 3b 10 e6 c0 bc e1 24 ad 3c
       -0.05254649 0.007115107 -0.023547202 0.02113575
000020 e2 49 2f bd e2 65 cb 3c 12 ac 5d 3d 33 f7 55 bc
       -0.04279507 0.024828855 0.054119177 -0.013059425
000030 a7 f2 42 bc 1e 5d ec 3c e8 ef b2 3c 3b 16 0d 3d
       -0.011898673 0.028852995 0.021842912 0.03444503
000040 c1 18 99 bc 74 96 97 bc 90 b0 bf bc 4d 62 5d ba
       -0.018688561 -0.018504359 -0.023399621 -0.0008445129
000050 aa 81 12 bd fb 06 af bb 89 77 8e bc d6 f5 be 3b
       -0.03576819 -0.0053414083 -0.017390983 0.005827646
000060 f0 e7 fb 3b a0 9a 71 bd bc 8c 48 3d a0 27 2e 3d
       0.007687561 -0.058985353 0.04896234 0.042518258
000070 dd 66 5a bd 33 51 97 3c 30 61 3c 3d 6c d1 78 3c
       -0.053320754 0.018471336 0.045991123 0.015186649
000080 a4 a2 93 bc 75 bf 6a bc af da 8a bb b2 9e 35 bd
       -0.018021889 -0.0143278735 -0.004237495 -0.044340797
000090 02 c6 64 3d 9a 57 cf 3c 04 46 a4 3c 2a 5e 1b 3d
       0.055852897 0.025310326 0.020052917 0.0379316
0000a0 7f 40 4f bc 6e d8 67 3c 28 f7 0e bd 68 fe 56 bd
       -0.012649654 0.014150722 -0.034903675 -0.052488714
0000b0 74 a9 9e bc fd b8 4e 3d 3e 19 e3 3c 6b 28 13 bc
       -0.01936791 0.050469387 0.027721997 -0.008981804
0000c0 9d 1f 99 bb 92 bb 03 bd 0b 61 2b 3a ca c1 36 3d
       -0.004672958 -0.032161303 0.0006537593 0.044618405
0000d0 a0 67 33 bd da 2f 5e 3d e6 45 7f bd 89 6b 1f bd
       -0.043799996 0.054244854 -0.06232252 -0.038920913
0000e0 02 7a 5c bc 2d 1b 2b bc 62 95 65 3d 3f 58 dd bc
       -0.013456823 -0.010443491 0.056050666 -0.027019618
0000f0 40 27 74 bd e6 cb 0e bd 88 b2 da bc 05 24 cd 3c
       -0.059607744 -0.03486242 -0.026696458 0.02504159
000100 f2 3b 0c 3d 5b 80 58 bd 38 38 dd 3c a9 19 29 3d
       0.034236856 -0.052856784 0.027004346 0.041284237
000110 ad ff 6e bd 22 6a f9 bc ec a2 fe bc 80 91 4f bb
       -0.0583493 -0.030446116 -0.031083547 -0.0031672418
000120 de 53 31 3d d4 68 cf 3c b2 ad 45 3d ae a5 bb bc
       0.043292873 0.02531854 0.048261352 -0.02290615
000130 f0 88 43 bc 87 5f da 3c 7e 62 4a 3c 80 59 04 3b
       -0.011934504 0.02665688 0.012352584 0.0020194948
000140 fb 71 13 ba 13 85 0b 3d 52 ab ab bb 60 17 bb bc
       -0.00056245894 0.034062456 -0.005238929 -0.022838295
000150 47 fd f3 3c af 79 c7 3c 1f 63 4b 3d 9e 4a 3b bd
       0.029783858 0.024350015 0.049655076 -0.045725457
000160 5e 6c 39 bd de 8d 32 3d 00 c9 ea bc f4 80 3d bd
       -0.045269363 0.043592326 -0.028660297 -0.046265557
000170 3c c1 90 3c e3 48 46 bd 21 b7 f1 3c 6c 5d 31 bd
       0.017670266 -0.048409354 0.029506268 -0.043301985
000180 d5 14 ca bc 90 88 17 3d 76 ab 8c 3c f0 32 be bc
       -0.024668137 0.03699547 0.017171603 -0.023217648
000190 fd b9 bb bc b0 4b f4 3b 1b a7 64 bd 20 ad 11 3d
       -0.022915835 0.0074553117 -0.055823427 0.035565495
0001a0 ef 10 16 bc 6a e5 79 3d 50 c2 d1 bc 48 3e ee bc
       -0.009159311 0.061009802 -0.02560535 -0.029082432
0001b0 88 79 19 3d e9 e0 48 bd ee 14 49 3d 3c a2 90 3d
       0.037469417 -0.049042616 0.049092226 0.07062194
0001c0 4c ea f8 bc a2 3e 4b bd b0 e5 fe 3c 27 32 9e 3c
       -0.030385159 -0.04962028 0.031115383 0.019311024
0001d0 0c 50 fd bc b1 e8 95 3b df 12 18 3c 83 30 8d 3c
       -0.030921958 0.004574858 0.009281843 0.017235046
0001e0 08 7d de bb 80 44 02 bc 3a 9f 9e bc 36 a6 d1 3c
       -0.006789807 -0.007950902 -0.019363035 0.02559195
0001f0 48 b4 d1 bc f6 0c 7f bd 06 49 75 3d 79 f1 ca bc
       -0.02559866 -0.06226822 0.059884094 -0.024773346
000200 0d 7d 5f 3d 90 89 55 bc 76 82 4e 3d 22 73 a8 3c
       0.054562617 -0.013033286 0.050417386 0.020562712
000210 a4 1f 82 bc b2 81 4f bd 38 69 d5 bc 9e df 1c bc
       -0.015884228 -0.050660796 -0.026051149 -0.009574799
000220 44 4f 26 3d fc ca 65 bd 5c c3 59 3d d3 56 51 bd
       0.040602937 -0.056101784 0.053164825 -0.051108193
000230 29 b3 b9 bc 73 c1 03 3b fa a5 57 3d bd 44 f3 bb
       -0.022668438 0.0020104318 0.052648522 -0.0074239657
000240 93 90 01 bb 5c d4 5b bd c1 30 26 3d 08 f6 36 3c
       -0.001977001 -0.05366932 0.04057384 0.011167057
000250 43 94 2e bd 31 64 63 3d 02 fc 52 3d 92 7b 1a bd
       -0.042621862 0.05551547 0.051509865 -0.037715502
000260 b5 74 ea bc 87 f1 91 bc 73 42 09 bc fe 68 77 3d
       -0.028620103 -0.017815365 -0.008377659 0.060402863
000270 50 d2 01 3c 90 fb c4 3b dc ae 7f ba bc 3d 26 3d
       0.007923678 0.006011434 -0.0009753534 0.04058622
000280 4c d2 64 3d d4 63 37 3d 03 51 98 bb cb 58 a0 bb
       0.055864617 0.044772938 -0.004648329 -0.0048933974
000290 3c 62 3b bd 9a ed c3 3c bf 79 5c bd 58 90 77 bd
       -0.04574798 0.023917008 -0.053827044 -0.06044039
0002a0 1e 5a 09 bd 59 be 54 bd 00 38 98 39 51 88 71 3d
       -0.033533208 -0.051939342 0.00029033422 0.058967892
0002b0 25 95 8e bc 1a 1b 43 bd 8c 57 b6 bb 0e 2a f3 3c
       -0.017405102 -0.047633268 -0.0055646356 0.02968314
0002c0 88 6c 0c 3d 24 cc 8f 3c 7b 70 e5 3c 38 e8 6e 3c
       0.03428319 0.017553397 0.028007736 0.014581732
0002d0 21 e7 f8 3c f8 31 66 bd 98 57 6e 3d 27 29 a9 3c
       0.030383648 -0.056199998 0.058189005 0.020649506
0002e0 f5 74 f3 3c cb d0 05 3d de 99 27 bc f7 cb f7 3b
       0.029718855 0.032669824 -0.010229556 0.0075621563
0002f0 26 a2 67 3d 58 5c fb bc d2 6b 71 3d d8 38 5a 3c
       0.05655112 -0.030683681 0.058940716 0.013319217
000300 d4 f8 cb 3c 8c 1f 6e bd 33 d2 42 3d 56 78 d0 3c
       0.024898924 -0.058135554 0.047563743 0.025448006
000310 61 f3 79 bd c0 1e 32 bb 5b e3 dc 3c 0c ef ff 3c
       -0.06102312 -0.0027178973 0.02696388 0.031241916
000320 18 a1 f6 bc 3e 40 f9 bc 3d de e7 3b e8 2d d0 bc
       -0.030106112 -0.03042614 0.0070760534 -0.025412515
000330 98 63 7d 3d 0f 0b e2 bc 9b 4b 44 3d 04 92 ad 3c
       0.061862558 -0.027593164 0.047923665 0.02118779
000340 37 de 3f 3d e4 4e 18 3d 48 a2 86 bc f8 08 44 3d
       0.04684278 0.03718461 -0.016434804 0.047860116
000350 1d 13 75 bd 0d c0 e4 bb ae 21 67 bc 9b 12 53 3d
       -0.05983268 -0.006980902 -0.014107151 0.051531415
000360 fc 09 32 bd ed 21 d9 3c dd 06 4e bd 6a cf c1 bb
       -0.043466553 0.026505435 -0.050299514 -0.0059146183
000370 d7 cd ee 38 85 61 19 bd 6e 29 8d bc 16 22 3a bc
       0.00011387065 -0.037446517 -0.01723167 -0.011360666
000380 f7 33 e6 bc 56 4f 39 bd 18 cb 2c 3c 0a d1 cc bb
       -0.02810095 -0.045241676 0.010546468 -0.0062505053
000390 c2 d7 85 3c 10 f0 ed bc f0 12 63 bd 66 7a 2a 3d
       0.016338233 -0.029045135 -0.055437982 0.041620634
0003a0 10 2c 07 3d 04 22 c8 ba e2 f8 32 bd d3 ef 02 bd
       0.033001006 -0.0015268927 -0.043694384 -0.031966995
0003b0 c0 38 83 3c 4e 3a 49 3d b4 37 cf bc af 4b 21 3d
       0.016018271 0.04912787 -0.025295116 0.039378818
0003c0 ba 70 55 bd 1c 39 1c 3d de 6a bd 3c e3 92 20 3d
       -0.052109458 0.0381404 0.023122247 0.039202582
0003d0 96 fe 6c bc a6 bb 4c bd 80 98 52 bc d2 8f a7 3c
       -0.014464995 -0.049983643 -0.012853742 0.020454321
0003e0 38 b5 29 bd c9 78 95 3d 66 d4 7c 3d 12 67 34 3c
       -0.04143259 0.072984286 0.061725996 0.011010902
0003f0 a2 ea 24 3d 63 fb aa bc 85 c6 5e 3d 4a c0 23 3d
       0.040262826 -0.020871824 0.05438854 0.039978303

log_std_layer.bias f4 [2]
000000 29 c6 37 bc 7c aa 58 3c
       -0.011216679 0.01322424
