outputs/fix_demand_rule/A2C_router/summer20251105-025943/models/router.pth (torch, 272638 bytes, 5 tensors)

fc1.weight f4 [256, 5]
-0.1826926 -0.177401 -0.4031052 -0.105681896 0.034939468 -0.11460356 0.19603556 -0.20936675
0.21335916 -0.36016116 -0.3324405 0.2946023 -0.27977422 0.21330127 0.4224342 0.42056686
0.11376831 0.24991547 0.10484945 0.38170192 -0.22484177 -0.08659764 -0.23317182 -0.4339613
0.06970855 -0.32266778 0.42053977 -0.1701421 -0.4055332 -0.3007888 -0.04054846 -0.21490651
-0.051309764 0.05675729 0.010781251 0.32643345 -0.26868397 -0.11773691 0.03418204 -0.29191366
0.16985746 -0.40760478 0.26369032 0.38110018 -0.08463594 0.28876722 0.065078035 0.14569986
0.41605055 0.23425773 0.03074105 0.20375843 -0.24321426 0.30502293 -0.23431183 -0.1487789
-0.17948864 -0.02611569 -0.37636966 0.10341784 0.32259455 -0.09472486 0.31414104 0.07364234
-0.11042951 -0.4156895 0.07995491 -0.19906887 -0.013665042 -0.31400114 0.34313098 -0.1822122
0.19418272 -0.07289446 -0.12340612 0.31832367 0.22893934 -0.0029767216 -0.19303334 -0.41524205
-0.28750423 -0.23007295 -0.1922062 0.36589158 -0.15792285 -0.30686632 -0.2057269 -0.3659463
0.24830182 0.23938264 0.07616728 0.09674335 -0.4387695 0.24491024 -0.35834843 0.33269188
-0.20291135 0.24253727 -0.39263937 0.4221801 0.33900136 0.38430685 0.27127498 -0.29953325
0.09093798 -0.12770808 0.30363986 0.25979456 -0.40566486 0.027225593 0.10644723 0.39710844
-0.25027835 -0.19495115 0.26669115 0.029372362 -0.31143516 0.1321958 -0.114857234 0.063981235
-0.36577895 0.07573792 0.151726 -0.22691508 0.18392053 -0.14870398 -0.16625124 -0.31380013
0.43996608 -0.22541814 0.108000934 -0.016847111 0.24176186 -0.27749646 0.23265705 -0.06860793
-0.32743663 -0.2987588 0.16646065 0.21265927 -0.21031515 -0.32769802 -0.2566408 -0.30338144
0.43769845 0.20685194 0.33841217 0.395001 0.35758063 0.4216993 0.09610013 -0.40761393
0.25257435 0.31174153 0.2022939 -0.39529788 0.32171464 0.43101844 -0.057779327 0.32617262
0.36708093 -0.12063185 0.33614138 -0.07271223 0.07532452 0.33397296 -0.19276722 0.44356093
0.24900468 -0.17751169 0.3011497 0.24150318 -0.045745514 -0.4203465 0.11972658 0.25900578
0.15413938 0.21067217 0.026345221 0.18956998 0.15321697 -0.0764086 -0.44283718 0.26278925
-0.26279244 0.19705014 0.3366224 0.28154078 -0.19370978 0.12449778 0.34126392 0.1919117
-0.4368399 0.28332523 0.06454997 0.016176092 -0.34144565 -0.1749502 -0.39572158 -0.24594256
0.40145615 -0.1816422 0.4071885 0.3516804 0.31528744 -0.34230605 0.030657288 -0.18187639
-0.22900245 0.15727113 0.14369912 0.2362308 -0.14174882 -0.23121826 -0.22757378 -0.278123
-0.3254594 0.16268443 0.181867 0.11016313 0.42348337 0.3196393 0.21813294 0.07974592
-0.1230325 -0.14617829 0.32736966 0.24425283 -0.3419261 -0.31313103 -0.18547153 0.19180486
-0.3449935 0.2557889 0.27563998 -0.27946195 0.22678323 0.28643677 -0.3647406 -0.32309303
0.336931 -0.12902607 0.24335426 -0.41669503 -0.053029075 0.16592613 0.39502332 0.13677512
0.046967607 -0.41006926 -0.1613236 -0.23582378 0.26511335 0.009151027 -0.1702884 0.2856429
00000000: c513 3bbe 9ca8 35be ce63 cebe c06f d8bd
00000010: b01c 0f3d 45b5 eabd 8cbd 483e 3d64 56be
00000020: d37a 5a3e 0b67 b8be a435 aabe 1dd6 963e
00000030: 913e 8fbe a66b 5a3e 4c49 d83e 8a54 d73e
00000040: 5cff e83d d7e9 7f3e 4fbb d63d 6f6e c33e
00000050: ec3c 66be 1a5a b1bd 98c4 6ebe 2d30 debe
00000060: 5bc3 8e3d b634 a5be fd50 d73e bb39 2ebe
00000070: 0ca2 cfbe fd00 9abe 2416 26bd 7410 5cbe
00000080: 302a 52bd 557a 683d d8a3 303c 4922 a73e
00000090: f290 89be 0d20 f1bd 7702 0c3d b575 95be
000000a0: 1def 2d3e 93b1 d0be 6b02 873e 901f c33e
000000b0: 9c55 adbd 4cd9 933e a247 853d 5832 153e
000000c0: 9404 d53e 42e1 6f3e a8d4 fb3c 0da6 503e
000000d0: 290d 79be f72b 9c3e 71ef 6fbe 7f59 18be
000000e0: dfcb 37be 92f0 d5bc 86b3 c0be bccc d33d
000000f0: 1d2b a53e 1bff c1bd 18d7 a03e ccd1 963d
00000100: de28 e2bd 41d5 d4be 66bf a33d b6d8 4bbe
00000110: 57e3 5fbc c2c4 a0be ddae af3e d695 3abe
00000120: d6d7 463e b149 95bd 59bc fcbd 52fb a23e
00000130: 136f 6a3e 1a15 43bb 88aa 45be 9b9a d4be
00000140: c133 93be 3e98 6bbe b4d1 44be 2456 bb3e
00000150: 87b6 21be 951d 9dbe 13aa 52be 505d bbbe
00000160: d542 7e3e b920 753e 97fd 9b3d 6121 c63d
00000170: 65a6 e0be c0c9 7a3e 7279 b7be 9756 aa3e
00000180: fec7 4fbe b15b 783e 0708 c9be fd27 d83e
00000190: 9691 ad3e dec3 c43e 8ee4 8a3e 6c5c 99be
000001a0: b13d ba3d e8c5 02be af76 9b3e cb03 853e
000001b0: 4eb3 cfbe 3508 df3c 0101 da3d cc51 cb3e
000001c0: 7c24 80be 46a1 47be be8b 883e 4f9e f03c
000001d0: 6e74 9fbe 565e 073e 453a ebbd 9808 833d
000001e0: 6147 bbbe 7c1c 9b3d 0f5e 1b3e 6d5c 68be
000001f0: aa55 3c3e db45 18be c43d 2abe 69aa a0be
00000200: 3c43 e13e 03d4 66be 982f dd3d f402 8abc
00000210: 6c90 773e 0414 8ebe a63d 6e3e 5082 8cbd
00000220: c6a5 a7be eaf6 98be a974 2a3e 5ac3 593e
00000230: db5c 57be 09c8 a7be 6c66 83be d054 9bbe
00000240: 031a e03e ffd0 533e 5c44 ad3e 923d ca3e
00000250: cf14 b73e f8e8 d73e 25d0 c43d c6b2 d0be
00000260: 6d51 813e 969c 9f3e 2226 4f3e 7c64 cabe
00000270: c8b7 a43e 73ae dc3e 04aa 6cbd 1900 a73e
00000280: 08f2 bb3e d50d f7bd b91a ac3e 26ea 94bd
00000290: be43 9a3d 81fe aa3e c564 45be 6b1a e33e
000002a0: 15fb 7e3e a0c5 35be 4b30 9a3e 9c4c 773e
000002b0: a65f 3bbd a837 d7be 3633 f53d 689c 843e
000002c0: b7d6 1d3e 72ba 573e efd1 d73c a21e 423e
000002d0: e9e4 1c3e 1d7c 9cbd 8ebb e2be 508c 863e
000002e0: bb8c 86be 83c7 493e c559 ac3e 1d26 903e
000002f0: db5b 46be b1f8 fe3d 25ba ae3e 8084 443e
00000300: 7ba9 dfbe 0110 913e c632 843d b983 843c
00000310: f7d1 aebe 2526 33be 059c cabe 5ed8 7bbe
00000320: a98b cd3e 6a00 3abe 037b d03e 740f b43e
00000330: 5b6d a13e bd42 afbe fe24 fb3c ce3d 3abe
00000340: 9e7f 6abe af0b 213e dd25 133e 7de6 713e
00000350: 9a26 11be 7bc4 6cbe 1a09 69be 2366 8ebe
00000360: 9da2 a6be bf96 263e 583b 3a3e 359d e13d
00000370: d0d2 d83e c3a7 a33e 3e5e 5f3e d451 a33d
00000380: 77f8 fbbd c3af 15be ff9c a73e 6a1d 7a3e
00000390: f010 afbe b652 a0be 40ec 3dbe 7e68 443e
000003a0: fda2 b0be c3f6 823e af20 8d3e a315 8fbe
000003b0: dd39 683e d7a7 923e 48bf babe 736c a5be
000003c0: 3882 ac3e 691f 04be dc31 793e 0d59 d5be
000003d0: 0435 59bd 8ae8 293e 7f40 ca3e c70e 0c3e
000003e0: 1b61 403d 99f4 d1be 0432 25be ca7b 71be
000003f0: f0bc 873e 30ee 153c 1560 2ebe c93f 923e

fc1.bias f4 [256]
0.38757306 0.059585046 0.24482705 -0.24307962 -0.10171895 -0.39165923 0.20985045 0.19943644
-0.27577543 0.3454951 -0.16087027 0.3280452 -0.3854643 0.29067752 0.22785828 0.021269746
-0.08603807 -0.008779867 0.10249219 0.31382743 0.25867766 0.43122408 -0.038510073 -0.41053194
0.021908678 0.01635587 0.076409005 0.21099153 0.24618028 0.35884947 0.28487024 0.35233176
0.042567305 -0.17649865 0.24655285 -0.2736393 -0.26028046 -0.079844944 -0.049261395 -0.38557956
-0.4413894 0.39436257 0.28423664 -0.037908584 -0.31587464 0.21365973 -0.19660096 -0.24434714
0.16253741 -0.122820735 0.2537747 -0.16443118 -0.24886937 -0.27013415 -0.10965513 -0.017197618
0.36343503 -0.34021518 -0.08647768 0.37006018 0.1789825 -0.17266218 0.108433895 -0.39864212
-0.42463127 -0.0933629 -0.14021584 -0.4418805 -0.3622887 0.39258647 0.39531857 0.22950171
-0.24256453 -0.43855476 0.09731035 -0.1984074 0.43465587 -0.07287247 0.19881684 -0.28194878
-0.05241408 -0.15842235 0.15858218 -0.010564202 0.27746132 -0.049023673 0.39889646 0.23906113
-0.43372607 0.41397074 0.32134587 -0.2221919 -0.2335948 0.3987227 0.07264147 -0.32040477
0.26177883 0.17854801 -0.26375377 -0.3170683 -0.11848222 -0.3567372 0.063305676 0.03182505
-0.23023294 0.43344492 -0.40627635 0.26537624 0.17026591 0.15315473 0.20386413 -0.31833392
-0.11429117 -0.058196086 -0.15044314 -0.21980256 -0.018563868 -0.27418667 -0.08233041 -0.053676736
0.25657612 0.26204306 0.06809473 -0.41675994 -0.30879632 -0.35650194 0.2920138 -0.14415884
0.3714694 -0.21890602 -0.28402674 -0.11364895 0.057055213 0.006228843 0.13532823 -0.40638554
-0.23530133 -0.27719966 -0.16509731 0.272588 0.39222708 0.026669266 -0.069624506 -0.06841456
-0.27935147 -0.11764959 -0.30485362 -0.009088977 -0.3898661 -0.04798736 -0.118571244 0.2728432
-0.27714464 0.08121291 0.08853793 0.2064124 0.24158713 -0.36013934 0.36500484 0.062940694
0.032284476 0.027090145 0.27287957 -0.34419847 0.27521703 0.2774104 -0.34593928 0.37501338
-0.08235331 -0.26200676 -0.039971247 -0.25892323 0.02116986 -0.44101533 -0.2280019 0.22370824
-0.25451443 0.28374955 -0.3703325 0.2733105 -0.32309785 0.42741996 0.42707857 0.22038226
-0.124390736 0.147436 0.21996772 -0.28868347 -0.08664653 0.03291665 -0.35362455 0.06668171
0.41362283 -0.31127462 0.15298106 0.32636726 -0.024608346 -0.033398483 0.39790446 -0.39813325
-0.014189119 0.37449524 0.06335023 0.1723054 0.24708153 -0.17106357 0.1777307 0.11473851
0.213215 0.39226767 0.21679746 -0.39545557 -0.07970439 -0.29348803 -0.44856516 0.18178655
-0.31202018 -0.06025218 -0.18062595 0.094544336 -0.31038356 0.43653044 -0.039540403 -0.0032480555
0.388662 -0.12000751 -0.22691144 -0.35648552 0.27262664 0.13075753 0.26705593 0.35367742
-0.33305845 0.0679909 0.42199966 0.16021156 -0.15249257 -0.31656298 -0.24053554 -0.0112457285
-0.058441147 0.23877707 -0.018291088 -0.28670087 0.15364172 0.27399644 0.15655926 -0.10948982
-0.40147403 0.19599067 -0.35103676 0.02187552 0.39846513 0.42200363 -0.03167247 0.11071615
00000000: fa6f c63e 730f 743d f1b3 7a3e dde9 78be
00000010: 0652 d0bd 8f87 c8be 09e3 563e 1139 4c3e
00000020: 7032 8dbe bce4 b03e 2dbb 24be 8af5 a73e
00000030: 945b c5be afd3 943e ae53 693e e43d ae3c
00000040: ba34 b0bd 6ed9 0fbc 6de7 d13d fdad a03e
00000050: 6671 843e 67c9 dc3e bdbc 1dbd 3e31 d2be
00000060: d479 b33c bffc 853c 537c 9c3d 2a0e 583e
00000070: af16 7c3e 1ebb b73e 83da 913e d464 b43e
00000080: 0e5b 2e3d 10bc 34be 5a78 7c3e 731a 8cbe
00000090: 7b43 85be bf85 a3bd 51c6 49bd af6a c5be
000000a0: cbfd e1be e4e9 c93e 7787 913e 0846 1bbd
000000b0: 52ba a1be 9ec9 5a3e c351 49be 2336 7abe
000000c0: 3570 263e 7089 fbbd c2ee 813e a660 28be
000000d0: 9dd7 7ebe 064f 8abe de92 e0bd 05e2 8cbc
000000e0: 2814 ba3e af30 aebe 361b b1bd 8778 bd3e
000000f0: 3047 373e 5bce 30be 9712 de3d d21a ccbe
00000100: 4569 d9be 0c35 bfbd be94 0fbe 293e e2be
00000110: e87d b9be 1801 c93e 3267 ca3e 7f02 6b3e
00000120: d662 78be 408a e0be a64a c73d 4f2b 4bbe
00000130: 378b de3e 293e 95bd a496 4b3e 975b 90be
00000140: 25b0 56bd 7839 22be 5e63 223e 7a15 2dbc
00000150: 690f 8e3e 0ccd 48bd 283c cc3e 71cc 743e
00000160: 5811 debe f9f3 d33e 7287 a43e 4686 63be
00000170: 7a33 6fbe 6225 cc3e 0dc5 943d 180c a4be
00000180: e007 863e 4ad5 363e bc0a 87be c756 a2be
00000190: cea6 f2bd 42a6 b6be 68a6 813d fc5a 023d
000001a0: 2fc2 6bbe 7eec dd3e 7403 d0be 65df 873e
000001b0: 305a 2e3e 98d4 1c3e c2c1 503e aafc a2be
000001c0: 7d11 eabd 055f 6ebd c40d 1abe ec13 61be
000001d0: 4113 98bc 3262 8cbe d99c a8bd 23dc 5bbd
000001e0: f25d 833e 822a 863e 4075 8b3d 8f61 d5be
000001f0: 8d1a 9ebe 6c87 b6be d582 953e 609e 13be
00000200: 3d31 be3e e628 60be f46b 91be c8c0 e8bd
00000210: bab2 693d 521b cc3b 7c93 0a3e c411 d0be
00000220: d5f2 70be 1ded 8dbe 450f 29be a890 8b3e
00000230: fdd1 c83e 8179 da3c 4b97 8ebd ef1c 8cbd
00000240: 2807 8fbe 45f2 f0bd c615 9cbe efe9 14bc
00000250: 889c c7be 658e 44bd 7bd5 f2bd 1bb2 8b3e
00000260: e7e5 8dbe f452 a63d 6053 b53d c65d 533e
00000270: 9e62 773e 2f64 b8be eae1 ba3e 0de7 803d
00000280: ba3c 043d 27ec dd3c dfb6 8b3e c83a b0be
00000290: 3fe9 8c3e bc08 8e3e f41e b1be c101 c03e
000002a0: daa8 a8bd c025 86be e4b8 23bd 9691 84be
000002b0: 6a6c ad3c c3cc e1be 5479 69be c613 653e
000002c0: b74f 82be 9f47 913e 399c bdbe 5bef 8b3e
000002d0: 156d a5be cad6 da3e 0baa da3e e3ab 613e
000002e0: 92c0 febd 76f9 163e 383f 613e 52ce 93be
000002f0: bc73 b1bd 9cd3 063d 470e b5be 6c90 883d
00000300: 5fc6 d33e 635f 9fbe 11a7 1c3e 9c19 a73e
00000310: 7197 c9bc d9cc 08bd 22ba cb3e 1fd8 cbbe
00000320: 7b79 68bc d7bd bf3e c4bd 813d d470 303e
00000330: f102 7d3e 4a2b 2fbe 09ff 353e 06fc ea3d
00000340: 0855 5a3e 4fd7 c83e 2700 5e3e 2779 cabe
00000350: 0e3c a3bd 1044 96be 55aa e5be 4126 3a3e
00000360: 1cc1 9fbe fdca 76bd 02f6 38be 76a0 c13d
00000370: 98ea 9ebe eb80 df3e 1ef5 21bd 54dd 54bb
00000380: b5fe c63e 7fc6 f5bd 795b 68be 4585 b6be
00000390: b895 8b3e 4de5 053e 8ebb 883e 3515 b53e
000003a0: a386 aabe d03e 8b3d 5710 d83e 800e 243e
000003b0: 0327 1cbe 8b14 a2be f34e 76be 0140 38bc
000003c0: fc5f 6fbd fa81 743e 31d7 95bc 75ca 92be
000003d0: 4154 1d3e 4349 8c3e 1251 203e 333c e0bd
000003e0: 018e cdbe c7b1 483e 17bb b3be 4a34 b33c
000003f0: 9f03 cc3e dc10 d83e feba 01bd 26bf e23d

fc2.weight f4 [256, 256]
0.020963065 0.061953634 -0.013741188 -0.014114335 -0.05116819 0.040479355 -0.009812862 0.05553712
-0.018156603 -0.057241574 -0.044098377 -0.023550205 0.0020948946 -0.035443485 -0.0354074 -0.030079708
-0.014311641 -0.024229094 -0.06114775 -0.05935338 -0.03459155 0.024263188 -0.010544121 -0.006112911
0.0029571354 0.02528999 0.036903605 -0.05298409 -0.0372063 0.04983007 -0.048730806 0.011429131
0.041073613 -0.01150243 -0.038949735 0.0010986775 0.0049250647 0.04754504 -0.033753015 0.00051012635
-0.040598147 0.045493037 0.010845609 0.042676575 -0.03026238 -0.05649948 0.049422674 0.05541826
-0.008038044 -0.04640609 0.05895654 0.008483946 0.050973378 0.006746441 0.0348659 0.02667991
-0.039332733 0.03962396 0.015488863 0.024239741 0.045253165 -0.03674992 -0.000793308 -0.02024515
-0.0257928 0.040383354 0.033620775 -0.017351307 -0.045603126 -0.059559748 -0.002564624 0.025617577
-0.029978894 0.043331534 0.0022255927 -0.062219366 -0.03992209 0.03023456 -0.058513716 -0.008399911
-0.025061376 -0.034608677 -0.027114123 0.025344864 0.04990188 -0.011120729 0.05091709 -0.026346266
0.04292103 0.0437812 0.011098072 -0.051720336 0.057319194 0.025381997 0.0022104755 -0.005366966
-0.04818792 -0.018293843 0.045097627 0.015237212 0.029128395 -0.062265374 0.05633586 -0.020864412
0.05150707 0.033379987 -0.042797692 0.0047713667 0.013052009 0.019128554 -0.05325295 0.042061657
-0.044343688 0.0051921755 0.0021549538 -0.053705245 0.055420287 0.0039123744 -0.023138285 0.050286308
0.00083688647 -0.05548852 0.021616772 0.045162812 -0.015508652 0.039542526 -0.053691134 -0.024524122
0.030209921 -0.042057753 -0.05494342 -0.020488203 0.056691714 0.037104376 -0.054761276 0.025562197
-0.05258073 0.024556912 0.025256902 -0.0064504817 0.039435178 0.024450757 0.004038483 -0.058229208
0.0058390945 -0.033048168 -0.030498348 0.006915286 0.032549784 -0.05237779 -0.00998579 -0.021631166
0.009918302 -0.047891095 -0.05496435 -0.047157116 0.0434793 0.061846912 0.008463725 -0.055399254
-0.059181795 0.009161457 -0.05564949 0.011156008 -0.0043629035 0.010776676 -0.005491242 0.03062971
0.047786146 0.012083225 0.014428794 0.057758182 -0.052039497 0.023416884 -0.005402215 0.040174857
0.0062162504 0.05482988 0.007914133 -0.040068857 0.050847992 0.019713111 0.02425649 0.00052230805
0.043828152 -0.045160428 -0.047331095 -0.046593405 -0.025973156 -0.05093652 0.055272907 0.034149222
0.058942236 -0.061944924 -0.0038950518 0.0035862327 0.0414949 0.05614972 0.05897952 0.0056471154
-0.03810738 0.046741493 0.020058222 0.013604671 0.024115898 0.047172427 0.011904955 0.04841076
-0.012174182 0.029784836 0.047115825 -0.041670866 -0.055801257 -0.043283872 0.017910972 0.029286437
-0.049305312 -0.045388214 -0.047527343 -0.05796738 0.005725451 -0.052868225 -0.013988592 0.05712769
-0.00026889145 -0.04945594 -0.014398478 0.059355326 -0.056990527 -0.00045657158 -0.034426153 -0.014823027
0.031774655 -0.014797412 -0.033958286 -0.04144057 -0.055512533 -0.024475232 -0.062318362 0.03719066
-0.020546898 0.0034903586 0.026772045 -0.037775762 -0.04511799 -0.02169095 0.0046268404 -0.021095626
-0.03529971 0.055799603 0.059783153 0.016094819 0.019895934 0.0014118999 -0.008740187 0.056290664
00000000: bcba ab3c 18c3 7d3d b822 61bc d03f 67bc
00000010: bc95 51bd aecd 253d 20c6 20bc e47a 633d
00000020: 28bd 94bc 2476 6abd 80a0 34bd 5cec c0bc
00000030: 804a 093b 302d 11bd 5a07 11bd b869 f6bc
00000040: 607b 6abc 187c c6bc 1076 7abd 881c 73bd
00000050: deaf 0dbd 98c3 c63c 40c1 2cbc d04e c8bb
00000060: 80cc 413b f42c cf3c 3c28 173d d805 59bd
00000070: a265 18bd 9e1a 4c3d f499 47bd 4041 3b3c
00000080: ce3c 283d b074 3cbc c289 1fbd 8001 903a
00000090: 7062 a13b 96be 423d 9a40 0abd 00ba 053a
000000a0: 3e4a 26bd e856 3a3d c8b1 313c a2cd 2e3d
000000b0: d0e8 f7bc 006c 67bd 6e6f 4a3d 42fe 623d
000000c0: 00b2 03bc 5014 3ebd 6a7c 713d 4000 0b3c
000000d0: 76c9 503d 4011 dd3b 8ccf 0e3d d48f da3c
000000e0: 5c1b 21bd bc4c 223d 00c5 7d3c 6c92 c63c
000000f0: 625b 393d 1687 16bd 00f6 4fba 28d9 a5bc
00000100: 6c4b d3bc 0469 253d f0b5 093d 5424 8ebc
00000110: 58ca 3abd ecf4 73bd 4013 28bb f4db d13c
00000120: 4c96 f5bc 687c 313d 40db 113b bcd9 7ebd
00000130: 5885 23bd 78ae f73c 14ac 6fbd c89f 09bc
00000140: 844d cdbc d4c1 0dbd 701e debc 08a0 cf3c
00000150: ea65 4c3d b833 36bc 708e 503d 20d4 d7bc
00000160: f6cd 2f3d ea53 333d b0d4 353c b4d8 53bd
00000170: 88c7 6a3d e8ed cf3c a0dd 103b 60dd afbb
00000180: b260 45bd f8dc 95bc 4ab8 383d 80a5 793c
00000190: ac9e ee3c fa09 7fbd 6ec0 663d d8eb aabc
000001a0: 14f9 523d 74b9 083d a24c 2fbd 2059 9c3b
000001b0: 18d8 553c 7cb3 9c3c c41f 5abd d848 2c3d
000001c0: baa1 35bd 2023 aa3b 203a 0d3b 08fa 5bbd
000001d0: 6200 633d 6033 803b 808c bdbc 04f9 4d3d
000001e0: 8062 5b3a ee47 63bd a815 b13c a4fc 383d
000001f0: 0018 7ebc 58f7 213d 3ceb 5bbd d0e6 c8bc
00000200: cc7a f73c c044 2cbd 5a0c 61bd e0d6 a7bc
00000210: 9235 683d c2fa 173d 5c4d 60bd d067 d13c
00000220: e45e 57bd 942b c93c 90e7 ce3c 905e d3bb
00000230: c886 213d f44c c83c 4055 843b c081 6ebd
00000240: e055 bf3b 845d 07bd acd7 f9bc a099 e23b
00000250: ec52 053d 188a 56bd 709b 23bc d833 b1bc
00000260: 6080 223c 7429 44bd 4c22 61bd d227 41bd
00000270: 5a17 323d 3053 7d3d 70ab 0a3c 54ea 62bd
00000280: 9c68 72bd f019 163c b8f0 63bd b0c7 363c
00000290: b0f6 8ebb a890 303c e0ef b3bb 28eb fa3c
000002a0: 68bb 433d b8f8 453c c066 6c3c d893 6c3d
000002b0: 5e27 55bd c4d4 bf3c 1005 b1bb 648e 243d
000002c0: b0b1 cb3b 4c95 603d 48aa 013c 3e1f 24bd
000002d0: fc45 503d 647d a13c 8cb5 c63c 80eb 083a
000002e0: 2685 333d 24fa 38bd 40de 41bd bad8 3ebd
000002f0: a8c5 d4bc d0a2 50bd d865 623d 0ee0 0b3d
00000300: 6a6d 713d f6b9 7dbd 2044 7fbb 0007 6b3b
00000310: 8ef6 293d 40fd 653d 8294 713d 700b b93b
00000320: 7c16 1cbd 0274 3f3d 2451 a43c 20e6 5e3c
00000330: b48e c53c e037 413d 000d 433c 5c4a 463d
00000340: 3876 47bc 54ff f33c 86fc 403d 12af 2abd
00000350: dc8f 64bd 6e4a 31bd 08ba 923c 1cea ef3c
00000360: 5ef4 49bd fee8 39bd 08ac 42bd 346f 6dbd
00000370: 909c bb3b 5a8c 58bd 6830 65bc bafe 693d
00000380: 00fa 8cb9 5092 4abd 98e7 6bbc 921e 733d
00000390: e66e 69bd 0060 efb9 7002 0dbd 48dc 72bc
000003a0: 2426 023d d870 72bc d817 0bbd 96bd 29bd
000003b0: 1c61 63bd 4880 c8bc 8a41 7fbd 3c55 183d
000003c0: f851 a8bc 80be 643b 0c51 db3c c2ba 1abd
000003d0: a4cd 38bd 38b1 b1bc c09c 973b bcd0 acbc
000003e0: 6e96 10bd 208e 643d 2edf 743d 48d9 833c
000003f0: ccfc a23c 800f b93a 0033 0fbc 0a91 663d

fc2.bias f4 [256]
-0.0032921508 0.052772988 0.04363847 -0.06407068 -0.039792337 0.04304097 0.02120139 0.04201532
0.029491052 -0.051680323 0.042755082 0.04124949 -0.04338769 -0.06476943 0.018361948 0.003331134
0.041983414 0.054284297 -0.029900879 0.01827846 0.0016750395 -0.0009462741 -0.047702625 0.009668082
0.036125205 -0.010087972 -0.004585795 0.04917219 -0.060753573 0.032181207 -0.021326242 -0.032177046
-0.038143113 0.055572007 -0.0053457394 0.00021135075 -0.00019297248 -0.06418749 0.020691447 -0.0346114
0.04203194 -0.036905713 -0.02940061 0.010647014 0.01586438 -0.011534537 -0.014160304 0.042451665
0.054161347 0.020461537 0.00614623 0.01354106 0.029585883 0.036285 -0.012667551 0.022388443
0.006555025 -0.05554752 0.05244425 0.03352316 -0.052273374 -0.046887215 0.039041832 -0.026505582
0.042713918 -0.038140673 -0.055661645 0.052577432 -0.015178571 0.060066614 0.0018335953 0.025658298
0.03278487 -0.021824794 -0.0142789185 0.009314296 -0.030740324 -0.018198803 -0.027655948 0.061487474
0.0015342087 0.061503336 0.047178227 0.05366613 0.015501178 0.048254583 -0.016764445 -0.015095167
0.06268207 -0.029107453 -0.013482671 -0.04781903 -0.03482161 0.046573393 -0.02616969 0.04059757
0.011978784 -0.035759315 -0.026062548 0.043966863 0.04388145 0.047709472 -0.03380742 0.029891813
0.008524195 0.011100768 -0.006494294 -0.0539762 -0.055872113 0.036918435 -0.064500354 0.007266816
-0.025599008 0.038295113 0.025583144 0.06275591 0.021528162 0.032440245 0.017155232 -0.048929315
-0.018367052 -0.06095218 0.0069385245 -0.03787033 -0.02302859 0.0089799445 -0.05582167 0.05170267
0.010292934 -0.028517172 -0.044794157 -0.01598657 0.038096532 0.053614303 -0.001507065 -0.020513244
0.028478805 0.027597921 0.03699676 -0.0010039762 -0.05627932 0.029771462 -0.022869732 -0.054130644
-0.0034683421 -0.008516799 -0.04449193 0.025956415 0.051501665 -0.0077053895 0.055081367 -0.047337603
0.024855396 -0.035136033 -0.053354733 0.045992173 0.055788085 -0.011308517 0.04604818 -0.0030785576
-0.02641667 -0.007978134 0.05230165 0.007042517 0.038363144 -0.033228252 -0.033537984 -0.047511127
-0.013986961 0.04646492 0.006249413 -0.05831518 0.051881943 0.063883536 -0.03539798 -0.04130701
0.030561386 -0.0439417 0.017542953 -0.027171256 0.018586181 -0.05119447 -0.056091443 -0.02500137
0.013739547 -0.012679496 0.040812567 -0.05874144 -0.002347867 0.05601549 -0.04954975 -0.032159705
-0.049689543 -0.021883816 0.0045629423 0.045891285 -0.0059427097 0.045005295 -0.014061436 0.023577355
-0.054465637 0.053209282 0.023124821 0.008158649 -0.05396293 -0.012459121 -0.052743666 0.042197138
-0.061903894 -0.008962385 -0.023719864 -0.047696587 -0.059493344 0.0101385405 0.023493798 0.05942829
-0.050992824 -0.04263971 -0.04735007 -0.0474763 -0.036648 -0.025342837 -0.057768095 0.04806353
0.02042866 -0.03881794 -0.037399985 0.008197041 -0.06341248 -0.0057258946 0.04525746 0.020687835
0.020270798 0.0532558 0.048347365 -0.007297256 0.029421724 -0.019588225 0.001900062 -0.027850408
-0.026649348 0.01621445 0.04135215 0.028965548 -0.05204212 -0.05645618 0.02640459 -0.041206922
-0.0374918 -0.035549965 0.046480767 0.035617694 0.001784021 -0.05868072 0.027011402 0.007734651
00000000: 20c1 57bb 7d28 583d 41be 323d 7d37 83bd
00000010: 4afd 22bd ba4b 303d 8aae ad3c 4218 2c3d
00000020: 3897 f13c bfae 53bd f41f 2f3d 3af5 283d
00000030: 4ab7 31bd d6a5 84bd cc6b 963c 284f 5a3b
00000040: cdf6 2b3d 3659 5e3d b0f2 f4bc b5bc 953c
00000050: 008d db3a 610f 78ba d463 43bd e066 1e3c
00000060: 06f8 133d 0548 25bc 7044 96bb c768 493d
00000070: bdd8 78bd 71d0 033d 5fb4 aebc 14cc 03bd
00000080: f43b 1cbd 799f 633d 502b afbb 099e 5d39
00000090: a858 4ab9 bb74 83bd 1c81 a93c afc4 0dbd
000000a0: af29 2c3d 722a 17bd 8cd9 f0bc d070 2e3c
000000b0: 04f6 813c 5bfb 3cbc 9f00 68bc cce1 2d3d
000000c0: 4ad8 5d3d f49e a73c 5066 c93b 52db 5d3c
000000d0: 185e f23c 959f 143d 8f8b 4fbc f867 b73c
000000e0: 89cb d63b cc85 63bd c8cf 563d 954f 093d
000000f0: 9b1c 56bd cf0c 40bd 54ea 1f3d 3c22 d9bc
00000100: caf4 2e3d 6539 1cbd 77fd 63bd 6f5b 573d
00000110: 8baf 78bc 6908 763d 4055 f03a 5a31 d23c
00000120: 6e49 063d e9c9 b2bc 20f2 69bc fd9a 183c
00000130: 22d3 fbbc a815 95bc ba8e e2bc 4ada 7b3d
00000140: 8017 c93a ecea 7b3d f53d 413d 04d1 5b3d
00000150: a7f8 7d3c 99a6 453d 9755 89bc b851 77bc
00000160: 755f 803d c172 eebc 6ce6 5cbc e3dd 43bd
00000170: 1ba1 0ebd bec3 3e3d d161 d6bc a349 263d
00000180: a942 443c 5c78 12bd 2081 d5bc 9916 343d
00000190: 09bd 333d 026b 433d a679 0abd addf f43c
000001a0: 11a9 0b3c ffdf 353c 16ce d4bb 2616 5dbd
000001b0: 28da 64bd c937 173d c318 84bd 791e ee3b
000001c0: 03b5 d1bc 56db 1c3d be93 d13c 2c86 803d
000001d0: d45b b03c 10e0 043d 2189 8c3c 1b6a 48bd
000001e0: 8076 96bc fea8 79bd 905c e33b eb1d 1bbd
000001f0: 74a6 bcbc 9e20 133c 43a5 64bd 2ec6 533d
00000200: b2a3 283c d89c e9bc 147a 37bd 44f6 82bc
00000210: 1c0b 1c3d ac9a 5b3d b688 c5ba 640b a8bc
00000220: 624c e93c 0915 e23c ea89 173d da97 83ba
00000230: 2585 66bd 48e3 f33c 4e59 bbbc 18b8 5dbd
00000240: 204d 63bb 0b8a 0bbc 2c3d 36bd 8ca2 d43c
00000250: 69f3 523d 7e7d fcbb 009d 613d 13e5 41bd
00000260: 8b9d cb3c cdea 0fbd 7e8a 5abd 4a62 3c3d
00000270: 0c82 643d 5c47 39bc 049d 3c3d a0c1 49bb
00000280: c667 d8bc b8b6 02bc 413a 563d eac4 e63b
00000290: ac22 1d3d 591a 08bd 205f 09bd 079b 42bd
000002a0: 9129 65bc 0052 3e3d e0c7 cc3b e6db 6ebd
000002b0: 2982 543d 5fd5 823d 79fd 10bd 8a31 29bd
000002c0: df5b fa3c 36fc 33bd 3db6 8f3c 4196 debc
000002d0: 0c42 983c 4bb1 51bd 24c0 65bd accf ccbc
000002e0: d61b 613c a9bd 4fbc 142b 273d dd9a 70bd
000002f0: acde 19bb 8070 653d aef4 4abd e5b9 03bd
00000300: 4387 4bbd b045 b3bc bc84 953b 80f8 3b3d
00000310: 10bb c2bb 7957 383d f061 66bc 4c25 c13c
00000320: 5c17 5fbd faf1 593d 4470 bd3c dbab 053c
00000330: 3c08 5dbd 5721 4cbc be09 58bd e8d6 2c3d
00000340: f08e 7dbd f8d6 12bc 2950 c2bc 7f5d 43bd
00000350: 4baf 73bd 1f1c 263c 1176 c03c 146b 733d
00000360: dadd 50bd faa6 2ebd 26f2 41bd 8276 42bd
00000370: 371c 16bd c89b cfbc 3d9e 6cbd 44de 443d
00000380: 015a a73c 8fff 1ebd ba30 19bd e24c 063c
00000390: 67de 81bd 49a0 bbbb e35f 393d 8979 a93c
000003a0: f20e a63c c122 5a3d e307 463d d21d efbb
000003b0: d405 f13c 7c77 a0bc 800b f93a 8a26 e4bc
000003c0: bc4f dabc 2bd4 843c df60 293d 2849 ed3c
000003d0: 1e2a 55bd 983e 67bd 704e d83c 97c8 28bd
000003e0: 0091 19bd d79c 11bd 9e62 3e3d dce3 113d
000003f0: d0d5 e93a 325b 70bd 0447 dd3c f572 fd3b

fc3.weight f4 [1, 256]
-0.029855072 -0.04309982 -0.025659917 0.032977823 -0.038443174 0.05855427 0.042413745 -0.04735715
0.04679033 -0.008225955 -0.009552891 -0.04630862 0.018144613 0.029145943 0.021407932 0.054710284
-0.022224803 0.048080638 -0.06199495 0.05774076 0.05979809 0.017216772 -0.012256004 0.04068505
-0.026646495 0.019233325 0.010318411 0.05143736 0.05588843 0.060744137 0.009168237 -0.0049476945
-0.015139793 -0.025635347 0.047715068 -0.06091467 0.04162496 0.010591255 0.040582076 -0.020362664
0.060145367 0.0019710585 0.026132055 0.04346564 -0.043514505 -0.01707915 0.025643742 -0.008932868
-4.220009e-05 -0.034184687 -0.009235889 0.045717746 -0.035100978 -0.030970514 0.056477763 -0.01157585
0.050074905 0.0072996193 0.051491596 -0.055225533 -0.01677268 -0.055108733 0.013390169 0.0592557
0.022214128 -0.020926684 0.0058363182 -0.006638128 -0.05112873 -0.040519323 0.003745176 0.022451064
-0.0016912073 -0.0045446213 -0.053202108 0.02060808 -0.0062604113 0.0065050684 -0.005361983 -0.005575709
-0.016355254 -0.03471653 0.0070578614 -0.05018402 -0.0015585388 -0.022541309 -0.06245563 0.038543727
-0.043827932 0.007405511 0.028792014 -0.044687305 0.040064864 -0.021518633 -0.048846643 -0.037747253
0.027833791 0.052328758 -0.057444114 -0.015013069 0.03116222 -0.050780393 -0.044095486 0.020280834
-0.055341907 -0.0025520534 -0.022710416 0.04249628 0.01868058 -0.05367077 0.043724988 -0.01910145
-0.0045499597 -0.011588867 -0.03814806 -0.010007174 -0.012583551 -0.02358464 0.0070407726 -0.029648228
0.0053115934 -0.056738146 -0.062282905 -0.035305887 0.0069456547 -0.021080703 -0.041461226 -0.033628196
0.053337704 -0.059745148 -0.028113363 -0.046343565 -0.0061332732 -0.051043116 -0.027442858 0.02542936
0.036415033 0.06133424 0.03390017 0.055098977 -0.029895142 0.057969067 0.03529872 0.007478259
-0.030318066 -0.031815182 -0.043273397 0.06061981 -0.017651126 -0.029850582 -0.057798818 -0.023405323
-0.060751628 -0.02476641 -0.013999566 -0.03444367 -0.039058525 -0.054786764 -0.025174452 -0.050030105
-0.05848985 -0.038337596 -0.033463776 -0.048912663 -0.009071691 -0.019879673 0.03272903 0.041076913
0.030925538 -0.049072452 0.02342163 -0.048687227 -0.006734338 -0.009799602 -0.0068847383 -0.03382106
-0.043669928 0.013813755 -0.015255482 0.054756638 0.007837544 -0.043640167 0.057207234 0.038754843
0.050969467 -0.025249198 0.041247338 -0.054372758 -0.027482929 -0.01388342 -0.009542185 -0.03820889
0.057126068 0.013038462 -0.03140684 -0.04227551 0.052916445 0.008116147 0.062783375 -0.0052611707
-0.051425718 0.034307867 0.013132925 0.016897812 0.05342973 -0.038651433 -0.02170778 0.01975058
0.042935163 -0.054091364 0.019492041 -0.032815013 0.05843126 0.054685898 -0.06234099 -0.04577671
-0.046974357 0.042045563 0.040947333 0.052132264 0.032535657 -0.015145063 0.03886403 -0.013514608
-0.003207718 0.022266256 0.00286523 0.03136101 0.043805454 0.0072439485 -0.009239903 -0.047854844
-0.0064866855 0.010422023 -0.028103845 -0.017758438 -0.052184545 -0.02921895 -0.0056483448 -0.016401429
0.059088446 -0.057557907 -0.019134877 0.053899437 -0.061915975 -0.039330304 -0.049868014 -0.031935666
0.022268675 -0.024153199 -0.026387371 -0.021800496 -0.007362824 0.015767895 0.056734905 -0.027134543
00000000: a092 f4bc 7089 30bd bf34 d2bc c113 073d
00000010: 9776 1dbd 9ad6 6f3d 09ba 2d3d 92f9 41bd
00000020: 38a7 3f3d 28c6 06bc bb83 1cbc 1cae 3dbd
00000030: 03a4 943c 79c3 ee3c b05f af3c e417 603d
00000040: ca10 b6bc 34f0 443d 6bee 7dbd 9381 6c3d
00000050: d8ee 743d 300a 8d3c 68cd 48bc 5ea5 263d
00000060: c049 dabc 358f 9d3c 8d0e 293c fbaf 523d
00000070: 44eb 643d d8ce 783d 6036 163c 4520 a2bb
00000080: e50c 78bc 3801 d2bc e070 433d a981 79bd
00000090: ef7e 2a3d f186 2d3c 6439 263d 9acf a6bc
000000a0: fd5a 763d e02c 013b e412 d63c 0709 323d
000000b0: 443c 32bd 93e9 8bbc d312 d23c 2a5b 12bc
000000c0: 0000 31b8 3e05 0cbd 2052 17bc 8842 3b3d
000000d0: 0bc6 0fbd e0b5 fdbc 3a55 673d a2a8 3dbc
000000e0: 581b 4d3d a531 ef3b dae8 523d 2b34 62bd
000000f0: dc66 89bc b2b9 61bd 7062 5b3c 1bb6 723d
00000100: 67fa b53c 706e abbc 963e bf3b a784 d9bb
00000110: 5c6c 51bd 97f7 25bd a071 753b 4beb b73c
00000120: 80ab ddba 0ceb 94bb 74ea 59bd 47d2 a83c
00000130: 2324 cdbb 7828 d53b 93b3 afbb 70b4 b6bb
00000140: 74fb 85bc ec32 0ebd a245 e73b c28d 4dbd
00000150: e247 ccba 8da8 b8bc 7ad1 7fbd 07e0 1d3d
00000160: eb84 33bd eea9 f23b 3bdd eb3c 090a 37bd
00000170: 0e1b 243d d847 b0bc 6b13 48bd dd9c 1abd
00000180: b103 e43c ae56 563d 854a 6bbd 60f9 75bc
00000190: e947 ff3c 1aff 4fbd 789d 34bd fe23 a63c
000001a0: 32ae 62bd 5a40 27bb 320b babc 9410 2e3d
000001b0: 0408 993c e2d5 5bbd f918 333d a57a 9cbc
000001c0: d417 95bb 3bdf 3dbc 2441 1cbd 21f5 23bc
000001d0: 3d2b 4ebc 9334 c1bc 48b6 e63b d7e0 f2bc
000001e0: e00c ae3b 4266 68bd 5c1c 7fbd e89c 10bd
000001f0: 6098 e33b 70b1 acbc 3fd3 29bd b8bd 09bd
00000200: a378 5a3d 54b7 74bd ff4d e6bc c0d2 3dbd
00000210: a0f9 c8bb 9612 51bd d8cf e0bc 3c51 d03c
00000220: ee27 153d 9d39 7b3d e8da 0a3d 77af 613d
00000230: a8e6 f4bc f970 6d3d 6495 103d 2f0c f53b
00000240: 985d f8bc a350 02bd 723f 31bd 7a4c 783d
00000250: 1899 90bc 3589 f4bc 74be 6cbd 85bc bfbc
00000260: b3d6 78bd ede2 cabc 705e 65bc ce14 0dbd
00000270: d5fb 1fbd 1668 60bd a73a cebc 5eec 4cbd
00000280: 0e93 6fbd e207 1dbd 5011 09bd a558 48bd
00000290: 6ea1 14bc b2da a2bc e00e 063d 4440 283d
000002a0: 8e57 fd3c 3200 49bd b8de bf3c 426c 47bd
000002b0: b9ab dcbb 838e 20bc 5f99 e1bb f487 0abd
000002c0: 3ddf 32bd 1653 623c 21f2 79bc 7f48 603d
000002d0: 0b69 003c 08c0 32bd 2252 6a3d 66bd 1e3d
000002e0: 5cc5 503d 68d7 cebc f8f2 283d f8b5 5ebd
000002f0: e123 e1bc 4977 63bc d356 1cbc ed80 1cbd
00000300: 06fd 693d 469f 553c 75a4 00bd 1629 2dbd
00000310: eabe 583d 96f9 043c 9294 803d e665 acbb
00000320: c6a3 52bd 6886 0c3d 7b2b 573c 486d 8a3c
00000330: 22d9 5a3d f750 1ebd 84d4 b1bc f8cb a13c
00000340: c8dc 2f3d e88e 5dbd c6ad 9f3c 0969 06bd
00000350: 9e55 6f3d 52fe 5f3d 4459 7fbd 5c80 3bbd
00000360: 2f68 40bd f837 2c3d 64b8 273d a488 553d
00000370: 1c44 053d 0023 78bc e42f 1f3d 606c 5dbc
00000380: 9438 52bb b967 b63c 95c6 3b3b 6774 003d
00000390: 596d 333d a55e ed3b f662 17bc 7103 44bd
000003a0: 438e d4bb 22c1 2a3c 093a e6bc 257a 91bc
000003b0: 76bf 55bd 945c efbc c015 b9bb 4a5c 86bc
000003c0: ba06 723d d7c1 6bbd bfc0 9cbc a8c5 5c3d
000003d0: 9b9b 7dbd d018 21bd 6742 4cbd f9ce 02bd
000003e0: cc6c b63c eedc c5bc 542a d8bc f496 b2bc
000003f0: d843 f1bb ac2b 813c dc62 683d 4349 debc
