outputs/router_rule/A2C_router/winter20251110-071143/models/policyA_critic.pth (torch, 274062 bytes, 5 tensors)

fc1.weight f4 [256, 6]
00000000: 04e2 b9be 9816 aebe af12 743e 78a8 5fbe
00000010: 40cf c73e 6b00 a8be aad2 b4bd 44a1 64bd
00000020: a0af ac3e 97b9 413e 024f 8b3d 27ca 35be
00000030: 9e07 513e 056a a0be e9ec b83d 8fdd 823e
00000040: 782b e93d ddaf 603e 0629 c1bd dfd4 aa3e
00000050: ef36 783c bfc5 463e e5d8 fc3c 90b3 653d
00000060: 8104 9fbe 7a76 863e f49c c9be 0982 33be
00000070: c581 813d 49a7 0c3e 2716 67be 940a 1fbe
00000080: 792a 2cbe afdb cdbe fefc b7be 1a50 f43d
00000090: db36 af3c 50da d8bd fd6f 3e3e 41b4 0c3e
000000a0: 5042 b5be 3c10 52bd 9892 0f3d 7b55 b5bd
000000b0: 3d4f a43e 6602 87be ff44 3f3e db41 5f3e
000000c0: 8c8a a1be 18c9 abbe 526d 603e 0009 4bbe
000000d0: f8e1 983e 48ab d43c 40f7 22bd 94ad ae3e
000000e0: 8234 ccbd a5a9 013d 17c3 8dbe b9b5 bcbc
000000f0: 20d2 bc3e 8e66 bd3e 57c0 35be 5011 32be
00000100: 3f9d b93e 9c27 b63e aacf 8bbd caa3 3ebd
00000110: 84d2 90be 7dfe b6be e1a4 d33c 127e a2be
00000120: 32a9 313e a26e a33e bfa0 2abe 9ac6 82be
00000130: 8f33 c3be 220d 0cbd 635b 31be a00b d03e
00000140: e8e5 513e 8c98 a33e d38e b43e a1c9 de3c
00000150: a94d 75be c7b9 9cbd ab01 aabe 6509 67be
00000160: 8a26 bcbe aa90 113e c93f a1be c683 853b
00000170: 9172 9a3e e50b 63bd 1b97 9f3e 9197 873d
00000180: 372d e4bd 55d8 e93d e29b bc3e efda 4a3e
00000190: 5d68 b3be 901e cdbd 290e d2bd 099e 42be
000001a0: 1a83 dabc b38b bfbe 91de 9d3e d965 88be
000001b0: 54b9 4a3e 002a e43d 1f8e f63d 7d0c a2be
000001c0: a392 93be 40e7 a6be f663 6c3e cd69 8c3e
000001d0: 8da7 ac3d c203 1b3e a520 383e d4a5 173e
000001e0: 2508 6cbe 0ee6 d13d d3b5 b6bd fffe 3e3e
000001f0: 074f 9c3e 8fa7 ec3d 78df c8bd a259 9c3e
00000200: 7524 a43e c9bb 43bd 7a7d a13e fedc 7ebe
00000210: 38ef 573e 6564 03bc 2c43 cdbc 3c9b eebd
00000220: ae3f c73e 666f a5bd f431 96be f2f6 2fbe
00000230: 9316 1cbe e5cb 843e 85dc af3e 7180 f33d
00000240: 27a7 64bd 748b fbba 8b9d e1bc 0c26 cfbe
00000250: 0916 03be 2aa3 a23e 7e5f 443c 028e a4be
00000260: 7a75 c1be 4818 f13b 4838 33be c2a7 5dbe
00000270: c93b e3bd 7bc3 a03e ab76 843e 81bd 17be
00000280: 7988 ae3e 6fb4 a93e aeeb e63d 5543 183e
00000290: 7beb 23be 5e02 9f3e 663a b3be b8e0 abbe
000002a0: 693c afbe 1a0d 72be 9a4b 9cba bc92 06be
000002b0: c84b 86be bcda 883e 8a35 cf3d 467e 3a3e
000002c0: cdd6 7bbc 489c 573d cdbb 483e 7fa7 f9bd
000002d0: 72d4 febc 8abf 0ebe b66e 7ebe b87f 7a3c
000002e0: 22ac 593e def4 21be 6458 3e3e 0b1c 5f3e
000002f0: bcfc 0cbe ed1e a9be 1c7e 8c3e 2118 953e
00000300: 9933 50be 96c6 0abd c034 863c 9155 82be
00000310: 67e7 f5bd 63c1 3abe ec76 cb3e 233a a83e
00000320: b9e8 63bd 93e7 193e 36d8 a9bd 991f 6d3e
00000330: c55a 533e 2c45 52bc bc9a 943e 4f3d 78be
00000340: 02fb a03d db5c 92be e2ec a1be fa14 ef3d
00000350: 4016 513e d743 8e3e b6f6 63be cc29 a43c
00000360: 32dc 2abe c00b 643e b2d8 943e 6860 1f3e
00000370: 309f 43be 3ab2 b63e bf78 023e 23ea df3d
00000380: 8912 c93c 5564 723c 8298 b93e 8f62 663e
00000390: acf7 793e 9ce3 88bd 3ac7 cc3e 3748 ae3e
000003a0: 1212 d4bd 943e 0fbe f86d a5be f8ba a73e
000003b0: 4492 b6bd 2dbb 8bbb fce3 2fbe b89a 963e
000003c0: 75c1 65bd 8408 8ebe 456e debd 1985 8c3d
000003d0: 4897 44be e1b3 1c3e e6f9 b6be 1655 f93d
000003e0: 95fd 72be 1e2d a63d 107e 84bd fed1 8a3e
000003f0: aedc bfbe ae4d e1bd 8231 41be 1f7d b6be
-0.3630525 -0.34001613 0.23835252 -0.2184161 0.39025307 -0.3281282 -0.088292435 -0.055817857
0.3372774 0.18918453 0.06802179 -0.17752896 0.20413062 -0.31330886 0.09029562 0.2555966
0.11385244 0.21942087 -0.09431653 0.33365533 0.015149816 0.19411372 0.030865142 0.056079447
-0.31058124 0.26262265 -0.39377558 -0.17530073 0.0632358 0.13735689 -0.22567044 -0.15531379
-0.16813077 -0.40206668 -0.35935205 0.11929341 0.021388462 -0.10588515 0.18597408 0.13740636
-0.35402155 -0.051285014 0.035051912 -0.08854195 0.32091704 -0.26369017 0.18678664 0.21802466
-0.31551015 -0.3355186 0.21916702 -0.19827652 0.298599 0.02596058 -0.039786577 0.34116805
-0.099709526 0.031655926 -0.27687904 -0.02303587 0.36879063 0.36992306 -0.17749153 -0.17389417
0.36252782 0.35577095 -0.06826718 -0.04654292 -0.2828561 -0.35741034 0.025835456 -0.3173681
0.17349699 0.31920344 -0.16662882 -0.25542146 -0.38125274 -0.034192212 -0.17320018 0.4063387
0.20497859 0.31952322 0.35265216 0.027195754 -0.23955406 -0.07652622 -0.33204398 -0.22562177
-0.36748153 0.14215341 -0.31493977 0.0040745465 0.30165532 -0.055431265 0.31169972 0.06620706
-0.111414365 0.11418215 0.3683768 0.19810079 -0.3504056 -0.10015595 -0.10256607 -0.19005598
-0.026673842 -0.3741127 0.30833867 -0.26640204 0.1979726 0.11140823 0.12038826 -0.31650153
-0.28822812 -0.32598305 0.23085007 0.2742447 0.08430395 0.15138152 0.17981203 0.14809352
-0.23049982 0.102489576 -0.08921399 0.18651961 0.30529043 0.11555397 -0.09808248 0.30537134
0.32059065 -0.047786508 0.31541044 -0.2488899 0.21087348 -0.008019541 -0.025056444 -0.11650702
0.3891577 -0.08077888 -0.29334986 -0.17184046 -0.15242986 0.2593681 0.3434793 0.11889733
-0.05582347 -0.001919134 -0.027540943 -0.40458715 -0.12801374 0.3176511 0.011985658 -0.32139593
-0.3778494 0.007357631 -0.17501938 -0.21646026 -0.110953875 0.3139914 0.25871786 -0.14818384
0.34088495 0.33145472 0.11275421 0.14869435 -0.16007797 0.31056494 -0.35005492 -0.33569884
-0.34225777 -0.2363781 -0.0011924386 -0.13141912 -0.26229692 0.2672938 0.10117634 0.18212232
-0.015371037 0.052639276 0.1960289 -0.121901505 -0.031107161 -0.13940254 -0.2484692 0.01528924
0.2125707 -0.15816066 0.18588406 0.21788041 -0.13768286 -0.33031407 0.27439964 0.2911997
-0.20332183 -0.033880793 0.016382575 -0.25455907 -0.12007027 -0.18237834 0.39739168 0.32856855
-0.055641863 0.15029745 -0.08293192 0.23156585 0.20640095 -0.012833875 0.29024303 -0.24242137
0.07860376 -0.28586468 -0.3162604 0.11673923 0.20418644 0.27786133 -0.22262082 0.020039462
-0.1668556 0.22270107 0.29071575 0.1556412 -0.19103694 0.3568285 0.12741373 0.1093333
0.024544971 0.014794429 0.36249167 0.22498535 0.24410886 -0.06684038 0.39995748 0.3403947
-0.10355009 -0.13988715 -0.32310462 0.32759833 -0.08914617 -0.0042642565 -0.17176813 0.29414916
-0.056092698 -0.27740872 -0.10860876 0.06861324 -0.19198334 0.15302993 -0.35737532 0.12174432
-0.23729546 0.08114074 -0.06469357 0.27113336 -0.37473053 -0.11001144 -0.18866542 -0.35642335

fc1.bias f4 [256]
00000000: fe84 3d3d 5a5a b1be 977c 413e 56b7 a7be
00000010: 585d 58bd 9f8a 743e ea79 4f3e 99b8 ddbc
00000020: 418e f53d 32b2 89be 3616 97be bb02 89bd
00000030: 7bb8 e3bd 6e4d 8cbe ecdf c3be ffa6 85be
00000040: 7b5d c73d 051a d4bd 8feb c2be 837f 293c
00000050: daa6 11be a747 b2be f46e 923e 7914 a4be
00000060: 8a2a 8e3e dd56 4bbd 8825 a3be 0979 15be
00000070: 8f95 a53e 80e1 5fbd 19dc 8f3e 9acd 383e
00000080: 3fd6 833e 7fe9 5b3d f0e3 aa3d 0e8e 633e
00000090: c9cc 7dbe 4110 c7be 5856 ee3d 0095 66bc
000000a0: d9d7 523e 878e a33e 3a9b 3f3e a90d 96be
000000b0: 67c3 b7be fce4 9abe b1ce 1d3e e76d 61be
000000c0: b8d2 4ebe 5f56 eabc 1e2c be3d 9315 9dbe
000000d0: 39df 11bd eb2a a13e 3e69 023e c3dc d73d
000000e0: 7cb7 b83e c09f 013e bfe6 e43d 231f 1d3e
000000f0: fd74 99be 739e 2f3e 5c56 003e 1873 1f3d
00000100: 9e6d d0bd d6d7 df3c 5bec b43e 17ca 0ebd
00000110: 991c febd 9d91 803e 35ad 923e c668 893e
00000120: cf1d bd3e d225 c63d 98c8 d0be 5378 913d
00000130: 63a8 603e acde 523b 5f4b 1abd 6f95 cd3e
00000140: e600 95be 63fb bf3e c30e 96be bb31 983e
00000150: b348 bf3e 3418 883e de38 2d3c 9a79 b8be
00000160: 3943 be3e 24f1 85be 8cd6 773e ea5e c0bd
00000170: 320e 8ebe 6100 87be c2ea cfbe 2a41 d5bd
00000180: c0d4 35be c324 063e a37f 023e 37ac 85be
00000190: 24a5 563e ec6e 1c3e ef11 493d 0d28 b03e
000001a0: d0ce 38be a1e6 b9be f8bf 553e 44e3 373d
000001b0: 5ce0 c2be 9f2d 31bd 1ec3 643d bf09 e5bd
000001c0: c7d2 4f3e d421 10be eac2 083d e0dc 683d
000001d0: f3c5 173e 18e5 753e 2108 b8bd 1d2d 09be
000001e0: ecdc 34be 1ba9 f63d c11f 123e 5fd1 b5bc
000001f0: d2ba 66be fed5 62be 22f9 6ebe 3a7d 8f3c
00000200: 969f 853e 8abc 0bbe 8262 cbbe c05f ab3d
00000210: cd81 9f3e 88cf 9dbe e1bb 703e c92d 8e3b
00000220: e7e6 ff3d 8736 c63e 2061 993e 1594 ebbd
00000230: f3f5 ecbd f449 cfbe a928 c3be 65ac 97bd
00000240: 4bae 77be b50a b13c 56ef 75be 058b b53e
00000250: bd71 3fbe 22bb 9fbd 4032 f2bc 6227 02be
00000260: c275 f53d 6daa c33e d744 2ebe b0a8 c93e
00000270: 2a2a 17be 0e67 993e 7eca 44be 2093 713e
00000280: 0d4f e73c 73e2 bc3e 363b c33d 2a31 88be
00000290: 0155 b43e 2cb2 33be d1fe a9be de33 7e3e
000002a0: bcce 3abc 4e59 3fbe 6df5 75be f1fc 15be
000002b0: 5d36 95bc ca80 6d3e 1bec cb3d 9ca9 e63d
000002c0: 79a7 bb3e 4e44 ec3d c26f 09bd 3548 8dbe
000002d0: 874d 293d 5588 afbd 0122 23be 457c 2f3e
000002e0: 4caa 81bd 99cc 9bbd 0539 963e d71f 66be
000002f0: ca3c f33d bfad 50be 75f1 503e 9ca6 8cbd
00000300: ce47 aebe 97d6 11be a304 7fbe 7278 b23e
00000310: ef3e 09be b59e 883e 0bb4 9abe 4cd3 c33e
00000320: 48df 98be a55d c3be 184c b6be 4582 ad3e
00000330: 4c96 0a3e b591 87be 44dd a23e 5fdb 48be
00000340: ac2d a43e 0457 a93e 8641 0ebe c2b5 003e
00000350: 0af3 b7be 13ff 823b 0f86 20be 7724 97be
00000360: b84c 9fbe 32cc 94be 6d49 823d c76e b33e
00000370: a72f 9fbe 7bfa b8be c05d be3e 0610 0a3d
00000380: ca3a 7bbd 584f 9ebd 1b45 b9be f8a5 ba3d
00000390: 8c97 e0bc f7ca a0be 6cab ed3d 33a9 9ebe
000003a0: d06d 473e ebab a2be 8c01 813e 8970 c7be
000003b0: 6ed6 743e d4d1 043e d4b2 16be 7f40 c6be
000003c0: f300 a2be 8d9e aa3e fb2b bebd d151 c4be
000003d0: e62f 583e b435 ce3e 3f17 0bbe 118f ce3d
000003e0: fa47 523e 43a0 fc3d 331b af3d d753 46be
000003f0: 6166 b1be 40b7 c53e f70a b83c 659d bfbe
0.04626941 -0.34639245 0.18895184 -0.32757062 -0.052823395 0.23881005 0.2026135 -0.027065562
0.119900234 -0.26893765 -0.29509133 -0.06689974 -0.11119171 -0.27402824 -0.38256776 -0.2610397
0.09734627 -0.10356525 -0.38070342 0.010345343 -0.14223805 -0.3482029 0.28600276 -0.3204687
0.2776683 -0.049643386 -0.31864572 -0.14596952 0.32340667 -0.054658413 0.2809761 0.18047181
0.25749394 0.053689476 0.08344257 0.22222158 -0.2478515 -0.38879588 0.116375625 -0.01407361
0.20590152 0.31944677 0.18711558 -0.29307297 -0.35891268 -0.30252826 0.15410878 -0.2201458
-0.2019757 -0.028605638 0.092857584 -0.30680522 -0.035613272 0.31478056 0.12735459 0.10540154
0.36077487 0.12658596 0.11176824 0.15343909 -0.29972067 0.17150287 0.12532943 0.03892812
-0.10177158 0.027324598 0.35336575 -0.034860697 -0.12407798 0.25111094 0.2864777 0.26837748
0.36936805 0.096751824 -0.4077804 0.07103028 0.21939234 0.003217618 -0.037669536 0.4015307
-0.29102248 0.3749648 -0.29308137 0.2972544 0.37360153 0.26580966 0.01057264 -0.36030275
0.37160662 -0.26160538 0.24202937 -0.093931034 -0.27745205 -0.26367477 -0.40608793 -0.1041282
-0.17756939 0.13099961 0.12744002 -0.26107952 0.20961434 0.15276688 0.04908937 0.34405556
-0.18047643 -0.36308768 0.20874012 0.04489447 -0.38061798 -0.0432564 0.05585014 -0.111834995
0.20295249 -0.14075404 0.03338901 0.056851268 0.14821605 0.24013174 -0.089859255 -0.13396116
-0.176624 0.12043973 0.14269926 -0.022194562 -0.22532204 -0.22151944 -0.23337224 0.017515767
0.26098317 -0.1364614 -0.39723593 0.08367872 0.31153718 -0.30822396 0.2350917 0.004338954
0.12495213 0.38713476 0.29956913 -0.11502854 -0.115703486 -0.4048611 -0.3811696 -0.074059285
-0.24187581 0.02161155 -0.2401708 0.35457626 -0.18695731 -0.077993646 -0.029564977 -0.12710336
0.11985351 0.38215962 -0.17018448 0.3938651 -0.14762178 0.29961437 -0.1921787 0.2359128
0.028235937 0.36891517 0.09532778 -0.2660001 0.35221103 -0.17548436 -0.33202222 0.24824473
-0.011401828 -0.18686411 -0.24019404 -0.1464727 -0.018214399 0.2319366 0.09957143 0.11262819
0.3665121 0.115364656 -0.033553846 -0.27594152 0.0413337 -0.08570925 -0.1593094 0.17137249
-0.0633131 -0.07607383 0.29340377 -0.22473083 0.11876829 -0.20378779 0.20404609 -0.06867716
-0.34039158 -0.14242016 -0.24904113 0.34857517 -0.13402914 0.26683584 -0.30215487 0.38247144
-0.2985785 -0.38157383 -0.3560493 0.3388845 0.13533896 -0.26478353 0.31809437 -0.19614933
0.32066095 0.330742 -0.13892183 0.12569335 -0.35927612 0.0039976924 -0.1567614 -0.29520008
-0.3111322 -0.2906204 0.06361661 0.35045454 -0.31091043 -0.361286 0.371809 0.033706687
-0.061335362 -0.07729977 -0.36185536 0.09113687 -0.027416013 -0.3140485 0.11604962 -0.30988464
0.19475484 -0.31771788 0.25196493 -0.38953045 0.23909923 0.12970668 -0.14716655 -0.38721082
-0.3164135 0.3332409 -0.09285732 -0.3834367 0.21112022 0.40275347 -0.13583086 0.100858815
0.2053527 0.12335255 0.0855011 -0.1936792 -0.3464842 0.3861637 0.022466166 -0.3742477

fc2.weight f4 [256, 256]
00000000: e0bf fe3c c16a 643c d117 463d 61f1 99bb
00000010: d00b 38bc 44ba a53c 0a53 aa3b e080 70bc
00000020: 80ed 60bb cc63 4e3d f2c4 68bd 18bd 94bc
00000030: d0fe dbbb 4905 22bc d025 c03c a457 643d
00000040: d3da cebc 7c7f 49bd b0ad 333c 0409 983c
00000050: a9c7 5d3d def9 4cbd 4c01 5ebd c1d1 41bd
00000060: b469 df3c 8ee3 593d a890 0f3d e526 49bd
00000070: e403 cbbc 555f 693d a626 133d 160c 633d
00000080: a29e 16bd 9573 513d f8ec b23c 39ff 263d
00000090: 285b 553d 7d45 5ebd 0203 9ebc 4295 17bd
000000a0: b1af fbbc 0708 713d 0e02 043d 8448 09bd
000000b0: 4674 d13c 7c23 0bbd dcba 5fbd 1036 e8bb
000000c0: 30ae e43c e7b1 e63c 201d dcbc a028 7f3d
000000d0: d77e 473d 9126 023d 51d5 633d a979 e0bb
000000e0: de8f 35bd e09d 79bc a021 eebb 0201 153d
000000f0: ad00 04b9 b0f0 2a3c 3e66 8dbc bcc0 5bbd
00000100: 4b8f 21bd 68be 563d d128 e23c 651f 063b
00000110: 21ee 313d 1b0e 163d 72a9 373d 17db 83bb
00000120: 6a51 8c3c 84c5 483d 7c05 1b3d d3f2 cd3c
00000130: b0fa 70bc 04f1 c63c 6f34 153d 81d9 47bd
00000140: bb09 803c a84b e33c f30d 743d fe4b 32bd
00000150: 072e 373d 2035 6bbc 9bce 16bd 603f 293b
00000160: 9aa5 6ebd 3669 5cbd 3ae1 47bd cacc 1b3d
00000170: 796a 67bd 8e4b 58bd 8cf3 98bc aa28 3dbd
00000180: 483f 54bc 106b 4bbd b41c 763d b22d 41bc
00000190: c450 53bd 15bb 593d 198b 75bd 1638 4abd
000001a0: 8447 243d c923 6e3d 8012 6f3c 32b4 463d
000001b0: 12ed c03c 95e3 6f3d a08d c9bb 7819 62bc
000001c0: f843 dfbc 5507 90bc 52e8 643d 5e06 5c3d
000001d0: fc0a 22bd e80f 44bd ced9 adbc f112 a53c
000001e0: 4826 3bbc 4e51 8a3c 18ed dcbc cd06 6abd
000001f0: 8855 29bc ac7b 75bd 60d4 a1bc ab7a 463d
00000200: a084 f93b f06b 863c c099 733c e7f1 9a3c
00000210: bc5f 623d 96a2 77bd b974 4bbd d0ea bb3c
00000220: 66b4 1dbc 7b4c 5e3d d136 e53c 04ad d13c
00000230: fa46 053d 2c86 0abd 7516 273d 0092 063d
00000240: 6cb1 a93c 00a4 61bb b248 c23b 6c93 4cbd
00000250: 6486 49bd 7d0b 9e3c c7d5 c4bb f22a de3c
00000260: e028 78bb 3058 acbb 328e 583d 047a 5abd
00000270: fca7 fe3c 7884 593d 788b 363c e094 62bd
00000280: f3df b23a f086 c2bc 851b 9ebc 207c a1bb
00000290: f61a 5dbd 355e 623d 2d60 2dbd fbf9 4d3c
000002a0: e33c 3b3d 85fe 213d c0d1 1ebb 2828 673d
000002b0: 872e d03c 5817 5e3d 7554 07bc c755 45ba
000002c0: 34cb 93bc f9d7 ecbc e0e7 1fbb 0765 063d
000002d0: 9062 f63b 9170 00bd c014 f73b a88b a13c
000002e0: 0098 e4bb e88f 53bd c095 143d 0058 893c
000002f0: 38d7 093c 5b2c 6a3d e0e5 233b 3041 e2bb
00000300: 0e53 2fbd 9c43 cfbc 3560 4dbd 889b 6d3c
00000310: 153f 1e3d 4046 5dbd 321d 76bc d02d 3ebd
00000320: b5a0 cebc 42fe 6ebd c4d2 42bd 2480 0cbd
00000330: 68a8 c73c 58b5 3cbc 1b14 723c e88c 52bc
00000340: a08a 5a3d 6cd8 d53b 5062 4d3c 203d 58bc
00000350: bea3 39bd 936f e1bc e4d0 723d b090 1f3d
00000360: 8ea0 7bbd f98b a8bc 2255 4bbd 7ad4 3a3c
00000370: 321a 4e3d a331 9abc 36b5 28bd d034 c03c
00000380: a0d9 28bd c2d1 13bd 1111 f73c 669d 64bd
00000390: 9896 393c ab25 debc 6ba7 23bd b0c8 65bc
000003a0: d451 73bd 809c 3dbd d0ca 6abc 8481 2e3d
000003b0: 9cb3 bebb f059 08bc 843b 2dbd b086 b13a
000003c0: 88a4 84bc f3c1 013b f669 02bd 138a ad3c
000003d0: 0b33 883c cd49 2bbd 427c e23b 6fbe 273c
000003e0: 940c 283d 1534 d13c 003e bb3c 71a8 aabc
000003f0: 2254 6fbd c0d3 b9bc b412 a7bc 32ed 583d
0.031097353 0.013941468 0.048362557 -0.004697964 -0.011233285 0.02023042 0.0051978873 -0.014679164
-0.0034321249 0.050388142 -0.056828447 -0.018156573 -0.0067137256 -0.009888955 0.02345553 0.055747643
-0.025250828 -0.049193844 0.010966703 0.018558986 0.05414549 -0.05004298 -0.054200456 -0.047319178
0.027272083 0.05319553 0.035050064 -0.04910936 -0.024782129 0.05697568 0.03592553 0.055431448
-0.036772378 0.05113562 0.021841511 0.040770743 0.052088886 -0.054265488 -0.019288544 -0.037007578
-0.030723425 0.058845546 0.032228522 -0.033516422 0.025568139 -0.033969387 -0.054621562 -0.007086523
0.02791509 0.028161002 -0.026869357 0.062294602 0.04870495 0.03177506 0.055623356 -0.0068504405
-0.044326656 -0.015235394 -0.007267192 0.036377914 -0.00012588753 0.010433361 -0.017260667 -0.053650603
-0.039443295 0.05242768 0.027607353 0.002046549 0.043439988 0.036634546 0.04483933 -0.0040239203
0.017128665 0.04901649 0.037847027 0.025140202 -0.014708206 0.024284847 0.036426958 -0.048791412
0.01562964 0.027746037 0.059583616 -0.043529503 0.04472163 -0.014355928 -0.036818128 0.0025825128
-0.0582634 -0.053811274 -0.048798777 0.0380371 -0.056498025 -0.05280643 -0.01867082 -0.04618136
-0.012954541 -0.04966265 0.060085967 -0.01179068 -0.051590696 0.05315693 -0.059947107 -0.049369894
0.040107265 0.058139596 0.014591813 0.04851169 0.023550544 0.05856665 -0.006150916 -0.013800018
-0.02725409 -0.017581621 0.05588562 0.05371701 -0.039561257 -0.047866732 -0.021222021 0.020150634
-0.011422701 0.016884472 -0.026968524 -0.057135392 -0.010335334 -0.059932396 -0.019754589 0.04845683
0.007614687 0.01640889 0.0148682 0.018914176 0.05526708 -0.06045779 -0.049671862 0.022939116
-0.00962553 0.054272156 0.02798024 0.025595196 0.03253839 -0.033819363 0.0407929 0.03285408
0.020714484 -0.0034430027 0.005929076 -0.04994528 -0.04920043 0.019292587 -0.0060069296 0.027120087
-0.003786616 -0.005259536 0.052869983 -0.05333902 0.03108596 0.053104848 0.01114165 -0.05531776
0.0013647064 -0.023745984 -0.019300232 -0.004928127 -0.05398079 0.055265624 -0.04232805 0.012571807
0.045712363 0.03954937 -0.0024233907 0.05643478 0.025412811 0.05422148 -0.008259882 -0.00075277354
-0.01804123 -0.028911578 -0.0024399683 0.03281119 0.007519074 -0.03135735 0.0075403154 0.019719914
-0.0069761276 -0.05165091 0.036275625 0.016765594 0.008413129 0.057171207 0.0025008842 -0.0069047436
-0.042803816 -0.025300793 -0.05014058 0.014502414 0.03863438 -0.054022074 -0.015021609 -0.04643041
-0.025223115 -0.058347948 -0.047564283 -0.034301892 0.024372295 -0.011517845 0.014775301 -0.0128509775
0.05335486 0.0065260436 0.012535647 -0.013198167 -0.045322172 -0.027519023 0.059281245 0.038956344
-0.061432414 -0.020574557 -0.049641736 0.011403197 0.05031795 -0.018822497 -0.04118844 0.023462683
-0.04122317 -0.036088713 0.030159505 -0.05581417 0.011327408 -0.02711757 -0.039954584 -0.014024898
-0.05940421 -0.04629183 -0.014330581 0.042603984 -0.005819751 -0.008322224 -0.042293087 0.0013544168
-0.016191736 0.001979944 -0.031839333 0.021184003 0.016625902 -0.04181843 0.0069117853 0.010238274
0.04102762 0.02553753 0.022856712 -0.020832272 -0.058429845 -0.022683978 -0.02039466 0.052960582

fc2.bias f4 [256]
00000000: dfdc 50bd 76df 59bd d8d0 2a3c 40d5 40bd
00000010: dac5 633d ad9d a3bc f6fb 06bd 4860 7dbd
00000020: bddf 32bd caf6 28bd abac 6c3d da78 de3b
00000030: 0079 b9bb 80ac 72bc d0ce 5d3c 5343 5d3c
00000040: 42cc 7c3d a0c5 0b3b be8a 33bd 358b 33bd
00000050: 8c5e 2ebd 293b 423d f624 d5bc 5937 a63b
00000060: a287 7f3d 3c40 69bd dd2a 0bbd dc35 20bd
00000070: 3325 2fbd d4bf 18bd 7e27 7ebd f2b8 283d
00000080: 5677 59bd 9323 ea3c 977c aa3c 720a 37bd
00000090: 8982 9b3a e43a 80bc 0b43 043d 0054 12ba
000000a0: d01d 2c3d c131 a2bc b051 243d a048 a23b
000000b0: e4ea cbbc c0e2 2ebb 4029 803d a48d c93c
000000c0: e136 24bd 81c5 4fbb fee2 72bd 401b 823c
000000d0: 2443 5e3d 9032 6cbd e0f5 13bb 8211 33bc
000000e0: e045 133c 1c0c fc3c 5452 a0bc c1fa bebb
000000f0: 34a7 723c 74ec 2ebd 766b 733d b07a 1fbd
00000100: ef41 e3bc 8a3a 4cbd 9079 cdbc c83c 5abd
00000110: 1e68 293d 9327 e8bc 151b 85bd 823c 683d
00000120: a306 113c 0065 743d 0e9c 63bd d8b6 223c
00000130: f86d f9bc 82c3 61bd c090 453d 2f3e 66bd
00000140: a7a1 063b 9049 7dbd 5659 aa3a 3184 a73b
00000150: 4c72 f1bc 8868 2f3c 2e17 6cbd d0de 6bbc
00000160: b6d4 65bd 201c 4f3b 7e66 81bd 71d7 5bbd
00000170: 0073 9abb 5103 c8bc 2831 a6bc e00d 363b
00000180: 802c 6a3c 7c16 c6bc ee98 2bbd 28e4 22bc
00000190: 463a 5fbd 0a79 663d d8cb 923c 02b7 5e3c
000001a0: 7bf3 52bd 808c 293c b7a6 d6ba 3635 2b3d
000001b0: 100e 9cbb 9868 1bbc 9418 71bd bce9 68bd
000001c0: fe86 103d cada 11bd 52ac 083d 3438 fcbc
000001d0: e4f3 4a3d 3c65 19bd 06f6 483d a6e9 8a3b
000001e0: ce76 19bd 5acc 063d e4a0 583d 4860 c13c
000001f0: 3bc2 30bd 00cc 61bc a919 5f3d c059 04bb
00000200: e678 053d d4c2 003d 470b 323d 2ccb c83c
00000210: 8ef2 653c 800e db3c 6cdf d63c aab8 843d
00000220: 54b1 513b cde3 37bc 2873 783c b965 53bd
00000230: e46c 21bd 760e 003c 681d 08bd f094 ccbc
00000240: 6083 73bc b613 103c a81b 91bc 907e 66bc
00000250: ac0c c6bc 680f e1bc ca5e 58bc 9c14 e9bc
00000260: 80cb e53a 5e8f b13c f179 5f3c 7c81 5e3c
00000270: 32cc 1ebd 6ee2 563c 1838 86bc f06d 943b
00000280: fa23 563d e814 403d b7da 3b3c 2019 8ebb
00000290: 7621 47bd cb1d 173d 73b6 5fba 9815 943c
000002a0: 00c6 2c3b d47b 50bd 3827 4abd c677 6abd
000002b0: 12b6 073d 56eb 46bd 561b 513d 9c48 18bd
000002c0: dedc 44bd 862f 613d d572 1cbc 7892 c0bc
000002d0: 6c50 bfbc 8184 713c 4654 253d 8aa5 14bd
000002e0: 8da3 aebc 276c 22bd 92ec 543d 5a84 6e3d
000002f0: 0d06 59bd 2cca 3cbd fa7e 7fbd 415d 743c
00000300: 9443 103d 1067 eb3b 0edb 6a3d a477 cebb
00000310: c23b 003d 7041 643d 8739 5abd c0b1 3a3d
00000320: 5144 c63c 90fd 3bbd f640 7c3d 1791 34bd
00000330: 2848 c63c 9901 903b cac3 923c 00fa ed3b
00000340: 608e 05bb b8aa be3c b84b 613d cca0 173d
00000350: b0ab 30bd 78ef 0f3c 6ead 553d 4295 073d
00000360: 3763 66bd 9c57 7eba 3c29 103d 2456 273d
00000370: 0adb b63b 0e10 ba3c 5aad 25bd 6fca 4e3d
00000380: 9099 5a3d fb21 d6bc 0691 183c e43f ed3c
00000390: e0fb 20bd 39a3 373c 1379 4f3d 004e 8f3b
000003a0: c93b 523d 7562 f2bc fabd 413d 598d 04bd
000003b0: f2b3 4c3d 1e7a 7bbd 0dd2 37b8 086f 37bd
000003c0: 7a67 c9bc 8a02 32bd 70e7 9d3b f1b1 eaba
000003d0: 7c39 3f3d 1192 04bc 0fa7 55bd 16ac 203d
000003e0: 82b6 47bd ed6a bc3c 98b5 143d fa12 2bbd
000003f0: 907e be3b cbdd 883c bc5d 3abd ff8c e03c
-0.05099189 -0.053191625 0.010425769 -0.04707837 0.055608608 -0.019972647 -0.032955132 -0.0618594
-0.043670405 -0.04125098 0.057781857 0.006789309 -0.0056601763 -0.014811635 0.0135380775 0.013504821
0.061718233 0.002132751 -0.043833487 -0.04383393 -0.042570636 0.0474197 -0.0260186 0.005072516
0.06238521 -0.056946024 -0.033976424 -0.039113864 -0.042760085 -0.037292317 -0.06204938 0.041192003
-0.053092323 0.028581416 0.020811362 -0.044687696 0.0011864464 -0.015653081 0.0322905 -0.0005581975
0.04202062 -0.019799115 0.040116966 0.004952505 -0.024892278 -0.0026685447 0.06257868 0.024603672
-0.0400914 -0.0031703415 -0.059298508 0.015882134 0.05426325 -0.057665408 -0.0022576973 -0.010929467
0.0089888275 0.030767493 -0.019570507 -0.005828232 0.014810372 -0.042705968 0.059428655 -0.038935363
-0.0277414 -0.049860515 -0.02508238 -0.05328062 0.04135906 -0.028339183 -0.06499306 0.05669833
0.00885168 0.059666634 -0.055568747 0.009931289 -0.030447945 -0.05511809 0.048233747 -0.056211647
0.002054313 -0.061837733 0.0012996595 0.005112194 -0.029473446 0.010706075 -0.057639293 -0.014396384
-0.05611106 0.0031602457 -0.06318377 -0.053672258 -0.004713416 -0.024415644 -0.020287111 0.0027779266
0.014292836 -0.024180643 -0.041893892 -0.009942092 -0.054498933 0.056267776 0.017919466 0.013593437
-0.051501732 0.010348439 -0.0016376589 0.041798793 -0.0047624186 -0.009485386 -0.05886133 -0.05686353
0.03528499 -0.035609044 0.033367462 -0.030788518 0.049549 -0.03745006 0.04906275 0.004239279
-0.037466817 0.03290973 0.052887812 0.02360548 -0.043153983 -0.013781548 0.05446783 -0.0020195097
0.032586 0.031435803 0.043467786 0.024510942 0.01403488 0.026740313 0.026229583 0.064805344
0.0031996565 -0.0112237455 0.015164174 -0.051610682 -0.039410487 0.007815948 -0.03323117 -0.024973363
-0.014862865 0.008793762 -0.017713383 -0.014068261 -0.024175964 -0.027473167 -0.013206193 -0.02845221
0.0017531961 0.021674808 0.013639913 0.013580676 -0.038768955 0.0131155085 -0.01638417 0.004529707
0.052280404 0.046894938 0.01146572 -0.004336491 -0.048615895 0.036893647 -0.0008533962 0.018076703
0.0026363134 -0.05089934 -0.04935381 -0.05724313 0.03313262 -0.048564278 0.05105146 -0.03717862
-0.048062198 0.054976963 -0.009548862 -0.023507342 -0.023353778 0.014741064 0.040363573 -0.036290683
-0.021318221 -0.039653923 0.051983424 0.05823169 -0.052984286 -0.046091244 -0.062376954 0.014914812
0.035220698 0.007183917 0.057337813 -0.0063008834 0.03130699 0.05572647 -0.05327752 0.04557967
0.024202498 -0.045896113 0.06158539 -0.04408368 0.024204329 0.0043947217 0.017915625 0.0072624683
-0.0020379052 0.023274764 0.05500385 0.037018582 -0.043132484 0.008785121 0.05216735 0.033101328
-0.056246962 -0.0009702386 0.035195574 0.040853634 0.0055803107 0.022712734 -0.040448524 0.050486024
0.053369105 -0.02613925 0.00931192 0.02896113 -0.039302707 0.011208349 0.050652575 0.004373312
0.051326547 -0.029587964 0.047300316 -0.032361362 0.049976297 -0.061395757 -4.3826225e-05 -0.044783622
-0.024585474 -0.043459453 0.0048188493 -0.0017905814 0.04668568 -0.008091466 -0.052161273 0.039226614
-0.048758037 0.023000205 0.036305994 -0.041766144 0.0058134273 0.016707322 -0.04549955 0.027410982

fc3.weight f4 [1, 256]
00000000: e009 54bd 2ebc 1c3c 4860 333d 1445 7e3d
00000010: 7e6f 41bd bca9 f63b e34d d23c 2243 553d
00000020: 1a0c 14bd 5989 f43c bc82 2e3d 8261 253d
00000030: 8e68 78bd 0478 e13c 308e 31bc 995e 443d
00000040: 4254 46bd 7097 8b3b d77d 07bd dacf 49bb
00000050: 22b4 64bd 7d69 8bbc eb70 f1bc 2cfb cb3b
00000060: 8cf0 cc3c a831 a33c b03e 643d 6439 cebc
00000070: 5494 8cbc 5484 9dbc 8828 e1bc 5842 233d
00000080: 68d0 c1bc 2173 ad3c ea7d 643d dc80 fabc
00000090: da0a 93bc 400f 023c 6fd8 23bd 60e4 56bd
000000a0: bf17 a0bb 94cd 7abd fbe3 3a3d 82e4 28bd
000000b0: c469 66bd e066 22bd cdcb 16bc 60e5 10bc
000000c0: a5ed a5bc 5736 c43c b1a4 d33c 482f 47bc
000000d0: acd0 563d f88d 783c 800e 3a3b bce6 193c
000000e0: f0e1 033c b823 b0bc c32f 623d 437d 45bd
000000f0: 41ff d6bc 4b15 283b 5a29 323d adf1 1c3d
00000100: 6f2a 983b eba4 123d 1cb7 8b3c 3863 4d3c
00000110: f0b5 af3c 1bef 89bc c9e0 6d3d e338 a73c
00000120: bf81 fbbb fc1e db3c aaf3 61bd c4ef a2bc
00000130: 8c11 50bd def3 283d 4c14 a73c 2ba4 36bd
00000140: 3604 4e3d 66f8 40bd 5d1f 3dbc 6e80 4c3d
00000150: b89b 553c f01b b53c c4d5 d33c 4842 203c
00000160: d6c8 64bd a53b 80bd 6f9b cc3c b1d3 47bc
00000170: 408e 113c e9d5 89bc 78ac 5f3c fc0d d2bc
00000180: 8815 e5bc 59bc 1d3d 3425 68bd 0446 52bd
00000190: 4828 913c 2cd3 013c 1438 0f3d 6764 7d3d
000001a0: a942 3dbd 00d1 4cbb ed59 963c 1c1e 9d3c
000001b0: dcfe 80bc 0a51 093d 783a c53c e4cd 013d
000001c0: c42c 403d 3f63 81bd d3d9 5fbd 8c28 aebb
000001d0: 20af 69bc 1952 bb3c 40e5 323c 04e9 133d
000001e0: 02cd 293d 01de 94bc 9095 56bc fbec f2bc
000001f0: 4234 0ebd 8432 aa3c e4a8 82bc 60fe 693c
00000200: 6c41 023d e0ea 5fbc 89d0 3abd 0a01 0fbd
00000210: 4858 34bd 7c74 a23b fc87 29bd 6f3c 5cbd
00000220: 64e2 a93c bf45 3abd 604f b9bb 1e65 60bd
00000230: 449d ddbc bdbc fbbc 683e 6e3d 92c5 7ebd
00000240: a01d 6a3c 32a2 463c 00c4 203a d64a 743d
00000250: 6c00 4fbd bee1 79bc 61d2 ddbc b01f 843c
00000260: 242f cfbc ad52 60bd 85db 5dbd ce60 c1bc
00000270: f841 79bc eeee 61bd e612 2dbc 1e28 563d
00000280: 8c8e 69bd 70d1 f1bb e460 33bd 5ed9 043d
00000290: e08d 28bd 40e8 25bd 6aad ce3c bc54 533d
000002a0: 78a0 babc a5b7 33bd 8094 77ba 0afe 333c
000002b0: 4052 c13b e0f0 463d c6af 57bd 44e5 a83c
000002c0: 6813 933c 1e5b 223d 2ede 613c 3061 67bd
000002d0: 909e 5cbc ba3b 393d 2817 5b3d 5060 153d
000002e0: e606 5cbd 81ed 20bd c0e2 0c3d 8539 a33c
000002f0: e629 9dbc 04e9 ecbc cb13 223d 940f 5b3d
00000300: 8c3c a8bc 26d0 40bd ee6a a4bc 75ed d0bc
00000310: d889 443d 26d7 5fbd bc62 f0bb 63df 2bbc
00000320: c865 30bd 4c34 f43c 739c b5bc a507 32bc
00000330: 0074 27bd 26ae 4fbc 19c4 733d e0aa c23c
00000340: 8039 18bc 96aa 4cbd 65a5 4c3d 445b 0cbd
00000350: 8542 b93b 3c1d 6f3d 969c 76bd ba6d 0dbd
00000360: e27e 8fbc c22b 67bd 90cd 873c eea1 4e3d
00000370: ddd2 86bc be23 3e3d e83e 9cbc 54a7 38bd
00000380: 747f 813c f615 143c 2504 1c3c c2cc 523d
00000390: 32ae 1f3d 2985 463d c5d5 55bd 08bb 69bd
000003a0: a78a 05bd bf1a 993b 3634 1dbd 1f81 b7bc
000003b0: 58b9 49bc 4063 a7bb 2971 ba3c bc1c e93b
000003c0: 0ea6 9cbc 289b 3f3c 7422 6fbd 936b 883c
000003d0: 5052 be3b a19e 263d 8aa1 873c 89c3 b43c
000003e0: 96d9 52bd 9503 643d e457 2bbd c6d7 06bd
000003f0: d868 be3c e345 0b3c 6053 7f3c 38eb 98bc
-0.05176723 0.00956635 0.043792993 0.062077597 -0.047225468 0.007527558 0.025671905 0.052065976
-0.036144353 0.029850649 0.042605147 0.040376194 -0.060646586 0.027523048 -0.010837123 0.047941778
-0.0484202 0.004259996 -0.033078995 -0.0030794055 -0.05583585 -0.017018074 -0.029472789 0.0062250104
0.025017045 0.019921139 0.055723846 -0.02517385 -0.017160572 -0.019228138 -0.027485147 0.039858192
-0.023658946 0.021173062 0.055784144 -0.030579023 -0.01794951 0.007938206 -0.04000133 -0.05246389
-0.0048856433 -0.06123121 0.045627575 -0.041233547 -0.05625321 -0.03964889 -0.009203863 -0.00884375
-0.02025492 0.023951693 0.025835367 -0.012157269 0.0524451 0.015170567 0.002838999 0.00939339
0.008049473 -0.021501407 0.05522133 -0.048215162 -0.026244761 0.0025647457 0.043496467 0.038316417
0.0046437304 0.03580181 0.017055087 0.012535863 0.02144906 -0.016837647 0.0580757 0.020412868
-0.007675379 0.026748173 -0.055164017 -0.01988972 -0.050797984 0.041248195 0.02039542 -0.044590157
0.050296985 -0.04711189 -0.011543122 0.049927168 0.0130376145 0.022108048 0.025858767 0.009781428
-0.055855595 -0.06261376 0.02497646 -0.012196467 0.008884013 -0.016825633 0.01365196 -0.025641434
-0.027964368 0.0385097 -0.056676105 -0.051336303 0.017719403 0.007923882 0.03496559 0.06186333
-0.04620615 -0.0031252503 0.018353427 0.019179396 -0.015746526 0.03352455 0.024075732 0.031690493
0.04691769 -0.06317758 -0.054651093 -0.005314892 -0.014262944 0.022866296 0.010918915 0.036110893
0.041455276 -0.018172266 -0.013097182 -0.029654017 -0.034717806 0.02077604 -0.015949674 0.014281839
0.031800672 -0.013666838 -0.04560903 -0.0349131 -0.044029504 0.0049577337 -0.04138945 -0.05376857
0.020737834 -0.04547667 -0.005655214 -0.054783933 -0.02705253 -0.030729646 0.058164984 -0.062200136
0.01428929 0.012123631 0.0006132722 0.05964168 -0.05053751 -0.015251575 -0.027077856 0.016128391
-0.025291033 -0.054766346 -0.05416443 -0.02360573 -0.015213482 -0.0551595 -0.010563588 0.052284352
-0.05702071 -0.007379703 -0.043793574 0.03243386 -0.041150928 -0.040504694 0.025229175 0.05159448
-0.022781596 -0.04387631 -0.00094444305 0.010985861 0.0058996975 0.04856956 -0.052657865 0.020617135
0.01795359 0.039637677 0.013785882 -0.05648917 -0.013465539 0.045222975 0.05348888 0.036468804
-0.053717516 -0.039289 0.034395933 0.019924888 -0.019185018 -0.028919704 0.039569657 0.053481653
-0.020536683 -0.047073506 -0.02007052 -0.025503853 0.04798302 -0.05464854 -0.007335989 -0.010490271
-0.043065816 0.029810093 -0.022169327 -0.01086608 -0.04088211 -0.012675798 0.059513185 0.02376312
-0.009291053 -0.04996737 0.04996242 -0.034266725 0.0056536817 0.05837749 -0.060207926 -0.03452847
-0.017516557 -0.056438215 0.016577512 0.050447397 -0.01645797 0.046420805 -0.019072965 -0.04508145
0.015807845 0.009038439 0.0095224725 0.051464804 0.038984485 0.048466835 -0.05220582 -0.057063133
-0.032602932 0.004672378 -0.03837987 -0.022400437 -0.012312256 -0.005108267 0.022759037 0.007114021
-0.01912215 0.011694707 -0.058382466 0.016652858 0.0058081523 0.040678624 0.01655652 0.022065895
-0.051477037 0.05566748 -0.041831866 -0.03292062 0.023243353 0.008500549 0.015583843 -0.018666849
