outputs/router_rule/A2C_router/winter20251110-071143/models/policyB_critic.pth (torch, 274062 bytes, 5 tensors)

fc1.weight f4 [256, 6]
-0.21997981 0.18546008 -0.045489132 -0.18495199 -0.23817196 -0.32764897 0.4011671 0.055779953
-0.2861531 0.04289427 0.049849715 -0.26778924 0.28506455 0.39239025 1.4408474e-05 0.101593144
0.19935134 -0.17219873 0.36334312 -0.092851214 -0.1937554 -0.022547174 0.26465926 0.03432629
0.20575713 -0.2501443 -0.33680496 -0.3473625 -0.108942226 0.1884165 0.07787499 0.31327257
-0.03904219 0.044323537 0.09770691 -0.26527363 -0.12310451 -0.25309297 -0.1782736 -0.23743875
0.36153412 -0.21381283 -0.05219807 -0.39653257 -0.17522526 -0.293407 0.19036108 -0.18194856
-0.046415802 0.35121605 -0.13899371 -0.068247765 -0.30334044 0.23829582 -0.01515322 -0.32712853
0.06103311 0.027841613 0.33365077 -0.3314816 0.16448656 -0.085414775 -0.27877498 0.08339098
0.07284418 0.09843081 0.061904144 -0.1630412 -0.27516478 0.036529757 0.114978574 0.19205646
-0.14820164 0.32820776 0.011964293 -0.30419025 -0.16055751 -0.17472617 0.13568898 0.11668018
-0.11951435 -0.35781837 0.07131661 -0.34894451 0.35398385 0.05380172 0.117326364 0.044761945
0.130308 0.08301993 -0.05679352 -0.06938014 0.35644263 0.023576213 -0.18106252 0.32532653
-0.21990618 0.25919303 0.20183305 -0.40200126 -0.36660716 0.39589605 -0.2777644 0.03863826
-0.15527743 0.33877674 0.3968568 -0.11099366 -0.18126819 -0.12735549 -0.25183183 -0.27055076
0.18601638 0.26719156 -0.38768834 -0.097024314 0.22137718 -0.31146583 0.054011405 -0.063987166
0.06847954 -0.13791585 -0.1977305 0.21685748 0.11624632 0.36292598 0.36748275 -0.30258283
0.3155574 -0.36744815 -0.20255591 0.16692802 0.3563402 0.3620354 0.38822088 -0.0026983514
0.032041278 0.16820942 -0.36262295 -0.10338789 -0.1831911 0.22568518 0.07173835 0.0135421045
0.3511121 0.10681083 0.12538566 0.3989596 0.14223117 0.30514643 -0.37961745 -0.08334795
0.006472328 0.30542433 0.26008108 -0.029152334 0.13665088 0.16234937 0.38803542 0.32519123
0.3296403 0.20693308 -0.069236435 -0.33667448 0.27947867 -0.04789192 0.16269161 -0.06742369
0.10284274 -0.31917244 0.17213008 -0.39882112 -0.02678928 -0.03365965 0.08108953 -0.12660246
-0.27917063 -0.18581057 0.2891354 -0.3443668 -0.23643848 -0.22822438 -0.070515335 0.13537313
-0.14557073 0.015048782 -0.25643364 -0.09012867 -0.0042141215 0.3887224 0.26251253 -0.2372597
0.0696728 -0.25137407 0.29294813 0.026612518 -0.05647019 -0.31174296 -0.1989875 -0.20968848
-0.2362115 0.059026994 -0.2993414 -0.22080675 -0.08077971 -0.36211634 -0.14177652 0.029088277
0.1081902 0.33727756 -0.3276929 -0.120429926 -0.09457627 -0.3768044 0.3909422 -0.35905176
0.28151277 -0.38250762 -0.16594444 0.046442404 -0.25091088 0.22158651 -0.081333175 -0.34570965
0.2582653 0.31175986 0.2975572 0.15567006 0.14943975 -0.04054194 -0.24219161 0.23424292
0.20289212 -0.35775435 0.18503097 0.13170406 0.29257086 -0.27228796 -0.1302848 -0.3887996
0.24269074 -0.34623158 -0.05385207 -0.09067707 -0.1844511 0.4076041 -0.23727335 -0.10995877
0.3216692 0.40280998 0.21269453 0.21132314 -0.09245964 0.06793648 0.24298978 0.091849245
00000000: 6342 61be 3fe9 3d3e d052 3abd 0e64 3dbe
00000010: 5ae3 73be 9bc1 a7be c665 cd3e 8579 643d
00000020: a982 92be e7b1 2f3d 372f 4c3d ac1b 89be
00000030: fbf3 913e 60e7 c83e edbb 7137 1110 d03d
00000040: c222 4c3e dd54 30be 1c08 ba3e c728 bebd
00000050: d167 46be dab4 b8bc 6b81 873e b999 0c3d
00000060: ffb1 523e ea12 80be b371 acbe 7fd9 b1be
00000070: 1a1d dfbd 41f0 403e ec7c 9f3d 4365 a03e
00000080: b4ea 1fbd 998c 353d 8f1a c83d f2d1 87be
00000090: 381e fcbd 6795 81be 5b8d 36be 2523 73be
000000a0: 001b b93e c0f1 5abe a5cd 55bd 5106 cbbe
000000b0: 406e 33be 7139 96be 04ee 423e b950 3abe
000000c0: 7f1e 3ebd 97d2 b33e 5e54 0ebe 7cc5 8bbd
000000d0: 704f 9bbe d203 743e 3645 78bc 647d a7be
000000e0: dbfd 793d 1814 e43c 46d4 aa3e f5b7 a9be
000000f0: 2a6f 283e f1ed aebd 98bb 8ebe e4c8 aa3d
00000100: 542f 953d 1896 c93d 338f 7d3d 46f4 26be
00000110: 66e2 8cbe 3aa0 153d e379 eb3d 73aa 443e
00000120: 2cc2 17be d90a a83e e205 443c d3be 9bbe
00000130: 3069 24be 6beb 32be 0df2 0a3e 05f6 ee3d
00000140: f1c3 f4bd f833 b7be 710e 923d dba8 b2be
00000150: 5f3d b53e 315f 5c3d ce48 f03d 4d58 373d
00000160: 766f 053e 5a06 aa3d 52a0 68bd 2d17 8ebd
00000170: a67f b63e e722 c13c 7468 39be 3391 a63e
00000180: 162f 61be f3b4 843e 53ad 4e3e 1cd3 cdbe
00000190: efb3 bbbe e3b2 ca3e 2337 8ebe 2743 1e3d
000001a0: 0c01 1fbe 2574 ad3e d130 cb3e a550 e3bd
000001b0: 5e9e 39be 7a69 02be 1af0 80be a185 8abe
000001c0: 147b 3e3e 55cd 883e 167f c6be afb4 c6bd
000001d0: b3b0 623e 7378 9fbe 103b 5d3d b40b 83bd
000001e0: 003f 8c3d d039 0dbe dd79 4abe e30f 5e3e
000001f0: 8d12 ee3d 6fd1 b93e b326 bc3e 23ec 9abe
00000200: bd90 a13e 2a22 bcbe d16a 4fbe 2eef 2a3e
00000210: 3972 b63e b45c b93e e3c4 c63e d3d6 30bb
00000220: b73d 033d 173f 2c3e b7a9 b9be 08bd d3bd
00000230: 7396 3bbe 041a 673e 8eeb 923d b4df 5d3c
00000240: f7c4 b33e a3bf da3d 1965 003e 6f44 cc3e
00000250: 0ca5 113e 273c 9c3e 385d c2be 54b2 aabd
00000260: d315 d43b 9460 9c3e 5929 853e e0d0 eebc
00000270: 35ee 0b3e ea3e 263e 94ac c63e 777f a63e
00000280: 9dc6 a83e 44e6 533e d5cb 8dbd 9960 acbe
00000290: d417 8f3e 512a 44bd a198 263e 6e15 8abd
000002a0: 379f d23d 926a a3be de42 303e 4832 ccbe
000002b0: 3175 dbbc b3de 09bd 4412 a63d 13a4 01be
000002c0: 74ef 8ebe 2045 3ebe 8e09 943e d850 b0be
000002d0: ee1c 72be a7b3 69be 586a 90bd 419f 0a3e
000002e0: 7e10 15be 2b8f 763c 454b 83be 6195 b8bd
000002f0: 9d16 8abb 9f06 c73e 0b68 863e 35f4 72be
00000300: 9db0 8e3d 1ab4 80be 4cfd 953e 7f02 da3c
00000310: 494d 67bd c69c 9fbe 61c3 4bbe 94b8 56be
00000320: 6de1 71be 4ac6 713d 4743 99be 2a1b 62be
00000330: d56f a5bd 5067 b9be dd2d 11be 8a4a ee3c
00000340: d392 dd3d a5af ac3e 5dc7 a7be f7a3 f6bd
00000350: 34b1 c1bd 82ec c0be 9329 c83e a2d5 b7be
00000360: 7122 903e 0ad8 c3be 57ed 29be 643a 3e3d
00000370: 6477 80be 93e7 623e 0292 a6bd db00 b1be
00000380: 593b 843e fd9e 9f3e 6b59 983e f967 1f3e
00000390: bc06 193e 4e0f 26bd 1401 78be 60dd 6f3e
000003a0: f4c2 4f3e 942b b7be c278 3d3e 6edd 063e
000003b0: d9cb 953e 5469 8bbe 6169 05be be10 c7be
000003c0: ec83 783e 4445 b1be fd93 5cbd e6b4 b9bd
000003d0: c0e0 3cbe 7cb1 d03e c9f7 72be 1032 e1bd
000003e0: d3b1 a43e 1c3d ce3e 98cc 593e 1865 583e
000003f0: 7b5b bdbd 4822 8b3d 50d2 783e 751b bc3d

fc1.bias f4 [256]
-0.20985936 0.2396391 -0.019432282 0.32641798 0.11370439 -0.20197271 0.33445612 -0.11558921
0.30064675 0.24833107 0.07822797 -0.37793338 -0.0832516 -0.08493607 -0.15902634 -0.13500124
0.27543458 0.1859457 -0.29147682 0.067761146 0.02855223 0.28952956 0.15451927 0.11771591
0.22114809 -0.37806645 0.07375992 -0.028023086 0.2986883 -0.20355962 0.25684816 0.25037223
-0.134159 0.2088786 0.14241685 -0.05339095 0.069631845 -0.13094994 -0.16098797 -0.13060488
-0.15651737 0.005025144 0.39984545 -0.013650243 0.19378237 0.3648715 -0.05272864 0.18342692
-0.065755695 0.19460946 -0.23492077 0.06368791 0.36018056 0.114795625 0.24418554 -0.38552463
0.1841142 0.11231689 -0.18173188 0.017373508 0.14818537 -0.1412728 0.07131591 -0.07288274
0.091334 -0.04257442 0.302071 -0.2753314 -0.07075222 -0.17941035 -0.17655534 0.12260236
0.07370864 -0.21892582 -0.15746434 -0.2700418 -0.26486543 0.32238746 -0.31403175 -0.06467351
-0.26545742 -0.15048587 0.11862861 -0.23016855 -0.03959269 -0.34811392 0.30285 -0.21700282
0.0072915517 -0.15876782 -0.01443456 0.21476378 -0.34354433 0.017132483 -0.2749957 0.37621647
0.2534319 0.33297327 0.19355042 0.049083143 -0.07965409 -0.119096324 0.06199078 0.37399286
-0.19863977 0.16317827 0.024598 0.101267606 -0.3779655 -0.39266846 -0.061388906 -0.15368252
0.114769176 -0.40214133 0.11973838 0.20567648 -0.09339745 -0.22926523 0.39508653 0.27025378
-0.350018 -0.049393345 -0.036350563 0.3401583 0.055042077 -0.06278213 0.3010563 -0.10429584
0.34264418 0.12376298 -0.1713118 0.14564773 -0.2976316 0.0012889452 0.30476168 -0.08857412
-0.3117788 -0.06964604 -0.21647379 0.0043492718 0.34035283 0.036102146 -0.043900058 -0.05769802
-0.111975 -0.06555889 0.07121468 -0.18886445 0.27340022 0.006331916 -0.2619493 0.3714162
-0.3603628 -0.046597477 0.16364977 -0.17520373 0.018702138 0.013598642 0.10777801 0.25791603
-0.1765242 -0.13687225 -0.20970474 0.21778789 0.19274119 -0.14855078 -0.3174993 -0.14592165
0.17794433 -0.23277618 -0.18491362 0.093570076 -0.029781278 0.07681616 -0.37146533 -0.19812071
-0.11820935 -0.042309213 -0.10523448 -0.15067992 0.36882624 -0.17942242 -0.06922573 0.08453885
0.018628372 0.2729404 -0.36183512 0.3632084 0.0011752105 -0.1276021 0.06448212 0.4072381
-0.2824354 -0.049094 -0.05430633 0.35720912 -0.3309243 0.021175591 -0.11545591 -0.2050078
-0.1565855 -0.22282456 -0.34876582 -0.19183412 0.3939338 -0.38090163 -0.38476628 -0.3442091
0.22664164 0.18749589 0.2569743 -0.066380024 0.22061066 -0.085441455 -0.071276195 -0.1813885
0.20609196 -0.12638102 -0.33561215 -0.127825 -0.22071455 -0.14641567 -0.26063943 -0.008877787
0.37876952 -0.06913405 -0.15476775 0.3011619 -0.22731066 -0.26231682 0.34540954 0.022979503
0.06853533 0.34933153 -0.056378216 0.3176878 0.28795266 -0.134235 0.35919768 -0.22536574
0.07127797 -0.16079642 -0.044545893 -0.18201566 0.35385376 0.33291802 0.068507746 0.40186006
0.3638453 -0.40023455 0.124313585 -0.12867782 -0.18889382 0.23994382 0.064546004 -0.25951633
00000000: 5fe5 56be f463 753e 7330 9fbc 4220 a73e
00000010: d9dd e83d efd1 4ebe d53d ab3e 09ba ecbd
00000020: 5fee 993e 804a 7e3e fc35 a03d 7c80 c1be
00000030: d17f aabd f6f2 adbd cdd7 22be c43d 0abe
00000040: c305 8d3e 8d68 3e3e 733c 95be 5bc6 8a3d
00000050: 5ee6 e93c 383d 943e 4d3a 1e3e 0a15 f13d
00000060: a574 623e ed91 c1be 710f 973d ac90 e5bc
00000070: aced 983e ef71 50be 9a81 833e ca30 803e
00000080: fa60 09be 46e4 553e b9d5 113e 78b0 5abd
00000090: 249b 8e3d be17 06be 08da 24be 49bd 05be
000000a0: 1746 20be f7a9 a43b 8bb8 cc3e 45a5 5fbc
000000b0: e36e 463e 70d0 ba3e fdf9 57bd 44d4 3b3e
000000c0: ecaa 86bd b447 473e 128f 70be cf6e 823d
000000d0: 9669 b83e f819 eb3d c60b 7a3e 7c63 c5be
000000e0: 6f88 3c3e 6606 e63d ec17 3abe e352 8e3c
000000f0: e8bd 173e d1a9 10be 130e 923d 8c43 95bd
00000100: 520d bb3d 8462 2ebd 0da9 9a3e 3df8 8cbe
00000110: 8ae6 90bd 59b7 37be ecca 34be f216 fb3d
00000120: 8ef4 963d 172e 60be 553e 21be eb42 8abe
00000130: 719c 87be f80f a53e c5c8 a0be 8c73 84bd
00000140: 09ea 87be f818 1abe 8ff3 f23d 4eb1 6bbe
00000150: f22b 22bd fd3b b2be 280f 9b3e fd35 5ebe
00000160: f8ed ee3b 0894 22be ef7e 6cbc 09eb 5b3e
00000170: 0be5 afbe 6c59 8c3c 3dcc 8cbe 729f c03e
00000180: d3c1 813e 797b aa3e 1532 463e 680b 493d
00000190: af21 a3bd c6e8 f3bd 0bea 7d3d fe7b bf3e
000001a0: 3968 4bbe 3418 273e bf81 c93c 6465 cf3d
000001b0: b284 c1be d70b c9be ef72 7bbd f35e 1dbe
000001c0: 1a0c eb3d 78e5 cdbe 6539 f53d db9c 523e
000001d0: 2a47 bfbd 81c4 6abe c848 ca3e b45e 8a3e
000001e0: 8f35 b3be ad50 4abd 54e4 14bd 3b29 ae3e
000001f0: cd73 613d eb93 80bd 0d24 9a3e 0f99 d5bd
00000200: 0f6f af3e 7277 fd3d 5c6c 2fbe ae24 153e
00000210: 2b63 98be d3f1 a83a b909 9c3e 5966 b5bd
00000220: 79a1 9fbe 95a2 8ebd 4eab 5dbe 5684 8e3b
00000230: ba42 ae3e d8df 133d 8cd0 33bd c254 6cbd
00000240: 2653 e5bd bd43 86bd 01d9 913d af65 41be
00000250: 1dfb 8b3e f67b cf3b 381e 86be 442a be3e
00000260: 7981 b8be ffdc 3ebd ce93 273e 9b68 33be
00000270: 3a35 993c d7cc 5e3c b8ba dc3d 920d 843e
00000280: c3c2 34be 3d28 0cbe d7bc 56be ca03 5f3e
00000290: f25d 453e b21d 18be 458f a2be 7c6c 15be
000002a0: 0a37 363e e15c 6ebe ff59 3dbe aba1 bf3d
000002b0: def7 f3bc ca51 9d3d b430 bebe 28e0 4abe
000002c0: be17 f2bd 6d4c 2dbd 2d85 d7bd d64b 1abe
000002d0: cbd6 bc3e 83ba 37be 38c6 8dbd b422 ad3d
000002e0: 879a 983c d8be 8b3e 7442 b9be 74f6 b93e
000002f0: 8509 9a3a 20aa 02be 340f 843d 8381 d03e
00000300: 5f9b 90be ca16 49bd 5070 5ebd 1de4 b63e
00000310: e96e a9be 6f78 ad3c 2674 ecbd 91ed 51be
00000320: f357 20be 1f2c 64be 6f91 b2be 2a70 44be
00000330: b1b1 c93e 8a05 c3be 1600 c5be 2d3c b0be
00000340: bf14 683e ecfe 3f3e 2392 833e 40f2 87bd
00000350: c3e7 613e eefb aebd 41f9 91bd e8bd 39be
00000360: c509 533e 076a 01be 5bd5 abbe 8fe4 02be
00000370: ff02 62be fded 15be 8872 85be 2374 11bc
00000380: 14ee c13e 2796 8dbd 707b 1ebe e431 9a3e
00000390: 20c4 68be 644e 86be 85d9 b03e 833f bc3c
000003a0: 405c 8c3d 95db b23e d8ec 66bd faa7 a23e
000003b0: 886e 933e e674 09be c2e8 b73e 47c6 66be
000003c0: 2ffa 913d d1a7 24be c175 36bd 5062 3abe
000003d0: 522c b53e 3b74 aa3e ca4d 8c3d 9ac0 cd3e
000003e0: ee49 ba3e 8beb ccbe 1f98 fe3d 1ec4 03be
000003f0: 626d 41be d5b3 753e b230 843d 53df 84be

fc2.weight f4 [256, 256]
-0.061420135 -0.054670125 0.045327514 0.026109919 -0.0028835908 -0.03345958 -0.019382209 0.049720258
-0.026000448 -0.02894736 -0.011358328 0.039177857 0.0032804832 0.010629341 -0.039469853 0.055600777
0.048936628 0.04308813 0.0490197 0.03359188 -0.03901352 0.049118914 -0.055003874 -0.055528656
-0.058943972 -0.012098476 0.05974683 -0.031445667 0.008055195 -0.04299678 -0.00034262985 -0.04139012
0.024152294 0.012968823 0.03374882 0.014484592 0.04058738 -0.046892777 -0.056926526 0.0031475946
-0.03996118 -0.027331464 -0.04498505 -0.02449011 -0.05138343 -0.03156165 0.03919112 -0.058359616
-0.044726394 0.049485974 -0.050552137 -0.023762234 0.03822141 -0.005691342 -0.013235904 -0.013607524
-0.055321798 -0.039997764 0.04768163 -0.028302059 -0.042273887 -0.049900256 -0.05076108 0.009734407
-0.04920297 -0.015180148 -0.0412891 -0.0024781302 -0.049605407 -0.028553665 -0.05435604 0.033048622
-0.044795893 0.03605304 -0.048242822 -0.053341553 0.04337556 0.057830393 -0.048385426 0.06202002
0.037169784 0.03319016 0.032524988 -0.022527747 0.05426553 -0.043630376 -0.04320752 -0.0040662214
-0.022875391 0.060928904 -0.04828073 0.050718956 0.008439355 -0.04371743 -0.053674646 0.040523738
-0.003459096 -0.05373799 -0.043174557 -0.028229997 -0.041028544 0.026604742 0.053785235 -0.062191382
-0.020136766 0.041457735 0.05059413 -0.034007967 0.053881288 -0.02558636 0.05086811 0.037267365
0.020968385 -0.05533438 -0.015072763 -0.0430431 0.022919603 0.021711566 -0.054698937 0.04942049
0.010676287 0.035678014 -0.05951733 -0.017104685 0.038133107 0.029434659 0.034281746 0.0380027
0.0019706264 0.03996835 0.009004034 -0.051240854 0.05062046 -0.0047124177 -0.026412204 -0.043173127
0.03043259 0.0058200955 0.009276435 0.007088624 -0.012654267 -0.0332959 -0.062143862 -0.024599187
0.022 -0.018812098 -0.027785636 -0.014774978 -0.007695645 -0.04720819 -0.0031161606 0.062307537
0.056102745 0.028297447 -0.052351348 -0.04481867 -0.033863142 0.035685048 -0.0046784654 -0.016278893
-0.029354304 0.019948035 -0.03606596 -0.043393135 -0.02838219 0.022997893 -0.020491607 -0.045895167
0.0011493489 0.05206167 0.021883182 0.03856668 -0.022300266 0.0313574 0.041505106 -0.018565923
0.031954587 0.043901533 -0.0027226806 0.027580045 0.002021499 -0.04668933 0.026062027 -0.055377528
0.0423012 0.042106003 0.0274247 -0.011509255 0.05005508 -0.017592154 0.029995315 -0.017258562
-0.015905052 0.00874003 0.023840897 0.033740193 0.04197386 0.01250805 0.04465445 -0.031624883
-0.061934017 -0.04072719 -0.033423 0.06015929 -0.01818204 0.054179408 -0.018379614 0.022419915
-0.009444259 -0.016331539 0.058967896 -0.05562745 0.055162154 -0.004531041 -0.05729878 -0.05628594
-0.020172156 0.05577249 -0.03704028 -0.021513775 0.052208267 0.012955487 -0.033411227 0.02781561
-0.024218544 0.061859682 0.049132735 0.0544952 -0.01205463 -0.02646701 -0.05650071 0.05092684
-0.04615964 -0.05446198 0.007841989 -0.054757826 -0.024497993 -0.048300512 0.05585622 0.046773925
-0.049768858 0.05577653 0.030355938 -0.036611877 0.005397342 0.004168503 0.018495418 -0.009049244
-0.013288528 -0.055393957 0.046512917 0.028957844 0.029068604 0.028045855 -0.011833765 -0.028692134
00000000: ae93 7bbd c8ed 5fbd 58a9 393d 78e4 d53c
00000010: a0fa 3cbb ea0c 09bd 70c7 9ebc 78a7 4b3d
00000020: e4fe d4bc 0423 edbc 4818 3abc f678 203d
00000030: 60fd 563b b026 2e3c 24ab 21bd a4bd 633d
00000040: c671 483d 2e7d 303d e2c8 483d a497 093d
00000050: a4cc 1fbd ea30 493d be4b 61bd 0472 63bd
00000060: 3c6f 71bd b038 46bc 18b9 743d 2ccd 00bd
00000070: f0f9 033c 641d 30bd 00a3 b3b9 b088 29bd
00000080: 08db c53c 307b 543c 343c 0a3d c850 6d3c
00000090: f43e 263d a412 40bd ca2b 69bd e047 4e3b
000000a0: 56ae 23bd 3ce6 dfbc 3e42 38bd 7c9f c8bc
000000b0: 6e77 52bd ca46 01bd de86 203d 7e0a 6fbd
000000c0: 0633 37bd ceb1 4a3d c20f 4fbd 04a9 c2bc
000000d0: 0e8e 1c3d 707e babb 68db 58bc 18f2 5ebc
000000e0: 1c99 62bd b2d4 23bd d04d 433d b8d9 e7bc
000000f0: 6227 2dbd 3664 4cbd daea 4fbd 107d 1f3c
00000100: 0e89 49bd 28b6 78bc c21e 29bd 2068 22bb
00000110: 0a2f 4bbd 60e9 e9bc 70a4 5ebd fe5d 073d
00000120: e67b 37bd 5aac 133d 449a 45bd ac7c 5abd
00000130: 92aa 313d 90df 6c3d cc2f 46bd b408 7e3d
00000140: 583f 183d 68f2 073d ec38 053d 1c8c b8bc
00000150: 8845 5e3d c4b5 32bd 5efa 30bd f03d 85bb
00000160: 2c65 bbbc 9690 793d 04c2 45bd aebe 4f3d
00000170: 3845 0a3c 0c11 33bd f2d9 5bbd 38fc 253d
00000180: 00b2 62bb 5e1c 5cbd ced7 30bd 9842 e7bc
00000190: 8c0d 28bd 30f2 d93c e84d 5c3d 64bc 7ebd
000001a0: dcf5 a4bc 96cf 293d ca3b 4f3d f04b 0bbd
000001b0: a0b2 5c3d 7c9a d1bc 145b 503d aaa5 183d
000001c0: e4c5 ab3c 4ea6 62bd c0f3 76bc f64d 30bd
000001d0: e4c1 bb3c 74dc b13c fe0b 60bd 246d 4a3d
000001e0: 98eb 2e3c 1c23 123d 72c8 73bd 201f 8cbc
000001f0: 7631 1c3d f420 f13c 046b 0c3d b8a8 1b3d
00000200: a025 013b dab5 233d a885 133c eee1 51bd
00000210: 6657 4f3d a06a 9abb 685e d8bc 4ed6 30bd
00000220: c44d f93c 80b6 be3b 30fc 173c b047 e83b
00000230: d853 4fbc 4861 08bd 908a 7ebd 3c84 c9bc
00000240: 5839 b43c d41b 9abc b49e e3bc c012 72bc
00000250: c02b fcbb 605d 41bd 8038 4cbb 3036 7f3d
00000260: fecb 653d 0cd0 e73c 5e6e 56bd c893 37bd
00000270: 14b4 0abd 7c2a 123d d04d 99bb 505b 85bc
00000280: 7078 f0bc 106a a33c e6b9 13bd 00bd 31bd
00000290: c481 e8bc 1466 bc3c 04de a7bc 92fc 3bbd
000002a0: c0a5 963a 9e3e 553d 5c44 b33c 18f8 1d3d
000002b0: 0caf b6bc 9e70 003d 4201 2a3d 9017 98bc
000002c0: d0e2 023d 18d2 333d 006f 32bb 8cef e13c
000002d0: 207b 043b 503d 3fbd 0880 d53c 8cd3 62bd
000002e0: 0644 2d3d 5877 2c3d c4a9 e03c 5091 3cbc
000002f0: 8e06 4d3d 6c1d 90bc bcb8 f53c d461 8dbc
00000300: 504b 82bc 5832 0f3c fc4d c33c 2833 0a3d
00000310: c8ec 2b3d 90ee 4c3c 96e7 363d 1889 01bd
00000320: 86ae 7dbd 8ed1 26bd 8ee6 08bd 9669 763d
00000330: 80f2 94bc 3aeb 5d3d d890 96bc f8a9 b73c
00000340: 18bc 1abc b8c9 85bc 5288 713d 9cd9 63bd
00000350: b6f1 613d 2079 94bb 20b2 6abd 168c 66bd
00000360: 1440 a5bc b271 643d 8cb7 17bd a83d b0bc
00000370: 56d8 553d 4043 543c 36da 08bd 90dd e33c
00000380: f865 c6bc 9460 7d3d 683f 493d 5c36 5f3d
00000390: c880 45bc 58d1 d8bc 4a6d 67bd aa98 503d
000003a0: e411 3dbd 8613 5fbd b07b 003c be49 60bd
000003b0: 04b0 c8bc c2d6 45bd 7ec9 643d 0496 3f3d
000003c0: 6eda 4bbd ee75 643d 04ad f83c 56f6 15bd
000003d0: 30dc b03b f097 883b b483 973c 4843 14bc
000003e0: 20b8 59bc c6e4 62bd 5484 3e3d 0039 ed3c
000003f0: 4821 ee3c 6cc0 e53c 68e2 41bc c40b ebbc

fc2.bias f4 [256]
-0.021811672 0.02117636 0.048345402 -0.042081244 0.017113954 0.02221749 -0.02168913 -0.012074068
-0.012812242 0.032507297 0.011351591 -0.023471575 -0.06156239 -0.006361395 -0.0115457475 0.0397979
0.005541183 -0.0012660176 -0.036205515 0.03852354 -0.007641111 -0.033913247 -0.058400087 -0.031268187
-0.008477084 0.05218454 0.022979848 0.04769268 0.027771682 -0.015842915 0.052914865 -0.029366285
0.014603222 -0.04871214 0.048810355 -0.05311848 0.037054665 -0.04937896 -0.018846478 0.00043440188
0.04848036 -0.059717316 0.06025291 -0.039881676 -0.03842427 0.051693574 -0.059270702 0.0067603067
-0.06014098 0.038904406 0.019516816 -0.028974831 0.039078165 0.02000168 -0.010865293 0.03890527
0.061350323 0.018457955 -0.013822697 -0.025244234 0.052253556 -0.021793634 0.05916369 0.04159057
0.026959805 -0.009553322 -0.0102146175 0.037949607 -0.035580277 0.020978697 -0.03871318 -0.017710887
0.013052873 0.009128302 0.028297111 -0.047873348 -0.041723832 0.045988157 7.4230134e-05 0.045826368
-0.04109531 0.01511278 -0.030076034 -0.021798672 -0.031329945 0.0030033588 0.03045609 -0.019239245
-0.0062533766 0.03957042 0.015035414 -0.005615966 0.037799835 0.06058374 0.0030836433 -0.055048093
0.043257475 0.03115715 -0.023115505 -0.037884504 -0.04386339 -0.016778603 -0.0433107 -0.04227292
-0.055595048 0.035809666 -0.0051021334 0.02545303 0.050169244 0.0087510105 -0.02005811 0.027862543
-0.028664535 -0.057373613 0.041356098 -0.040906645 -0.0058060884 -0.024544347 -0.019077133 0.01261264
0.035923254 -0.033642307 -0.0068362206 0.033455607 -0.033748075 -0.022348695 -0.037276745 -0.039707936
-0.06199632 0.061853196 0.0046737874 0.011625767 0.027458318 0.04631971 -0.0031285745 -0.02260897
-0.02934883 -0.05685535 0.021290898 0.028079376 0.05223784 0.04842513 -0.04514213 -0.04204695
0.012976259 -0.056672204 -0.0062813982 -0.025889084 0.04873708 0.05697199 -0.056492403 0.035796467
0.05518218 -0.056635253 -0.013371648 -0.023419298 -4.272908e-05 0.060833517 -0.059044655 0.06139633
0.040686928 0.051585905 0.021666452 -0.044309825 0.015014179 -0.012987716 0.039782353 0.031738117
0.025701178 0.030215142 0.019678056 0.022155935 0.040791236 -0.026059823 0.007431425 0.041754365
0.054097436 -0.0055383663 0.004716754 0.020580992 -0.041655317 -0.017167754 -0.043660402 0.053874888
-0.027222894 0.050492268 0.055634916 0.04264199 0.007242953 -0.042002466 -0.011000492 0.01234833
-0.031674556 -0.018393043 -0.020193035 0.040581018 -0.04702375 -0.024473742 0.021255698 0.05901182
-0.020295404 -0.04767923 -0.056062184 -0.039244067 -0.027754232 -0.03200517 -0.00037333317 0.04533752
0.015719503 -0.0026642168 -0.056361817 -0.04597821 -0.027427688 0.0024464503 -0.027186625 0.04749121
-0.046765592 -0.0021906942 0.009540857 0.034981582 -0.01321431 0.053614616 -0.027278727 -0.009351566
-0.018898018 0.030571342 0.05349335 0.03596252 0.008067213 0.03495714 -0.048484266 -0.034601495
-0.016646517 -0.013592569 -0.020306833 0.023517914 -0.054213207 -0.020065362 -0.00885284 0.008105613
-0.0057922453 0.054598257 -0.012256966 0.04670049 0.017400213 0.018731253 -0.010564216 -0.0031645012
-0.038555242 -0.011524737 -0.053960465 0.002528958 0.04917131 0.036036722 -0.019156842 0.022095848
00000000: 64ae b2bc 0c7a ad3c d405 463d 625d 2cbd
00000010: 9032 8c3c 7401 b63c 67ad b1bc 50d2 45bc
00000020: 70ea 51bc 5f26 053d 06fc 393c 7647 c0bc
00000030: d828 7cbd 4073 d0bb 602a 3dbc 1f03 233d
00000040: d092 b53b 80f0 a5ba 3c4c 14bd dcca 1d3d
00000050: 4962 fabb 9ee8 0abd ee34 6fbd 1213 00bd
00000060: 78e3 0abc 75bf 553d 3c40 bc3c 6659 433d
00000070: 7081 e33c 00c9 81bc 42bd 583d 9091 f0bc
00000080: 5a42 6f3c 6286 47bd 5eed 473d c392 59bd
00000090: a2c6 173d 9841 4abd ee63 9abc 6fc0 e339
000000a0: 5893 463d 259a 74bd c1cb 763d f85a 23bd
000000b0: c462 1dbd a4bc 533d d6c5 72bd 9085 dd3b
000000c0: 6356 76bd 3a5a 1f3d bbe1 9f3c a05c edbc
000000d0: 6d10 203d 90da a33c 5804 32bc 225b 1f3d
000000e0: 7a4a 7b3d 2335 973c 9878 62bc ffcc cebc
000000f0: d307 563d 9088 b2bc a055 723d e05a 2a3d
00000100: cfda dc3c 8985 1cbc 365b 27bc 0c71 1b3d
00000110: a0bc 11bd 84db ab3c b691 1ebd 6c16 91bc
00000120: b8db 553c e08e 153c 58cf e73c d816 44bd
00000130: 9ce6 2abd 145e 3c3d 00ac 9b38 6eb4 3b3d
00000140: 8e53 28bd 989b 773c 0462 f6bc 2193 b2bc
00000150: d453 00bd 00d4 443b 0d7f f93c 9f9b 9dbc
00000160: 20e9 ccbb 9814 223d 1957 763c 2306 b8bb
00000170: 00d4 1a3d a826 783d f316 4a3b 1c7a 61bd
00000180: c02e 313d 483d ff3c ba5c bdbc c82c 1bbd
00000190: 19aa 33bd 4873 89bc 9066 31bd 5f26 2dbd
000001a0: a2b7 63bd 28ad 123d cc2f a7bb df82 d03c
000001b0: 447e 4d3d 6660 0f3c e850 a4bc fd3f e43c
000001c0: e3d1 eabc 9800 6bbd 0365 293d ba8d 27bd
000001d0: 0041 bebb 3a11 c9bc a647 9cbc 3fa5 4e3c
000001e0: 4324 133d 84cc 09bd 6002 e0bb bf08 093d
000001f0: 6c3b 0abd 9c14 b7bc 80af 18bd caa4 22bd
00000200: daef 7dbd c759 7d3d 9226 993b 007a 3e3c
00000210: 44f0 e03c bcb9 3d3d c508 4dbb 7236 b9bc
00000220: f56c f0bc 28e1 68bd 406a ae3c b806 e63c
00000230: 58f7 553d 6e59 463d f4e6 38bd 6c39 2cbd
00000240: 609a 543c 1d21 68bd 30d4 cdbb 5815 d4bc
00000250: 88a0 473d 765b 693d 9464 67bd 519f 123d
00000260: b606 623d 5efa 67bd c214 5bbc d4d9 bfbc
00000270: 0038 33b8 912c 793d cfd8 71bd b87a 7b3d
00000280: 56a7 263d be4b 533d d87d b13c 387e 35bd
00000290: 08fe 753c 6eca 54bc d2f2 223d d4ff 013d
000002a0: 478b d23c bf85 f73c e033 a13c 5d80 b53c
000002b0: b614 273d 697b d5bc 5083 f33b a006 2b3d
000002c0: 4695 5d3d 2f7b b5bb 008f 9a3b 7899 a83c
000002d0: c49e 2abd 64a3 8cbc 40d5 32bd eaab 5c3d
000002e0: 8c02 dfbc fbd0 4e3d 70e1 633d 5ea9 2e3d
000002f0: 4b56 ed3b c70a 2cbd 683b 34bc a650 4a3c
00000300: 2ebd 01bd 02ad 96bc dd6b a5bc 4838 263d
00000310: fa9b 40bd 287d c8bc 6e20 ae3c 61b6 713d
00000320: 8c42 a6bc 4c4b 43bd 76a1 65bd 63be 20bd
00000330: d85c e3bc da17 03bd eebb c3b9 d6b3 393d
00000340: 30c6 803c 249a 2ebb a6db 66bd a653 3cbd
00000350: 08b0 e0bc a054 203b 7cb6 debc 2586 423d
00000360: 478d 3fbd c091 0fbb 4151 1c3c d948 0f3d
00000370: d580 58bc 009b 5b3d a377 dfbc 5037 19bc
00000380: 04d0 9abc c070 fa3c d81b 5b3d 6f4d 133d
00000390: 582c 043c 382f 0f3d 7097 46bd 4cba 0dbd
000003a0: 475e 88bc 5eb3 5ebc 845a a6bc a4a8 c03c
000003b0: ab0e 5ebd 1d60 a4bc 810b 11bc 68cd 043c
000003c0: e0cc bdbb 6ca2 5f3d 71d1 48bc 0349 3f3d
000003d0: e48a 8e3c 4972 993c 8915 2dbc 8563 4fbb
000003e0: 1aec 1dbd 40d2 3cbc a605 5dbd e0bc 253b
000003f0: db67 493d 3e9b 133d cfee 9cbc 5a02 b53c

fc3.weight f4 [1, 256]
0.060972877 0.028089006 0.041037507 -0.025236815 -0.034752876 -0.017814137 0.061026197 0.03991189
0.019723155 -0.024571415 -0.04186116 0.027380092 0.040228583 -0.02173572 -0.0344022 0.023425192
-0.008340985 -0.01897087 -0.011376217 -0.03914594 0.03959953 0.029509805 -0.010942383 0.027012303
0.014324762 -0.009722569 0.055001102 -0.0010561106 -0.058918484 0.026812784 -0.011335723 0.055981472
0.036148284 -0.045048352 0.059827723 -0.025153158 0.01053042 0.019201167 -0.024896517 0.054500435
-0.013984778 0.0012982646 -0.039062932 -0.039167352 -0.005233288 0.00035090744 0.055459082 -0.02925983
-0.025527991 -0.04047946 -0.039351773 0.0019110292 -0.046366077 -0.04160305 0.024123445 0.044645414
-0.0071257874 0.04913041 0.04619892 -0.0019032729 -0.0483571 0.05977869 -0.055062078 -0.061256427
0.043590922 0.049746066 -0.040497236 0.00013572723 0.04296107 0.040918417 -0.03230621 -0.039764978
-0.050977543 0.027262382 0.009306096 0.022626253 0.0048958138 0.029571809 -0.058455467 0.014105931
-0.049574114 0.005694352 -0.013354474 0.057333685 -0.013609911 -0.0145870745 0.008154444 0.05075432
0.030873775 0.05928751 0.054379996 -0.00094015856 0.022683531 0.012222528 -0.058082998 0.027250506
-0.060062602 -0.008362673 -0.041807912 -0.048844546 0.025336703 -0.021242574 0.05638805 -0.037106108
-0.05645681 -0.06068763 -0.060862977 -0.0068022935 0.036286406 -0.008935614 0.007697217 -0.0016481066
-0.05517563 -0.019040652 -0.02835931 0.006159149 -0.026307926 -0.04977209 -0.052783865 -0.062480472
0.04157554 -0.03128411 0.019243822 0.03211618 -0.057123706 0.014283426 0.0010878965 0.05983501
0.03621728 0.023256382 0.0013656763 -0.045990527 0.013698303 0.026421994 -0.024702782 -0.041577496
-0.03932474 0.06174902 -0.040670827 0.03121952 0.0077700242 -0.010083728 0.040610254 0.00602711
0.013869412 -0.03186532 0.0049438253 0.048577107 0.049019895 0.039894104 -0.054241374 -0.03834347
-0.049428813 0.051099345 -0.02727192 0.020971224 0.036612377 0.006470123 0.045253724 0.018746667
0.039884783 0.007816465 -0.061976276 -0.020606555 0.015286313 0.0048598913 0.03646072 -0.0123665705
-0.044941824 0.0030484346 0.001492396 -0.03127053 0.03772525 0.033580694 0.03003756 -0.011157103
0.005354248 0.057543106 0.04266469 0.05926139 0.062046006 0.06045632 0.017224126 0.028139131
0.050483443 0.055440184 0.04651107 -0.031278476 -0.040500406 0.012468676 0.05692842 -0.0046137404
-0.031146243 0.0501237 -0.0033174995 0.06150485 -0.0065016467 0.0037887618 0.036984973 0.021170573
0.0085250735 0.05450751 0.019290023 0.047188487 -0.036508776 -0.056651358 -0.06310836 0.033546235
-0.025181495 -0.028586494 0.03621678 0.06117507 0.049188912 -0.019486345 -0.0005374998 0.027145816
0.047505066 -0.05687236 0.012928135 0.0057484107 0.013053914 0.014279313 0.05101148 -0.0575205
-0.013080816 0.0019207746 0.0031626895 -0.047073066 0.038927317 -0.049823783 -0.03541471 0.010463357
0.03162636 0.044555742 -0.00090017915 0.022996627 -0.020291487 0.03597887 -0.010406559 -0.013302878
0.008426078 -0.011537987 -0.044564236 0.020201232 0.007003367 -0.021665318 0.042366993 0.009517778
0.058433592 -0.059047826 0.057455324 0.0016474575 -0.022000797 -0.035818763 -0.001963073 -0.024625469
00000000: b2be 793d ea1a e63c f216 283d 70bd cebc
00000010: 0859 0ebd f4ee 91bc 9bf6 793d a67a 233d
00000020: 7492 a13c fe49 c9bc 9c76 2bbd 374c e03c
00000030: bac6 243d 1c0f b2bc 52e9 0cbd 30e6 bf3c
00000040: a0a8 08bc cc68 9bbc 5063 3abc 7e57 20bd
00000050: 1e33 223d 8cbe f13c ae47 33bc e848 dd3c
00000060: 68b2 6a3c 694b 1fbc d648 613d 316d 8aba
00000070: 8254 71bd 7ca6 db3c 78b9 39bc d44c 653d
00000080: 3910 143d 9f84 38bd ea0d 753d ff0d cebc
00000090: c887 2c3c c44b 9d3c c8f3 cbbc d93b 5f3d
000000a0: 6920 65bc 882a aa3a 7400 20bd f26d 20bd
000000b0: 007c abbb 00fa b739 1029 633d 50b2 efbc
000000c0: 1420 d1bc cacd 25bd 532f 21bd 807b fa3a
000000d0: 5bea 3dbd f667 2abd 889e c53c 1cde 363d
000000e0: 707f e9bb f83c 493d 143b 3d3d 3e77 f9ba
000000f0: 1812 46bd 80da 743d c688 61bd 05e8 7abd
00000100: 658c 323d 88c2 4b3d 6ee0 25bd 0052 0e39
00000110: f2f7 2f3d 129a 273d 8453 04bd 9ae0 22bd
00000120: d4cd 50bd 5c55 df3c 9878 183c b15a b93c
00000130: 106d a03b 9440 f23c 006f 6fbd 901c 673c
00000140: 3a0e 4bbd b097 ba3b b9cc 5abc bad6 6a3d
00000150: 1bfc 5ebc a0fe 6ebc 389a 053c c3e3 4f3d
00000160: 00eb fc3c 76d7 723d 8fbd 5e3d f974 76ba
00000170: d0d2 b93c 0041 483c 70e8 6dbd 743c df3c
00000180: 3404 76bd 9803 09bc c63e 2bbd 3811 48bd
00000190: eb8e cf3c e804 aebc 28f7 663d 93fc 17bd
000001a0: 423f 67bd 9893 78bd 754b 79bd c6e5 debb
000001b0: 0ea1 143d ae66 12bc f038 fc3b 4805 d8ba
000001c0: d7ff 61bd 24fb 9bbc c951 e8bc b0d2 c93b
000001d0: b883 d7bc d2dd 4bbd e533 58bd 86eb 7fbd
000001e0: 1d4b 2a3d c423 00bd 38a5 9d3c 418c 033d
000001f0: 8cfa 69bd 0805 6a3c c097 8e3a 8e15 753d
00000200: 9258 143d 2b84 be3c 7e00 b33a 9060 3cbd
00000210: d96e 603c f072 d83c 7d5d cabc 2a4d 2abd
00000220: fb12 21bd 8aec 7c3d 7496 26bd 14c0 ff3c
00000230: b09b fe3b 3836 25bc f056 263d 107f c53b
00000240: 883c 633c 3685 02bd d0ff a13b caf8 463d
00000250: 16c9 483d 0068 233d 342c 5ebd 0b0e 1dbd
00000260: de75 4abd 8c4d 513d 5d69 dfbc d8cb ab3c
00000270: dcf6 153d 5303 d43b f85b 393d 9c92 993c
00000280: 3a5e 233d a110 003c d6da 7dbd 14cf a8bc
00000290: 7273 7a3c b93f 9f3b d657 153d 289d 4abc
000002a0: eb14 38bd 3fc8 473b 809c c33a 8715 00bd
000002b0: cb85 1a3d e98b 093d 5411 f63c 48cc 36bc
000002c0: b072 af3b 52b2 6b3d 2cc1 2e3d 12bc 723d
000002d0: f423 7e3d 0ca1 773d 9c19 8d3c 0984 e63c
000002e0: bac7 4e3d 3f15 633d 6482 3e3d dc1d 00bd
000002f0: c1e3 25bd 6b49 4c3c c62d 693d dc2e 97bb
00000300: 6826 ffbc 824e 4d3d 686a 59bb 82ec 7b3d
00000310: c40b d5bb e04c 783b 8e7d 173d e96d ad3c
00000320: c0ac 0b3c 4443 5f3d 1c06 9e3c b748 413d
00000330: 3a8a 15bd 410b 68bd f53e 81bd c767 093d
00000340: 6c49 cebc 392e eabc 0c58 143d b692 7a3d
00000350: 507a 493d d4a1 9fbc 00e7 0cba e760 de3c
00000360: ac94 423d fef2 68bd 87d0 533c 2a5d bc3b
00000370: 15e0 553c c8f3 693c 6af1 503d 9e9a 6bbd
00000380: eb50 56bc 80c2 fb3a 2045 4f3b b0cf 40bd
00000390: 4072 1f3d 0614 4cbd 040f 11bd 806e 2b3c
000003a0: a48a 013d 1580 363d 00fa 6bba 6c63 bc3c
000003b0: 553a a6bc 945e 133d 4680 2abc 50f4 59bc
000003c0: 880d 0a3c d309 3dbc fd88 36bd 0e7d a53c
000003d0: 807c e53b 777b b1bc 0389 2d3d 74f0 1b3c
000003e0: 1058 6f3d 22dc 71bd 4656 6b3d 80ef d73a
000003f0: 043b b4bc b2b6 12bd e6a6 00bb 5abb c9bc
