outputs/router_rule/A2C_router/winter20251110-071143/models/policyB_actor.pth (torch, 277768 bytes, 8 tensors)

fc1.weight f4 [256, 6]
00000000: c091 aebe 03ad e73d ad6d 0a3e 32a2 b9bd
00000010: 4960 cebe dc19 603d 2a16 163e 9ab4 1b3c
00000020: 8b57 b23e 7bfa 3b3d 87cd ef3d 4dde c3be
00000030: 7f22 d0be 378e a13e 51cb 91be 20f4 f0bd
00000040: bfec 9f3e cffe ea3d 0ef4 13be c11a 3b3d
00000050: 65ad f93c 85b1 98be 5ff9 8fbc 8f95 60be
00000060: d9bb a3bd 0b43 b63e e781 9abe 526b 93be
00000070: f0f6 093e f3bb a43d 6b14 93be 53be ae3e
00000080: 44c3 c23d 8686 ae3e e9cb 97bb ad9a 753d
00000090: c224 cc3e 9e29 efbd 451c fabd abd2 a93e
000000a0: 6c10 cc3d 2611 5b3e 3537 5e3d 2ddd 4abe
000000b0: 1669 56be 9364 cebe ea1d fc3c bd38 15be
000000c0: caf2 733e 1f2b 3f3e d4ee aa3e d7a1 5dbe
000000d0: 8582 aabc 10bc 8b3e 0dc5 61be 43a6 f63d
000000e0: 2377 a3bd 1cb7 58bd ff59 1f3e 8d69 79be
000000f0: 2876 3a3e df3b 243e 54d4 76be 3d95 073e
00000100: 4be3 353e dc94 b63e b768 a23d 146d 8e3e
00000110: 07d1 81be 234b a03e a81c 843e fe77 033d
00000120: 7f32 923e cf60 0c3e 7e17 0c3e 4c90 10be
00000130: 4b40 efbd 1c20 5c3e 607d 83be 8cbc 5b3e
00000140: c8f0 10be 1365 02be 7400 593e 08f3 3c3e
00000150: fe09 83bd bb2a 153e 0e5e 803e 4845 19be
00000160: acb4 81bc 7563 6a3e c7c6 46be fca1 8cbe
00000170: a13f 4bbe f074 b23e c93a 753e 0c5b 1d3e
00000180: bd1e d43b 2308 dc3d de4f 8ebe 4c85 63be
00000190: 595c 86bc 4690 c8be b0de d7be 0682 7abe
000001a0: 681b 2dbd 9272 983d 521a d1bd 0902 d2be
000001b0: 81b1 c9be 98f9 abbe 6b33 30be 50f8 8bbe
000001c0: ab74 97bd deb0 10be 7c7c 66bd c5fb b33e
000001d0: 1503 8b3d 60cd 09be 612e b93d d518 f43c
000001e0: cdd0 6bbd af0c 083c 1351 40be 7d94 5abe
000001f0: 123d 17be d2c0 803d 5677 2abe ba1f 32be
00000200: 5052 19be d2a7 7a3e c52f 4dbe 346c 483e
00000210: a15c 6b3e ed95 1abd 3f3e 95bc b070 a33a
00000220: 4f68 203d e9a5 913e 03ea 45be a9cb b8bd
00000230: d98d 893e 6ef0 9cbd e366 acbe 2b85 2dbe
00000240: 8bd6 da3e 01dc 8c3e ee6f 02bc fce2 6c3e
00000250: f359 8cbe 4a2e 8a3e c422 28be dc5f c9be
00000260: a2d2 35be 1d38 9cbe d8a7 033e deaa 9abe
00000270: cf3d 873e f48a ad3e eb85 8dbe f128 86be
00000280: 214d 8b3d 2652 c43d fedc febd 645c 5bbd
00000290: bc31 b0be e29b 65be 35fe 463e 25fd eb3d
000002a0: b49c 04bc a2e0 dd3d 4414 8dbe 524f 9ebe
000002b0: 0a1a 71be 9ada 8fbd 2e8a b43e 85a8 a43e
000002c0: 4787 af3c 0317 8cbe eaef 1ebe 4117 37be
000002d0: 66d1 8c3e a842 15bd cf2a 1cbe a1fe acb8
000002e0: 2027 893e f5b0 0c3e 618c b2be cc44 7cbe
000002f0: e0be dcbe a178 be3e df22 4fbe 1b9f bc3e
00000300: 47ef 053e 7f0b cdbe 5797 0f3e a143 ca3e
00000310: 4145 ebbd 3e3d b7be e994 b3be 4f8b 23bd
00000320: 3f95 723d c6c2 b93c b52b 6fbe 52b4 313e
00000330: 299b f6bd 417f bb3e f641 a83e fa4c 6ebe
00000340: f634 08be 3d10 93be 409d cabd b2a1 85be
00000350: 8e88 97be 3091 493e cb25 a73e 5845 b4be
00000360: 7443 60be 75d4 023e baf9 af3e 83d2 293e
00000370: 97cc 9d3e 7c5d 993c 79cc 47be cf5a 49be
00000380: 2fa4 8abe 508a adbe 31da 183e 2654 8abe
00000390: 5d27 d0be 7992 e13d f081 b73c cf89 fc3b
000003a0: 6b54 a2bd 0f5b 95bd 85ca 16be b456 5abd
000003b0: 7a9a 6b3e 6cfe 74be 3fa2 1e3d 646f 4dbe
000003c0: babd 89be bd27 b03d a9e4 6cbe 1818 cd3e
000003d0: 670e adbe 3311 c5be df47 aebe f847 b2be
000003e0: 5f83 92be c494 2d3e 7e93 043e ac2e a1be
000003f0: 2756 433e ade6 7a3e 12d2 cdbe 8a45 ae3e
-0.34095573 0.11312296 0.135184 -0.090641394 -0.40307835 0.05471216 0.14656892 0.009503508
0.34832415 0.045893174 0.11709123 -0.3825554 -0.40651318 0.31553814 -0.2847543 -0.11765313
0.3123531 0.11474382 -0.14448568 0.04567981 0.030478189 -0.29822937 -0.017574964 -0.21932052
-0.079948135 0.35598025 -0.30177233 -0.28792816 0.13473105 0.08043661 -0.28726515 0.3412958
0.095099 0.34087008 -0.0046324623 0.059961963 0.39871794 -0.1167786 -0.12212423 0.3316854
0.0996407 0.2139326 0.05425187 -0.19810934 -0.20938525 -0.40311107 0.030775983 -0.14572425
0.23823085 0.18668793 0.33385336 -0.21643768 -0.02081419 0.27291918 -0.22047825 0.12043431
-0.07981708 -0.052909 0.15561675 -0.2435667 0.18209136 0.16038464 -0.24104434 0.13240524
0.17762487 0.35660446 0.07930129 0.27817595 -0.25354788 0.31307325 0.25803113 0.032096855
0.2855415 0.13708805 0.13680837 -0.14117545 -0.11682185 0.21496624 -0.2568159 0.21458644
-0.14154351 -0.12733869 0.21191579 0.18452084 -0.0639839 0.14567082 0.25071758 -0.14967835
-0.015833221 0.22889502 -0.19411765 -0.27467334 -0.19848491 0.3485484 0.23948206 0.15366763
0.006473391 0.107437395 -0.2779531 -0.22218817 -0.016401457 -0.39172572 -0.42162085 -0.24463663
-0.042262465 0.074437276 -0.10210098 -0.41017178 -0.39393237 -0.33588862 -0.17207114 -0.27337885
-0.073952995 -0.1412997 -0.05627106 0.35153022 0.06787697 -0.1345725 0.09042049 0.029796997
-0.057572175 0.008303805 -0.18780927 -0.21345706 -0.1476939 0.062867776 -0.16647086 -0.17394915
-0.14972806 0.24478081 -0.20037754 0.19572526 0.22984554 -0.037740637 -0.018218158 0.0012469497
0.039161976 0.28446892 -0.1932755 -0.0902322 0.26866034 -0.07663046 -0.33672246 -0.16945331
0.42741808 0.275116 -0.007961256 0.23133463 -0.27412376 0.2698844 -0.16419512 -0.39330947
-0.17756131 -0.3051156 0.12856996 -0.30208486 0.26414344 0.33895075 -0.27641234 -0.2620311
0.068018205 0.09585981 -0.12444495 -0.053554907 -0.34412944 -0.22422746 0.1943291 0.11522893
-0.008094002 0.10833861 -0.27554524 -0.30919892 -0.2354509 -0.07024117 0.35261673 0.3215982
0.02142681 -0.27361307 -0.15521207 -0.17879964 0.27503508 -0.03644052 -0.15250705 -8.2490275e-05
0.26787663 0.13739379 -0.34872726 -0.24635619 -0.43114376 0.37201408 -0.20228146 0.36840138
0.13079558 -0.40047833 0.14022575 0.39504722 -0.114878185 -0.35788912 -0.35074547 -0.039927777
0.059224363 0.022675883 -0.23356517 0.17353943 -0.12041313 0.36620525 0.32862824 -0.23271552
-0.13301453 -0.28723326 -0.09893274 -0.26099926 -0.2959637 0.19684291 0.3264602 -0.35209155
-0.21900731 0.12776358 0.34370214 0.1658421 0.30820152 0.018721335 -0.19511594 -0.19663547
-0.27078387 -0.33894587 0.14926983 -0.27017325 -0.40655032 0.110142656 0.022400826 0.0077068578
-0.07926258 -0.07292759 -0.14725693 -0.053305343 0.23008147 -0.23925179 0.03872895 -0.20062023
-0.26902562 0.086013295 -0.23134102 0.40057445 -0.3380005 -0.38489684 -0.34039208 -0.34820533
-0.28615853 0.16951281 0.12946889 -0.3148092 0.19075833 0.24502058 -0.40199333 0.3403743

fc1.bias f4 [256]
00000000: 3c70 b9bd 3f45 193e ad92 97bd ea73 a5bd
00000010: 54b3 103d bf8d 47be 76a8 42be 157a ac3e
00000020: c7bf 5ebe 7fd5 b23e 0e15 d9bd 5351 a73e
00000030: e79f bc3e 0d69 033e 1b34 ff3d 49fb 15be
00000040: 4809 b03e ca19 b4be 840f b83e 42dd 8d3c
00000050: 00c7 c7bd 8ae0 39be 73c0 b2be d8d8 4dbe
00000060: 2ad6 c23e 2202 bfbe 1d03 a4bc 0a2c 0e3e
00000070: 4531 92bd c869 263d af36 6d3e ec58 abbd
00000080: fe5e 193b 9439 e3bd c956 413e 8437 983d
00000090: ca4e 203e c63b 1e3e 966b f93c 376f 07be
000000a0: 6348 68be ee59 253d 9c1c fc3d 5020 10be
000000b0: 7ec2 a23e 5f28 153e 7e55 5e3e c413 99be
000000c0: 441b 93be 3708 633d 2521 db3d 88bd ac3d
000000d0: 3471 8fbe 67b8 233a 1d57 973e c12b bfbe
000000e0: b85d a43e acf1 563e bf32 2abc 12ad bcbe
000000f0: d0ee 1f3c fed9 69be 3219 973e 4b43 5d3e
00000100: 83fb cd3d 2b63 a1be 4d35 c3be 7caf fabd
00000110: 42e7 eebd e543 703e d86c f93d e662 9b3c
00000120: 0c01 24be 515d b9be 629c 81bb 3d95 e03d
00000130: 4007 b0be 2642 51be 5075 e53d 3dad 72bd
00000140: 8d20 b93e c66c 84be a8da 483d 9fd1 6ebe
00000150: 5571 6c3e da17 c23e 549f 0e3e 73d4 6abd
00000160: b277 a83e 3989 babe 1c66 cabe 662a bf3c
00000170: 165e b9be f382 c8bd 45bc 963e 7fec 763d
00000180: 054b e83d ef83 cb3c ef5e 3e3e 4d5f bdbe
00000190: 5544 923d 401e b13e af1d 623e 7b6b 833e
000001a0: 1ce9 b93e 4d4d 1bbe 1397 9fbe 1b30 c8be
000001b0: c37e 7a3e ca79 86be f8a9 2a3d 9042 a93d
000001c0: 1219 3c3e 0946 6fbd 8c98 fa3d 3cee b8bd
000001d0: 6fbe edbd e2d3 49bc 1a8f fb3d 4b58 a63e
000001e0: 6eba 9b3e 15c1 e23d 2f66 a93e 909b 663e
000001f0: 7661 e73d 380a afbe ee4c aa3c e2bd 1d3d
00000200: a612 23bd 0f4e 02be 23eb 2bbe 710e aebe
00000210: 165b af3d d63d a1bd aa31 aabe c567 bf3c
00000220: 0f23 90be 653e 99be 975b ab3e 3727 01bd
00000230: 1593 cebe 1722 3e3e 16b2 ab3e b400 743c
00000240: 1582 233d 176c 863e c149 fe3d 04e1 213e
00000250: a086 79be ddd8 25be 5e0f 393e 3abf 713e
00000260: 85dc 033e 6b46 babe c80d f23d 2d94 073e
00000270: b993 24be 6380 1dbe 794b 7c3e 2baf 7a3e
00000280: aa30 fd3d 96d1 9b3d 82d5 74be 2e5a cb3e
00000290: 4cfa 513e 464f 813d 86f7 10be 5195 b73e
000002a0: 4309 c93d a93c 13be 3760 dc3d b9de 763e
000002b0: a006 43bd 66ac 08be 4457 083e c38f 2f3e
000002c0: 543d aabe 158a d43d d4ca 62bd c6d6 6dbe
000002d0: 7113 c73e 8344 d2be db5b 683e 7aa3 ef3c
000002e0: ebe0 403e 1817 973e b1c4 27bd adb5 a23e
000002f0: 8187 90be dccc 58bb 328c b2bd dacd bbbe
00000300: ec64 8b3e 7f40 ea3c 7912 b8be 0a8b 8e3e
00000310: 9292 adbe 7435 203e 6b3d 03be 735d cb3e
00000320: faea 11bd 81a7 b9bd 81ef f03d 0643 d0be
00000330: ec78 953e 78b5 11be b430 c23e 1706 b2be
00000340: c65e 4abe a51b f63d 1f39 093e 0894 4b3e
00000350: 145c c8be e164 a83c 9c6b 57bc 6482 4f3d
00000360: 18f4 b7be 3574 0ebd d27c 7bbe 8973 4d3e
00000370: 13ab 153e 2cc4 873e b399 c9be 4e5a a73e
00000380: a01b 9dbe d0c9 4e3d 22c3 b83e 5e2f 983e
00000390: 3231 313e 0b24 99be 522a aebe ca2f b6be
000003a0: d245 86be 1035 70be b45e d73a cb1c bcbd
000003b0: 2913 5bbe 88b9 a73e 569a 87be 95f9 2dbe
000003c0: 2148 533d 0bc6 733e 4f94 8d3d 1802 0dbe
000003d0: e7cf 3f3c 419c c23e 3f9d 6b3e 548d 8f3e
000003e0: 993c a73e fe10 653e 7f4e b7bd 8788 ffbc
000003f0: e2cb aabe e7e1 2e3e 9c54 2dbd cdd3 a03e
-0.0905461 0.14967822 -0.07401023 -0.080787495 0.03532727 -0.19487666 -0.19009575 0.3368689
-0.21752845 0.3492851 -0.10599719 0.32679233 0.36840746 0.12833042 0.1246111 -0.14646639
0.3438208 -0.35175925 0.35949337 0.017317418 -0.09754753 -0.18152061 -0.34912452 -0.2010225
0.3805402 -0.37306315 -0.020021016 0.13883987 -0.07138304 0.040628225 0.23165391 -0.0836657
0.0023402567 -0.110949665 0.18880762 0.07432464 0.15655056 0.1545249 0.030446809 -0.13226019
-0.22683863 0.040368967 0.12310144 -0.14074826 0.3178901 0.14566182 0.217123 -0.29897892
-0.2873174 0.055427756 0.10699681 0.08434588 -0.28016055 0.00062454346 0.2955865 -0.3733807
0.32102752 0.20990628 -0.010388075 -0.36850792 0.009761527 -0.22837064 0.2951141 0.21607701
0.10057738 -0.31520972 -0.38126603 -0.12240502 -0.11665203 0.234634 0.121789634 0.018968057
-0.16016024 -0.36204007 -0.00395541 0.10965965 -0.3438053 -0.2043539 0.11204016 -0.059247244
0.36157647 -0.25864238 0.04903665 -0.23322152 0.23090108 0.37908822 0.13927966 -0.057331514
0.3290382 -0.36432818 -0.39531028 0.023335647 -0.36204594 -0.097906016 0.29440513 0.060284134
0.11342434 0.024843184 0.18590902 -0.3698677 0.071419396 0.3459339 0.22081636 0.2566794
0.3631066 -0.15166207 -0.31169948 -0.39099202 0.24462418 -0.26264793 0.041666 0.08264649
0.18368939 -0.0584164 0.12236127 -0.090298146 -0.11608588 -0.012318583 0.12283154 0.32489237
0.30415672 0.11071984 0.33085772 0.2252028 0.11297886 -0.34187484 0.020788636 0.038511164
-0.039812706 -0.1272509 -0.16788916 -0.33995393 0.08562295 -0.078731224 -0.33241016 0.02336491
-0.28151748 -0.29930416 0.33468315 -0.03153154 -0.4034659 0.18567692 0.33534306 0.014892746
0.039918978 0.2625434 0.12416411 0.15808493 -0.24367762 -0.16196008 0.18072268 0.23608103
0.1287709 -0.3638185 0.11819035 0.13240118 -0.16071977 -0.15381007 0.24638166 0.24480884
0.123627976 0.07608335 -0.23909572 0.3971724 0.20505637 0.06313948 -0.14156923 0.35856107
0.0981622 -0.14378609 0.10760539 0.241084 -0.04761374 -0.13347015 0.13314539 0.17144684
-0.33249915 0.103778996 -0.055369213 -0.23226461 0.3888202 -0.41067895 0.2269129 0.029252756
0.188358 0.29509807 -0.040959064 0.31779233 -0.2822838 -0.003308109 -0.087181464 -0.3668049
0.27225435 0.028595207 -0.35951594 0.27840453 -0.33900887 0.15645391 -0.12816398 0.39719734
-0.03562448 -0.09065152 0.11764432 -0.40676135 0.2919382 -0.14229381 0.37927783 -0.3477027
-0.19762716 0.120169915 0.13400696 0.19880688 -0.3913275 0.020555915 -0.013148215 0.05066146
-0.35928416 -0.034778792 -0.24559334 0.20063604 0.14616041 0.26516855 -0.39375076 0.32686085
-0.3068514 0.050485432 0.36086375 0.29723638 0.17303923 -0.2991031 -0.34016663 -0.35583335
-0.26225144 -0.23457742 0.0016431422 -0.09185179 -0.21394028 0.32758737 -0.26484936 -0.16989739
0.05158246 0.23806016 0.06913053 -0.1377033 0.011707283 0.38009837 0.23009203 0.28037512
0.3266342 0.22369763 -0.08950519 -0.031193031 -0.33358675 0.17078362 -0.042317018 0.3141159

fc2.weight f4 [256, 256]
00000000: dacd 4c3d 64d3 5f3a b089 9cbc 90a6 5fbd
00000010: ba55 33bd b097 c0bc 89e5 0d3d 1455 f1bc
00000020: 324c 27bd 74cd 5e3d b607 8a3c 0389 133d
00000030: 7413 2b3d 6eee 62bd d49c 173d f895 31bd
00000040: 90dc e1bc 8276 7c3d 12eb 3ebd 18f5 1f3c
00000050: b033 873b dc9e 08bc e811 1f3d b027 f4bc
00000060: 1307 433d 78cf 9c3c 14e1 0dbd 4a08 13bd
00000070: c65e 093d c06e 223d f249 11bc 35ea 733d
00000080: 9af7 fbbc d92f 693c 227c 3bbd 08ea 513c
00000090: 248f 35bc 0453 a0bc e49a 843d b0c0 473d
000000a0: dd3d 19bc a6bc 90ba 7c37 39bc 4367 40bd
000000b0: 151a 42bd d00f 8bbc 1442 3abd 9a1d 5cbd
000000c0: 21da 063c 357b febc 68ed 01bc ea00 12bd
000000d0: e81c 563d b4c0 593d 4542 3a3d f82a 12bc
000000e0: 80d2 2b3b 8ac2 08bd 9eda fe3c 1dd4 223d
000000f0: 9426 c13c 7201 153d 6e7c 7d3d ac6e d83c
00000100: fc4f 81bc 5876 76bd c8aa 98bb e47a 063d
00000110: 0070 cf3c b1f6 f83b f3ea 213d 9661 71bd
00000120: d0fa e03b 2490 2abd b27f 1dbd 7fd9 82bd
00000130: dceb 283d cf8f 333d 33fc 483d 2d3d 263c
00000140: d238 20bd c4d1 77bd 309f 58bc ea04 5a3d
00000150: 9e5e 63bd 2e10 273d 7dba 47bd 1ab6 663d
00000160: dc1f 16bd cb48 4c3c 9095 74bd e6d3 1fbc
00000170: e00b 3d3d 9615 6cbd 1c68 f13c af35 b3bc
00000180: 743b d6bc 5467 5f3d 5a77 b23c da71 c2bb
00000190: e80a b13c 1048 e53c a4a6 63bc db05 e0ba
000001a0: 4c74 8d3c 40ce 0ebb f8cf 573d a799 5cbc
000001b0: b760 42bc 6ed8 dfbc f00f a0bc f81f 763d
000001c0: 059f 47bd b086 b2bc 004f ac3a d0e4 9b3b
000001d0: fbdb 1cbc 2491 47bc faa6 1a3d 5802 553c
000001e0: 60ae 87bb 6087 69bb e5c0 32bd 22a4 25bd
000001f0: d0b9 58bd 4c7d 71bd 5729 4fbc 0422 d13c
00000200: 5020 09bd 846a 84bc 8587 89bc 2009 083d
00000210: 78f5 5f3d f927 67bc 9007 dc3c 8dff 373c
00000220: 304c e5bc 3257 273d d891 893c 3285 393d
00000230: b8ad 7b3c 72c3 4bbd 0094 39bd 2756 74bd
00000240: f870 613d d858 1abc 9196 e03c 4672 513d
00000250: 24f1 84bc 32b9 25bd 604f c03c bfc6 71bd
00000260: e11d 183d fa4c 5c3d c14b 36bc ed8d 3c3c
00000270: 2804 223d f0db 72bd 1059 fd3b 304c cc3c
00000280: 90f8 683c 7801 b2bc 4cb7 85bc de24 6d3d
00000290: bb9d a73c 845e f93c c6b4 0e3c 65bf e8bb
000002a0: dc98 ac3c c1eb e93c 20d9 95bc 9441 6dbc
000002b0: 1217 2bbd 2d7b 11bc fabe 19bd 38d4 4cbd
000002c0: 7158 7f3c 9428 083d 96e9 1d3d 7867 4dbb
000002d0: 6840 1b3d f41e 4d3d 775a 1b3d 2441 f8bc
000002e0: a222 453d 31b6 b0bb f627 723d 6450 483d
000002f0: 58a4 1ebc 4178 613d 640a 6ebd 8ccd 7fbd
00000300: cea1 04bd 3c6e 66bd 9a18 f6ba f823 a7bc
00000310: 6889 67bd 3e21 40bd 4844 a5bc 801f 6cbc
00000320: f877 463d d595 42bd fe85 ca3c 0044 bc3c
00000330: aef8 7d3d d4f5 f33c 701a 4b3d 1482 bcbc
00000340: 14e4 523d 1ac4 a83c 300f d83c 1b72 a03b
00000350: d1bc 1cbd 5058 263d 2410 44bd 303b 29bd
00000360: 8ca0 75bd 5811 e5bc 3052 4d3d fe21 7b3d
00000370: 8f48 a4bc 9919 5fbd 6083 eb3c cc68 0a3d
00000380: 256e 663d 7e3c 36bd bec2 78bd b5da 2aba
00000390: 29ae 20ba 9020 7abd 5637 2ebd 724a 083d
000003a0: a0f3 573c 0022 b2bc 1830 143d 22c5 243d
000003b0: 1e46 6d3d 60f2 b43c e0a6 78bb 3c49 173d
000003c0: edcf 433d 6fc7 0cbb 1446 d4bc 6871 31bd
000003d0: 102a fb3b c8fa b13c 2ea6 17bd 19c0 77bd
000003e0: e204 173d 6a4b 7ebd 21c0 82bd bc29 6e3d
000003f0: 00a4 d03a bbea c63c 9239 49bd a7ba 39bd
0.050001003 0.00085382746 -0.019108623 -0.054602206 -0.043782927 -0.02350983 0.03464273 -0.029459514
-0.04084415 0.054395154 0.01684938 0.036019336 0.0417666 -0.055403166 0.037014797 -0.043355912
-0.027570993 0.061636455 -0.0466109 0.009763025 0.0041260347 -0.008338656 0.038835436 -0.02980408
0.04761417 0.019141898 -0.03463848 -0.035896577 0.03353765 0.0396564 -0.008867728 0.05954953
-0.030757714 0.014232599 -0.04577268 0.012812145 -0.011081491 -0.019570835 0.064748555 0.048767745
-0.009353128 -0.001104255 -0.011304732 -0.046973478 -0.047388155 -0.016975313 -0.045473173 -0.053739168
0.008230717 -0.031064609 -0.007930137 -0.035645403 0.05227366 0.05316229 0.045473356 -0.008921377
0.0026217997 -0.033388652 0.031110104 0.03975307 0.023577966 0.03637833 0.061886244 0.02641996
-0.01578521 -0.060171455 -0.0046590306 0.03283204 0.02532196 0.0075977673 0.039530706 -0.058930956
0.0068658367 -0.04164137 -0.038451858 -0.0638914 0.041240558 0.04383832 0.04906864 0.010146421
-0.039116688 -0.060502782 -0.013221547 0.053227343 -0.055510156 0.040786915 -0.048761833 0.05632601
-0.036651477 0.012468527 -0.059712946 -0.00975511 0.046153903 -0.057637773 0.029468589 -0.021876184
-0.026151396 0.0545419 0.021785427 -0.0059339823 0.021611646 0.027988464 -0.013894711 -0.0017091589
0.017267369 -0.0021790415 0.05268857 -0.013464368 -0.011863879 -0.027324881 -0.01953885 0.06008908
-0.048735637 -0.02179274 0.0013146102 0.004757501 -0.009573932 -0.0121806 0.037756898 0.013001047
-0.00414066 -0.0035633668 -0.04364099 -0.040439732 -0.05291158 -0.058957383 -0.0126441335 0.025528915
-0.03347808 -0.016164072 -0.016788254 0.033211827 0.054677457 -0.014108651 0.026859075 0.011230362
-0.02799043 0.04085464 0.016793177 0.04529304 0.015361242 -0.049746938 -0.04530716 -0.059652474
0.055039376 -0.009420596 0.027415546 0.05113437 -0.016228266 -0.04045982 0.023475349 -0.05902743
0.03713787 0.053784348 -0.01112646 0.011508447 0.039554745 -0.05929178 0.0077315643 0.024938673
0.014219418 -0.021729216 -0.016322754 0.057896487 0.020460954 0.030440576 0.008710092 -0.007102894
0.021068983 0.028554799 -0.01829201 -0.014480967 -0.04177005 -0.008879465 -0.037535645 -0.050007075
0.015585051 0.033241823 0.038552843 -0.003134219 0.03790322 0.050078347 0.03792807 -0.030304499
0.04812873 -0.0053928127 0.05912014 0.04890479 -0.009682737 0.055046324 -0.058115378 -0.062451884
-0.03238087 -0.05625747 -0.0018775642 -0.020402893 -0.056527525 -0.046906702 -0.02017416 -0.014411807
0.048454255 -0.047506172 0.024722096 0.022981644 0.062004738 0.029780306 0.04958576 -0.023011245
0.051487043 0.020601321 0.02637443 0.004896415 -0.038266007 0.040611565 -0.047866955 -0.04131621
-0.059967563 -0.027962372 0.05012721 0.061311714 -0.02005413 -0.05446777 0.028749168 0.03379135
0.056257386 -0.044491284 -0.060732596 -0.0006517575 -0.00061294675 -0.06106621 -0.04253324 0.03327412
0.013180643 -0.021744728 0.03617868 0.040227063 0.057928197 0.02208823 -0.0037941262 0.036935076
0.047805715 -0.0021481176 -0.025912322 -0.043321043 0.0076649264 0.021726027 -0.037023716 -0.060485933
0.03686989 -0.06208364 -0.06384302 0.05814527 0.0015918016 0.02428185 -0.04912717 -0.04534402

fc2.bias f4 [256]
00000000: c41f bebd c384 bc3b c748 59bd 61c1 57bd
00000010: 3669 703d 4bc1 dd3a d1f0 58bd 966f b53c
00000020: 1da2 acbc 9735 543d e331 44bc d8a3 033d
00000030: ee21 5d3d 8249 903c 9f2b 603c 39d8 203c
00000040: d196 00bb d85d 853d dc18 9abc 9460 493c
00000050: d46b 24bd 0052 7dba 9007 13bd 4021 b6bb
00000060: 70bd 593c 52f7 31bc 39a8 1d3d a09a 71bd
00000070: 8dc4 443d a027 2e3d f8e6 5abd 9249 493d
00000080: 3061 3c3d 2513 febb 7afe 91bc a07d 6cbc
00000090: d8bb 74bc 5b87 87bd 224b 643d 7875 ce3c
000000a0: f948 503d fac2 8c3d 9845 51bc bee0 823c
000000b0: 519e 86bb ec7e 57bd 743c 3b3c 10f7 493d
000000c0: 0c19 e23c c37b f6bc aefc d43c a702 b3ba
000000d0: 5f62 d6bc cac1 363d 08e8 33bd 66ae 5d3d
000000e0: abed aebd e789 40bd a109 8d3c 1821 2dbc
000000f0: 1d0f ce3c 345b debc e909 6dbd e6cb 0ebd
00000100: 88b2 dabc d8f7 a33c 6e93 a43b 17ac b5bc
00000110: 72bf 6c3d 0e42 0d3b 727a 6fbd 286f fabc
00000120: 5012 0cbd 8f54 e23c 17c7 973d d468 cf3c
00000130: b2ad 453d 0eb8 fe3b f088 43bc 485b d93c
00000140: 9447 663c 58c5 08bc 04a8 f63c 7291 073d
00000150: 2711 abbc dc11 bcbc e4f9 f23c c076 c63c
00000160: 3ee9 4a3d 9e4a 3bbd 5e6c 39bd a09e 003c
00000170: 2ffd fbbc 9372 a0bd 5cba 8f3c 621a 91bc
00000180: 3cb4 f03c 9cc4 4cbc 8c16 cbbc 9310 2d3c
00000190: caf8 433d f032 bebc c0ad bcbc b04b f43b
000001a0: f7fd cdbc b5f9 c93c 8867 22bc 5530 a63d
000001b0: 50c2 d1bc 5d57 72bd 10f6 183d d385 a6bd
000001c0: f0f6 973c bfcb 4a3d ecc8 13bd 062a abbd
000001d0: 3196 7d3d 626b fabb 19a7 04b9 8dcf d7bc
000001e0: 18a4 233d 542e 8c3c b086 e2bb 7048 04bc
000001f0: 3e60 5abd e275 663d 6cbb d2bc 42e9 00bd
00000200: 2f99 6a3d f672 c23b b6fd 5e3d 5092 57bc
00000210: 7153 a63d cc6e a73c 2d4e 743c 8144 a7bc
00000220: d458 d7bc 90df 1ebc ac29 6e3c e3bc 79bd
00000230: 1a76 593d 3a87 a7bc 911d 033c c8f5 eb3a
00000240: 73ad 043d 7dcb aabb 00a5 09bb 6e22 5dbd
00000250: 9d2e 003d 3491 9cbc 7e2e 69bd 7fec a53c
00000260: e87b 523d 2c48 85bd 6852 16bd 8941 a2bc
00000270: b04d 0bbc 8767 583d f497 1e3d 0344 6ebc
00000280: cd97 a7bc 06bc 253d 8014 623d d8db 363d
00000290: 6056 9cbb 5065 a4bb 8e08 75bc ec91 ba3c
000002a0: 9aa3 63bd bf70 bcbd d430 3bbd b152 aebc
000002b0: 0038 9839 1408 713d 0c63 b7bc 5050 8fbc
000002c0: 28ba d2bb 7738 773d 4e48 853d 5049 8b3c
000002d0: 512e 84bb 38e8 6e3c 1116 7a3d f831 66bd
000002e0: 2621 773d 3022 a83c 1084 ec3c c047 053d
000002f0: 88a7 29bc a235 b5bc e738 583d 65b7 50bd
00000300: 73a2 ae3d d838 5a3c b9ac 643d 629e 6ebd
00000310: d035 db3c 44eb 653d 4298 7cbd ee02 e63c
00000320: 04df db3c 0cef ff3c b9b4 533a b0b9 eebc
00000330: 40d0 e33b 8463 b03b 6543 083d 87be 70bc
00000340: f50e a13d 2f9a 5a3c bc02 5d3d f10d 8b3d
00000350: cc53 2ebb fa8c 433d 7ddd eebc d218 c23c
00000360: 0fc2 873c b959 a83d 6d9a 4fbc 91ea 563d
00000370: f686 4ebd e3d4 ca3c 30ba b33c 5c6b 8ebd
00000380: bcd7 2ebd cbd5 963c 3500 f1bc c14e 59bd
00000390: 18cb 2c3c d0d4 d0bb 90d4 843c 10f0 edbc
000003a0: 3294 63bd 667a 2a3d bdb2 823d f051 093c
000003b0: 4157 55bc a852 03bd c038 833c 4e3a 493d
000003c0: 7c7c 04bd 3d7a 8f3d 3b79 afbc c138 613c
000003d0: c475 bc3c 80df 733b 4b42 93bc 3a3b 4dbd
000003e0: 8098 52bc c910 97bb 38b5 29bd 1648 5d3d
000003f0: 6971 783d 8170 273d a1f7 8c3c 9278 2ebd
-0.092834026 0.005753131 -0.05304792 -0.052674655 0.058694087 0.0016918568 -0.052964035 0.022147935
-0.021073395 0.05180892 -0.011974785 0.032138675 0.053987436 0.017613176 0.013682275 0.0098171765
-0.0019621144 0.0651204 -0.018810682 0.012291092 -0.040141895 -0.0009663403 -0.035895884 -0.005558163
0.013289794 -0.010862188 0.038490508 -0.058985353 0.048039008 0.042518258 -0.053442925 0.049142428
0.045991123 -0.007753747 -0.01782154 -0.014434248 -0.014937364 -0.06617614 0.055735715 0.025202498
0.050850842 0.06873126 -0.01277294 0.015976306 -0.0041082283 -0.052611277 0.011427987 0.049307883
0.027599834 -0.030088311 0.025999393 -0.0013657407 -0.026169954 0.044618405 -0.043922454 0.054121397
-0.08541425 -0.047006514 0.017216505 -0.010566972 0.025153691 -0.027143098 -0.05787078 -0.03486242
-0.026696458 0.020015642 0.005022458 -0.022176785 0.057799764 0.0021554264 -0.058466382 -0.030570582
-0.03419715 0.027628211 0.0741102 0.02531854 0.048261352 0.007773406 -0.011934504 0.026532784
0.0140551515 -0.008347832 0.030109413 0.03309769 -0.020882202 -0.022957735 0.029660173 0.024226546
0.049538843 -0.045725457 -0.045269363 0.007850319 -0.030760376 -0.07834353 0.017544918 -0.017712776
0.029382817 -0.012498047 -0.024791025 0.010563034 0.047844686 -0.023217648 -0.02303207 0.0074553117
-0.025145514 0.024655202 -0.009912379 0.08114687 -0.02560535 -0.059165347 0.03734404 -0.08130994
0.018550366 0.049510714 -0.036080286 -0.08357625 0.06191081 -0.0076421956 -0.0001265075 -0.026344085
0.039951414 0.017111935 -0.0069130287 -0.008073911 -0.05331444 0.056264766 -0.025724135 -0.031472452
0.057274994 0.0059341146 0.054441176 -0.013157442 0.08121384 0.020438574 0.014911217 -0.020418407
-0.026287474 -0.009696856 0.014536303 -0.060971152 0.053091146 -0.020450223 0.008002655 0.0018002326
0.032391977 -0.005212246 -0.0021002889 -0.053987913 0.031294454 -0.019112207 -0.056929104 0.020254372
0.051387697 -0.06507906 -0.036699682 -0.01980664 -0.008502409 0.052833106 0.038719133 -0.014542582
-0.020458126 0.040462516 0.05519533 0.044643253 -0.004771039 -0.00501696 -0.014955653 0.02277466
-0.055575944 -0.09201192 -0.045700863 -0.021279665 0.00029033422 0.058845595 -0.022386096 -0.01749435
-0.006430883 0.060356583 0.06507932 0.017002732 -0.0040338417 0.014581732 0.0610562 -0.056199998
0.060334347 0.020524114 0.028871566 0.03253913 -0.010354884 -0.0221203 0.05278864 -0.05095615
0.085270785 0.013319217 0.055828784 -0.058256514 0.026759058 0.05613257 -0.061668642 0.028077569
0.02683974 0.031241916 0.0008075941 -0.029141277 0.0069523156 0.005382957 0.033267397 -0.014693863
0.07864181 0.013342424 0.053957686 0.067897685 -0.002660024 0.047741868 -0.029158348 0.023693476
0.016572027 0.08220238 -0.012671095 0.052469794 -0.050421678 0.024759715 0.021939367 -0.06954071
-0.04268621 0.018412491 -0.029419044 -0.05305362 0.010546468 -0.0063730255 0.016214639 -0.029045135
-0.055561252 0.041620634 0.06381748 0.008381352 -0.013021291 -0.03206125 0.016018271 0.04912787
-0.03234528 0.07005737 -0.021420112 0.013746441 0.023005374 0.0037212074 -0.017975947 -0.05010531
-0.012853742 -0.0046101552 -0.04143259 0.054023825 0.06065503 0.040878776 0.017207922 -0.042595454

mean_layer.weight f4 [2, 256]
00000000: d185 5d3d 7210 233d e7cd 3f3c ac25 c33c
00000010: 6f55 b4bc a115 983c ab85 cf3c 8c91 593d
00000020: 50d1 2c3d 0396 b1bc 0d55 bdbc 3427 e43c
00000030: e8eb 663d 004b fcbc fbca 3ebc 0c46 063d
00000040: 68c5 f83c 1ceb 3bbc 7266 07bd 6ee4 7cbd
00000050: 26ca 273d f832 8b3c 50bc aabb 9051 913c
00000060: f44d ebbc d25c 2c3d 0e02 7fbd a0a1 033c
00000070: 7065 3d3b 9c4e 95bc 82bf 77bd 8605 0abd
00000080: bc2b f5bc d8fb 253d 8320 673b dcd6 acbc
00000090: 5be3 df3c 06db 203d 9c48 9d3c ee71 1dbd
000000a0: 5381 53bd d580 56bd 4c8c 03bd 851f 1a3d
000000b0: 8404 c5bc 942f 46bd 7132 4cbd c011 973b
000000c0: 98d6 e63c 7f25 cd3c 9cb0 71bd f71b 69bd
000000d0: bc55 223d c6d5 273d 92d1 5fbd 78b9 5f3d
000000e0: ca55 473d f017 993c 4ea6 ddbc 0a35 1e3d
000000f0: 26bf 393d 1ede 4dbd 14cd 9b3c ca20 03bd
00000100: 6afa 09bd f9ed 883c 7eb1 db3c 7e7a a7bc
00000110: baf3 6fbd 1a96 633d 4077 a53a 8003 403d
00000120: 2cba c03c 96b0 47bd 9ab2 ddbb e612 27bd
00000130: 3878 92bc 45e8 00bd 3ef4 033d c4c3 7a3d
00000140: fcd2 083d 405f 5f3b 8a27 70bd 4045 a2bc
00000150: 8037 183d 6821 d5bc f872 b6bc 6228 2ebd
00000160: 48e3 69bc 106b 84bb e6ef 633d 041d 5c3d
00000170: 847e f23b d747 8e3c a8dc 563c 6cf2 4cbd
00000180: 608e b7bc 3ed6 74bd c8bb 473d e056 ea3c
00000190: 1b04 f7bc b0d5 123c dc6b 6fbd 8c63 74bd
000001a0: 1afe 37bd d43f ed3b 1868 d2bc 9933 8bbc
000001b0: 1c9d 7e3d b05d 013c 1828 243c 9a76 623d
000001c0: 6255 2c3d a848 673c 00fe 7439 c6cf 2f3d
000001d0: 90cf 2cbd 084d 1f3d b484 6dbd fa02 623d
000001e0: 9cd4 afbc c008 453c 8e78 193d c09d 31bd
000001f0: 133f 4b3d 3608 dfbc bad8 2a3d 5ef5 47bd
00000200: 708a 183c e669 3bbc 806c 3b3b b046 d73b
00000210: ddaa 7fbd d077 4fbd 7498 88bc ab61 29bd
00000220: 5285 193d 006a 33bc 4a96 383d dc80 033d
00000230: 9087 54bc 00b4 5fb9 c25c 40bd a799 74bd
00000240: d841 d03b f16e a5bd 5ac2 38bd fe4a 773c
00000250: 1f08 e53c e3cb f23c b0c1 b43b 2013 333d
00000260: 8cd8 c9bc e8ae 0d3d ec56 da3c 4b25 043c
00000270: 506d d2bb 8002 663a d400 74bd 459f 2f3d
00000280: d0b6 7e3c a215 5cbd 904f 77bd 7a95 2abd
00000290: 9866 e9bc 8a51 7fbd 98fe 8cbc 401d f2bb
000002a0: 0862 2e3d 2085 783d b170 743c 14e9 b0bc
000002b0: bcee 25bd 8821 5cbd cf92 a23b 7c33 76bd
000002c0: 8fdc 483d da36 22bd b43e 97bc 2054 0ebb
000002d0: da3e 223d e425 b6bc 72fd 41bb 00fc 483d
000002e0: c600 7c3d d061 23bd 80af 76bb 3251 2c3d
000002f0: e86e 77bc 0c34 7d3d f3fd ba3a 275d 353d
00000300: cb7a ccbc b066 d3bb 6d5f c9bb ceba 34bd
00000310: 40f4 253d 6752 ffbc da8a 2bbd a638 70bd
00000320: 8e3a 053d 008a f8b9 c1b0 8dbb 2124 423c
00000330: 021c 683d 5457 f8bc dc13 793d cb4f 2c3d
00000340: 12d0 d2bb 5505 553d b077 623c 298f b2bc
00000350: c943 773d 683f 3bbc 5e55 7ebd 14ac 71bc
00000360: 9e4f 07bd 050e e1bc 60ff 9dbc 4fce 2a3d
00000370: 9a56 7f3d 783c 61bd ea5b 7ebd 90d4 d43c
00000380: 58f2 923c 96ff 71bd c558 7bbd f7b2 563d
00000390: b042 51bd 98d2 653c 4cd7 96bc 844a afbc
000003a0: 3272 3c3d 94ed fc3c 1d70 95bc 1cec 343d
000003b0: a40c 0abd f022 bf3b dcf3 d8bc 6a4a 0dbd
000003c0: e5d4 ab3c eecc 1dbd fbec 07bd e302 023d
000003d0: 804c 86bb ec6d 2e3d 3c41 163c 9888 693c
000003e0: 48d3 4ebc ecce d93c 4ecd 3abd 10f3 ef3c
000003f0: e0fc fc3b 0bdd 81bd 5ad1 333d 542a 9c3c
0.054082695 0.039810605 0.011706806 0.023821674 -0.022013394 0.018565001 0.025332293 0.05311732
0.042191803 -0.021677976 -0.023111844 0.027850725 0.05637732 -0.030797482 -0.011645074 0.032781646
0.030367568 -0.011469629 -0.033056684 -0.061741285 0.04096427 0.016992077 -0.005210437 0.017739087
-0.028723694 0.042080708 -0.06225782 0.00803414 0.0028899573 -0.01822596 -0.06048537 -0.033696674
-0.02992808 0.04052338 0.0035267181 -0.021098547 0.027330091 0.039271377 0.019199662 -0.03843873
-0.051637005 -0.052368958 -0.03211622 0.037627716 -0.024050005 -0.048385218 -0.049852792 0.0046102703
0.028178498 0.025042294 -0.05900632 -0.056911435 0.039632544 0.040975355 -0.05464322 0.054620236
0.0486658 0.018688172 -0.02705684 0.0386248 0.04534831 -0.050260656 0.019018687 -0.032013692
-0.03368608 0.016715037 0.026818033 -0.020444151 -0.058582045 0.05556307 0.001262404 0.046878338
0.023526274 -0.04875239 -0.0067656757 -0.040789507 -0.01787959 -0.03147151 0.03221535 0.061221853
0.033404335 0.0034083873 -0.058631457 -0.019808412 0.037162304 -0.026016906 -0.022271618 -0.04251898
-0.0142753795 -0.004041083 0.055648707 0.05373861 0.0074003357 0.01736824 0.013114132 -0.05003588
-0.022406757 -0.05977463 0.048763067 0.028605878 -0.030153325 0.00896208 -0.058452472 -0.059665248
-0.044920065 0.007240275 -0.025684401 -0.016992377 0.06216155 0.007895872 0.010019325 0.05528889
0.042073615 0.014116444 0.00023364276 0.042922758 -0.042190135 0.038891822 -0.057987884 0.05517862
-0.021463685 0.012026012 0.037468486 -0.043363333 0.0496207 -0.027225595 0.041710593 -0.048817985
0.00931035 -0.011438822 0.0028598607 0.006569706 -0.062418807 -0.05065137 -0.016674258 -0.04135291
0.03748066 -0.010950565 0.0450652 0.03210531 -0.012971774 -0.00021333992 -0.04696346 -0.059716847
0.0063555054 -0.08077801 -0.045107223 0.015093563 0.027957974 0.029638236 0.0055162534 0.04371941
-0.02463939 0.03459063 0.026652776 0.008065532 -0.0064217225 0.0008774176 -0.059571102 0.0428765
0.015546516 -0.05373157 -0.06037861 -0.04164646 -0.028491303 -0.06233362 -0.017211244 -0.007388741
0.04257396 0.060673833 0.014919446 -0.021595515 -0.040510878 -0.053742915 0.0049613486 -0.060107693
0.049038466 -0.03960309 -0.018462516 -0.0021717623 0.03961072 -0.022234865 -0.0029600528 0.04906845
0.061524175 -0.039888203 -0.0037641227 0.04206962 -0.015102126 0.061817214 0.0014266357 0.04427829
-0.024960896 -0.0064514503 -0.006145409 -0.044123463 0.040516138 -0.031167222 -0.041880466 -0.058647774
0.032526545 -0.00047405064 -0.004324049 0.011849434 0.056667335 -0.030315079 0.060809955 0.042068284
-0.0064334953 0.05200704 0.013822481 -0.02179678 0.06036738 -0.011428691 -0.06209313 -0.014750499
-0.033034913 -0.027472505 -0.019286811 0.041700657 0.06233845 -0.054989308 -0.062099375 0.025980264
0.017937824 -0.059081636 -0.061363954 0.052416768 -0.05108899 0.01402726 -0.018413208 -0.021397837
0.046007343 0.030875005 -0.018241936 0.044170484 -0.03370346 0.0058330223 -0.026483469 -0.034494795
0.02097554 -0.038525514 -0.033184987 0.031741034 -0.004098475 0.0425853 0.0091708265 0.014253758
-0.012623616 0.026587926 -0.04560595 0.029290706 0.0077205747 -0.06340989 0.043900825 0.019063152

mean_layer.bias f4 [2]
00000000: 4493 be3b 064b 223d
0.0058158953 0.03962233

log_std_layer.weight f4 [2, 256]
00000000: fc1d c7bc 3211 243d 7c36 c6bc bca7 063d
00000010: acec fcbc 00d0 edb8 4052 c6ba 98aa 33bd
00000020: a231 1f3d 68e6 fd3c 28ec 03bc 7296 20bd
00000030: 943c c73c ac50 7dbd a8bd 06bd 16cc 63bd
00000040: daa3 163d aef7 5fbd a8c5 05bd e62d 253d
00000050: 0050 433d 2011 95bc 44be 013d dc42 873c
00000060: 80b9 40ba e8d7 febc 7ef2 4fbd 8ca4 5f3d
00000070: f4f5 6cbd f8bb 78bd 0cf8 62bd 64c3 1b3d
00000080: 0870 1ebc f811 753c 2043 8a3b ccaf ea3c
00000090: 4885 f7bc b2dd 05bd 7287 0abd 5462 1dbd
000000a0: 1682 6fbd 8835 a6bc a48a 303d 72b0 2d3d
000000b0: 94f8 debc d027 21bd c00f 1c3c c0a6 5fbd
000000c0: 6c97 a4bc c443 49bd e8fb 89bc e472 db3c
000000d0: c684 39bd 2206 183d a807 32bc e0e8 cb3c
000000e0: 488e 14bc 06c3 353d 6084 d53c 001a c4ba
000000f0: 863e 77bd e06b 463d 9a8d 273d 0092 133d
00000100: 708a 713c 463a 373d 3425 e23c b40d 50bd
00000110: 48d0 433c e047 953c d831 e9bc 6807 083d
00000120: c0bf 9c3a 3ccc c43c e2cb 2c3d 6c06 343d
00000130: fcff e8bc 425a 61bd f47b b1bc 2049 443c
00000140: 24ce a0bc da5e 14bd 22c3 143d e0cc b6bc
00000150: 0ce5 cebc bcb9 db3c 4ca2 93bc b6aa 0cbd
00000160: 2048 1dbd 9ad3 13bd 22b9 143d 0079 cf39
00000170: 981d 8d3c c6bf 18bd fc1e 523d 448f b0bc
00000180: 381d 6bbc a812 bd3c c6eb 0ebd 60b2 02bd
00000190: 2ae2 2cbd 9aef 1c3d 50e6 a9bb 300c 3f3d
000001a0: 7cc9 8a3c 12a6 3ebd 1a8e 27bd ec78 8b3c
000001b0: 9688 713d e06c 9d3b dc1a 5c3d 608f 1f3b
000001c0: 7605 7bbd 08fd ccbc b293 66bd 6856 7fbc
000001d0: 02fb 0e3d c44e 273d 78c3 8f3c a898 5fbd
000001e0: d849 66bc a010 4f3b e2e4 683d 10c4 9e3b
000001f0: f410 c53c 489e 683c 4e54 5dbd 3033 e33b
00000200: 3832 16bd f8da 273d 68cd f4bc ac1d 823c
00000210: 285c 423c a6e4 5c3d 5886 4fbd b8e1 6dbc
00000220: b8ce 023c 1cf1 123d 2a62 0dbd e48f f23c
00000230: 105a d73b ca8c 2f3d 2c33 913c 76f6 383d
00000240: 44c0 d3bc c65f 6abd e843 21bd ca8b 12bd
00000250: c02e b8bc 76bc 50bd 48f3 373c 7e40 1bbd
00000260: a099 0c3b 00f4 6239 70a0 f7bb a48d c2bc
00000270: 80a4 423d c245 123d 0c64 aabc 18de c33c
00000280: b8c3 5dbc 80e4 60ba 3c7d bd3c dc19 4ebd
00000290: cefe 06bd 5e0f 123d 9027 79bd d6cc 153d
000002a0: e002 b83b e848 5bbc 7006 ba3b b8f8 5bbc
000002b0: b67e 57bd 1452 b6bc e82a 473d 88b0 24bd
000002c0: 90b6 5bbd f04d 9cbb b6bd 1a3d 9ef5 6d3d
000002d0: 2a4a 2fbd 80c3 f63b e81e 5e3d 5827 fa3c
000002e0: 5483 42bd e2f3 6b3d 006c a039 f2b6 3abd
000002f0: 00d7 69bb 646e c83c 20b9 963c 10e9 183d
00000300: 34ec 41bd 5a96 1bbd f001 d1bc 70f8 583d
00000310: 3457 843c 5056 38bd 06c7 53bd 2223 233d
00000320: f26c 623d be2e 063d 1827 3bbd 5057 e2bc
00000330: d0ce c73b 246c 08bd 08c0 4ebd d4e3 7dbd
00000340: ca2a 753d c857 ddbc 6c6c babc 586e 103c
00000350: 1412 e2bc 20b7 453d c270 193d 50eb 5fbc
00000360: 8cb9 d93c e82e c63c 1285 77bd 78ca 6a3d
00000370: bc62 80bc 4292 6ebd c868 4cbc 4c66 85bc
00000380: 306f 1abd 722a 263d ceb2 58bd 8022 5fbc
00000390: f092 8a3b 88f5 05bc 16e8 543d c2b6 33bd
000003a0: 601c 9dbb 2adb 113d 3403 87bc 545e aa3c
000003b0: 5ca1 d63c b815 5b3d e0e4 383b 0060 58b7
000003c0: 243f f7bc 5838 b4bc f040 14bc b473 95bc
000003d0: a8de 78bc e8bb 43bd 78fc 0bbd ca7e 6c3d
000003e0: 5e91 21bd 003f 2f3b 2ce7 893c de4b 0b3d
000003f0: c6eb 77bd 803a 0abd 54ca a2bc bc27 383d
-0.02430629 0.04005546 -0.024195902 0.032874808 -0.030874573 -0.00011339784 -0.0015130714 -0.043863863
0.038865693 0.030993655 -0.0080519095 -0.039205976 0.024320878 -0.061844513 -0.032895714 -0.055614553
0.036777355 -0.054679565 -0.032659203 0.040326975 0.047683716 -0.018196642 0.031675592 0.016511373
-0.00073518604 -0.031108811 -0.050768368 0.054600284 -0.057851747 -0.060726136 -0.055412337 0.038028136
-0.009670265 0.014957897 0.0042194277 0.02864828 -0.03021492 -0.03268213 -0.033820577 -0.03842385
-0.05847367 -0.020289198 0.043100968 0.0424046 -0.02721814 -0.03934461 0.0095252395 -0.054602385
-0.020091735 -0.049136892 -0.016843751 0.026788183 -0.04529264 0.037115224 -0.010866083 0.024891317
-0.009067126 0.044375442 0.026064098 -0.0014961362 -0.06036236 0.04844272 0.040906526 0.03602791
0.014742479 0.04473331 0.02760563 -0.05079432 0.011951514 0.01822275 -0.02846615 0.03321019
0.0011959001 0.024023168 0.042186625 0.043951437 -0.028442375 -0.055017717 -0.02166555 0.011980325
-0.019629546 -0.03622327 0.036318906 -0.022314489 -0.025255702 0.026821963 -0.018021725 -0.03434249
-0.038398862 -0.03609047 0.03630937 0.0003957227 0.017226025 -0.037292264 0.05129908 -0.02155269
-0.014350228 0.023080185 -0.03489282 -0.031908393 -0.042207874 0.03831444 -0.005184926 0.046642482
0.016941778 -0.046545096 -0.040907003 0.017025433 0.05896815 0.0048042387 0.053736553 0.0024346933
-0.061284505 -0.025022998 -0.056293197 -0.015584566 0.03490735 0.0408466 0.017549261 -0.054588944
-0.014055692 0.0031595603 0.056858905 0.00484515 0.024055935 0.014197893 -0.054035477 0.0069335923
-0.036668986 0.04098031 -0.029883102 0.01588329 0.011862792 0.053928994 -0.05066523 -0.014519148
0.007983856 0.03587447 -0.034517445 0.029609628 0.0065720156 0.042858876 0.017724596 0.04515692
-0.025848515 -0.057220243 -0.0393714 -0.035777844 -0.02248323 -0.05096098 0.011227436 -0.0379033
0.0021453872 0.00021643937 -0.0075569674 -0.02374918 0.04752016 0.035711057 -0.02079966 0.023909613
-0.0135354325 -0.0008578971 0.023131005 -0.05031763 -0.032957844 0.035659187 -0.060828745 0.0365723
0.005615577 -0.013384081 0.005677037 -0.013425998 -0.052611075 -0.022255935 0.048624903 -0.040207416
-0.053640902 -0.004770033 0.03777858 0.058095567 -0.042795338 0.0075306296 0.054228693 0.030536339
-0.047488526 0.05760563 0.00030598044 -0.045584626 -0.0035681129 0.0244667 0.018398821 0.03733164
-0.0473444 -0.037985183 -0.02551362 0.052971303 0.016154863 -0.04500419 -0.051703475 0.039828427
0.05527968 0.03275942 -0.04569158 -0.027629524 0.006097652 -0.033306256 -0.050476104 -0.061984852
0.05985526 -0.027019396 -0.022756778 0.0088153705 -0.027596511 0.048270345 0.03746105 -0.013666943
0.026577733 0.024192289 -0.06042964 0.057321995 -0.01567208 -0.05824495 -0.012476154 -0.01628413
-0.037703693 0.040567823 -0.052904896 -0.013619065 0.004228942 -0.008176215 0.051979147 -0.043875463
-0.0047946423 0.0356094 -0.01648102 0.020796932 0.026199989 0.05348751 0.0028212592 -1.2896955e-05
-0.030181475 -0.021999523 -0.009048685 -0.018243648 -0.015189804 -0.047786623 -0.03417632 0.057738103
-0.039445274 0.0026740432 0.016833864 0.0340079 -0.060527585 -0.033747196 -0.019871868 0.04495977

log_std_layer.bias f4 [2]
00000000: 88c8 18bd ba8e b1bc
-0.037300617 -0.021674503
