outputs/router_rule/ppo/summer20251201-120419/models/hac_model.pth (torch, 869122 bytes, 27 tensors)

router_backbone.0.weight f4 [128, 6]
000000 b7 20 92 3e 2a ae be 3e 0a 45 6b bd d4 75 c0 3e
       0.28540584 0.37242252 -0.057438888 0.37589896
000010 e4 f7 c5 bd 93 ad 9f 3d 26 87 4b be e6 82 75 3e
       -0.09666422 0.077967785 -0.19875774 0.23975715
000020 4b 43 b8 3e 63 58 99 be 9f ae b5 3e 85 7b 9c 3d
       0.3598884 -0.29950246 0.35484788 0.07640747
000030 2b 6d 9a 3e 33 a7 61 3d 3d e6 49 3e 3b 56 6a bd
       0.30161414 0.055091094 0.19716735 -0.057211142
000040 83 61 a1 3e 54 13 79 3d fa dd 43 be 7c d4 d4 3d
       0.31519708 0.06080945 -0.19127646 0.10392091
000050 67 a9 40 be 45 35 45 bd 0e 36 2a be 10 7f 8a 3e
       -0.18814622 -0.048146505 -0.16622183 0.27050066
000060 23 ff a4 be 41 b9 40 be 67 17 ec bd 16 5c 7b be
       -0.32225904 -0.18820669 -0.11527901 -0.24546847
000070 78 d3 1d 3d a2 72 ce be 16 af ae 3e a4 3c 9e be
       0.03853175 -0.40321833 0.34117955 -0.3090564
000080 2c 69 b4 3e ee c2 89 3d 32 6f 10 be 50 4c 7d 3e
       0.3523649 0.06726633 -0.14104918 0.24736142
000090 40 4e 82 3d 0f e2 a8 3e 81 cd 36 3d 30 d7 03 be
       0.06362581 0.3298497 0.044629578 -0.12875056
0000a0 f8 a4 e0 3d 29 bb e2 bd 1c f0 2f 3e e9 c5 ba 3e
       0.10968965 -0.11070854 0.17181438 0.36479118
0000b0 39 5e 71 3e c6 73 36 be 98 5b 71 3e 9c 33 96 3d
       0.235711 -0.17817602 0.23570096 0.073340625
0000c0 71 a5 53 3e 05 86 7f be bb 1f cf be c6 f6 21 be
       0.2066858 -0.24953468 -0.40453896 -0.15816793
0000d0 b1 98 a0 be c5 4a ab 3e 23 d2 f0 3d 11 29 2d 3e
       -0.31366494 0.33455482 0.117588304 0.16910197
0000e0 85 e7 03 3e e4 8d f2 bb c1 6e a3 3e cf aa 94 be
       0.12881286 -0.0074021686 0.31920436 -0.29036567
0000f0 f1 92 d2 3c ac aa 8e be c8 e7 00 3e bd f7 0f be
       0.025704833 -0.27864587 0.12588418 -0.14059348
000100 9f 18 00 3e 58 31 ae bd b1 5c ad 3e de c6 77 be
       0.12509392 -0.08505505 0.3385978 -0.24196956
000110 6c 52 79 be 46 56 79 be 1d 01 bc 3e 7c 50 0b 3e
       -0.24347848 -0.24349317 0.367196 0.13604921
000120 f6 21 c9 3e 78 80 ac be 37 53 cf be 39 88 a3 be
       0.39283723 -0.33691764 -0.40493175 -0.31939867
000130 8a 9b 8c be 55 53 29 3e 39 b1 15 3e b3 ae ad 3e
       -0.27462417 0.16535695 0.14618386 0.33922347
000140 c3 e3 57 be 58 7e 8e be 64 ce 5d 3e e7 f9 28 be
       -0.21082978 -0.27830768 0.21660763 -0.1650158
000150 e4 b8 7d 3e c1 67 c6 bd 44 24 6f 3e 7f 67 a2 be
       0.24777561 -0.09687758 0.23353678 -0.31719586
000160 8a f7 52 be a9 e7 fe 3d 59 9b 6f 3d 47 e1 91 bd
       -0.20602241 0.124465294 0.05849776 -0.07123046
000170 03 6b 8f 3e ee c7 8d 3e 3b bb 9b be 70 77 64 be
       0.2801133 0.27691597 -0.30416283 -0.22311187
000180 00 65 bf 3e f9 0f 0d be 4a 34 14 be ea 3f ca be
       0.37381744 -0.13775624 -0.14473072 -0.39501888
000190 14 67 6f be e6 db d0 3d 8e b7 5c bd 1a ba 97 be
       -0.23379165 0.10198192 -0.05388599 -0.29634172
0001a0 4e e5 1c 3c a3 c7 8e be a4 55 b1 be d4 33 66 be
       0.009576155 -0.27886686 -0.3463565 -0.22480708
0001b0 1a 9e a9 be fe 5c 96 be 26 12 bf 3e fc f7 9d 3d
       -0.33128434 -0.29367822 0.37318534 0.07713315
0001c0 b7 b3 08 3e 6d b5 c0 be ea 47 89 be 2e 26 0b be
       0.13349806 -0.37638417 -0.2681268 -0.13588783
0001d0 a0 bd 82 3d 85 ec b7 be f7 1f 34 be 6b 45 7a be
       0.06383824 -0.35922638 -0.17590319 -0.24440543
0001e0 32 4a 94 3a 6e 8e 1b be 2d c0 e7 bc ea a3 8d be
       0.0011313616 -0.15191051 -0.028289879 -0.2766412
0001f0 f4 78 8f be 92 e3 73 be 93 a3 0f be d3 32 a5 be
       -0.28021967 -0.2381728 -0.14027242 -0.32265338
000200 6c 37 af 3e 6b 6a a6 bd de a5 b3 3e d1 f3 01 3e
       0.3422197 -0.08125766 0.35087484 0.12690665
000210 0a 00 b1 be c0 a6 90 3e e9 0b e6 bd 7f 3f 20 be
       -0.34570342 0.2825222 -0.112327404 -0.15649222
000220 02 81 ad be 75 cd cf be 08 37 ef 3d a8 a3 b6 bd
       -0.33887488 -0.4058644 0.11680418 -0.08917934
000230 4d c1 22 3e a3 89 ab be 53 2f 9b 3e 28 6f 99 be
       0.15894051 -0.33503446 0.30309543 -0.29967618
000240 04 c3 d0 bd 38 8e fe 3d 1b 61 81 3e bb e0 a8 3e
       -0.10193446 0.1242947 0.25269398 0.32983956
000250 9c dd b9 3e e7 5a a8 be c8 6a d2 3d 03 d0 33 be
       0.36301887 -0.32881853 0.10274273 -0.17559819
000260 ff 3e 37 bd a6 73 9c be f9 63 be 3e a2 69 99 be
       -0.044737812 -0.30556983 0.37185648 -0.29963404
000270 e4 6c 5f 3e 03 eb 12 3e bc d8 07 3e df 03 62 be
       0.21818882 0.14347462 0.13266271 -0.22071789
000280 ed fd bd 3e 4f bb b7 3d 11 fc 59 3d 7d 07 b8 be
       0.37107792 0.08971273 0.053218905 -0.35943213
000290 b4 7a 2f 3e b6 31 7a bd e5 2a 3f be e9 ac b3 3e
       0.17136651 -0.061082564 -0.18668707 0.35092857
0002a0 e4 67 ba 3d 8e 4b 67 be e9 96 53 be 7a b6 9f bc
       0.09101847 -0.22587416 -0.20663036 -0.019496191
0002b0 bd 6b 69 3e 61 a6 d5 bd 42 60 53 be 04 4d 40 be
       0.22795005 -0.10432125 -0.20642188 -0.18779379
0002c0 ec 1d b4 be f6 5c 14 3e 65 1e a6 3e c5 79 c2 be
       -0.3517908 0.14488587 0.32445064 -0.37983528
0002d0 39 d3 c0 3d 95 ef 57 3e d4 2b 96 3d 85 5f 15 be
       0.094152875 0.21087487 0.07332578 -0.14587219
0002e0 da a5 59 3e 72 32 5b 3e 9a 16 3c 3e 08 98 e5 bd
       0.21254674 0.21405962 0.18367997 -0.11210638
0002f0 11 ed 1a be 5a 87 30 3d e4 00 81 bd 08 20 ef bd
       -0.15129496 0.04309783 -0.06298998 -0.11676031
000300 ed 9b 85 3e 78 c9 b3 3e ff 4f 24 bd ac 96 ba bd
       0.26095524 0.35114646 -0.040115353 -0.0911077
000310 80 c3 cc 3b a1 3d c5 bc 8e 01 c9 3d 1e 4d ea 3d
       0.0062488914 -0.024077239 0.0981475 0.1144049
000320 c0 d8 bd be 5d 46 1a be 48 06 b0 3e 1d da 22 3e
       -0.3707943 -0.15065904 0.34379792 0.15903516
000330 42 57 a6 bc e1 0a 7c be 49 c3 7f be 6a 3c bb be
       -0.02030528 -0.24613525 -0.24976839 -0.3656953
000340 73 44 08 be 0c 2d 0d 3e ee 9d 85 3e 97 6f 41 3e
       -0.13307361 0.13786715 0.26097053 0.18890224
000350 f4 06 b9 be b9 d5 7b be bc d9 84 bd 31 fb c9 3e
       -0.36138117 -0.24593247 -0.06486842 0.39449456
000360 13 7f 74 3d c0 13 d7 bd 71 36 2d 3e bf d4 1e be
       0.0596915 -0.10501814 0.16915299 -0.15510844
000370 06 09 87 be 1f c5 98 3e 4b ab 5b be cb 70 37 bd
       -0.26374072 0.2983789 -0.21452062 -0.044785302
000380 cc 95 bb be d3 fa 8b 3e 63 13 9a 3e eb dd 13 3e
       -0.36637723 0.273398 0.30092916 0.14440124
000390 08 2a 83 be 83 12 e1 be 58 16 bd be 9a 1f 9c 3e
       -0.25618005 -0.43959436 -0.3693111 0.3049286
0003a0 5f 9f 51 3e 26 98 b2 3e 79 00 5b 3e c5 9b d3 3d
       0.20470951 0.34881705 0.21386899 0.10332445
0003b0 60 00 83 bb 9e f6 9e be d0 15 b3 be 6f 82 c3 be
       -0.0039978474 -0.3104753 -0.3497758 -0.3818545
0003c0 da 21 2b 3e 51 3f 4d be 0a 44 a8 bd 7c 96 70 be
       0.16712132 -0.20043685 -0.082161024 -0.23494905
0003d0 13 5b 98 bd 26 1e 93 be e4 43 98 be 26 d2 33 3e
       -0.07439246 -0.2873394 -0.29739296 0.17560634
0003e0 13 31 a4 bd 92 03 81 3e 76 7b 0f be 25 02 9c be
       -0.08017173 0.25198036 -0.1401194 -0.30470386
0003f0 ef 84 93 bd 98 a5 4a be a4 cb ff bd 36 fd c6 be
       -0.072030894 -0.19789732 -0.12490013 -0.3886506

router_backbone.0.bias f4 [128]
000000 e8 79 86 be 7f 97 ce 3e f6 46 20 3e 7d 60 27 3e
       -0.26264882 0.40349957 0.1565207 0.16345401
000010 c4 1d 7a be dd 76 38 be 59 6c 7c bd ad 79 98 bd
       -0.24425417 -0.18014093 -0.061626766 -0.07445083
000020 69 77 8f be a6 88 08 3d f4 31 26 3d d8 bb 53 bd
       -0.2802079 0.033333443 0.040574983 -0.051692814
000030 6c d1 67 3d 62 b1 25 be 3b 98 d9 3d 9b 93 1c 3e
       0.056596205 -0.16180947 0.10624739 0.15290682
000040 87 33 5c be 51 43 cf be 46 57 5b 3e 53 70 c7 3d
       -0.21504031 -0.40481046 0.21420011 0.09738221
000050 01 9d 54 be db 46 c9 3e 82 0f 3d be 29 3f 8d 3e
       -0.20763017 0.3931187 -0.18462947 0.2758725
000060 33 a3 53 3e 27 3f af be c3 ce 86 3e f0 0b c0 be
       0.20667724 -0.3422787 0.26329622 -0.37509108
000070 91 9a 67 be a8 2d 8b bd 92 24 8d be 20 3a cc 3e
       -0.22617556 -0.067958176 -0.27566963 0.39888096
000080 d8 17 a7 bd 2f 0b 26 3e a6 a3 ba be 95 38 70 3e
       -0.08158845 0.16215204 -0.3645298 0.23459084
000090 9a 7b 01 be ea 23 9f be 94 f2 78 3d 06 87 4a 3e
       -0.12644807 -0.31082088 0.060778216 0.1977807
0000a0 55 e3 b4 3e 40 13 80 be ed b8 4d be e3 bf a0 3d
       0.3532969 -0.25014687 -0.20090075 0.078490995
0000b0 7f e0 de 3d 93 73 21 3e 8a 74 65 3e 52 48 be bd
       0.10882663 0.15766744 0.22407737 -0.09291138
0000c0 fa 40 68 3e 6a 1c 9a 3e 35 17 d9 bd 89 32 94 3e
       0.22681037 0.30099803 -0.106001295 0.28944805
0000d0 ce 99 4d 3e 53 21 b8 3e 96 90 6d be 5c 6f 4e be
       0.20078203 0.35962924 -0.23199686 -0.20159668
0000e0 36 23 f1 bd c3 a5 a9 3c 56 2c 7c 3e eb a5 6a be
       -0.11774294 0.020708924 0.24626288 -0.22914855
0000f0 4c c1 51 3e 97 c7 0f be ae 8b 7c 3e 43 60 99 bc
       0.20483893 -0.14040981 0.24662659 -0.018722659
000100 58 1f b7 be d3 2d 67 be 55 8d 97 be d4 55 4f 3e
       -0.357661 -0.22576074 -0.29600015 0.20247585
000110 fb 28 8c be 68 c3 0d bd 3a f0 b6 3d 83 e5 65 be
       -0.27375016 -0.034610182 0.08932538 -0.22450833
000120 c4 ed ee 3d dc a6 cb be b2 c2 94 be c8 03 bd be
       0.11666444 -0.3977574 -0.2905479 -0.36916947
000130 29 e6 fc bd 0d 4b 18 be 5d 32 73 3d 09 9b 9a bd
       -0.12348587 -0.1487238 0.059374202 -0.07549102
000140 3b 6a 43 3e 0e 18 c0 3e c3 00 17 3e 0d 27 25 be
       0.19083492 0.37518352 0.14746384 -0.16128178
000150 ec b9 c3 be cb 6a 17 3e 7e 83 57 be dd bb 54 3e
       -0.38227785 0.14786832 -0.21046254 0.20774789
000160 22 e8 8b 3e 83 d0 20 3e 38 85 c4 3e 0d af c6 3e
       0.2732554 0.15704541 0.38382888 0.38805428
000170 be 08 b1 3d 31 9a 97 be fa bf ba 3e 17 13 45 be
       0.086442456 -0.29609826 0.36474591 -0.19245563
000180 35 77 45 be 22 1b ae 3e 75 6a a2 3e 60 a0 fc 3d
       -0.19283755 0.34005076 0.31721845 0.123352766
000190 4d a3 d1 3c a9 11 b0 be d4 02 4d bd cc f2 cb 3e
       0.025590563 -0.34388474 -0.050051525 0.39833677
0001a0 16 b6 d7 3d 2e 9b 13 3d 8f 9d ad bd a1 ce 11 be
       0.10532777 0.036036663 -0.084773175 -0.14238979
0001b0 42 2a 79 3e 9d c3 ca 3c 09 71 87 3e ba fc 93 bd
       0.24332526 0.024751479 0.26453426 -0.07225938
0001c0 ab 8f 37 3e c0 f8 2a 3e a7 53 85 3d bb 81 83 3e
       0.17925899 0.16696453 0.06510096 0.25684914
0001d0 8c 95 83 3e 98 bf c1 3e f1 42 a0 3e 3b c9 d5 bd
       0.25700033 0.37841487 0.31301072 -0.10438772
0001e0 5a bf b1 be 31 da 98 3d fb 3b 8c bb 9b a4 d8 bd
       -0.34716302 0.07463492 -0.004279611 -0.10578271
0001f0 69 30 8d bd 92 4b 9d 3c d2 d8 98 3e 5b f2 01 3e
       -0.06893999 0.019201074 0.2985292 0.12690108

router_backbone.2.weight f4 [64, 128]
000000 d1 8e 00 bd 1c e1 14 bd e1 4d b3 bc d4 ed 0b bd
       -0.0313862 -0.036347494 -0.021887721 -0.034162357
000010 d7 c6 a2 3d 89 c0 3f 3d c0 74 a3 3d c8 fe 93 39
       0.07948082 0.046814475 0.07981253 0.00028227852
000020 7b 06 92 3c 9e 15 fb 3c 2b 58 ab bd b5 50 01 3c
       0.017825356 0.030649956 -0.08366426 0.007892777
000030 f0 bb c1 bb 7b fa 4a bd 23 76 8c bd 75 40 a0 3d
       -0.0059122965 -0.049555283 -0.0685847 0.07824794
000040 40 2e 93 3d 28 cb 27 3d d7 bc ac 3d 0b eb 12 bd
       0.07186556 0.04096523 0.08434456 -0.035868686
000050 12 21 7a bc 17 13 09 3d 0d 46 6f bc d5 16 8e bc
       -0.015266674 0.03346547 -0.014604104 -0.017344872
000060 a4 9f 95 bd 12 88 c2 3c 31 ca 5a bd da a7 52 3b
       -0.0730584 0.023746524 -0.05341548 0.0032143504
000070 4b 7d b0 3d d1 e1 de bc 24 39 e4 bc 2e 6c 5a 3d
       0.08617648 -0.027207287 -0.027859278 0.053325824
000080 cd 1a 05 bd 42 ba f8 bb 54 06 a9 3d 25 6d 14 bd
       -0.032496262 -0.007590563 0.0825316 -0.0362369
000090 ca 80 81 bd d8 9c 4a bd 4e bf c8 bc 72 c9 2b bd
       -0.06323393 -0.049465984 -0.024505284 -0.04194016
0000a0 94 df 3b bd 58 3e 12 3d 9b 18 76 3c d4 bf e7 bc
       -0.045867518 0.035703987 0.015020515 -0.028289713
0000b0 d0 a2 8c bd 9f fb e3 bc 64 cb 18 bd e4 a0 eb bc
       -0.068669915 -0.027829943 -0.037303343 -0.028763242
0000c0 3c 4d a3 bd c0 fc 9b 3c ca ff 84 bd 4b fa 8c bd
       -0.07973716 0.019041419 -0.064941004 -0.06883677
0000d0 18 e6 93 bd e9 1b 17 3d fa f4 59 bd 88 6e 15 bd
       -0.07221621 0.03689185 -0.053212143 -0.036482364
0000e0 ec e3 8d 3d c6 3a 40 3d fc 96 4f 3d 09 e1 ab bd
       0.06928238 0.04693105 0.0506811 -0.083925314
0000f0 16 cf 81 bd 70 ac 08 bd 26 8a 95 3d 95 25 14 3c
       -0.06338327 -0.033367574 0.0730174 0.009042163
000100 44 62 87 bd e8 16 11 3a aa 97 8c bd 13 a5 9e bc
       -0.066105396 0.00055347243 -0.06864865 -0.019365823
000110 6c 1a c7 bc 95 b3 9c 3d fa 45 e0 3c 30 84 7c bc
       -0.024304591 0.0765144 0.027377117 -0.015412375
000120 8c a2 74 3c 24 04 d1 bc c0 3e 0e 3d 9c 35 0f 3d
       0.014931332 -0.02551467 0.03472781 0.034963235
000130 ba 72 c2 3c 44 1d 0d bd d0 6f 9a 3d ee 11 51 bc
       0.023736347 -0.034451738 0.07540858 -0.012760622
000140 9c f2 0c bd fa bf 62 3d 80 8a 93 3d a6 24 b4 3d
       -0.034411058 0.055358864 0.07204151 0.08796053
000150 92 83 d6 3c 62 d5 f6 bc 65 e0 37 3d 6d 4e 9b 3d
       0.026185784 -0.030131046 0.044891734 0.07583318
000160 c9 8c b1 bd 4f 68 33 bc db e5 76 bd 5a f0 86 3c
       -0.08669431 -0.010950162 -0.0602778 0.01647203
000170 d4 bb 15 3d eb 95 95 bc 06 4c f2 bb 1f f5 22 3d
       0.03655608 -0.018259963 -0.0073943166 0.039784547
000180 15 64 73 bc 2e 04 98 bd 0f d7 90 3d 25 38 36 bd
       -0.014855404 -0.07422672 0.07072269 -0.044487137
000190 95 17 1f bc 64 99 08 3c 21 0f ae bb 48 48 aa bd
       -0.009710212 0.008337352 -0.005311862 -0.08314568
0001a0 73 1a 26 3d 0a 73 24 bd 5b c6 3b bd 46 fe ac 3c
       0.040552568 -0.040148772 -0.045843463 0.02111734
0001b0 2a ef 3c bd d5 51 27 bd 52 fa f3 bc 83 02 08 bd
       -0.046126522 -0.040849525 -0.029782448 -0.03320552
0001c0 6f 33 17 bd ff 45 c3 bc 8f 2b bc 3c ed 7b 92 bd
       -0.036914285 -0.023837088 0.02296999 -0.07152543
0001d0 87 22 5b bd a4 0b a9 3a 64 64 49 3c 84 f3 47 3d
       -0.053499725 0.0012897146 0.012292001 0.04881622
0001e0 d7 4f 7e bd 8f 1f e7 3c 71 c7 4d 3d 91 06 49 3d
       -0.06208786 0.02821329 0.05023903 0.049078528
0001f0 f5 9a a8 bd cd 27 0a bd 16 99 9b bd 2a 1a 65 bd
       -0.08232681 -0.033729363 -0.07597558 -0.055933155
000200 d6 d3 49 3d b1 3c 58 bc 21 3f 1a 3d f8 05 53 bd
       0.049274288 -0.013198064 0.03765786 -0.051519364
000210 ba 0f 5c 3c 16 51 52 bd f0 fa 34 3d 0d 93 1f bd
       0.013431484 -0.05134686 0.044184625 -0.038958598
000220 f9 16 b2 bc 41 ac 9d bd b0 16 99 39 d0 df ab 3d
       -0.02173947 -0.076988705 0.00029199338 0.08392298
000230 c5 b9 2f 3d 97 29 41 bd 7b ce 9b 3a bf 5d 1f bc
       0.042901773 -0.047158804 0.0011887097 -0.009726941
000240 e7 bb 91 bd 87 ef 8d 3d d4 4f 20 ba 11 7d 98 3c
       -0.07115918 0.06930452 -0.0006115411 0.018614324
000250 a3 33 12 bd d6 67 28 bd 1d c9 6e 3c 83 d9 05 3d
       -0.035693776 -0.04111465 0.014574316 0.03267814
000260 ac b7 9e 3c 95 7b 2e bd 53 c0 af 3d ff b1 4f bc
       0.019374691 -0.042598326 0.08581605 -0.012676715
000270 cb b7 5d bd 01 05 21 bd 0d 18 b3 3d 4f c1 64 3b
       -0.054130357 -0.039311413 0.08744822 0.003490526
000280 8f 73 49 bc aa aa 16 bd 44 d0 bd bc 46 cb 97 bd
       -0.012295618 -0.03678385 -0.023170598 -0.07411818
000290 0c 0d 8f bd 5d 87 5a 3d aa c2 9f 3d 30 bf ac 3d
       -0.0698491 0.05335175 0.07800801 0.084349036
0002a0 7e af 82 bd c6 50 43 3d ff 16 60 bd 56 fa 57 3d
       -0.06381129 0.047684453 -0.05470943 0.052728973
0002b0 11 00 a9 3d f9 2e 8e 3d dc 57 82 3d a5 3a 64 3d
       0.08251966 0.06942553 0.06364414 0.05571999
0002c0 b9 7d e1 3a b4 59 26 3d 9f 92 ff bc 31 ea 22 3d
       0.0017203606 0.04061289 -0.031197844 0.039774124
0002d0 95 d7 ef bc b2 ea 86 ba 2f 8e 9d bd ed 53 bd bc
       -0.029277602 -0.0010293333 -0.07693135 -0.023111308
0002e0 6b 9c 3f bd 11 3f f4 bc 6d c3 65 bd 5c d0 dd bd
       -0.04678003 -0.029815229 -0.056094576 -0.10830757
0002f0 71 5d cb 3c 45 f3 a4 3d fe dc a4 3d 2b b3 55 3d
       0.02482483 0.080542125 0.080499634 0.05217282
000300 7e a8 3b bd dd 6b b3 bd 03 2b 0b 3d f6 da 4a 3d
       -0.045814984 -0.08760808 0.033976566 0.049525224
000310 43 68 9b bd 23 32 08 3d 07 d7 9c 3d 68 d0 15 3c
       -0.07588246 0.03325094 0.07658201 0.009143926
000320 69 08 58 bd 3e 7d 96 3d 96 fd 1f 3d c5 5d 86 3d
       -0.052742396 0.07348107 0.039060198 0.06560854
000330 6d d7 74 bd d1 af 52 3d e3 b9 7c bd 1b 1e b3 3d
       -0.05977576 0.051437203 -0.061700713 0.087459765
000340 16 ea 05 bd da 6b 5b 3d 66 a6 be 3c 88 85 c2 3c
       -0.032693945 0.053569652 0.023272704 0.023745313
000350 ee 14 5e bc bc b3 14 3d 27 53 5b bd 05 a0 aa bd
       -0.013554795 0.03630422 -0.053546097 -0.083313026
000360 1a 63 09 bd a5 99 a1 3d 4d b2 ae bc ed 27 e5 3c
       -0.033541776 0.078906335 -0.021325255 0.02797314
000370 f2 da 05 bd 8e e8 85 3d 36 ad 58 3d a3 b4 0d 3d
       -0.032679506 0.06538497 0.05289956 0.034596097
000380 6f 0f 39 bd ce b4 98 bd 9a e0 64 3b 8e 64 54 bd
       -0.045180734 -0.07456361 0.0034923912 -0.05185371
000390 3d d5 94 3d 79 d7 ad bd de 33 cc 3c 9d 84 eb 3d
       0.072672345 -0.08488364 0.024927076 0.11499903
0003a0 7d 11 3e 3d 01 df fb 3c ca 2a ae bd 0b 1f ae 3d
       0.046403397 0.030745985 -0.08504255 0.08502015
0003b0 0e b4 77 bc 34 c2 a8 bd c9 2f b5 3d 1c 53 13 bd
       -0.015118612 -0.08240166 0.08847005 -0.03596793
0003c0 81 c3 b9 bb 78 95 a3 3d 28 f7 7a bd 8b 1e 80 bd
       -0.005669058 0.07987493 -0.061270863 -0.062558256
0003d0 53 4d 6d 3c 57 d7 41 bc bf 40 a0 3c 66 d2 97 bd
       0.014483768 -0.011831126 0.019562123 -0.07413177
0003e0 c1 b5 22 3b 2d 05 21 bd 3d 10 35 bd 6f 28 aa bd
       0.0024827572 -0.039311577 -0.04420494 -0.08308493
0003f0 08 50 42 3d d5 7b 8b 3c 97 e6 97 bd 13 7e 93 3d
       0.047439605 0.017026821 -0.074170284 0.07201781

router_backbone.2.bias f4 [64]
000000 db b3 66 bb b2 03 2c bd 90 06 79 3d 4b 51 77 3d
       -0.0035202417 -0.04199571 0.060797274 0.06038026
000010 68 e5 1e 3c 01 f0 5d bd 80 51 3d bd 25 78 a1 bd
       0.009698249 -0.054183964 -0.046220303 -0.07884244
000020 de c4 41 bd 43 76 9f bd 78 92 ff bb bb 8e 80 bd
       -0.047306888 -0.077862285 -0.007799443 -0.06277224
000030 92 69 4f 3d 31 d0 91 bd d5 98 79 bd 65 94 5a bd
       0.05063779 -0.071197875 -0.060936768 -0.053364176
000040 e5 fa b5 bc 26 17 12 3d ae 47 82 3d 0a 49 b4 3d
       -0.022214362 0.035666607 0.06361328 0.088029936
000050 e6 dc a3 bc 44 fe a9 3c 35 e4 a7 3b 6d 25 4c 3d
       -0.020002794 0.020751126 0.00512364 0.04984038
000060 b7 9b 2e 3d a5 41 51 3d 9d 0c 72 3d 6d b1 96 3d
       0.04262897 0.051087994 0.05909406 0.0735806
000070 5b f7 93 3b 78 e3 80 3d 36 f8 46 bd 15 10 98 bc
       0.004515571 0.06293386 -0.048576556 -0.018562356
000080 83 3d d3 bc f0 a5 cf bc be 1d b9 3b a8 a0 a9 bd
       -0.025786167 -0.02534768 0.0056492975 -0.08282596
000090 c9 3d 51 bd fe 46 f0 bb 93 ce 99 3c 6e 41 80 3d
       -0.051084314 -0.0073326817 0.01877526 0.0626248
0000a0 48 cc 79 bd 87 aa b0 3c 30 28 26 3d 3f b6 3c bd
       -0.060985833 0.021565689 0.04056567 -0.04607224
0000b0 87 1c 84 3c de 4e 39 bd d5 1d a7 ba 26 f8 44 bd
       0.016126884 -0.04524123 -0.001274998 -0.048088215
0000c0 71 a1 ca bc 47 26 0b bd 24 9f 9c 3d 58 d6 b0 3c
       -0.024735184 -0.03397205 0.07647541 0.021586582
0000d0 16 2f b0 bd d2 40 37 3c 49 6d 45 3d cb 32 1f bd
       -0.08602731 0.011184888 0.048199926 -0.0388668
0000e0 53 f0 53 bd 32 6f 85 bc 5b a7 9d bd 63 b3 06 bd
       -0.051742863 -0.016288374 -0.07697936 -0.03288592
0000f0 e8 f6 3f 3c ae db 86 bd ca 62 ac bd e3 01 58 bd
       0.011716582 -0.06584869 -0.0841728 -0.052736174

router_head.weight f4 [2, 64]
000000 92 01 bb bd fb 5b 03 3c b0 0d 3f 3d e1 be a1 3d
       -0.09131159 0.008017535 0.046643913 0.078977354
000010 f8 90 00 3e d0 d3 85 3d 5c 7e 65 bd 56 37 07 3b
       0.12555301 0.06534541 -0.05602871 0.0020632348
000020 d4 76 83 bd 40 53 9b 3d 34 b3 2a 3d 64 ff 6b 3d
       -0.06419149 0.07584238 0.041674808 0.057616606
000030 0a 9c ac bd 13 5d c8 3d 14 60 e1 bd e7 27 84 3d
       -0.084281996 0.097833775 -0.110046536 0.06452923
000040 71 8f dd bd 06 a1 be 3d 9e c4 97 bd 3f 9a 00 be
       -0.10818375 0.093080565 -0.074105486 -0.1255884
000050 54 83 77 3d 6c f9 e2 3d a5 a8 28 bc 59 ce 5c 3d
       0.06042798 0.1108273 -0.010294114 0.053907726
000060 f4 b0 ed 3d 32 3f e9 bd 25 1a 47 3d c8 b3 eb 3c
       0.11606017 -0.11389007 0.048608918 0.02877225
000070 34 a9 91 bd 55 60 8e 3d c8 60 e5 3d ec da c4 3d
       -0.07112351 0.069519676 0.112001 0.096120685
000080 5d aa b8 bd 32 da f2 3d df 36 e3 3d 59 3d 44 3d
       -0.09016869 0.11858024 0.1109445 0.04791007
000090 2a 49 88 bc 32 47 c2 3d 85 be a6 bd 5a 89 9b bd
       -0.01663645 0.09486236 -0.081418075 -0.07594557
0000a0 71 2c 8c 3d 88 c2 aa 3d 61 0c 45 bd 2e cd ec 3d
       0.06844414 0.08337885 -0.04810751 0.115625724
0000b0 cd d6 88 3d d8 e5 7a 3d f8 54 d1 3d 7c 78 fc 3d
       0.06681595 0.061254352 0.10221285 0.12327668
0000c0 dc 0a b3 3d c4 aa d6 3d f0 08 41 3c e8 f0 c8 3d
       0.08742306 0.1048179 0.011781916 0.09811574
0000d0 3b 0b 89 3d 60 ca 7b bd 86 12 8f 3d 00 37 18 3c
       0.06691595 -0.061472297 0.06985955 0.009290457
0000e0 e8 37 25 bd 02 12 bf 3d 33 df 09 3d 44 7c c7 3d
       -0.04033652 0.093296066 0.033660125 0.09740499
0000f0 92 b4 a6 3c 74 bf 19 3d c0 65 e3 3c 56 49 98 bc
       0.020349775 0.0375361 0.02775848 -0.018589657
000100 ca 16 9f 3d 4f 3a 8d bd 9a 12 9d bc ed 50 38 3c
       0.077680185 -0.06895887 -0.019173909 0.011249763
000110 24 a0 af 3d 0c 9a 61 3d ab 2a f6 3d fa b1 af bd
       0.08575466 0.05507855 0.12019857 -0.08578868
000120 20 f9 21 bc df 70 36 bc ce a1 d0 3d 64 ad f1 3d
       -0.009886056 -0.011135309 0.10187112 0.1180065
000130 f9 73 02 3d e9 ad cf bd 4a b2 b9 bd b4 69 ad 3c
       0.03184888 -0.101405926 -0.09067209 0.021168567
000140 f9 43 e3 bd 48 cc 27 bd ae f3 bf bd c4 44 bd 3d
       -0.11096949 -0.040966302 -0.0937265 0.092416316
000150 93 72 76 bc a8 6e c8 bd 50 be a9 3d 48 3b e6 bd
       -0.015041965 -0.09786731 0.08288252 -0.11241776
000160 56 f6 63 bc 36 d8 07 3e 38 df 84 3d ba cb dd bd
       -0.0139137115 0.13266072 0.06487888 -0.108298734
000170 80 f9 5c 3c 86 b4 63 bc 75 4e 61 3d 22 87 ec 3d
       0.01348722 -0.013898021 0.055006463 0.11549212
000180 93 e8 da 3d 7f ae a3 bc c2 21 54 3d ed 2c fc bd
       0.10688891 -0.019980667 0.051790006 -0.123132564
000190 1d a6 c8 3d ce c0 8a 3d f1 3b b3 bd 4c 15 14 bd
       0.097973086 0.06775056 -0.08751667 -0.036153123
0001a0 83 d3 45 bd 6c ad 95 bd fe 29 b2 3d 0b 09 18 bd
       -0.048297416 -0.07308468 0.086994156 -0.037118
0001b0 1c e1 50 3d f8 08 1c bd 6e 12 c5 3d 95 4e 4a bd
       0.05099593 -0.03809449 0.09622656 -0.049391348
0001c0 f0 63 b1 bc 5a 4f 2b bd a0 94 bc 3b e8 48 3d bd
       -0.0216541 -0.041823722 0.005755022 -0.046212107
0001d0 f3 48 b3 bd 9c 48 f3 bd b2 3c 9f 3d 6c 5a 89 3c
       -0.08754148 -0.118790835 0.077752486 0.01676675
0001e0 2d 52 aa bd 3e 9e 85 3d 0f 8a 46 3c 68 e2 38 bd
       -0.08316455 0.06524323 0.012117877 -0.045137793
0001f0 6d 7e d0 ba 99 c6 5d 3c 43 24 0c 3e 4e 88 02 be
       -0.0015906818 0.013536119 0.13685708 -0.12747309

router_head.bias f4 [2]
000000 95 76 c4 bd 67 a2 d0 bd
       -0.0959293 -0.10187226

experts.0.fc1.weight f4 [256, 6]
000000 0d 08 a4 be 71 8e 3c 3b 55 73 68 3e 8b 29 db 3d
       -0.32037392 0.0028771425 0.22700246 0.10701283
000010 21 6e 31 3e 6e 6a 4a 3d f2 c3 f2 bb b4 34 bd be
       0.17327167 0.049417906 -0.0074086124 -0.36954272
000020 56 ba ba 3e 3d 2a ca 3e a8 d4 04 bb 69 aa 97 3d
       0.36470288 0.3948535 -0.0020268355 0.0740555
000030 ed 27 9b 3d 95 b3 ce 3e a8 6c 8d ba f5 27 8a bd
       0.075759746 0.40371385 -0.0010789828 -0.067459024
000040 4e eb 63 be 7e 93 d7 3d d3 17 41 3e a1 94 b0 be
       -0.2225773 0.10526179 0.18856744 -0.34488395
000050 12 b2 0e 3e 42 34 d0 3d ed 1f 39 3e c1 ac 43 3e
       0.13935116 0.101662174 0.18078585 0.19108869
000060 ef 51 db bd 7a 24 61 3d 18 4d 92 be 1e f2 7b 3e
       -0.10708987 0.054966427 -0.28574443 0.24604079
000070 07 b6 af be 2c 39 b7 be 84 06 9b be 36 8e 69 be
       -0.34318563 -0.35785806 -0.3027841 -0.22808155
000080 f3 1a 89 3c ef 03 89 3e ee 8b 5d bd 63 f1 95 3e
       0.016736483 0.26760814 -0.054088525 0.29285726
000090 a0 02 89 bd 78 63 b1 3e f6 6a 90 3e b0 29 84 3e
       -0.06689954 0.346462 0.28206605 0.25813055
0000a0 69 f9 2a 3e c2 a2 8c be db d4 cc 3e 0b ef c6 be
       0.16696705 -0.27467924 0.40006146 -0.3885425
0000b0 a5 86 92 be 77 a0 7c be d0 a2 dc bd 8b 91 35 3e
       -0.2861835 -0.24670587 -0.107732415 0.17731301
0000c0 6e 58 ac 3d 3a bd b3 be 8d f7 c9 3e 0a 55 c4 3e
       0.08415304 -0.35105306 0.3944668 0.3834613
0000d0 83 7a 4e 3e 07 9a cc be 4e 8a 69 3e 3f 8e ee 3d
       0.20163922 -0.39961264 0.22806665 0.11648225
0000e0 40 ba 4e bd ea 1a af be 88 16 b1 3e cf f0 f9 bd
       -0.05047059 -0.3420022 0.34587502 -0.12204134
0000f0 84 f5 a8 be 28 7c a1 3e 6e 74 23 3e c1 bf f6 3d
       -0.32999814 0.31540036 0.15962383 0.12048293
000100 d4 3f 87 3e f9 f0 11 3e c8 f8 b5 bd 4d 44 e8 bc
       0.26415884 0.1425208 -0.08885342 -0.02835288
000110 c1 a7 ac 3e 34 29 60 bc 80 bf ae be 4a 79 8d be
       0.33721736 -0.013681699 -0.34130478 -0.276316
000120 74 91 9d be c3 9a 1e 3d e6 b0 98 3e ca c5 79 3e
       -0.30775034 0.03872181 0.29822463 0.24391857
000130 18 88 dc 3d 02 05 0b 3e 49 03 46 be 66 a4 c3 3e
       0.10768145 0.13576129 -0.1933719 0.38211364
000140 b1 70 1f 3e a3 be 83 be f3 3f 8b be 7b 42 bb be
       0.15570332 -0.25731382 -0.27197227 -0.36574158
000150 ee de ed bd 91 e2 98 3e e1 59 c4 3c 17 21 46 be
       -0.11614786 0.29860356 0.023968639 -0.1934856
000160 8c bc e8 3d dd 16 91 be 7b 7a f8 3d 14 7b 8e 3e
       0.113640875 -0.28337756 0.12132736 0.27828276
000170 09 bc 4a 3e 31 a0 ff bd 20 ce 0e be 53 bf 2d 3e
       0.19798292 -0.12481726 -0.13945818 0.16967516
000180 a7 4e 7a 3e e6 e2 cc bd ab 89 72 ba 5d 98 3c bd
       0.24444066 -0.10004215 -0.00092520815 -0.046043742
000190 54 86 44 bd 52 7d b9 be b5 4a ac be ed 0c b3 3e
       -0.047979668 -0.36228424 -0.33650747 0.349708
0001a0 bb 9e 49 be 56 65 9a 3e 58 87 81 3e 82 94 7f bd
       -0.19689457 0.30155438 0.25298572 -0.062397487
0001b0 58 36 4a be 40 14 5e 3c 1b f0 90 bd df 06 78 be
       -0.19747293 0.013554633 -0.070770465 -0.24221371
0001c0 71 2c cb 3e cd 16 04 bd 23 8b 80 bd b5 c3 8d be
       0.39682344 -0.032248307 -0.06276538 -0.27688375
0001d0 eb 5e 87 3d 20 85 66 3d e8 f7 cd 3e 93 65 01 be
       0.06609901 0.0562793 0.402282 -0.12636404
0001e0 cb 52 6b 3e 25 ad a4 3c 27 3d 5e 3e 70 50 f4 3b
       0.22980802 0.020102093 0.21703015 0.007455878
0001f0 d5 8a 8f bd 38 2c 24 3e 2a 35 3a be c0 55 7d 3e
       -0.07008902 0.16032493 -0.18184343 0.24739742
000200 99 12 af be 72 d7 95 be 57 24 c7 3e 22 88 1d be
       -0.34193876 -0.29265934 0.38894913 -0.15383962
000210 6c 33 a6 be 4f d3 98 be 2f 89 ca 3e 22 18 6b bd
       -0.32461107 -0.29848716 0.39557788 -0.05739606
000220 ab 0a b0 be c9 40 72 bd 93 94 4b be 66 0e 8c be
       -0.3438314 -0.059143815 -0.19880895 -0.27354735
000230 2f 43 4c be 1a 79 9e 3e 9b ef 28 3e 27 91 74 3e
       -0.19947504 0.30951768 0.16497652 0.23883496
000240 7e 03 0a 3d 58 c6 2e be 3b 9e 2a be 5c 49 8c be
       0.033694737 -0.1706785 -0.16661923 -0.2739972
000250 ae 03 97 be 5d 38 b4 be 1e b6 93 3d 18 ab 5b 3e
       -0.29494995 -0.35199252 0.072124705 0.21451986
000260 6a b9 aa 3e 8c f1 24 bc 07 6e 72 bd e0 c3 09 bd
       0.33344585 -0.010067355 -0.05918696 -0.033634067
000270 c3 b5 24 3e 99 6e 84 bd 60 e4 12 be e8 5f e6 bd
       0.16084962 -0.06466407 -0.1434493 -0.112487614
000280 73 2f cc be 2c f9 a0 be 6c 91 32 be 04 3e 23 3d
       -0.3987995 -0.31440103 -0.17438287 0.039854065
000290 ad 21 83 be b9 69 20 3e f5 53 64 be 8a 62 ca 3e
       -0.2561163 0.1566533 -0.22297652 0.39528304
0002a0 cd b9 b8 be 31 1a 69 3e 3b 0e 59 be 69 3a 14 be
       -0.36079255 0.22763897 -0.21196835 -0.14475407
0002b0 4b 2c c3 be a5 b8 c1 be 98 9d c5 be b6 63 05 bc
       -0.3811973 -0.37836185 -0.38596797 -0.008141449
0002c0 31 5f c0 3e 78 5f 3f 3e d6 b9 82 3e 86 97 ba 3d
       0.37572625 0.18688762 0.25532407 0.09110932
0002d0 44 85 21 be 4b cf 22 be ca 5d f8 bd a4 49 c3 be
       -0.15773493 -0.15899388 -0.12127264 -0.3814212
0002e0 22 ca 65 3e bc 88 f8 bd c8 d8 6c be 5a 0e d0 3d
       0.22440389 -0.12135455 -0.2312957 0.10158987
0002f0 ac ea a2 39 41 a8 63 3e 0b bb 88 be 53 cd cf 3e
       0.00031073892 0.22232153 -0.26705202 0.40586337
000300 7e 68 26 be 05 32 1e 3e d3 87 bd 3e f7 42 e9 bc
       -0.16250798 0.15448768 0.37017688 -0.028474314
000310 fa 12 b8 be d0 27 ca be 05 cd cd 3e e7 da c3 be
       -0.35951978 -0.394835 0.4019548 -0.38252947
000320 b5 62 1b be 96 69 8e 3e a0 bb a2 be 5f 2f c3 3e
       -0.15174372 0.2781493 -0.31783772 0.3812208
000330 ff 64 22 3d 8e 3f 02 3e 91 cf 83 3d ed 19 39 3d
       0.0396471 0.12719557 0.064360745 0.04519074
000340 4a ed 6a 3e 84 f5 b4 be b1 8d b5 3d 66 e4 3c be
       0.22942081 -0.35343564 0.08864916 -0.18446502
000350 14 fa c5 3e 29 37 ad 3e ec e8 23 be 94 c6 68 3e
       0.38667357 0.33831146 -0.16006821 0.22732002
000360 fa 5f 8e bd 37 97 5c 3e a7 7b ec bd 21 a3 74 be
       -0.069519 0.21542059 -0.11547022 -0.23890354
000370 e8 5f 30 3e 88 fd 4e 3e 97 2b bc 3e b3 2d 04 3e
       0.17224085 0.20213902 0.36752006 0.12908058
000380 11 db 3a be 0b ff d4 3d 72 d6 c6 3c b1 af b5 3e
       -0.1824763 0.10400208 0.024272177 0.35485604
000390 56 d1 2b 3e 74 7d b2 3e 67 a9 fb 3c 11 40 9e be
       0.16779074 0.34861338 0.030720426 -0.30908254
0003a0 72 a1 85 be 3f ef bc 3e 39 19 bb 3e 23 3e fb 3d
       -0.26099735 0.3690128 0.3654268 0.12267711
0003b0 77 52 95 be 7f 95 98 3e bc 1b 2d 3e 16 15 a5 be
       -0.29164478 0.29801556 0.16905111 -0.3224265
0003c0 7a c1 f3 3d 34 9e c9 3e 49 e7 89 be 97 4f 00 3d
       0.11902137 0.39378512 -0.2693427 0.031325903
0003d0 a5 7c ef 3d 6e 28 16 be 9f 95 89 3e 78 ba b9 3e
       0.11693696 -0.1466386 0.26871964 0.36275077
0003e0 af 51 cb 3e 2b 3d bb be e3 b9 b7 3c f7 76 aa 3e
       0.39710757 -0.36570105 0.022427505 0.33293888
0003f0 d5 16 b2 3e 14 fd d7 bd fd 50 8a 3e 29 dc 9b 3e
       0.34783044 -0.10546318 0.27014914 0.30441406

experts.0.fc1.bias f4 [256]
000000 54 dc 16 3e e7 d5 2b be b7 5d b4 be e3 d5 2c be
       0.14732486 -0.16780816 -0.3522775 -0.16878466
000010 5a e8 cc be 9e 70 a6 3d e2 d5 fa 3c 88 05 c1 3e
       -0.4002102 0.08126949 0.030619565 0.37699533
000020 91 37 66 be fc 33 58 be 47 41 c8 3d f9 4e dc bd
       -0.22482134 -0.2111358 0.09778076 -0.1075725
000030 54 bd a2 3e ba 61 7e 3d 1e 56 11 bc a0 ed 20 be
       0.3178507 0.062104918 -0.00887063 -0.15715647
000040 59 96 7c 3e 78 fe 43 be 69 1a 28 3e d6 1f 86 3e
       0.24666728 -0.19140041 0.16416325 0.26196164
000050 47 ce a3 be a5 33 b9 be c1 0f 6c be 55 e6 48 3e
       -0.31993315 -0.36172214 -0.23052885 0.19619115
000060 6b 97 66 be 29 4c 1f 3d 6f 7a 7c 3d 74 25 b0 3d
       -0.22518699 0.03889099 0.0616402 0.086008936
000070 c9 2c 55 be d7 f4 64 3c 36 d7 90 3e 1c 02 59 3e
       -0.20817865 0.01397439 0.28289193 0.21192211
000080 dc b9 9e 3d 76 62 a6 be b2 fc 44 3e af 27 26 be
       0.077502936 -0.32496995 0.1923702 -0.16226076
000090 0b 49 92 3e 00 51 2d 3e 8b a4 98 bd 0f 4c 21 3e
       0.28571352 0.1692543 -0.07453259 0.1575167
0000a0 10 88 2d be d0 b2 8f 3d 55 55 a9 bc 91 47 d4 3b
       -0.16946435 0.07016528 -0.020670572 0.006478258
0000b0 1f e4 12 3e 93 68 cb 3e b9 85 38 be d7 40 cc 3e
       0.14344834 0.3972822 -0.18019761 0.3989322
0000c0 42 6e 99 bd c5 cd c6 3e ab 88 bb 3d 44 22 07 3d
       -0.07491733 0.38828865 0.09156927 0.032991663
0000d0 84 80 0b be 09 fc 5b be d6 b2 cd be f1 e1 63 be
       -0.13623244 -0.21482863 -0.40175503 -0.22254159
0000e0 94 7c 14 bd 27 00 b0 3e 28 88 62 3e ec c6 91 3d
       -0.03625162 0.34375116 0.22122252 0.071180195
0000f0 47 24 ca be f2 1a 93 3e 92 0f 90 3e 58 3e 3c be
       -0.39480802 0.28731495 0.2813688 -0.18383157
000100 16 a0 29 3e a1 00 ae be 71 0d 53 be 83 50 fc bd
       0.16564974 -0.33984855 -0.20610596 -0.12320044
000110 5e ae bd be f0 4e cc bc 39 37 ab 3d db 5d f3 3d
       -0.37047094 -0.024939984 0.08360142 0.11883136
000120 e0 74 c3 3e 67 bd 71 3e f2 17 bf be 19 38 03 be
       0.38175106 0.23607408 -0.37322956 -0.12814368
000130 c2 83 6a 3e 5c b5 c8 be 17 d5 ce bc 1c 7e 1e 3e
       0.22901824 -0.39200866 -0.025248094 0.15477794
000140 c5 00 8c be b5 25 b3 3e 0f f5 89 be ff 2d 99 be
       -0.27344337 0.34989706 -0.26944777 -0.29917905
000150 a2 83 9e be 39 74 92 bd d3 e8 0b 3e 87 73 f1 3d
       -0.30959803 -0.07151074 0.13663034 0.11789613
000160 04 40 4e be 09 aa b6 3e d5 57 60 be c2 02 a4 3e
       -0.20141608 0.35676602 -0.21908505 0.32033354
000170 86 1d 0c 3e f0 e3 06 be f2 6f 9a 3e 33 9d 0a 3e
       0.13683137 -0.13172889 0.30163532 0.13536529
000180 4f ba b1 be b3 b0 54 3e 24 87 c5 3e 4e 82 9c be
       -0.34712455 0.2077053 0.38579667 -0.30568165
000190 a8 44 b0 bd 75 84 a8 be e7 fb 8b 3e 07 cc 5d 3e
       -0.08606845 -0.32913557 0.27340624 0.21659862
0001a0 ca 42 98 3e b5 71 eb 3d ee 7b 8a bd 69 64 24 bd
       0.29738456 0.11496297 -0.06761919 -0.04013482
0001b0 31 bd 9b be 2b 79 84 3e 17 b7 27 be e9 49 36 3d
       -0.3041778 0.25873694 -0.16378437 0.04450408
0001c0 5b 8f 5e 3c b4 c0 fc 3d b1 c1 a7 be 44 6e 84 bd
       0.013583983 0.12341443 -0.32764962 -0.06466344
0001d0 c6 dc 40 3e 71 80 9a be 03 e5 33 be f8 e2 65 be
       0.18834218 -0.30176118 -0.1756783 -0.22449863
0001e0 0c b4 b0 be 0b ed cb 3e c6 97 b4 3e a1 22 83 3e
       -0.34512365 0.39829287 0.35272044 0.25612357
0001f0 a5 1a ad be fb 2e 74 bb 62 89 99 3d 22 70 39 3e
       -0.3380939 -0.0037259448 0.07496907 0.18109182
000200 69 66 a8 3d 01 46 80 be b2 28 4f 3c e6 38 a9 be
       0.08222658 -0.2505341 0.01264398 -0.33051223
000210 ad f3 51 3e 65 a9 83 3e 69 91 15 be 39 cf b6 be
       0.20503111 0.25715175 -0.14606251 -0.35704973
000220 6e b1 85 3b 6e 06 56 3e 0d c6 8e be 39 2f 30 3e
       0.004079989 0.2090089 -0.27885476 0.17205514
000230 94 ba 91 3e 4b 6d ad be 67 9f 67 3e 7f 0f 3d 3e
       0.2846266 -0.33872446 0.22619401 0.18462943
000240 34 9a 56 be 24 6e af 3e 52 0a 49 be 95 de 9e 3e
       -0.20957261 0.34263718 -0.19632843 0.31029192
000250 d0 10 a0 be 1e 06 a5 3e 75 fd bb bd a2 7c b8 be
       -0.31262827 0.3223123 -0.091792025 -0.36032587
000260 b7 fb 5e 3e dd 31 0a bd 6e 26 ec 3d c8 94 40 3e
       0.21775709 -0.03373896 0.115307674 0.18806756
000270 b6 c5 33 3d 8f 85 05 3e 92 2d b0 be b1 a4 b8 be
       0.043889724 0.1303923 -0.34409767 -0.3606315
000280 7b 4f 44 be 95 91 5a be 65 2f c5 be b8 65 81 3d
       -0.19170944 -0.21344598 -0.38512722 0.063182294
000290 45 ac 04 bd ac bf b8 bd 6f de 9d bc d8 e3 48 3e
       -0.03239085 -0.090209335 -0.019271104 0.19618165
0002a0 33 20 1b be 7d d2 d0 3c 26 81 16 bd 39 df 49 3e
       -0.15149002 0.025490994 -0.03674426 0.19714059
0002b0 de a9 30 bd ba dc 15 3e bb 61 23 be b9 c3 a1 3e
       -0.043130748 0.14634982 -0.1595525 0.31594637
0002c0 07 57 8d 3d 4e 56 8d 3d 3e 17 4a 3e 31 84 d0 be
       0.06901365 0.06901227 0.19735429 -0.40725854
0002d0 8f b9 38 3e 4f c4 a7 3e 7a ac 7a 3e e9 93 87 3e
       0.18039535 0.3276696 0.24479857 0.26480034
0002e0 61 e6 a7 be 25 eb b4 3e 1f ef ba 3d a3 e3 cb be
       -0.32792953 0.3533565 0.0912764 -0.3982211
0002f0 fd fc bc 3e c6 d6 a2 3e 7f 63 85 bd c7 f7 cc 3e
       0.36911765 0.31804484 -0.06513118 0.4003279
000300 a4 07 d5 3c 3f cd a7 3e e7 c5 b8 be 29 07 c3 be
       0.02600462 0.32773778 -0.36088488 -0.380914
000310 7c 90 e9 3d 38 76 34 bb 2f 97 b1 be dc 69 6a be
       0.11404511 -0.0027536284 -0.34685656 -0.22891945
000320 50 54 6a 3e 7b 40 85 3e 6f 48 9e be eb 34 3b be
       0.22883725 0.26025757 -0.30914637 -0.18281905
000330 f8 97 1b 3b 56 53 57 ba c0 1a 9a be 1b bc 9a 3e
       0.0023741703 -0.0008214017 -0.30098534 0.30221638
000340 63 cc 91 be 00 db 94 3e ef 48 81 be 7b ad cf be
       -0.28476247 0.29073334 -0.25250956 -0.40562043
000350 ca 50 d0 3d 80 fb 47 be a5 e9 8c 3e 65 e8 0a be
       0.10171659 -0.19529533 0.27522007 -0.13565214
000360 bc e5 20 3d de 96 9b 3e cd c0 87 be c1 b4 2c be
       0.03928159 0.3038854 -0.26514283 -0.16865827
000370 ae 51 8e 3e f1 2a b0 3e db 57 92 3d 8d af a0 3e
       0.27796692 0.34407762 0.07145663 0.31383935
000380 c6 95 7c 3e e4 f8 6b 3e c0 4d 86 bc 36 cf c9 3e
       0.24666509 0.23044163 -0.016394496 0.39415902
000390 cf 96 04 be bb a4 e3 3c cb c2 fb bd 59 12 fd bc
       -0.12948154 0.02778851 -0.12293013 -0.030892538
0003a0 79 39 7b 3e 8f 78 9e 3e 61 02 7a 3d b7 41 89 3e
       0.24533643 0.30951354 0.061037425 0.2680795
0003b0 4d ac 92 3e 1f e3 4a 3e 69 db e3 bd 37 ea 73 3e
       0.2864708 0.19813202 -0.111258335 0.23819815
0003c0 3c 9c af 3e f3 e9 ac 3e f2 a3 d8 3d 8a 41 9a 3e
       0.34298885 0.3377224 0.10578145 0.30128127
0003d0 f6 8d 90 be f2 f9 9e 3d c2 a4 b7 be 69 e8 56 3e
       -0.28233308 0.07762517 -0.35867888 0.20987095
0003e0 9e 88 99 3c f4 39 a0 bd 64 3f 85 3e 25 bd 7e bd
       0.018741902 -0.07823554 0.26024926 -0.0621921
0003f0 03 ff 2a 3e 11 38 61 3e 1b 13 4f be de 38 b5 be
       0.16698842 0.21994044 -0.20222132 -0.3539495

experts.0.fc2.weight f4 [256, 256]
000000 d1 12 ad 3b d6 c6 1d bd 6e f2 0f bd 78 a8 ee 3c
       0.005281784 -0.038519703 -0.03514331 0.029133067
000010 d2 69 6e 3c f6 7c 68 bc d0 98 bc bc 78 51 3d bd
       0.014551597 -0.014189949 -0.023022085 -0.046220273
000020 e0 3f dd bc b0 45 83 3b 70 c9 16 bd 0c a5 69 bd
       -0.027007997 0.00400611 -0.0368132 -0.057042167
000030 80 40 79 bd da 6a 71 bd a4 83 eb bc 50 51 8c 3c
       -0.060852528 -0.058939792 -0.028749295 0.017128617
000040 98 22 ea bc e2 e3 27 3d 72 1a 0c 3d 00 87 49 bd
       -0.028580949 0.04098881 0.034204908 -0.04920101
000050 62 31 77 3c 9c 81 dc bc 99 8b 55 3d 34 c1 40 3d
       0.015087457 -0.026917271 0.052135084 0.047059253
000060 a4 d6 ea 3c 7c 6e 01 bd a0 11 14 3c 64 a1 22 bd
       0.028666802 -0.031599507 0.009037405 -0.039704695
000070 28 51 19 3c b0 d8 7b 3d 50 71 45 bc 22 73 14 bd
       0.009357728 0.061485946 -0.012050942 -0.03624261
000080 55 23 f7 bc 70 1e 20 bd 44 74 00 3d 1a 39 18 bd
       -0.030168215 -0.039091527 0.03136088 -0.03716383
000090 32 31 33 3d 86 39 14 3d 53 64 1b 3d 83 1b 58 bb
       0.04374809 0.03618767 0.037937474 -0.0032975383
0000a0 2e af 5a bc b5 ed bb 3c 8e e0 1d bc d4 c2 cd 3c
       -0.01334743 0.022940496 -0.009636058 0.025117315
0000b0 7a 7f 69 3c 2c 9a af 3c 38 dd da bc c8 05 20 3d
       0.014251584 0.02143582 -0.026716813 0.039068013
0000c0 e8 67 44 bc fa 76 11 3d fd d1 68 bb ea d2 7c bd
       -0.011987664 0.035513856 -0.0035525553 -0.06172458
0000d0 ef 52 b8 bb ca b7 a5 bc 4c 93 fb bc 83 ec 33 bb
       -0.005625121 -0.020229239 -0.030709885 -0.0027454204
0000e0 38 14 c6 bc 71 9f 96 3b d4 9e 99 bc 6c d6 1e bd
       -0.024179563 0.0045966436 -0.018752493 -0.038778707
0000f0 b0 80 b9 3c 18 e3 52 bd 00 f5 44 bd 76 e5 25 bc
       0.02264437 -0.051486105 -0.048085213 -0.0101255085
000100 ff 28 bc bb 0e b2 70 bd 82 dd 00 3d 10 04 a9 3b
       -0.005742192 -0.058763556 0.031461246 0.005157955
000110 b0 73 d5 3c 80 ae 21 ba b0 81 5f bc 48 2e b4 bc
       0.02605614 -0.0006167665 -0.01364176 -0.021994725
000120 cf c1 c0 bb e4 69 4a bd 48 65 de 3c f8 86 91 3c
       -0.005882479 -0.04941739 0.027147904 0.017764553
000130 ec d9 35 3d b5 46 6e bd 20 56 d5 bb 87 54 c6 bc
       0.04439728 -0.0581729 -0.006510511 -0.024210228
000140 ef 3d d7 3a 92 70 17 3c ae 62 1d bc 3f 14 b0 bb
       0.0016421656 0.009243147 -0.009606047 -0.0053735073
000150 46 fc 2d bc 98 12 79 3c 54 2b 0d bd ff 2a f7 bb
       -0.010619229 0.015202187 -0.03446515 -0.0075429673
000160 10 9b fa 3c 2a 24 2b 3d 54 c3 ee 3b 30 f8 e0 bb
       0.030591518 0.041782536 0.0072864685 -0.0068655238
000170 c6 7a 30 3c f0 b7 eb 3c 6c 49 41 3c 6e f8 14 bd
       0.010771459 0.028774232 0.01179729 -0.036369734
000180 78 bb 49 bd 40 44 f0 3c b4 91 de bc cc 48 bd 3c
       -0.04925105 0.02932942 -0.027169086 0.023106001
000190 8a f6 5b bd f2 c6 0a 3d 38 cd d4 3c 10 13 4a bc
       -0.053701915 0.033881135 0.025976762 -0.012333646
0001a0 79 c7 42 bd cf 0f f1 bb be bd 0f 3d 6e 3a 40 3d
       -0.047553513 -0.007356621 0.03509306 0.046930723
0001b0 60 c1 17 bb 23 00 9d bb 60 00 52 3d 02 84 2d 3c
       -0.0023156032 -0.004791276 0.05126989 0.010590555
0001c0 b2 3b 73 3d de 97 67 3d 78 75 27 bd fc 7c 34 bd
       0.0593831 0.056541316 -0.04088351 -0.044064507
0001d0 dc f0 a9 bc e0 93 1c bc 02 8d 66 3d 76 53 3f bd
       -0.020744734 -0.0095567405 0.05628682 -0.046710454
0001e0 38 e5 e1 3c d0 34 43 3d c0 be 80 3b 26 e0 57 bd
       0.02757512 0.047657788 0.003928989 -0.052704
0001f0 ae 04 40 bd f0 47 18 3c ac 23 94 3c c8 e0 6d 3c
       -0.046879463 0.009294495 0.018083416 0.014518924
000200 8e 4c 1f 3d 30 3f 23 3d de 4c 60 bd 03 65 ef 3c
       0.038891368 0.039855182 -0.054760806 0.02922297
000210 1c c6 1d 3d e2 4a 01 bd 81 ed 1d bd ba 1d 67 bd
       0.03851901 -0.031565554 -0.03855658 -0.056424834
000220 82 3b 7d bd 2c 87 04 3d 14 19 8f 3c 7c 4a 0c bd
       -0.06182433 0.032355472 0.017468013 -0.03425072
000230 1c 14 66 bd c0 36 6f bd d9 b0 65 3d 3c 83 a8 3c
       -0.05617152 -0.058401823 0.05607686 0.02057039
000240 13 d5 2a 3c 60 51 a9 bb 50 02 d1 3c 10 f4 dd 3b
       0.010426777 -0.0051671714 0.025513798 0.0067734793
000250 1c 91 da 3c b0 2c 80 3c b6 e2 03 bd 54 c4 f1 bc
       0.026680522 0.015646309 -0.03219863 -0.029512562
000260 2c 65 84 3c 78 8e 7e 3c f4 bf 34 3d 36 5d 3d bd
       0.016161524 0.015536897 0.044128373 -0.04623147
000270 fc 3c f6 3c 50 d6 6a bd a0 78 af 3b 9a a1 4e bd
       0.030058376 -0.05733329 0.005354956 -0.050447084
000280 e4 d3 fb bc 40 53 12 bd 21 99 65 3d 8d 82 61 3d
       -0.030740686 -0.035723925 0.05605424 0.055056144
000290 04 13 e3 bc 23 71 3f bb b0 c6 57 bd 72 be 51 bd
       -0.027719028 -0.0029211722 -0.052679718 -0.051207013
0002a0 1c 9d 01 bd 71 68 bd 3b 10 4d 65 bd 60 25 55 bc
       -0.03164397 0.0057802727 -0.055981696 -0.013009399
0002b0 8a 42 08 3c b6 88 d3 39 bb 26 dc ba ca 5c 33 3c
       0.008316645 0.00040346914 -0.001679621 0.010947416
0002c0 9a fd 7b 3d af 7a 5b bd 9c ea 39 bd ba 06 07 3d
       0.06152115 -0.053583797 -0.045389757 0.0329654
0002d0 e0 d3 9c 3c e0 49 58 3d 06 85 4a 3d c8 5c 3f bd
       0.019143999 0.052804828 0.049443267 -0.046719342
0002e0 90 97 68 bc 46 83 66 bd 64 5a ce 3c 3a 90 17 3d
       -0.014196292 -0.056277536 0.025189586 0.03700278
0002f0 a0 4c 4c bd ee 96 0c bd 9e bc 08 3d 18 79 79 3c
       -0.049877763 -0.034323625 0.033383004 0.015226625
000300 32 42 21 bd 26 01 20 ba 16 29 2a bd d8 12 c4 3c
       -0.03936977 -0.0006103687 -0.04154309 0.023934767
000310 3a bf 38 3c 60 97 88 3c 03 fb 54 bb 00 b5 5e 3b
       0.011276061 0.016673744 -0.0032498247 0.0033982396
000320 32 e2 3d bd b8 f8 6e 3d 40 70 1a bb af 3d bd 3a
       -0.046358295 0.058342665 -0.0023565441 0.0014437939
000330 b0 19 b9 3b 7a 07 72 bd dc d4 81 3c 64 26 5b 3d
       0.005648814 -0.05908916 0.01584857 0.05350341
000340 42 b5 13 3d 0e 77 13 3c 80 a3 94 3c c0 ef 35 3c
       0.036061533 0.009000553 0.01814437 0.011104524
000350 00 90 28 39 e0 33 e0 3c f8 a7 a8 3c b0 d3 a3 3c
       0.00016075373 0.027368486 0.020587906 0.019998401
000360 2a 99 1b bd 40 83 f9 bb b2 9c 1f 3d e1 67 29 3d
       -0.037987866 -0.007614523 0.038967796 0.041358832
000370 9c 20 10 bd 08 a7 a4 3c 84 0b 2c bd 6c 6f 85 3c
       -0.03518735 0.020099178 -0.04200317 0.016288482
000380 b4 3d af 3c 73 b7 18 bd d4 ca 3c 3d b8 c9 36 3d
       0.021391727 -0.037284326 0.04609187 0.044625968
000390 30 a0 36 3d a4 68 8c 3c 60 44 d0 3c 51 51 be ba
       0.04458636 0.01713974 0.025423229 -0.0014520084
0003a0 ba 9a 07 bd a0 ed 9b 3c 05 ec d9 bc 2c 9b 81 3c
       -0.033106543 0.019034207 -0.0266018 0.015821062
0003b0 7e 9c 04 bd b4 48 db bc d0 ab 49 bd e0 0e 8a bc
       -0.032375805 -0.026768066 -0.04923612 -0.016852796
0003c0 10 34 19 3d 68 2e 9f 3c 00 b8 a5 bb ac 7c 22 3d
       0.037403166 0.019431308 -0.005057335 0.039669678
0003d0 ba 7b 35 3d 14 bf dd bc 9a 78 3d bd 08 60 46 3d
       0.044307448 -0.027068652 -0.046257593 0.048431426
0003e0 96 32 68 bd e0 d1 46 bd 7c ff 51 bd ce 4a 26 bd
       -0.056688868 -0.048539996 -0.05126904 -0.040598683
0003f0 e0 75 2e bd af f2 d0 3a a4 c0 e2 bc 90 c9 43 3d
       -0.042592883 0.0015941466 -0.027679749 0.047799647
